{
  "nodes": [
    {
      "op": "null", 
      "param": {}, 
      "name": "data", 
      "inputs": [], 
      "backward_source_id": -1
    }, 
    {
      "op": "SliceChannel", 
      "param": {
        "axis": "1", 
        "num_outputs": "110", 
        "squeeze_axis": "True"
      }, 
      "name": "slicechannel0", 
      "inputs": [[0, 0]], 
      "backward_source_id": -1
    }, 
    {
      "op": "null", 
      "param": {}, 
      "name": "i2h_weight", 
      "inputs": [], 
      "backward_source_id": -1
    }, 
    {
      "op": "null", 
      "param": {}, 
      "name": "i2h_bias", 
      "inputs": [], 
      "backward_source_id": -1
    }, 
    {
      "op": "FullyConnected", 
      "param": {
        "no_bias": "False", 
        "num_hidden": "512"
      }, 
      "name": "t0_l0_i2h", 
      "inputs": [[1, 0], [2, 0], [3, 0]], 
      "backward_source_id": -1
    }, 
    {
      "op": "null", 
      "param": {}, 
      "name": "f_init_h", 
      "inputs": [], 
      "backward_source_id": -1
    }, 
    {
      "op": "null", 
      "param": {}, 
      "name": "h2h_weight", 
      "inputs": [], 
      "backward_source_id": -1
    }, 
    {
      "op": "null", 
      "param": {}, 
      "name": "h2h_bias", 
      "inputs": [], 
      "backward_source_id": -1
    }, 
    {
      "op": "FullyConnected", 
      "param": {
        "no_bias": "False", 
        "num_hidden": "512"
      }, 
      "name": "t0_l0_h2h", 
      "inputs": [[5, 0], [6, 0], [7, 0]], 
      "backward_source_id": -1
    }, 
    {
      "op": "_Plus", 
      "param": {}, 
      "name": "_plus0", 
      "inputs": [[4, 0], [8, 0]], 
      "backward_source_id": -1
    }, 
    {
      "op": "SliceChannel", 
      "param": {
        "axis": "1", 
        "num_outputs": "4", 
        "squeeze_axis": "False"
      }, 
      "name": "t0_l0_slice", 
      "inputs": [[9, 0]], 
      "backward_source_id": -1
    }, 
    {
      "op": "Activation", 
      "param": {"act_type": "sigmoid"}, 
      "name": "activation3", 
      "inputs": [[10, 3]], 
      "backward_source_id": -1
    }, 
    {
      "op": "Activation", 
      "param": {"act_type": "sigmoid"}, 
      "name": "activation2", 
      "inputs": [[10, 2]], 
      "backward_source_id": -1
    }, 
    {
      "op": "null", 
      "param": {}, 
      "name": "f_init_c", 
      "inputs": [], 
      "backward_source_id": -1
    }, 
    {
      "op": "_Mul", 
      "param": {}, 
      "name": "_mul0", 
      "inputs": [[12, 0], [13, 0]], 
      "backward_source_id": -1
    }, 
    {
      "op": "Activation", 
      "param": {"act_type": "sigmoid"}, 
      "name": "activation0", 
      "inputs": [[10, 0]], 
      "backward_source_id": -1
    }, 
    {
      "op": "Activation", 
      "param": {"act_type": "tanh"}, 
      "name": "activation1", 
      "inputs": [[10, 1]], 
      "backward_source_id": -1
    }, 
    {
      "op": "_Mul", 
      "param": {}, 
      "name": "_mul1", 
      "inputs": [[15, 0], [16, 0]], 
      "backward_source_id": -1
    }, 
    {
      "op": "_Plus", 
      "param": {}, 
      "name": "_plus1", 
      "inputs": [[14, 0], [17, 0]], 
      "backward_source_id": -1
    }, 
    {
      "op": "Activation", 
      "param": {"act_type": "tanh"}, 
      "name": "activation4", 
      "inputs": [[18, 0]], 
      "backward_source_id": -1
    }, 
    {
      "op": "_Mul", 
      "param": {}, 
      "name": "_mul2", 
      "inputs": [[11, 0], [19, 0]], 
      "backward_source_id": -1
    }, 
    {
      "op": "FullyConnected", 
      "param": {
        "no_bias": "False", 
        "num_hidden": "512"
      }, 
      "name": "t0_l1_i2h", 
      "inputs": [[1, 0], [2, 0], [3, 0]], 
      "backward_source_id": -1
    }, 
    {
      "op": "FullyConnected", 
      "param": {
        "no_bias": "False", 
        "num_hidden": "512"
      }, 
      "name": "t1_l1_i2h", 
      "inputs": [[1, 1], [2, 0], [3, 0]], 
      "backward_source_id": -1
    }, 
    {
      "op": "FullyConnected", 
      "param": {
        "no_bias": "False", 
        "num_hidden": "512"
      }, 
      "name": "t2_l1_i2h", 
      "inputs": [[1, 2], [2, 0], [3, 0]], 
      "backward_source_id": -1
    }, 
    {
      "op": "FullyConnected", 
      "param": {
        "no_bias": "False", 
        "num_hidden": "512"
      }, 
      "name": "t3_l1_i2h", 
      "inputs": [[1, 3], [2, 0], [3, 0]], 
      "backward_source_id": -1
    }, 
    {
      "op": "FullyConnected", 
      "param": {
        "no_bias": "False", 
        "num_hidden": "512"
      }, 
      "name": "t4_l1_i2h", 
      "inputs": [[1, 4], [2, 0], [3, 0]], 
      "backward_source_id": -1
    }, 
    {
      "op": "FullyConnected", 
      "param": {
        "no_bias": "False", 
        "num_hidden": "512"
      }, 
      "name": "t5_l1_i2h", 
      "inputs": [[1, 5], [2, 0], [3, 0]], 
      "backward_source_id": -1
    }, 
    {
      "op": "FullyConnected", 
      "param": {
        "no_bias": "False", 
        "num_hidden": "512"
      }, 
      "name": "t6_l1_i2h", 
      "inputs": [[1, 6], [2, 0], [3, 0]], 
      "backward_source_id": -1
    }, 
    {
      "op": "FullyConnected", 
      "param": {
        "no_bias": "False", 
        "num_hidden": "512"
      }, 
      "name": "t7_l1_i2h", 
      "inputs": [[1, 7], [2, 0], [3, 0]], 
      "backward_source_id": -1
    }, 
    {
      "op": "FullyConnected", 
      "param": {
        "no_bias": "False", 
        "num_hidden": "512"
      }, 
      "name": "t8_l1_i2h", 
      "inputs": [[1, 8], [2, 0], [3, 0]], 
      "backward_source_id": -1
    }, 
    {
      "op": "FullyConnected", 
      "param": {
        "no_bias": "False", 
        "num_hidden": "512"
      }, 
      "name": "t9_l1_i2h", 
      "inputs": [[1, 9], [2, 0], [3, 0]], 
      "backward_source_id": -1
    }, 
    {
      "op": "FullyConnected", 
      "param": {
        "no_bias": "False", 
        "num_hidden": "512"
      }, 
      "name": "t10_l1_i2h", 
      "inputs": [[1, 10], [2, 0], [3, 0]], 
      "backward_source_id": -1
    }, 
    {
      "op": "FullyConnected", 
      "param": {
        "no_bias": "False", 
        "num_hidden": "512"
      }, 
      "name": "t11_l1_i2h", 
      "inputs": [[1, 11], [2, 0], [3, 0]], 
      "backward_source_id": -1
    }, 
    {
      "op": "FullyConnected", 
      "param": {
        "no_bias": "False", 
        "num_hidden": "512"
      }, 
      "name": "t12_l1_i2h", 
      "inputs": [[1, 12], [2, 0], [3, 0]], 
      "backward_source_id": -1
    }, 
    {
      "op": "FullyConnected", 
      "param": {
        "no_bias": "False", 
        "num_hidden": "512"
      }, 
      "name": "t13_l1_i2h", 
      "inputs": [[1, 13], [2, 0], [3, 0]], 
      "backward_source_id": -1
    }, 
    {
      "op": "FullyConnected", 
      "param": {
        "no_bias": "False", 
        "num_hidden": "512"
      }, 
      "name": "t14_l1_i2h", 
      "inputs": [[1, 14], [2, 0], [3, 0]], 
      "backward_source_id": -1
    }, 
    {
      "op": "FullyConnected", 
      "param": {
        "no_bias": "False", 
        "num_hidden": "512"
      }, 
      "name": "t15_l1_i2h", 
      "inputs": [[1, 15], [2, 0], [3, 0]], 
      "backward_source_id": -1
    }, 
    {
      "op": "FullyConnected", 
      "param": {
        "no_bias": "False", 
        "num_hidden": "512"
      }, 
      "name": "t16_l1_i2h", 
      "inputs": [[1, 16], [2, 0], [3, 0]], 
      "backward_source_id": -1
    }, 
    {
      "op": "FullyConnected", 
      "param": {
        "no_bias": "False", 
        "num_hidden": "512"
      }, 
      "name": "t17_l1_i2h", 
      "inputs": [[1, 17], [2, 0], [3, 0]], 
      "backward_source_id": -1
    }, 
    {
      "op": "FullyConnected", 
      "param": {
        "no_bias": "False", 
        "num_hidden": "512"
      }, 
      "name": "t18_l1_i2h", 
      "inputs": [[1, 18], [2, 0], [3, 0]], 
      "backward_source_id": -1
    }, 
    {
      "op": "FullyConnected", 
      "param": {
        "no_bias": "False", 
        "num_hidden": "512"
      }, 
      "name": "t19_l1_i2h", 
      "inputs": [[1, 19], [2, 0], [3, 0]], 
      "backward_source_id": -1
    }, 
    {
      "op": "FullyConnected", 
      "param": {
        "no_bias": "False", 
        "num_hidden": "512"
      }, 
      "name": "t20_l1_i2h", 
      "inputs": [[1, 20], [2, 0], [3, 0]], 
      "backward_source_id": -1
    }, 
    {
      "op": "FullyConnected", 
      "param": {
        "no_bias": "False", 
        "num_hidden": "512"
      }, 
      "name": "t21_l1_i2h", 
      "inputs": [[1, 21], [2, 0], [3, 0]], 
      "backward_source_id": -1
    }, 
    {
      "op": "FullyConnected", 
      "param": {
        "no_bias": "False", 
        "num_hidden": "512"
      }, 
      "name": "t22_l1_i2h", 
      "inputs": [[1, 22], [2, 0], [3, 0]], 
      "backward_source_id": -1
    }, 
    {
      "op": "FullyConnected", 
      "param": {
        "no_bias": "False", 
        "num_hidden": "512"
      }, 
      "name": "t23_l1_i2h", 
      "inputs": [[1, 23], [2, 0], [3, 0]], 
      "backward_source_id": -1
    }, 
    {
      "op": "FullyConnected", 
      "param": {
        "no_bias": "False", 
        "num_hidden": "512"
      }, 
      "name": "t24_l1_i2h", 
      "inputs": [[1, 24], [2, 0], [3, 0]], 
      "backward_source_id": -1
    }, 
    {
      "op": "FullyConnected", 
      "param": {
        "no_bias": "False", 
        "num_hidden": "512"
      }, 
      "name": "t25_l1_i2h", 
      "inputs": [[1, 25], [2, 0], [3, 0]], 
      "backward_source_id": -1
    }, 
    {
      "op": "FullyConnected", 
      "param": {
        "no_bias": "False", 
        "num_hidden": "512"
      }, 
      "name": "t26_l1_i2h", 
      "inputs": [[1, 26], [2, 0], [3, 0]], 
      "backward_source_id": -1
    }, 
    {
      "op": "FullyConnected", 
      "param": {
        "no_bias": "False", 
        "num_hidden": "512"
      }, 
      "name": "t27_l1_i2h", 
      "inputs": [[1, 27], [2, 0], [3, 0]], 
      "backward_source_id": -1
    }, 
    {
      "op": "FullyConnected", 
      "param": {
        "no_bias": "False", 
        "num_hidden": "512"
      }, 
      "name": "t28_l1_i2h", 
      "inputs": [[1, 28], [2, 0], [3, 0]], 
      "backward_source_id": -1
    }, 
    {
      "op": "FullyConnected", 
      "param": {
        "no_bias": "False", 
        "num_hidden": "512"
      }, 
      "name": "t29_l1_i2h", 
      "inputs": [[1, 29], [2, 0], [3, 0]], 
      "backward_source_id": -1
    }, 
    {
      "op": "FullyConnected", 
      "param": {
        "no_bias": "False", 
        "num_hidden": "512"
      }, 
      "name": "t30_l1_i2h", 
      "inputs": [[1, 30], [2, 0], [3, 0]], 
      "backward_source_id": -1
    }, 
    {
      "op": "FullyConnected", 
      "param": {
        "no_bias": "False", 
        "num_hidden": "512"
      }, 
      "name": "t31_l1_i2h", 
      "inputs": [[1, 31], [2, 0], [3, 0]], 
      "backward_source_id": -1
    }, 
    {
      "op": "FullyConnected", 
      "param": {
        "no_bias": "False", 
        "num_hidden": "512"
      }, 
      "name": "t32_l1_i2h", 
      "inputs": [[1, 32], [2, 0], [3, 0]], 
      "backward_source_id": -1
    }, 
    {
      "op": "FullyConnected", 
      "param": {
        "no_bias": "False", 
        "num_hidden": "512"
      }, 
      "name": "t33_l1_i2h", 
      "inputs": [[1, 33], [2, 0], [3, 0]], 
      "backward_source_id": -1
    }, 
    {
      "op": "FullyConnected", 
      "param": {
        "no_bias": "False", 
        "num_hidden": "512"
      }, 
      "name": "t34_l1_i2h", 
      "inputs": [[1, 34], [2, 0], [3, 0]], 
      "backward_source_id": -1
    }, 
    {
      "op": "FullyConnected", 
      "param": {
        "no_bias": "False", 
        "num_hidden": "512"
      }, 
      "name": "t35_l1_i2h", 
      "inputs": [[1, 35], [2, 0], [3, 0]], 
      "backward_source_id": -1
    }, 
    {
      "op": "FullyConnected", 
      "param": {
        "no_bias": "False", 
        "num_hidden": "512"
      }, 
      "name": "t36_l1_i2h", 
      "inputs": [[1, 36], [2, 0], [3, 0]], 
      "backward_source_id": -1
    }, 
    {
      "op": "FullyConnected", 
      "param": {
        "no_bias": "False", 
        "num_hidden": "512"
      }, 
      "name": "t37_l1_i2h", 
      "inputs": [[1, 37], [2, 0], [3, 0]], 
      "backward_source_id": -1
    }, 
    {
      "op": "FullyConnected", 
      "param": {
        "no_bias": "False", 
        "num_hidden": "512"
      }, 
      "name": "t38_l1_i2h", 
      "inputs": [[1, 38], [2, 0], [3, 0]], 
      "backward_source_id": -1
    }, 
    {
      "op": "FullyConnected", 
      "param": {
        "no_bias": "False", 
        "num_hidden": "512"
      }, 
      "name": "t39_l1_i2h", 
      "inputs": [[1, 39], [2, 0], [3, 0]], 
      "backward_source_id": -1
    }, 
    {
      "op": "FullyConnected", 
      "param": {
        "no_bias": "False", 
        "num_hidden": "512"
      }, 
      "name": "t40_l1_i2h", 
      "inputs": [[1, 40], [2, 0], [3, 0]], 
      "backward_source_id": -1
    }, 
    {
      "op": "FullyConnected", 
      "param": {
        "no_bias": "False", 
        "num_hidden": "512"
      }, 
      "name": "t41_l1_i2h", 
      "inputs": [[1, 41], [2, 0], [3, 0]], 
      "backward_source_id": -1
    }, 
    {
      "op": "FullyConnected", 
      "param": {
        "no_bias": "False", 
        "num_hidden": "512"
      }, 
      "name": "t42_l1_i2h", 
      "inputs": [[1, 42], [2, 0], [3, 0]], 
      "backward_source_id": -1
    }, 
    {
      "op": "FullyConnected", 
      "param": {
        "no_bias": "False", 
        "num_hidden": "512"
      }, 
      "name": "t43_l1_i2h", 
      "inputs": [[1, 43], [2, 0], [3, 0]], 
      "backward_source_id": -1
    }, 
    {
      "op": "FullyConnected", 
      "param": {
        "no_bias": "False", 
        "num_hidden": "512"
      }, 
      "name": "t44_l1_i2h", 
      "inputs": [[1, 44], [2, 0], [3, 0]], 
      "backward_source_id": -1
    }, 
    {
      "op": "FullyConnected", 
      "param": {
        "no_bias": "False", 
        "num_hidden": "512"
      }, 
      "name": "t45_l1_i2h", 
      "inputs": [[1, 45], [2, 0], [3, 0]], 
      "backward_source_id": -1
    }, 
    {
      "op": "FullyConnected", 
      "param": {
        "no_bias": "False", 
        "num_hidden": "512"
      }, 
      "name": "t46_l1_i2h", 
      "inputs": [[1, 46], [2, 0], [3, 0]], 
      "backward_source_id": -1
    }, 
    {
      "op": "FullyConnected", 
      "param": {
        "no_bias": "False", 
        "num_hidden": "512"
      }, 
      "name": "t47_l1_i2h", 
      "inputs": [[1, 47], [2, 0], [3, 0]], 
      "backward_source_id": -1
    }, 
    {
      "op": "FullyConnected", 
      "param": {
        "no_bias": "False", 
        "num_hidden": "512"
      }, 
      "name": "t48_l1_i2h", 
      "inputs": [[1, 48], [2, 0], [3, 0]], 
      "backward_source_id": -1
    }, 
    {
      "op": "FullyConnected", 
      "param": {
        "no_bias": "False", 
        "num_hidden": "512"
      }, 
      "name": "t49_l1_i2h", 
      "inputs": [[1, 49], [2, 0], [3, 0]], 
      "backward_source_id": -1
    }, 
    {
      "op": "FullyConnected", 
      "param": {
        "no_bias": "False", 
        "num_hidden": "512"
      }, 
      "name": "t50_l1_i2h", 
      "inputs": [[1, 50], [2, 0], [3, 0]], 
      "backward_source_id": -1
    }, 
    {
      "op": "FullyConnected", 
      "param": {
        "no_bias": "False", 
        "num_hidden": "512"
      }, 
      "name": "t51_l1_i2h", 
      "inputs": [[1, 51], [2, 0], [3, 0]], 
      "backward_source_id": -1
    }, 
    {
      "op": "FullyConnected", 
      "param": {
        "no_bias": "False", 
        "num_hidden": "512"
      }, 
      "name": "t52_l1_i2h", 
      "inputs": [[1, 52], [2, 0], [3, 0]], 
      "backward_source_id": -1
    }, 
    {
      "op": "FullyConnected", 
      "param": {
        "no_bias": "False", 
        "num_hidden": "512"
      }, 
      "name": "t53_l1_i2h", 
      "inputs": [[1, 53], [2, 0], [3, 0]], 
      "backward_source_id": -1
    }, 
    {
      "op": "FullyConnected", 
      "param": {
        "no_bias": "False", 
        "num_hidden": "512"
      }, 
      "name": "t54_l1_i2h", 
      "inputs": [[1, 54], [2, 0], [3, 0]], 
      "backward_source_id": -1
    }, 
    {
      "op": "FullyConnected", 
      "param": {
        "no_bias": "False", 
        "num_hidden": "512"
      }, 
      "name": "t55_l1_i2h", 
      "inputs": [[1, 55], [2, 0], [3, 0]], 
      "backward_source_id": -1
    }, 
    {
      "op": "FullyConnected", 
      "param": {
        "no_bias": "False", 
        "num_hidden": "512"
      }, 
      "name": "t56_l1_i2h", 
      "inputs": [[1, 56], [2, 0], [3, 0]], 
      "backward_source_id": -1
    }, 
    {
      "op": "FullyConnected", 
      "param": {
        "no_bias": "False", 
        "num_hidden": "512"
      }, 
      "name": "t57_l1_i2h", 
      "inputs": [[1, 57], [2, 0], [3, 0]], 
      "backward_source_id": -1
    }, 
    {
      "op": "FullyConnected", 
      "param": {
        "no_bias": "False", 
        "num_hidden": "512"
      }, 
      "name": "t58_l1_i2h", 
      "inputs": [[1, 58], [2, 0], [3, 0]], 
      "backward_source_id": -1
    }, 
    {
      "op": "FullyConnected", 
      "param": {
        "no_bias": "False", 
        "num_hidden": "512"
      }, 
      "name": "t59_l1_i2h", 
      "inputs": [[1, 59], [2, 0], [3, 0]], 
      "backward_source_id": -1
    }, 
    {
      "op": "FullyConnected", 
      "param": {
        "no_bias": "False", 
        "num_hidden": "512"
      }, 
      "name": "t60_l1_i2h", 
      "inputs": [[1, 60], [2, 0], [3, 0]], 
      "backward_source_id": -1
    }, 
    {
      "op": "FullyConnected", 
      "param": {
        "no_bias": "False", 
        "num_hidden": "512"
      }, 
      "name": "t61_l1_i2h", 
      "inputs": [[1, 61], [2, 0], [3, 0]], 
      "backward_source_id": -1
    }, 
    {
      "op": "FullyConnected", 
      "param": {
        "no_bias": "False", 
        "num_hidden": "512"
      }, 
      "name": "t62_l1_i2h", 
      "inputs": [[1, 62], [2, 0], [3, 0]], 
      "backward_source_id": -1
    }, 
    {
      "op": "FullyConnected", 
      "param": {
        "no_bias": "False", 
        "num_hidden": "512"
      }, 
      "name": "t63_l1_i2h", 
      "inputs": [[1, 63], [2, 0], [3, 0]], 
      "backward_source_id": -1
    }, 
    {
      "op": "FullyConnected", 
      "param": {
        "no_bias": "False", 
        "num_hidden": "512"
      }, 
      "name": "t64_l1_i2h", 
      "inputs": [[1, 64], [2, 0], [3, 0]], 
      "backward_source_id": -1
    }, 
    {
      "op": "FullyConnected", 
      "param": {
        "no_bias": "False", 
        "num_hidden": "512"
      }, 
      "name": "t65_l1_i2h", 
      "inputs": [[1, 65], [2, 0], [3, 0]], 
      "backward_source_id": -1
    }, 
    {
      "op": "FullyConnected", 
      "param": {
        "no_bias": "False", 
        "num_hidden": "512"
      }, 
      "name": "t66_l1_i2h", 
      "inputs": [[1, 66], [2, 0], [3, 0]], 
      "backward_source_id": -1
    }, 
    {
      "op": "FullyConnected", 
      "param": {
        "no_bias": "False", 
        "num_hidden": "512"
      }, 
      "name": "t67_l1_i2h", 
      "inputs": [[1, 67], [2, 0], [3, 0]], 
      "backward_source_id": -1
    }, 
    {
      "op": "FullyConnected", 
      "param": {
        "no_bias": "False", 
        "num_hidden": "512"
      }, 
      "name": "t68_l1_i2h", 
      "inputs": [[1, 68], [2, 0], [3, 0]], 
      "backward_source_id": -1
    }, 
    {
      "op": "FullyConnected", 
      "param": {
        "no_bias": "False", 
        "num_hidden": "512"
      }, 
      "name": "t69_l1_i2h", 
      "inputs": [[1, 69], [2, 0], [3, 0]], 
      "backward_source_id": -1
    }, 
    {
      "op": "FullyConnected", 
      "param": {
        "no_bias": "False", 
        "num_hidden": "512"
      }, 
      "name": "t70_l1_i2h", 
      "inputs": [[1, 70], [2, 0], [3, 0]], 
      "backward_source_id": -1
    }, 
    {
      "op": "FullyConnected", 
      "param": {
        "no_bias": "False", 
        "num_hidden": "512"
      }, 
      "name": "t71_l1_i2h", 
      "inputs": [[1, 71], [2, 0], [3, 0]], 
      "backward_source_id": -1
    }, 
    {
      "op": "FullyConnected", 
      "param": {
        "no_bias": "False", 
        "num_hidden": "512"
      }, 
      "name": "t72_l1_i2h", 
      "inputs": [[1, 72], [2, 0], [3, 0]], 
      "backward_source_id": -1
    }, 
    {
      "op": "FullyConnected", 
      "param": {
        "no_bias": "False", 
        "num_hidden": "512"
      }, 
      "name": "t73_l1_i2h", 
      "inputs": [[1, 73], [2, 0], [3, 0]], 
      "backward_source_id": -1
    }, 
    {
      "op": "FullyConnected", 
      "param": {
        "no_bias": "False", 
        "num_hidden": "512"
      }, 
      "name": "t74_l1_i2h", 
      "inputs": [[1, 74], [2, 0], [3, 0]], 
      "backward_source_id": -1
    }, 
    {
      "op": "FullyConnected", 
      "param": {
        "no_bias": "False", 
        "num_hidden": "512"
      }, 
      "name": "t75_l1_i2h", 
      "inputs": [[1, 75], [2, 0], [3, 0]], 
      "backward_source_id": -1
    }, 
    {
      "op": "FullyConnected", 
      "param": {
        "no_bias": "False", 
        "num_hidden": "512"
      }, 
      "name": "t76_l1_i2h", 
      "inputs": [[1, 76], [2, 0], [3, 0]], 
      "backward_source_id": -1
    }, 
    {
      "op": "FullyConnected", 
      "param": {
        "no_bias": "False", 
        "num_hidden": "512"
      }, 
      "name": "t77_l1_i2h", 
      "inputs": [[1, 77], [2, 0], [3, 0]], 
      "backward_source_id": -1
    }, 
    {
      "op": "FullyConnected", 
      "param": {
        "no_bias": "False", 
        "num_hidden": "512"
      }, 
      "name": "t78_l1_i2h", 
      "inputs": [[1, 78], [2, 0], [3, 0]], 
      "backward_source_id": -1
    }, 
    {
      "op": "FullyConnected", 
      "param": {
        "no_bias": "False", 
        "num_hidden": "512"
      }, 
      "name": "t79_l1_i2h", 
      "inputs": [[1, 79], [2, 0], [3, 0]], 
      "backward_source_id": -1
    }, 
    {
      "op": "FullyConnected", 
      "param": {
        "no_bias": "False", 
        "num_hidden": "512"
      }, 
      "name": "t80_l1_i2h", 
      "inputs": [[1, 80], [2, 0], [3, 0]], 
      "backward_source_id": -1
    }, 
    {
      "op": "FullyConnected", 
      "param": {
        "no_bias": "False", 
        "num_hidden": "512"
      }, 
      "name": "t81_l1_i2h", 
      "inputs": [[1, 81], [2, 0], [3, 0]], 
      "backward_source_id": -1
    }, 
    {
      "op": "FullyConnected", 
      "param": {
        "no_bias": "False", 
        "num_hidden": "512"
      }, 
      "name": "t82_l1_i2h", 
      "inputs": [[1, 82], [2, 0], [3, 0]], 
      "backward_source_id": -1
    }, 
    {
      "op": "FullyConnected", 
      "param": {
        "no_bias": "False", 
        "num_hidden": "512"
      }, 
      "name": "t83_l1_i2h", 
      "inputs": [[1, 83], [2, 0], [3, 0]], 
      "backward_source_id": -1
    }, 
    {
      "op": "FullyConnected", 
      "param": {
        "no_bias": "False", 
        "num_hidden": "512"
      }, 
      "name": "t84_l1_i2h", 
      "inputs": [[1, 84], [2, 0], [3, 0]], 
      "backward_source_id": -1
    }, 
    {
      "op": "FullyConnected", 
      "param": {
        "no_bias": "False", 
        "num_hidden": "512"
      }, 
      "name": "t85_l1_i2h", 
      "inputs": [[1, 85], [2, 0], [3, 0]], 
      "backward_source_id": -1
    }, 
    {
      "op": "FullyConnected", 
      "param": {
        "no_bias": "False", 
        "num_hidden": "512"
      }, 
      "name": "t86_l1_i2h", 
      "inputs": [[1, 86], [2, 0], [3, 0]], 
      "backward_source_id": -1
    }, 
    {
      "op": "FullyConnected", 
      "param": {
        "no_bias": "False", 
        "num_hidden": "512"
      }, 
      "name": "t87_l1_i2h", 
      "inputs": [[1, 87], [2, 0], [3, 0]], 
      "backward_source_id": -1
    }, 
    {
      "op": "FullyConnected", 
      "param": {
        "no_bias": "False", 
        "num_hidden": "512"
      }, 
      "name": "t88_l1_i2h", 
      "inputs": [[1, 88], [2, 0], [3, 0]], 
      "backward_source_id": -1
    }, 
    {
      "op": "FullyConnected", 
      "param": {
        "no_bias": "False", 
        "num_hidden": "512"
      }, 
      "name": "t89_l1_i2h", 
      "inputs": [[1, 89], [2, 0], [3, 0]], 
      "backward_source_id": -1
    }, 
    {
      "op": "FullyConnected", 
      "param": {
        "no_bias": "False", 
        "num_hidden": "512"
      }, 
      "name": "t90_l1_i2h", 
      "inputs": [[1, 90], [2, 0], [3, 0]], 
      "backward_source_id": -1
    }, 
    {
      "op": "FullyConnected", 
      "param": {
        "no_bias": "False", 
        "num_hidden": "512"
      }, 
      "name": "t91_l1_i2h", 
      "inputs": [[1, 91], [2, 0], [3, 0]], 
      "backward_source_id": -1
    }, 
    {
      "op": "FullyConnected", 
      "param": {
        "no_bias": "False", 
        "num_hidden": "512"
      }, 
      "name": "t92_l1_i2h", 
      "inputs": [[1, 92], [2, 0], [3, 0]], 
      "backward_source_id": -1
    }, 
    {
      "op": "FullyConnected", 
      "param": {
        "no_bias": "False", 
        "num_hidden": "512"
      }, 
      "name": "t93_l1_i2h", 
      "inputs": [[1, 93], [2, 0], [3, 0]], 
      "backward_source_id": -1
    }, 
    {
      "op": "FullyConnected", 
      "param": {
        "no_bias": "False", 
        "num_hidden": "512"
      }, 
      "name": "t94_l1_i2h", 
      "inputs": [[1, 94], [2, 0], [3, 0]], 
      "backward_source_id": -1
    }, 
    {
      "op": "FullyConnected", 
      "param": {
        "no_bias": "False", 
        "num_hidden": "512"
      }, 
      "name": "t95_l1_i2h", 
      "inputs": [[1, 95], [2, 0], [3, 0]], 
      "backward_source_id": -1
    }, 
    {
      "op": "FullyConnected", 
      "param": {
        "no_bias": "False", 
        "num_hidden": "512"
      }, 
      "name": "t96_l1_i2h", 
      "inputs": [[1, 96], [2, 0], [3, 0]], 
      "backward_source_id": -1
    }, 
    {
      "op": "FullyConnected", 
      "param": {
        "no_bias": "False", 
        "num_hidden": "512"
      }, 
      "name": "t97_l1_i2h", 
      "inputs": [[1, 97], [2, 0], [3, 0]], 
      "backward_source_id": -1
    }, 
    {
      "op": "FullyConnected", 
      "param": {
        "no_bias": "False", 
        "num_hidden": "512"
      }, 
      "name": "t98_l1_i2h", 
      "inputs": [[1, 98], [2, 0], [3, 0]], 
      "backward_source_id": -1
    }, 
    {
      "op": "FullyConnected", 
      "param": {
        "no_bias": "False", 
        "num_hidden": "512"
      }, 
      "name": "t99_l1_i2h", 
      "inputs": [[1, 99], [2, 0], [3, 0]], 
      "backward_source_id": -1
    }, 
    {
      "op": "FullyConnected", 
      "param": {
        "no_bias": "False", 
        "num_hidden": "512"
      }, 
      "name": "t100_l1_i2h", 
      "inputs": [[1, 100], [2, 0], [3, 0]], 
      "backward_source_id": -1
    }, 
    {
      "op": "FullyConnected", 
      "param": {
        "no_bias": "False", 
        "num_hidden": "512"
      }, 
      "name": "t101_l1_i2h", 
      "inputs": [[1, 101], [2, 0], [3, 0]], 
      "backward_source_id": -1
    }, 
    {
      "op": "FullyConnected", 
      "param": {
        "no_bias": "False", 
        "num_hidden": "512"
      }, 
      "name": "t102_l1_i2h", 
      "inputs": [[1, 102], [2, 0], [3, 0]], 
      "backward_source_id": -1
    }, 
    {
      "op": "FullyConnected", 
      "param": {
        "no_bias": "False", 
        "num_hidden": "512"
      }, 
      "name": "t103_l1_i2h", 
      "inputs": [[1, 103], [2, 0], [3, 0]], 
      "backward_source_id": -1
    }, 
    {
      "op": "FullyConnected", 
      "param": {
        "no_bias": "False", 
        "num_hidden": "512"
      }, 
      "name": "t104_l1_i2h", 
      "inputs": [[1, 104], [2, 0], [3, 0]], 
      "backward_source_id": -1
    }, 
    {
      "op": "FullyConnected", 
      "param": {
        "no_bias": "False", 
        "num_hidden": "512"
      }, 
      "name": "t105_l1_i2h", 
      "inputs": [[1, 105], [2, 0], [3, 0]], 
      "backward_source_id": -1
    }, 
    {
      "op": "FullyConnected", 
      "param": {
        "no_bias": "False", 
        "num_hidden": "512"
      }, 
      "name": "t106_l1_i2h", 
      "inputs": [[1, 106], [2, 0], [3, 0]], 
      "backward_source_id": -1
    }, 
    {
      "op": "FullyConnected", 
      "param": {
        "no_bias": "False", 
        "num_hidden": "512"
      }, 
      "name": "t107_l1_i2h", 
      "inputs": [[1, 107], [2, 0], [3, 0]], 
      "backward_source_id": -1
    }, 
    {
      "op": "FullyConnected", 
      "param": {
        "no_bias": "False", 
        "num_hidden": "512"
      }, 
      "name": "t108_l1_i2h", 
      "inputs": [[1, 108], [2, 0], [3, 0]], 
      "backward_source_id": -1
    }, 
    {
      "op": "FullyConnected", 
      "param": {
        "no_bias": "False", 
        "num_hidden": "512"
      }, 
      "name": "t109_l1_i2h", 
      "inputs": [[1, 109], [2, 0], [3, 0]], 
      "backward_source_id": -1
    }, 
    {
      "op": "null", 
      "param": {}, 
      "name": "b_init_h", 
      "inputs": [], 
      "backward_source_id": -1
    }, 
    {
      "op": "FullyConnected", 
      "param": {
        "no_bias": "False", 
        "num_hidden": "512"
      }, 
      "name": "t109_l1_h2h", 
      "inputs": [[131, 0], [6, 0], [7, 0]], 
      "backward_source_id": -1
    }, 
    {
      "op": "_Plus", 
      "param": {}, 
      "name": "_plus220", 
      "inputs": [[130, 0], [132, 0]], 
      "backward_source_id": -1
    }, 
    {
      "op": "SliceChannel", 
      "param": {
        "axis": "1", 
        "num_outputs": "4", 
        "squeeze_axis": "False"
      }, 
      "name": "t109_l1_slice", 
      "inputs": [[133, 0]], 
      "backward_source_id": -1
    }, 
    {
      "op": "Activation", 
      "param": {"act_type": "sigmoid"}, 
      "name": "activation553", 
      "inputs": [[134, 3]], 
      "backward_source_id": -1
    }, 
    {
      "op": "Activation", 
      "param": {"act_type": "sigmoid"}, 
      "name": "activation552", 
      "inputs": [[134, 2]], 
      "backward_source_id": -1
    }, 
    {
      "op": "null", 
      "param": {}, 
      "name": "b_init_c", 
      "inputs": [], 
      "backward_source_id": -1
    }, 
    {
      "op": "_Mul", 
      "param": {}, 
      "name": "_mul330", 
      "inputs": [[136, 0], [137, 0]], 
      "backward_source_id": -1
    }, 
    {
      "op": "Activation", 
      "param": {"act_type": "sigmoid"}, 
      "name": "activation550", 
      "inputs": [[134, 0]], 
      "backward_source_id": -1
    }, 
    {
      "op": "Activation", 
      "param": {"act_type": "tanh"}, 
      "name": "activation551", 
      "inputs": [[134, 1]], 
      "backward_source_id": -1
    }, 
    {
      "op": "_Mul", 
      "param": {}, 
      "name": "_mul331", 
      "inputs": [[139, 0], [140, 0]], 
      "backward_source_id": -1
    }, 
    {
      "op": "_Plus", 
      "param": {}, 
      "name": "_plus221", 
      "inputs": [[138, 0], [141, 0]], 
      "backward_source_id": -1
    }, 
    {
      "op": "Activation", 
      "param": {"act_type": "tanh"}, 
      "name": "activation554", 
      "inputs": [[142, 0]], 
      "backward_source_id": -1
    }, 
    {
      "op": "_Mul", 
      "param": {}, 
      "name": "_mul332", 
      "inputs": [[135, 0], [143, 0]], 
      "backward_source_id": -1
    }, 
    {
      "op": "FullyConnected", 
      "param": {
        "no_bias": "False", 
        "num_hidden": "512"
      }, 
      "name": "t108_l1_h2h", 
      "inputs": [[144, 0], [6, 0], [7, 0]], 
      "backward_source_id": -1
    }, 
    {
      "op": "_Plus", 
      "param": {}, 
      "name": "_plus222", 
      "inputs": [[129, 0], [145, 0]], 
      "backward_source_id": -1
    }, 
    {
      "op": "SliceChannel", 
      "param": {
        "axis": "1", 
        "num_outputs": "4", 
        "squeeze_axis": "False"
      }, 
      "name": "t108_l1_slice", 
      "inputs": [[146, 0]], 
      "backward_source_id": -1
    }, 
    {
      "op": "Activation", 
      "param": {"act_type": "sigmoid"}, 
      "name": "activation558", 
      "inputs": [[147, 3]], 
      "backward_source_id": -1
    }, 
    {
      "op": "Activation", 
      "param": {"act_type": "sigmoid"}, 
      "name": "activation557", 
      "inputs": [[147, 2]], 
      "backward_source_id": -1
    }, 
    {
      "op": "_Mul", 
      "param": {}, 
      "name": "_mul333", 
      "inputs": [[149, 0], [142, 0]], 
      "backward_source_id": -1
    }, 
    {
      "op": "Activation", 
      "param": {"act_type": "sigmoid"}, 
      "name": "activation555", 
      "inputs": [[147, 0]], 
      "backward_source_id": -1
    }, 
    {
      "op": "Activation", 
      "param": {"act_type": "tanh"}, 
      "name": "activation556", 
      "inputs": [[147, 1]], 
      "backward_source_id": -1
    }, 
    {
      "op": "_Mul", 
      "param": {}, 
      "name": "_mul334", 
      "inputs": [[151, 0], [152, 0]], 
      "backward_source_id": -1
    }, 
    {
      "op": "_Plus", 
      "param": {}, 
      "name": "_plus223", 
      "inputs": [[150, 0], [153, 0]], 
      "backward_source_id": -1
    }, 
    {
      "op": "Activation", 
      "param": {"act_type": "tanh"}, 
      "name": "activation559", 
      "inputs": [[154, 0]], 
      "backward_source_id": -1
    }, 
    {
      "op": "_Mul", 
      "param": {}, 
      "name": "_mul335", 
      "inputs": [[148, 0], [155, 0]], 
      "backward_source_id": -1
    }, 
    {
      "op": "FullyConnected", 
      "param": {
        "no_bias": "False", 
        "num_hidden": "512"
      }, 
      "name": "t107_l1_h2h", 
      "inputs": [[156, 0], [6, 0], [7, 0]], 
      "backward_source_id": -1
    }, 
    {
      "op": "_Plus", 
      "param": {}, 
      "name": "_plus224", 
      "inputs": [[128, 0], [157, 0]], 
      "backward_source_id": -1
    }, 
    {
      "op": "SliceChannel", 
      "param": {
        "axis": "1", 
        "num_outputs": "4", 
        "squeeze_axis": "False"
      }, 
      "name": "t107_l1_slice", 
      "inputs": [[158, 0]], 
      "backward_source_id": -1
    }, 
    {
      "op": "Activation", 
      "param": {"act_type": "sigmoid"}, 
      "name": "activation563", 
      "inputs": [[159, 3]], 
      "backward_source_id": -1
    }, 
    {
      "op": "Activation", 
      "param": {"act_type": "sigmoid"}, 
      "name": "activation562", 
      "inputs": [[159, 2]], 
      "backward_source_id": -1
    }, 
    {
      "op": "_Mul", 
      "param": {}, 
      "name": "_mul336", 
      "inputs": [[161, 0], [154, 0]], 
      "backward_source_id": -1
    }, 
    {
      "op": "Activation", 
      "param": {"act_type": "sigmoid"}, 
      "name": "activation560", 
      "inputs": [[159, 0]], 
      "backward_source_id": -1
    }, 
    {
      "op": "Activation", 
      "param": {"act_type": "tanh"}, 
      "name": "activation561", 
      "inputs": [[159, 1]], 
      "backward_source_id": -1
    }, 
    {
      "op": "_Mul", 
      "param": {}, 
      "name": "_mul337", 
      "inputs": [[163, 0], [164, 0]], 
      "backward_source_id": -1
    }, 
    {
      "op": "_Plus", 
      "param": {}, 
      "name": "_plus225", 
      "inputs": [[162, 0], [165, 0]], 
      "backward_source_id": -1
    }, 
    {
      "op": "Activation", 
      "param": {"act_type": "tanh"}, 
      "name": "activation564", 
      "inputs": [[166, 0]], 
      "backward_source_id": -1
    }, 
    {
      "op": "_Mul", 
      "param": {}, 
      "name": "_mul338", 
      "inputs": [[160, 0], [167, 0]], 
      "backward_source_id": -1
    }, 
    {
      "op": "FullyConnected", 
      "param": {
        "no_bias": "False", 
        "num_hidden": "512"
      }, 
      "name": "t106_l1_h2h", 
      "inputs": [[168, 0], [6, 0], [7, 0]], 
      "backward_source_id": -1
    }, 
    {
      "op": "_Plus", 
      "param": {}, 
      "name": "_plus226", 
      "inputs": [[127, 0], [169, 0]], 
      "backward_source_id": -1
    }, 
    {
      "op": "SliceChannel", 
      "param": {
        "axis": "1", 
        "num_outputs": "4", 
        "squeeze_axis": "False"
      }, 
      "name": "t106_l1_slice", 
      "inputs": [[170, 0]], 
      "backward_source_id": -1
    }, 
    {
      "op": "Activation", 
      "param": {"act_type": "sigmoid"}, 
      "name": "activation568", 
      "inputs": [[171, 3]], 
      "backward_source_id": -1
    }, 
    {
      "op": "Activation", 
      "param": {"act_type": "sigmoid"}, 
      "name": "activation567", 
      "inputs": [[171, 2]], 
      "backward_source_id": -1
    }, 
    {
      "op": "_Mul", 
      "param": {}, 
      "name": "_mul339", 
      "inputs": [[173, 0], [166, 0]], 
      "backward_source_id": -1
    }, 
    {
      "op": "Activation", 
      "param": {"act_type": "sigmoid"}, 
      "name": "activation565", 
      "inputs": [[171, 0]], 
      "backward_source_id": -1
    }, 
    {
      "op": "Activation", 
      "param": {"act_type": "tanh"}, 
      "name": "activation566", 
      "inputs": [[171, 1]], 
      "backward_source_id": -1
    }, 
    {
      "op": "_Mul", 
      "param": {}, 
      "name": "_mul340", 
      "inputs": [[175, 0], [176, 0]], 
      "backward_source_id": -1
    }, 
    {
      "op": "_Plus", 
      "param": {}, 
      "name": "_plus227", 
      "inputs": [[174, 0], [177, 0]], 
      "backward_source_id": -1
    }, 
    {
      "op": "Activation", 
      "param": {"act_type": "tanh"}, 
      "name": "activation569", 
      "inputs": [[178, 0]], 
      "backward_source_id": -1
    }, 
    {
      "op": "_Mul", 
      "param": {}, 
      "name": "_mul341", 
      "inputs": [[172, 0], [179, 0]], 
      "backward_source_id": -1
    }, 
    {
      "op": "FullyConnected", 
      "param": {
        "no_bias": "False", 
        "num_hidden": "512"
      }, 
      "name": "t105_l1_h2h", 
      "inputs": [[180, 0], [6, 0], [7, 0]], 
      "backward_source_id": -1
    }, 
    {
      "op": "_Plus", 
      "param": {}, 
      "name": "_plus228", 
      "inputs": [[126, 0], [181, 0]], 
      "backward_source_id": -1
    }, 
    {
      "op": "SliceChannel", 
      "param": {
        "axis": "1", 
        "num_outputs": "4", 
        "squeeze_axis": "False"
      }, 
      "name": "t105_l1_slice", 
      "inputs": [[182, 0]], 
      "backward_source_id": -1
    }, 
    {
      "op": "Activation", 
      "param": {"act_type": "sigmoid"}, 
      "name": "activation573", 
      "inputs": [[183, 3]], 
      "backward_source_id": -1
    }, 
    {
      "op": "Activation", 
      "param": {"act_type": "sigmoid"}, 
      "name": "activation572", 
      "inputs": [[183, 2]], 
      "backward_source_id": -1
    }, 
    {
      "op": "_Mul", 
      "param": {}, 
      "name": "_mul342", 
      "inputs": [[185, 0], [178, 0]], 
      "backward_source_id": -1
    }, 
    {
      "op": "Activation", 
      "param": {"act_type": "sigmoid"}, 
      "name": "activation570", 
      "inputs": [[183, 0]], 
      "backward_source_id": -1
    }, 
    {
      "op": "Activation", 
      "param": {"act_type": "tanh"}, 
      "name": "activation571", 
      "inputs": [[183, 1]], 
      "backward_source_id": -1
    }, 
    {
      "op": "_Mul", 
      "param": {}, 
      "name": "_mul343", 
      "inputs": [[187, 0], [188, 0]], 
      "backward_source_id": -1
    }, 
    {
      "op": "_Plus", 
      "param": {}, 
      "name": "_plus229", 
      "inputs": [[186, 0], [189, 0]], 
      "backward_source_id": -1
    }, 
    {
      "op": "Activation", 
      "param": {"act_type": "tanh"}, 
      "name": "activation574", 
      "inputs": [[190, 0]], 
      "backward_source_id": -1
    }, 
    {
      "op": "_Mul", 
      "param": {}, 
      "name": "_mul344", 
      "inputs": [[184, 0], [191, 0]], 
      "backward_source_id": -1
    }, 
    {
      "op": "FullyConnected", 
      "param": {
        "no_bias": "False", 
        "num_hidden": "512"
      }, 
      "name": "t104_l1_h2h", 
      "inputs": [[192, 0], [6, 0], [7, 0]], 
      "backward_source_id": -1
    }, 
    {
      "op": "_Plus", 
      "param": {}, 
      "name": "_plus230", 
      "inputs": [[125, 0], [193, 0]], 
      "backward_source_id": -1
    }, 
    {
      "op": "SliceChannel", 
      "param": {
        "axis": "1", 
        "num_outputs": "4", 
        "squeeze_axis": "False"
      }, 
      "name": "t104_l1_slice", 
      "inputs": [[194, 0]], 
      "backward_source_id": -1
    }, 
    {
      "op": "Activation", 
      "param": {"act_type": "sigmoid"}, 
      "name": "activation578", 
      "inputs": [[195, 3]], 
      "backward_source_id": -1
    }, 
    {
      "op": "Activation", 
      "param": {"act_type": "sigmoid"}, 
      "name": "activation577", 
      "inputs": [[195, 2]], 
      "backward_source_id": -1
    }, 
    {
      "op": "_Mul", 
      "param": {}, 
      "name": "_mul345", 
      "inputs": [[197, 0], [190, 0]], 
      "backward_source_id": -1
    }, 
    {
      "op": "Activation", 
      "param": {"act_type": "sigmoid"}, 
      "name": "activation575", 
      "inputs": [[195, 0]], 
      "backward_source_id": -1
    }, 
    {
      "op": "Activation", 
      "param": {"act_type": "tanh"}, 
      "name": "activation576", 
      "inputs": [[195, 1]], 
      "backward_source_id": -1
    }, 
    {
      "op": "_Mul", 
      "param": {}, 
      "name": "_mul346", 
      "inputs": [[199, 0], [200, 0]], 
      "backward_source_id": -1
    }, 
    {
      "op": "_Plus", 
      "param": {}, 
      "name": "_plus231", 
      "inputs": [[198, 0], [201, 0]], 
      "backward_source_id": -1
    }, 
    {
      "op": "Activation", 
      "param": {"act_type": "tanh"}, 
      "name": "activation579", 
      "inputs": [[202, 0]], 
      "backward_source_id": -1
    }, 
    {
      "op": "_Mul", 
      "param": {}, 
      "name": "_mul347", 
      "inputs": [[196, 0], [203, 0]], 
      "backward_source_id": -1
    }, 
    {
      "op": "FullyConnected", 
      "param": {
        "no_bias": "False", 
        "num_hidden": "512"
      }, 
      "name": "t103_l1_h2h", 
      "inputs": [[204, 0], [6, 0], [7, 0]], 
      "backward_source_id": -1
    }, 
    {
      "op": "_Plus", 
      "param": {}, 
      "name": "_plus232", 
      "inputs": [[124, 0], [205, 0]], 
      "backward_source_id": -1
    }, 
    {
      "op": "SliceChannel", 
      "param": {
        "axis": "1", 
        "num_outputs": "4", 
        "squeeze_axis": "False"
      }, 
      "name": "t103_l1_slice", 
      "inputs": [[206, 0]], 
      "backward_source_id": -1
    }, 
    {
      "op": "Activation", 
      "param": {"act_type": "sigmoid"}, 
      "name": "activation583", 
      "inputs": [[207, 3]], 
      "backward_source_id": -1
    }, 
    {
      "op": "Activation", 
      "param": {"act_type": "sigmoid"}, 
      "name": "activation582", 
      "inputs": [[207, 2]], 
      "backward_source_id": -1
    }, 
    {
      "op": "_Mul", 
      "param": {}, 
      "name": "_mul348", 
      "inputs": [[209, 0], [202, 0]], 
      "backward_source_id": -1
    }, 
    {
      "op": "Activation", 
      "param": {"act_type": "sigmoid"}, 
      "name": "activation580", 
      "inputs": [[207, 0]], 
      "backward_source_id": -1
    }, 
    {
      "op": "Activation", 
      "param": {"act_type": "tanh"}, 
      "name": "activation581", 
      "inputs": [[207, 1]], 
      "backward_source_id": -1
    }, 
    {
      "op": "_Mul", 
      "param": {}, 
      "name": "_mul349", 
      "inputs": [[211, 0], [212, 0]], 
      "backward_source_id": -1
    }, 
    {
      "op": "_Plus", 
      "param": {}, 
      "name": "_plus233", 
      "inputs": [[210, 0], [213, 0]], 
      "backward_source_id": -1
    }, 
    {
      "op": "Activation", 
      "param": {"act_type": "tanh"}, 
      "name": "activation584", 
      "inputs": [[214, 0]], 
      "backward_source_id": -1
    }, 
    {
      "op": "_Mul", 
      "param": {}, 
      "name": "_mul350", 
      "inputs": [[208, 0], [215, 0]], 
      "backward_source_id": -1
    }, 
    {
      "op": "FullyConnected", 
      "param": {
        "no_bias": "False", 
        "num_hidden": "512"
      }, 
      "name": "t102_l1_h2h", 
      "inputs": [[216, 0], [6, 0], [7, 0]], 
      "backward_source_id": -1
    }, 
    {
      "op": "_Plus", 
      "param": {}, 
      "name": "_plus234", 
      "inputs": [[123, 0], [217, 0]], 
      "backward_source_id": -1
    }, 
    {
      "op": "SliceChannel", 
      "param": {
        "axis": "1", 
        "num_outputs": "4", 
        "squeeze_axis": "False"
      }, 
      "name": "t102_l1_slice", 
      "inputs": [[218, 0]], 
      "backward_source_id": -1
    }, 
    {
      "op": "Activation", 
      "param": {"act_type": "sigmoid"}, 
      "name": "activation588", 
      "inputs": [[219, 3]], 
      "backward_source_id": -1
    }, 
    {
      "op": "Activation", 
      "param": {"act_type": "sigmoid"}, 
      "name": "activation587", 
      "inputs": [[219, 2]], 
      "backward_source_id": -1
    }, 
    {
      "op": "_Mul", 
      "param": {}, 
      "name": "_mul351", 
      "inputs": [[221, 0], [214, 0]], 
      "backward_source_id": -1
    }, 
    {
      "op": "Activation", 
      "param": {"act_type": "sigmoid"}, 
      "name": "activation585", 
      "inputs": [[219, 0]], 
      "backward_source_id": -1
    }, 
    {
      "op": "Activation", 
      "param": {"act_type": "tanh"}, 
      "name": "activation586", 
      "inputs": [[219, 1]], 
      "backward_source_id": -1
    }, 
    {
      "op": "_Mul", 
      "param": {}, 
      "name": "_mul352", 
      "inputs": [[223, 0], [224, 0]], 
      "backward_source_id": -1
    }, 
    {
      "op": "_Plus", 
      "param": {}, 
      "name": "_plus235", 
      "inputs": [[222, 0], [225, 0]], 
      "backward_source_id": -1
    }, 
    {
      "op": "Activation", 
      "param": {"act_type": "tanh"}, 
      "name": "activation589", 
      "inputs": [[226, 0]], 
      "backward_source_id": -1
    }, 
    {
      "op": "_Mul", 
      "param": {}, 
      "name": "_mul353", 
      "inputs": [[220, 0], [227, 0]], 
      "backward_source_id": -1
    }, 
    {
      "op": "FullyConnected", 
      "param": {
        "no_bias": "False", 
        "num_hidden": "512"
      }, 
      "name": "t101_l1_h2h", 
      "inputs": [[228, 0], [6, 0], [7, 0]], 
      "backward_source_id": -1
    }, 
    {
      "op": "_Plus", 
      "param": {}, 
      "name": "_plus236", 
      "inputs": [[122, 0], [229, 0]], 
      "backward_source_id": -1
    }, 
    {
      "op": "SliceChannel", 
      "param": {
        "axis": "1", 
        "num_outputs": "4", 
        "squeeze_axis": "False"
      }, 
      "name": "t101_l1_slice", 
      "inputs": [[230, 0]], 
      "backward_source_id": -1
    }, 
    {
      "op": "Activation", 
      "param": {"act_type": "sigmoid"}, 
      "name": "activation593", 
      "inputs": [[231, 3]], 
      "backward_source_id": -1
    }, 
    {
      "op": "Activation", 
      "param": {"act_type": "sigmoid"}, 
      "name": "activation592", 
      "inputs": [[231, 2]], 
      "backward_source_id": -1
    }, 
    {
      "op": "_Mul", 
      "param": {}, 
      "name": "_mul354", 
      "inputs": [[233, 0], [226, 0]], 
      "backward_source_id": -1
    }, 
    {
      "op": "Activation", 
      "param": {"act_type": "sigmoid"}, 
      "name": "activation590", 
      "inputs": [[231, 0]], 
      "backward_source_id": -1
    }, 
    {
      "op": "Activation", 
      "param": {"act_type": "tanh"}, 
      "name": "activation591", 
      "inputs": [[231, 1]], 
      "backward_source_id": -1
    }, 
    {
      "op": "_Mul", 
      "param": {}, 
      "name": "_mul355", 
      "inputs": [[235, 0], [236, 0]], 
      "backward_source_id": -1
    }, 
    {
      "op": "_Plus", 
      "param": {}, 
      "name": "_plus237", 
      "inputs": [[234, 0], [237, 0]], 
      "backward_source_id": -1
    }, 
    {
      "op": "Activation", 
      "param": {"act_type": "tanh"}, 
      "name": "activation594", 
      "inputs": [[238, 0]], 
      "backward_source_id": -1
    }, 
    {
      "op": "_Mul", 
      "param": {}, 
      "name": "_mul356", 
      "inputs": [[232, 0], [239, 0]], 
      "backward_source_id": -1
    }, 
    {
      "op": "FullyConnected", 
      "param": {
        "no_bias": "False", 
        "num_hidden": "512"
      }, 
      "name": "t100_l1_h2h", 
      "inputs": [[240, 0], [6, 0], [7, 0]], 
      "backward_source_id": -1
    }, 
    {
      "op": "_Plus", 
      "param": {}, 
      "name": "_plus238", 
      "inputs": [[121, 0], [241, 0]], 
      "backward_source_id": -1
    }, 
    {
      "op": "SliceChannel", 
      "param": {
        "axis": "1", 
        "num_outputs": "4", 
        "squeeze_axis": "False"
      }, 
      "name": "t100_l1_slice", 
      "inputs": [[242, 0]], 
      "backward_source_id": -1
    }, 
    {
      "op": "Activation", 
      "param": {"act_type": "sigmoid"}, 
      "name": "activation598", 
      "inputs": [[243, 3]], 
      "backward_source_id": -1
    }, 
    {
      "op": "Activation", 
      "param": {"act_type": "sigmoid"}, 
      "name": "activation597", 
      "inputs": [[243, 2]], 
      "backward_source_id": -1
    }, 
    {
      "op": "_Mul", 
      "param": {}, 
      "name": "_mul357", 
      "inputs": [[245, 0], [238, 0]], 
      "backward_source_id": -1
    }, 
    {
      "op": "Activation", 
      "param": {"act_type": "sigmoid"}, 
      "name": "activation595", 
      "inputs": [[243, 0]], 
      "backward_source_id": -1
    }, 
    {
      "op": "Activation", 
      "param": {"act_type": "tanh"}, 
      "name": "activation596", 
      "inputs": [[243, 1]], 
      "backward_source_id": -1
    }, 
    {
      "op": "_Mul", 
      "param": {}, 
      "name": "_mul358", 
      "inputs": [[247, 0], [248, 0]], 
      "backward_source_id": -1
    }, 
    {
      "op": "_Plus", 
      "param": {}, 
      "name": "_plus239", 
      "inputs": [[246, 0], [249, 0]], 
      "backward_source_id": -1
    }, 
    {
      "op": "Activation", 
      "param": {"act_type": "tanh"}, 
      "name": "activation599", 
      "inputs": [[250, 0]], 
      "backward_source_id": -1
    }, 
    {
      "op": "_Mul", 
      "param": {}, 
      "name": "_mul359", 
      "inputs": [[244, 0], [251, 0]], 
      "backward_source_id": -1
    }, 
    {
      "op": "FullyConnected", 
      "param": {
        "no_bias": "False", 
        "num_hidden": "512"
      }, 
      "name": "t99_l1_h2h", 
      "inputs": [[252, 0], [6, 0], [7, 0]], 
      "backward_source_id": -1
    }, 
    {
      "op": "_Plus", 
      "param": {}, 
      "name": "_plus240", 
      "inputs": [[120, 0], [253, 0]], 
      "backward_source_id": -1
    }, 
    {
      "op": "SliceChannel", 
      "param": {
        "axis": "1", 
        "num_outputs": "4", 
        "squeeze_axis": "False"
      }, 
      "name": "t99_l1_slice", 
      "inputs": [[254, 0]], 
      "backward_source_id": -1
    }, 
    {
      "op": "Activation", 
      "param": {"act_type": "sigmoid"}, 
      "name": "activation603", 
      "inputs": [[255, 3]], 
      "backward_source_id": -1
    }, 
    {
      "op": "Activation", 
      "param": {"act_type": "sigmoid"}, 
      "name": "activation602", 
      "inputs": [[255, 2]], 
      "backward_source_id": -1
    }, 
    {
      "op": "_Mul", 
      "param": {}, 
      "name": "_mul360", 
      "inputs": [[257, 0], [250, 0]], 
      "backward_source_id": -1
    }, 
    {
      "op": "Activation", 
      "param": {"act_type": "sigmoid"}, 
      "name": "activation600", 
      "inputs": [[255, 0]], 
      "backward_source_id": -1
    }, 
    {
      "op": "Activation", 
      "param": {"act_type": "tanh"}, 
      "name": "activation601", 
      "inputs": [[255, 1]], 
      "backward_source_id": -1
    }, 
    {
      "op": "_Mul", 
      "param": {}, 
      "name": "_mul361", 
      "inputs": [[259, 0], [260, 0]], 
      "backward_source_id": -1
    }, 
    {
      "op": "_Plus", 
      "param": {}, 
      "name": "_plus241", 
      "inputs": [[258, 0], [261, 0]], 
      "backward_source_id": -1
    }, 
    {
      "op": "Activation", 
      "param": {"act_type": "tanh"}, 
      "name": "activation604", 
      "inputs": [[262, 0]], 
      "backward_source_id": -1
    }, 
    {
      "op": "_Mul", 
      "param": {}, 
      "name": "_mul362", 
      "inputs": [[256, 0], [263, 0]], 
      "backward_source_id": -1
    }, 
    {
      "op": "FullyConnected", 
      "param": {
        "no_bias": "False", 
        "num_hidden": "512"
      }, 
      "name": "t98_l1_h2h", 
      "inputs": [[264, 0], [6, 0], [7, 0]], 
      "backward_source_id": -1
    }, 
    {
      "op": "_Plus", 
      "param": {}, 
      "name": "_plus242", 
      "inputs": [[119, 0], [265, 0]], 
      "backward_source_id": -1
    }, 
    {
      "op": "SliceChannel", 
      "param": {
        "axis": "1", 
        "num_outputs": "4", 
        "squeeze_axis": "False"
      }, 
      "name": "t98_l1_slice", 
      "inputs": [[266, 0]], 
      "backward_source_id": -1
    }, 
    {
      "op": "Activation", 
      "param": {"act_type": "sigmoid"}, 
      "name": "activation608", 
      "inputs": [[267, 3]], 
      "backward_source_id": -1
    }, 
    {
      "op": "Activation", 
      "param": {"act_type": "sigmoid"}, 
      "name": "activation607", 
      "inputs": [[267, 2]], 
      "backward_source_id": -1
    }, 
    {
      "op": "_Mul", 
      "param": {}, 
      "name": "_mul363", 
      "inputs": [[269, 0], [262, 0]], 
      "backward_source_id": -1
    }, 
    {
      "op": "Activation", 
      "param": {"act_type": "sigmoid"}, 
      "name": "activation605", 
      "inputs": [[267, 0]], 
      "backward_source_id": -1
    }, 
    {
      "op": "Activation", 
      "param": {"act_type": "tanh"}, 
      "name": "activation606", 
      "inputs": [[267, 1]], 
      "backward_source_id": -1
    }, 
    {
      "op": "_Mul", 
      "param": {}, 
      "name": "_mul364", 
      "inputs": [[271, 0], [272, 0]], 
      "backward_source_id": -1
    }, 
    {
      "op": "_Plus", 
      "param": {}, 
      "name": "_plus243", 
      "inputs": [[270, 0], [273, 0]], 
      "backward_source_id": -1
    }, 
    {
      "op": "Activation", 
      "param": {"act_type": "tanh"}, 
      "name": "activation609", 
      "inputs": [[274, 0]], 
      "backward_source_id": -1
    }, 
    {
      "op": "_Mul", 
      "param": {}, 
      "name": "_mul365", 
      "inputs": [[268, 0], [275, 0]], 
      "backward_source_id": -1
    }, 
    {
      "op": "FullyConnected", 
      "param": {
        "no_bias": "False", 
        "num_hidden": "512"
      }, 
      "name": "t97_l1_h2h", 
      "inputs": [[276, 0], [6, 0], [7, 0]], 
      "backward_source_id": -1
    }, 
    {
      "op": "_Plus", 
      "param": {}, 
      "name": "_plus244", 
      "inputs": [[118, 0], [277, 0]], 
      "backward_source_id": -1
    }, 
    {
      "op": "SliceChannel", 
      "param": {
        "axis": "1", 
        "num_outputs": "4", 
        "squeeze_axis": "False"
      }, 
      "name": "t97_l1_slice", 
      "inputs": [[278, 0]], 
      "backward_source_id": -1
    }, 
    {
      "op": "Activation", 
      "param": {"act_type": "sigmoid"}, 
      "name": "activation613", 
      "inputs": [[279, 3]], 
      "backward_source_id": -1
    }, 
    {
      "op": "Activation", 
      "param": {"act_type": "sigmoid"}, 
      "name": "activation612", 
      "inputs": [[279, 2]], 
      "backward_source_id": -1
    }, 
    {
      "op": "_Mul", 
      "param": {}, 
      "name": "_mul366", 
      "inputs": [[281, 0], [274, 0]], 
      "backward_source_id": -1
    }, 
    {
      "op": "Activation", 
      "param": {"act_type": "sigmoid"}, 
      "name": "activation610", 
      "inputs": [[279, 0]], 
      "backward_source_id": -1
    }, 
    {
      "op": "Activation", 
      "param": {"act_type": "tanh"}, 
      "name": "activation611", 
      "inputs": [[279, 1]], 
      "backward_source_id": -1
    }, 
    {
      "op": "_Mul", 
      "param": {}, 
      "name": "_mul367", 
      "inputs": [[283, 0], [284, 0]], 
      "backward_source_id": -1
    }, 
    {
      "op": "_Plus", 
      "param": {}, 
      "name": "_plus245", 
      "inputs": [[282, 0], [285, 0]], 
      "backward_source_id": -1
    }, 
    {
      "op": "Activation", 
      "param": {"act_type": "tanh"}, 
      "name": "activation614", 
      "inputs": [[286, 0]], 
      "backward_source_id": -1
    }, 
    {
      "op": "_Mul", 
      "param": {}, 
      "name": "_mul368", 
      "inputs": [[280, 0], [287, 0]], 
      "backward_source_id": -1
    }, 
    {
      "op": "FullyConnected", 
      "param": {
        "no_bias": "False", 
        "num_hidden": "512"
      }, 
      "name": "t96_l1_h2h", 
      "inputs": [[288, 0], [6, 0], [7, 0]], 
      "backward_source_id": -1
    }, 
    {
      "op": "_Plus", 
      "param": {}, 
      "name": "_plus246", 
      "inputs": [[117, 0], [289, 0]], 
      "backward_source_id": -1
    }, 
    {
      "op": "SliceChannel", 
      "param": {
        "axis": "1", 
        "num_outputs": "4", 
        "squeeze_axis": "False"
      }, 
      "name": "t96_l1_slice", 
      "inputs": [[290, 0]], 
      "backward_source_id": -1
    }, 
    {
      "op": "Activation", 
      "param": {"act_type": "sigmoid"}, 
      "name": "activation618", 
      "inputs": [[291, 3]], 
      "backward_source_id": -1
    }, 
    {
      "op": "Activation", 
      "param": {"act_type": "sigmoid"}, 
      "name": "activation617", 
      "inputs": [[291, 2]], 
      "backward_source_id": -1
    }, 
    {
      "op": "_Mul", 
      "param": {}, 
      "name": "_mul369", 
      "inputs": [[293, 0], [286, 0]], 
      "backward_source_id": -1
    }, 
    {
      "op": "Activation", 
      "param": {"act_type": "sigmoid"}, 
      "name": "activation615", 
      "inputs": [[291, 0]], 
      "backward_source_id": -1
    }, 
    {
      "op": "Activation", 
      "param": {"act_type": "tanh"}, 
      "name": "activation616", 
      "inputs": [[291, 1]], 
      "backward_source_id": -1
    }, 
    {
      "op": "_Mul", 
      "param": {}, 
      "name": "_mul370", 
      "inputs": [[295, 0], [296, 0]], 
      "backward_source_id": -1
    }, 
    {
      "op": "_Plus", 
      "param": {}, 
      "name": "_plus247", 
      "inputs": [[294, 0], [297, 0]], 
      "backward_source_id": -1
    }, 
    {
      "op": "Activation", 
      "param": {"act_type": "tanh"}, 
      "name": "activation619", 
      "inputs": [[298, 0]], 
      "backward_source_id": -1
    }, 
    {
      "op": "_Mul", 
      "param": {}, 
      "name": "_mul371", 
      "inputs": [[292, 0], [299, 0]], 
      "backward_source_id": -1
    }, 
    {
      "op": "FullyConnected", 
      "param": {
        "no_bias": "False", 
        "num_hidden": "512"
      }, 
      "name": "t95_l1_h2h", 
      "inputs": [[300, 0], [6, 0], [7, 0]], 
      "backward_source_id": -1
    }, 
    {
      "op": "_Plus", 
      "param": {}, 
      "name": "_plus248", 
      "inputs": [[116, 0], [301, 0]], 
      "backward_source_id": -1
    }, 
    {
      "op": "SliceChannel", 
      "param": {
        "axis": "1", 
        "num_outputs": "4", 
        "squeeze_axis": "False"
      }, 
      "name": "t95_l1_slice", 
      "inputs": [[302, 0]], 
      "backward_source_id": -1
    }, 
    {
      "op": "Activation", 
      "param": {"act_type": "sigmoid"}, 
      "name": "activation623", 
      "inputs": [[303, 3]], 
      "backward_source_id": -1
    }, 
    {
      "op": "Activation", 
      "param": {"act_type": "sigmoid"}, 
      "name": "activation622", 
      "inputs": [[303, 2]], 
      "backward_source_id": -1
    }, 
    {
      "op": "_Mul", 
      "param": {}, 
      "name": "_mul372", 
      "inputs": [[305, 0], [298, 0]], 
      "backward_source_id": -1
    }, 
    {
      "op": "Activation", 
      "param": {"act_type": "sigmoid"}, 
      "name": "activation620", 
      "inputs": [[303, 0]], 
      "backward_source_id": -1
    }, 
    {
      "op": "Activation", 
      "param": {"act_type": "tanh"}, 
      "name": "activation621", 
      "inputs": [[303, 1]], 
      "backward_source_id": -1
    }, 
    {
      "op": "_Mul", 
      "param": {}, 
      "name": "_mul373", 
      "inputs": [[307, 0], [308, 0]], 
      "backward_source_id": -1
    }, 
    {
      "op": "_Plus", 
      "param": {}, 
      "name": "_plus249", 
      "inputs": [[306, 0], [309, 0]], 
      "backward_source_id": -1
    }, 
    {
      "op": "Activation", 
      "param": {"act_type": "tanh"}, 
      "name": "activation624", 
      "inputs": [[310, 0]], 
      "backward_source_id": -1
    }, 
    {
      "op": "_Mul", 
      "param": {}, 
      "name": "_mul374", 
      "inputs": [[304, 0], [311, 0]], 
      "backward_source_id": -1
    }, 
    {
      "op": "FullyConnected", 
      "param": {
        "no_bias": "False", 
        "num_hidden": "512"
      }, 
      "name": "t94_l1_h2h", 
      "inputs": [[312, 0], [6, 0], [7, 0]], 
      "backward_source_id": -1
    }, 
    {
      "op": "_Plus", 
      "param": {}, 
      "name": "_plus250", 
      "inputs": [[115, 0], [313, 0]], 
      "backward_source_id": -1
    }, 
    {
      "op": "SliceChannel", 
      "param": {
        "axis": "1", 
        "num_outputs": "4", 
        "squeeze_axis": "False"
      }, 
      "name": "t94_l1_slice", 
      "inputs": [[314, 0]], 
      "backward_source_id": -1
    }, 
    {
      "op": "Activation", 
      "param": {"act_type": "sigmoid"}, 
      "name": "activation628", 
      "inputs": [[315, 3]], 
      "backward_source_id": -1
    }, 
    {
      "op": "Activation", 
      "param": {"act_type": "sigmoid"}, 
      "name": "activation627", 
      "inputs": [[315, 2]], 
      "backward_source_id": -1
    }, 
    {
      "op": "_Mul", 
      "param": {}, 
      "name": "_mul375", 
      "inputs": [[317, 0], [310, 0]], 
      "backward_source_id": -1
    }, 
    {
      "op": "Activation", 
      "param": {"act_type": "sigmoid"}, 
      "name": "activation625", 
      "inputs": [[315, 0]], 
      "backward_source_id": -1
    }, 
    {
      "op": "Activation", 
      "param": {"act_type": "tanh"}, 
      "name": "activation626", 
      "inputs": [[315, 1]], 
      "backward_source_id": -1
    }, 
    {
      "op": "_Mul", 
      "param": {}, 
      "name": "_mul376", 
      "inputs": [[319, 0], [320, 0]], 
      "backward_source_id": -1
    }, 
    {
      "op": "_Plus", 
      "param": {}, 
      "name": "_plus251", 
      "inputs": [[318, 0], [321, 0]], 
      "backward_source_id": -1
    }, 
    {
      "op": "Activation", 
      "param": {"act_type": "tanh"}, 
      "name": "activation629", 
      "inputs": [[322, 0]], 
      "backward_source_id": -1
    }, 
    {
      "op": "_Mul", 
      "param": {}, 
      "name": "_mul377", 
      "inputs": [[316, 0], [323, 0]], 
      "backward_source_id": -1
    }, 
    {
      "op": "FullyConnected", 
      "param": {
        "no_bias": "False", 
        "num_hidden": "512"
      }, 
      "name": "t93_l1_h2h", 
      "inputs": [[324, 0], [6, 0], [7, 0]], 
      "backward_source_id": -1
    }, 
    {
      "op": "_Plus", 
      "param": {}, 
      "name": "_plus252", 
      "inputs": [[114, 0], [325, 0]], 
      "backward_source_id": -1
    }, 
    {
      "op": "SliceChannel", 
      "param": {
        "axis": "1", 
        "num_outputs": "4", 
        "squeeze_axis": "False"
      }, 
      "name": "t93_l1_slice", 
      "inputs": [[326, 0]], 
      "backward_source_id": -1
    }, 
    {
      "op": "Activation", 
      "param": {"act_type": "sigmoid"}, 
      "name": "activation633", 
      "inputs": [[327, 3]], 
      "backward_source_id": -1
    }, 
    {
      "op": "Activation", 
      "param": {"act_type": "sigmoid"}, 
      "name": "activation632", 
      "inputs": [[327, 2]], 
      "backward_source_id": -1
    }, 
    {
      "op": "_Mul", 
      "param": {}, 
      "name": "_mul378", 
      "inputs": [[329, 0], [322, 0]], 
      "backward_source_id": -1
    }, 
    {
      "op": "Activation", 
      "param": {"act_type": "sigmoid"}, 
      "name": "activation630", 
      "inputs": [[327, 0]], 
      "backward_source_id": -1
    }, 
    {
      "op": "Activation", 
      "param": {"act_type": "tanh"}, 
      "name": "activation631", 
      "inputs": [[327, 1]], 
      "backward_source_id": -1
    }, 
    {
      "op": "_Mul", 
      "param": {}, 
      "name": "_mul379", 
      "inputs": [[331, 0], [332, 0]], 
      "backward_source_id": -1
    }, 
    {
      "op": "_Plus", 
      "param": {}, 
      "name": "_plus253", 
      "inputs": [[330, 0], [333, 0]], 
      "backward_source_id": -1
    }, 
    {
      "op": "Activation", 
      "param": {"act_type": "tanh"}, 
      "name": "activation634", 
      "inputs": [[334, 0]], 
      "backward_source_id": -1
    }, 
    {
      "op": "_Mul", 
      "param": {}, 
      "name": "_mul380", 
      "inputs": [[328, 0], [335, 0]], 
      "backward_source_id": -1
    }, 
    {
      "op": "FullyConnected", 
      "param": {
        "no_bias": "False", 
        "num_hidden": "512"
      }, 
      "name": "t92_l1_h2h", 
      "inputs": [[336, 0], [6, 0], [7, 0]], 
      "backward_source_id": -1
    }, 
    {
      "op": "_Plus", 
      "param": {}, 
      "name": "_plus254", 
      "inputs": [[113, 0], [337, 0]], 
      "backward_source_id": -1
    }, 
    {
      "op": "SliceChannel", 
      "param": {
        "axis": "1", 
        "num_outputs": "4", 
        "squeeze_axis": "False"
      }, 
      "name": "t92_l1_slice", 
      "inputs": [[338, 0]], 
      "backward_source_id": -1
    }, 
    {
      "op": "Activation", 
      "param": {"act_type": "sigmoid"}, 
      "name": "activation638", 
      "inputs": [[339, 3]], 
      "backward_source_id": -1
    }, 
    {
      "op": "Activation", 
      "param": {"act_type": "sigmoid"}, 
      "name": "activation637", 
      "inputs": [[339, 2]], 
      "backward_source_id": -1
    }, 
    {
      "op": "_Mul", 
      "param": {}, 
      "name": "_mul381", 
      "inputs": [[341, 0], [334, 0]], 
      "backward_source_id": -1
    }, 
    {
      "op": "Activation", 
      "param": {"act_type": "sigmoid"}, 
      "name": "activation635", 
      "inputs": [[339, 0]], 
      "backward_source_id": -1
    }, 
    {
      "op": "Activation", 
      "param": {"act_type": "tanh"}, 
      "name": "activation636", 
      "inputs": [[339, 1]], 
      "backward_source_id": -1
    }, 
    {
      "op": "_Mul", 
      "param": {}, 
      "name": "_mul382", 
      "inputs": [[343, 0], [344, 0]], 
      "backward_source_id": -1
    }, 
    {
      "op": "_Plus", 
      "param": {}, 
      "name": "_plus255", 
      "inputs": [[342, 0], [345, 0]], 
      "backward_source_id": -1
    }, 
    {
      "op": "Activation", 
      "param": {"act_type": "tanh"}, 
      "name": "activation639", 
      "inputs": [[346, 0]], 
      "backward_source_id": -1
    }, 
    {
      "op": "_Mul", 
      "param": {}, 
      "name": "_mul383", 
      "inputs": [[340, 0], [347, 0]], 
      "backward_source_id": -1
    }, 
    {
      "op": "FullyConnected", 
      "param": {
        "no_bias": "False", 
        "num_hidden": "512"
      }, 
      "name": "t91_l1_h2h", 
      "inputs": [[348, 0], [6, 0], [7, 0]], 
      "backward_source_id": -1
    }, 
    {
      "op": "_Plus", 
      "param": {}, 
      "name": "_plus256", 
      "inputs": [[112, 0], [349, 0]], 
      "backward_source_id": -1
    }, 
    {
      "op": "SliceChannel", 
      "param": {
        "axis": "1", 
        "num_outputs": "4", 
        "squeeze_axis": "False"
      }, 
      "name": "t91_l1_slice", 
      "inputs": [[350, 0]], 
      "backward_source_id": -1
    }, 
    {
      "op": "Activation", 
      "param": {"act_type": "sigmoid"}, 
      "name": "activation643", 
      "inputs": [[351, 3]], 
      "backward_source_id": -1
    }, 
    {
      "op": "Activation", 
      "param": {"act_type": "sigmoid"}, 
      "name": "activation642", 
      "inputs": [[351, 2]], 
      "backward_source_id": -1
    }, 
    {
      "op": "_Mul", 
      "param": {}, 
      "name": "_mul384", 
      "inputs": [[353, 0], [346, 0]], 
      "backward_source_id": -1
    }, 
    {
      "op": "Activation", 
      "param": {"act_type": "sigmoid"}, 
      "name": "activation640", 
      "inputs": [[351, 0]], 
      "backward_source_id": -1
    }, 
    {
      "op": "Activation", 
      "param": {"act_type": "tanh"}, 
      "name": "activation641", 
      "inputs": [[351, 1]], 
      "backward_source_id": -1
    }, 
    {
      "op": "_Mul", 
      "param": {}, 
      "name": "_mul385", 
      "inputs": [[355, 0], [356, 0]], 
      "backward_source_id": -1
    }, 
    {
      "op": "_Plus", 
      "param": {}, 
      "name": "_plus257", 
      "inputs": [[354, 0], [357, 0]], 
      "backward_source_id": -1
    }, 
    {
      "op": "Activation", 
      "param": {"act_type": "tanh"}, 
      "name": "activation644", 
      "inputs": [[358, 0]], 
      "backward_source_id": -1
    }, 
    {
      "op": "_Mul", 
      "param": {}, 
      "name": "_mul386", 
      "inputs": [[352, 0], [359, 0]], 
      "backward_source_id": -1
    }, 
    {
      "op": "FullyConnected", 
      "param": {
        "no_bias": "False", 
        "num_hidden": "512"
      }, 
      "name": "t90_l1_h2h", 
      "inputs": [[360, 0], [6, 0], [7, 0]], 
      "backward_source_id": -1
    }, 
    {
      "op": "_Plus", 
      "param": {}, 
      "name": "_plus258", 
      "inputs": [[111, 0], [361, 0]], 
      "backward_source_id": -1
    }, 
    {
      "op": "SliceChannel", 
      "param": {
        "axis": "1", 
        "num_outputs": "4", 
        "squeeze_axis": "False"
      }, 
      "name": "t90_l1_slice", 
      "inputs": [[362, 0]], 
      "backward_source_id": -1
    }, 
    {
      "op": "Activation", 
      "param": {"act_type": "sigmoid"}, 
      "name": "activation648", 
      "inputs": [[363, 3]], 
      "backward_source_id": -1
    }, 
    {
      "op": "Activation", 
      "param": {"act_type": "sigmoid"}, 
      "name": "activation647", 
      "inputs": [[363, 2]], 
      "backward_source_id": -1
    }, 
    {
      "op": "_Mul", 
      "param": {}, 
      "name": "_mul387", 
      "inputs": [[365, 0], [358, 0]], 
      "backward_source_id": -1
    }, 
    {
      "op": "Activation", 
      "param": {"act_type": "sigmoid"}, 
      "name": "activation645", 
      "inputs": [[363, 0]], 
      "backward_source_id": -1
    }, 
    {
      "op": "Activation", 
      "param": {"act_type": "tanh"}, 
      "name": "activation646", 
      "inputs": [[363, 1]], 
      "backward_source_id": -1
    }, 
    {
      "op": "_Mul", 
      "param": {}, 
      "name": "_mul388", 
      "inputs": [[367, 0], [368, 0]], 
      "backward_source_id": -1
    }, 
    {
      "op": "_Plus", 
      "param": {}, 
      "name": "_plus259", 
      "inputs": [[366, 0], [369, 0]], 
      "backward_source_id": -1
    }, 
    {
      "op": "Activation", 
      "param": {"act_type": "tanh"}, 
      "name": "activation649", 
      "inputs": [[370, 0]], 
      "backward_source_id": -1
    }, 
    {
      "op": "_Mul", 
      "param": {}, 
      "name": "_mul389", 
      "inputs": [[364, 0], [371, 0]], 
      "backward_source_id": -1
    }, 
    {
      "op": "FullyConnected", 
      "param": {
        "no_bias": "False", 
        "num_hidden": "512"
      }, 
      "name": "t89_l1_h2h", 
      "inputs": [[372, 0], [6, 0], [7, 0]], 
      "backward_source_id": -1
    }, 
    {
      "op": "_Plus", 
      "param": {}, 
      "name": "_plus260", 
      "inputs": [[110, 0], [373, 0]], 
      "backward_source_id": -1
    }, 
    {
      "op": "SliceChannel", 
      "param": {
        "axis": "1", 
        "num_outputs": "4", 
        "squeeze_axis": "False"
      }, 
      "name": "t89_l1_slice", 
      "inputs": [[374, 0]], 
      "backward_source_id": -1
    }, 
    {
      "op": "Activation", 
      "param": {"act_type": "sigmoid"}, 
      "name": "activation653", 
      "inputs": [[375, 3]], 
      "backward_source_id": -1
    }, 
    {
      "op": "Activation", 
      "param": {"act_type": "sigmoid"}, 
      "name": "activation652", 
      "inputs": [[375, 2]], 
      "backward_source_id": -1
    }, 
    {
      "op": "_Mul", 
      "param": {}, 
      "name": "_mul390", 
      "inputs": [[377, 0], [370, 0]], 
      "backward_source_id": -1
    }, 
    {
      "op": "Activation", 
      "param": {"act_type": "sigmoid"}, 
      "name": "activation650", 
      "inputs": [[375, 0]], 
      "backward_source_id": -1
    }, 
    {
      "op": "Activation", 
      "param": {"act_type": "tanh"}, 
      "name": "activation651", 
      "inputs": [[375, 1]], 
      "backward_source_id": -1
    }, 
    {
      "op": "_Mul", 
      "param": {}, 
      "name": "_mul391", 
      "inputs": [[379, 0], [380, 0]], 
      "backward_source_id": -1
    }, 
    {
      "op": "_Plus", 
      "param": {}, 
      "name": "_plus261", 
      "inputs": [[378, 0], [381, 0]], 
      "backward_source_id": -1
    }, 
    {
      "op": "Activation", 
      "param": {"act_type": "tanh"}, 
      "name": "activation654", 
      "inputs": [[382, 0]], 
      "backward_source_id": -1
    }, 
    {
      "op": "_Mul", 
      "param": {}, 
      "name": "_mul392", 
      "inputs": [[376, 0], [383, 0]], 
      "backward_source_id": -1
    }, 
    {
      "op": "FullyConnected", 
      "param": {
        "no_bias": "False", 
        "num_hidden": "512"
      }, 
      "name": "t88_l1_h2h", 
      "inputs": [[384, 0], [6, 0], [7, 0]], 
      "backward_source_id": -1
    }, 
    {
      "op": "_Plus", 
      "param": {}, 
      "name": "_plus262", 
      "inputs": [[109, 0], [385, 0]], 
      "backward_source_id": -1
    }, 
    {
      "op": "SliceChannel", 
      "param": {
        "axis": "1", 
        "num_outputs": "4", 
        "squeeze_axis": "False"
      }, 
      "name": "t88_l1_slice", 
      "inputs": [[386, 0]], 
      "backward_source_id": -1
    }, 
    {
      "op": "Activation", 
      "param": {"act_type": "sigmoid"}, 
      "name": "activation658", 
      "inputs": [[387, 3]], 
      "backward_source_id": -1
    }, 
    {
      "op": "Activation", 
      "param": {"act_type": "sigmoid"}, 
      "name": "activation657", 
      "inputs": [[387, 2]], 
      "backward_source_id": -1
    }, 
    {
      "op": "_Mul", 
      "param": {}, 
      "name": "_mul393", 
      "inputs": [[389, 0], [382, 0]], 
      "backward_source_id": -1
    }, 
    {
      "op": "Activation", 
      "param": {"act_type": "sigmoid"}, 
      "name": "activation655", 
      "inputs": [[387, 0]], 
      "backward_source_id": -1
    }, 
    {
      "op": "Activation", 
      "param": {"act_type": "tanh"}, 
      "name": "activation656", 
      "inputs": [[387, 1]], 
      "backward_source_id": -1
    }, 
    {
      "op": "_Mul", 
      "param": {}, 
      "name": "_mul394", 
      "inputs": [[391, 0], [392, 0]], 
      "backward_source_id": -1
    }, 
    {
      "op": "_Plus", 
      "param": {}, 
      "name": "_plus263", 
      "inputs": [[390, 0], [393, 0]], 
      "backward_source_id": -1
    }, 
    {
      "op": "Activation", 
      "param": {"act_type": "tanh"}, 
      "name": "activation659", 
      "inputs": [[394, 0]], 
      "backward_source_id": -1
    }, 
    {
      "op": "_Mul", 
      "param": {}, 
      "name": "_mul395", 
      "inputs": [[388, 0], [395, 0]], 
      "backward_source_id": -1
    }, 
    {
      "op": "FullyConnected", 
      "param": {
        "no_bias": "False", 
        "num_hidden": "512"
      }, 
      "name": "t87_l1_h2h", 
      "inputs": [[396, 0], [6, 0], [7, 0]], 
      "backward_source_id": -1
    }, 
    {
      "op": "_Plus", 
      "param": {}, 
      "name": "_plus264", 
      "inputs": [[108, 0], [397, 0]], 
      "backward_source_id": -1
    }, 
    {
      "op": "SliceChannel", 
      "param": {
        "axis": "1", 
        "num_outputs": "4", 
        "squeeze_axis": "False"
      }, 
      "name": "t87_l1_slice", 
      "inputs": [[398, 0]], 
      "backward_source_id": -1
    }, 
    {
      "op": "Activation", 
      "param": {"act_type": "sigmoid"}, 
      "name": "activation663", 
      "inputs": [[399, 3]], 
      "backward_source_id": -1
    }, 
    {
      "op": "Activation", 
      "param": {"act_type": "sigmoid"}, 
      "name": "activation662", 
      "inputs": [[399, 2]], 
      "backward_source_id": -1
    }, 
    {
      "op": "_Mul", 
      "param": {}, 
      "name": "_mul396", 
      "inputs": [[401, 0], [394, 0]], 
      "backward_source_id": -1
    }, 
    {
      "op": "Activation", 
      "param": {"act_type": "sigmoid"}, 
      "name": "activation660", 
      "inputs": [[399, 0]], 
      "backward_source_id": -1
    }, 
    {
      "op": "Activation", 
      "param": {"act_type": "tanh"}, 
      "name": "activation661", 
      "inputs": [[399, 1]], 
      "backward_source_id": -1
    }, 
    {
      "op": "_Mul", 
      "param": {}, 
      "name": "_mul397", 
      "inputs": [[403, 0], [404, 0]], 
      "backward_source_id": -1
    }, 
    {
      "op": "_Plus", 
      "param": {}, 
      "name": "_plus265", 
      "inputs": [[402, 0], [405, 0]], 
      "backward_source_id": -1
    }, 
    {
      "op": "Activation", 
      "param": {"act_type": "tanh"}, 
      "name": "activation664", 
      "inputs": [[406, 0]], 
      "backward_source_id": -1
    }, 
    {
      "op": "_Mul", 
      "param": {}, 
      "name": "_mul398", 
      "inputs": [[400, 0], [407, 0]], 
      "backward_source_id": -1
    }, 
    {
      "op": "FullyConnected", 
      "param": {
        "no_bias": "False", 
        "num_hidden": "512"
      }, 
      "name": "t86_l1_h2h", 
      "inputs": [[408, 0], [6, 0], [7, 0]], 
      "backward_source_id": -1
    }, 
    {
      "op": "_Plus", 
      "param": {}, 
      "name": "_plus266", 
      "inputs": [[107, 0], [409, 0]], 
      "backward_source_id": -1
    }, 
    {
      "op": "SliceChannel", 
      "param": {
        "axis": "1", 
        "num_outputs": "4", 
        "squeeze_axis": "False"
      }, 
      "name": "t86_l1_slice", 
      "inputs": [[410, 0]], 
      "backward_source_id": -1
    }, 
    {
      "op": "Activation", 
      "param": {"act_type": "sigmoid"}, 
      "name": "activation668", 
      "inputs": [[411, 3]], 
      "backward_source_id": -1
    }, 
    {
      "op": "Activation", 
      "param": {"act_type": "sigmoid"}, 
      "name": "activation667", 
      "inputs": [[411, 2]], 
      "backward_source_id": -1
    }, 
    {
      "op": "_Mul", 
      "param": {}, 
      "name": "_mul399", 
      "inputs": [[413, 0], [406, 0]], 
      "backward_source_id": -1
    }, 
    {
      "op": "Activation", 
      "param": {"act_type": "sigmoid"}, 
      "name": "activation665", 
      "inputs": [[411, 0]], 
      "backward_source_id": -1
    }, 
    {
      "op": "Activation", 
      "param": {"act_type": "tanh"}, 
      "name": "activation666", 
      "inputs": [[411, 1]], 
      "backward_source_id": -1
    }, 
    {
      "op": "_Mul", 
      "param": {}, 
      "name": "_mul400", 
      "inputs": [[415, 0], [416, 0]], 
      "backward_source_id": -1
    }, 
    {
      "op": "_Plus", 
      "param": {}, 
      "name": "_plus267", 
      "inputs": [[414, 0], [417, 0]], 
      "backward_source_id": -1
    }, 
    {
      "op": "Activation", 
      "param": {"act_type": "tanh"}, 
      "name": "activation669", 
      "inputs": [[418, 0]], 
      "backward_source_id": -1
    }, 
    {
      "op": "_Mul", 
      "param": {}, 
      "name": "_mul401", 
      "inputs": [[412, 0], [419, 0]], 
      "backward_source_id": -1
    }, 
    {
      "op": "FullyConnected", 
      "param": {
        "no_bias": "False", 
        "num_hidden": "512"
      }, 
      "name": "t85_l1_h2h", 
      "inputs": [[420, 0], [6, 0], [7, 0]], 
      "backward_source_id": -1
    }, 
    {
      "op": "_Plus", 
      "param": {}, 
      "name": "_plus268", 
      "inputs": [[106, 0], [421, 0]], 
      "backward_source_id": -1
    }, 
    {
      "op": "SliceChannel", 
      "param": {
        "axis": "1", 
        "num_outputs": "4", 
        "squeeze_axis": "False"
      }, 
      "name": "t85_l1_slice", 
      "inputs": [[422, 0]], 
      "backward_source_id": -1
    }, 
    {
      "op": "Activation", 
      "param": {"act_type": "sigmoid"}, 
      "name": "activation673", 
      "inputs": [[423, 3]], 
      "backward_source_id": -1
    }, 
    {
      "op": "Activation", 
      "param": {"act_type": "sigmoid"}, 
      "name": "activation672", 
      "inputs": [[423, 2]], 
      "backward_source_id": -1
    }, 
    {
      "op": "_Mul", 
      "param": {}, 
      "name": "_mul402", 
      "inputs": [[425, 0], [418, 0]], 
      "backward_source_id": -1
    }, 
    {
      "op": "Activation", 
      "param": {"act_type": "sigmoid"}, 
      "name": "activation670", 
      "inputs": [[423, 0]], 
      "backward_source_id": -1
    }, 
    {
      "op": "Activation", 
      "param": {"act_type": "tanh"}, 
      "name": "activation671", 
      "inputs": [[423, 1]], 
      "backward_source_id": -1
    }, 
    {
      "op": "_Mul", 
      "param": {}, 
      "name": "_mul403", 
      "inputs": [[427, 0], [428, 0]], 
      "backward_source_id": -1
    }, 
    {
      "op": "_Plus", 
      "param": {}, 
      "name": "_plus269", 
      "inputs": [[426, 0], [429, 0]], 
      "backward_source_id": -1
    }, 
    {
      "op": "Activation", 
      "param": {"act_type": "tanh"}, 
      "name": "activation674", 
      "inputs": [[430, 0]], 
      "backward_source_id": -1
    }, 
    {
      "op": "_Mul", 
      "param": {}, 
      "name": "_mul404", 
      "inputs": [[424, 0], [431, 0]], 
      "backward_source_id": -1
    }, 
    {
      "op": "FullyConnected", 
      "param": {
        "no_bias": "False", 
        "num_hidden": "512"
      }, 
      "name": "t84_l1_h2h", 
      "inputs": [[432, 0], [6, 0], [7, 0]], 
      "backward_source_id": -1
    }, 
    {
      "op": "_Plus", 
      "param": {}, 
      "name": "_plus270", 
      "inputs": [[105, 0], [433, 0]], 
      "backward_source_id": -1
    }, 
    {
      "op": "SliceChannel", 
      "param": {
        "axis": "1", 
        "num_outputs": "4", 
        "squeeze_axis": "False"
      }, 
      "name": "t84_l1_slice", 
      "inputs": [[434, 0]], 
      "backward_source_id": -1
    }, 
    {
      "op": "Activation", 
      "param": {"act_type": "sigmoid"}, 
      "name": "activation678", 
      "inputs": [[435, 3]], 
      "backward_source_id": -1
    }, 
    {
      "op": "Activation", 
      "param": {"act_type": "sigmoid"}, 
      "name": "activation677", 
      "inputs": [[435, 2]], 
      "backward_source_id": -1
    }, 
    {
      "op": "_Mul", 
      "param": {}, 
      "name": "_mul405", 
      "inputs": [[437, 0], [430, 0]], 
      "backward_source_id": -1
    }, 
    {
      "op": "Activation", 
      "param": {"act_type": "sigmoid"}, 
      "name": "activation675", 
      "inputs": [[435, 0]], 
      "backward_source_id": -1
    }, 
    {
      "op": "Activation", 
      "param": {"act_type": "tanh"}, 
      "name": "activation676", 
      "inputs": [[435, 1]], 
      "backward_source_id": -1
    }, 
    {
      "op": "_Mul", 
      "param": {}, 
      "name": "_mul406", 
      "inputs": [[439, 0], [440, 0]], 
      "backward_source_id": -1
    }, 
    {
      "op": "_Plus", 
      "param": {}, 
      "name": "_plus271", 
      "inputs": [[438, 0], [441, 0]], 
      "backward_source_id": -1
    }, 
    {
      "op": "Activation", 
      "param": {"act_type": "tanh"}, 
      "name": "activation679", 
      "inputs": [[442, 0]], 
      "backward_source_id": -1
    }, 
    {
      "op": "_Mul", 
      "param": {}, 
      "name": "_mul407", 
      "inputs": [[436, 0], [443, 0]], 
      "backward_source_id": -1
    }, 
    {
      "op": "FullyConnected", 
      "param": {
        "no_bias": "False", 
        "num_hidden": "512"
      }, 
      "name": "t83_l1_h2h", 
      "inputs": [[444, 0], [6, 0], [7, 0]], 
      "backward_source_id": -1
    }, 
    {
      "op": "_Plus", 
      "param": {}, 
      "name": "_plus272", 
      "inputs": [[104, 0], [445, 0]], 
      "backward_source_id": -1
    }, 
    {
      "op": "SliceChannel", 
      "param": {
        "axis": "1", 
        "num_outputs": "4", 
        "squeeze_axis": "False"
      }, 
      "name": "t83_l1_slice", 
      "inputs": [[446, 0]], 
      "backward_source_id": -1
    }, 
    {
      "op": "Activation", 
      "param": {"act_type": "sigmoid"}, 
      "name": "activation683", 
      "inputs": [[447, 3]], 
      "backward_source_id": -1
    }, 
    {
      "op": "Activation", 
      "param": {"act_type": "sigmoid"}, 
      "name": "activation682", 
      "inputs": [[447, 2]], 
      "backward_source_id": -1
    }, 
    {
      "op": "_Mul", 
      "param": {}, 
      "name": "_mul408", 
      "inputs": [[449, 0], [442, 0]], 
      "backward_source_id": -1
    }, 
    {
      "op": "Activation", 
      "param": {"act_type": "sigmoid"}, 
      "name": "activation680", 
      "inputs": [[447, 0]], 
      "backward_source_id": -1
    }, 
    {
      "op": "Activation", 
      "param": {"act_type": "tanh"}, 
      "name": "activation681", 
      "inputs": [[447, 1]], 
      "backward_source_id": -1
    }, 
    {
      "op": "_Mul", 
      "param": {}, 
      "name": "_mul409", 
      "inputs": [[451, 0], [452, 0]], 
      "backward_source_id": -1
    }, 
    {
      "op": "_Plus", 
      "param": {}, 
      "name": "_plus273", 
      "inputs": [[450, 0], [453, 0]], 
      "backward_source_id": -1
    }, 
    {
      "op": "Activation", 
      "param": {"act_type": "tanh"}, 
      "name": "activation684", 
      "inputs": [[454, 0]], 
      "backward_source_id": -1
    }, 
    {
      "op": "_Mul", 
      "param": {}, 
      "name": "_mul410", 
      "inputs": [[448, 0], [455, 0]], 
      "backward_source_id": -1
    }, 
    {
      "op": "FullyConnected", 
      "param": {
        "no_bias": "False", 
        "num_hidden": "512"
      }, 
      "name": "t82_l1_h2h", 
      "inputs": [[456, 0], [6, 0], [7, 0]], 
      "backward_source_id": -1
    }, 
    {
      "op": "_Plus", 
      "param": {}, 
      "name": "_plus274", 
      "inputs": [[103, 0], [457, 0]], 
      "backward_source_id": -1
    }, 
    {
      "op": "SliceChannel", 
      "param": {
        "axis": "1", 
        "num_outputs": "4", 
        "squeeze_axis": "False"
      }, 
      "name": "t82_l1_slice", 
      "inputs": [[458, 0]], 
      "backward_source_id": -1
    }, 
    {
      "op": "Activation", 
      "param": {"act_type": "sigmoid"}, 
      "name": "activation688", 
      "inputs": [[459, 3]], 
      "backward_source_id": -1
    }, 
    {
      "op": "Activation", 
      "param": {"act_type": "sigmoid"}, 
      "name": "activation687", 
      "inputs": [[459, 2]], 
      "backward_source_id": -1
    }, 
    {
      "op": "_Mul", 
      "param": {}, 
      "name": "_mul411", 
      "inputs": [[461, 0], [454, 0]], 
      "backward_source_id": -1
    }, 
    {
      "op": "Activation", 
      "param": {"act_type": "sigmoid"}, 
      "name": "activation685", 
      "inputs": [[459, 0]], 
      "backward_source_id": -1
    }, 
    {
      "op": "Activation", 
      "param": {"act_type": "tanh"}, 
      "name": "activation686", 
      "inputs": [[459, 1]], 
      "backward_source_id": -1
    }, 
    {
      "op": "_Mul", 
      "param": {}, 
      "name": "_mul412", 
      "inputs": [[463, 0], [464, 0]], 
      "backward_source_id": -1
    }, 
    {
      "op": "_Plus", 
      "param": {}, 
      "name": "_plus275", 
      "inputs": [[462, 0], [465, 0]], 
      "backward_source_id": -1
    }, 
    {
      "op": "Activation", 
      "param": {"act_type": "tanh"}, 
      "name": "activation689", 
      "inputs": [[466, 0]], 
      "backward_source_id": -1
    }, 
    {
      "op": "_Mul", 
      "param": {}, 
      "name": "_mul413", 
      "inputs": [[460, 0], [467, 0]], 
      "backward_source_id": -1
    }, 
    {
      "op": "FullyConnected", 
      "param": {
        "no_bias": "False", 
        "num_hidden": "512"
      }, 
      "name": "t81_l1_h2h", 
      "inputs": [[468, 0], [6, 0], [7, 0]], 
      "backward_source_id": -1
    }, 
    {
      "op": "_Plus", 
      "param": {}, 
      "name": "_plus276", 
      "inputs": [[102, 0], [469, 0]], 
      "backward_source_id": -1
    }, 
    {
      "op": "SliceChannel", 
      "param": {
        "axis": "1", 
        "num_outputs": "4", 
        "squeeze_axis": "False"
      }, 
      "name": "t81_l1_slice", 
      "inputs": [[470, 0]], 
      "backward_source_id": -1
    }, 
    {
      "op": "Activation", 
      "param": {"act_type": "sigmoid"}, 
      "name": "activation693", 
      "inputs": [[471, 3]], 
      "backward_source_id": -1
    }, 
    {
      "op": "Activation", 
      "param": {"act_type": "sigmoid"}, 
      "name": "activation692", 
      "inputs": [[471, 2]], 
      "backward_source_id": -1
    }, 
    {
      "op": "_Mul", 
      "param": {}, 
      "name": "_mul414", 
      "inputs": [[473, 0], [466, 0]], 
      "backward_source_id": -1
    }, 
    {
      "op": "Activation", 
      "param": {"act_type": "sigmoid"}, 
      "name": "activation690", 
      "inputs": [[471, 0]], 
      "backward_source_id": -1
    }, 
    {
      "op": "Activation", 
      "param": {"act_type": "tanh"}, 
      "name": "activation691", 
      "inputs": [[471, 1]], 
      "backward_source_id": -1
    }, 
    {
      "op": "_Mul", 
      "param": {}, 
      "name": "_mul415", 
      "inputs": [[475, 0], [476, 0]], 
      "backward_source_id": -1
    }, 
    {
      "op": "_Plus", 
      "param": {}, 
      "name": "_plus277", 
      "inputs": [[474, 0], [477, 0]], 
      "backward_source_id": -1
    }, 
    {
      "op": "Activation", 
      "param": {"act_type": "tanh"}, 
      "name": "activation694", 
      "inputs": [[478, 0]], 
      "backward_source_id": -1
    }, 
    {
      "op": "_Mul", 
      "param": {}, 
      "name": "_mul416", 
      "inputs": [[472, 0], [479, 0]], 
      "backward_source_id": -1
    }, 
    {
      "op": "FullyConnected", 
      "param": {
        "no_bias": "False", 
        "num_hidden": "512"
      }, 
      "name": "t80_l1_h2h", 
      "inputs": [[480, 0], [6, 0], [7, 0]], 
      "backward_source_id": -1
    }, 
    {
      "op": "_Plus", 
      "param": {}, 
      "name": "_plus278", 
      "inputs": [[101, 0], [481, 0]], 
      "backward_source_id": -1
    }, 
    {
      "op": "SliceChannel", 
      "param": {
        "axis": "1", 
        "num_outputs": "4", 
        "squeeze_axis": "False"
      }, 
      "name": "t80_l1_slice", 
      "inputs": [[482, 0]], 
      "backward_source_id": -1
    }, 
    {
      "op": "Activation", 
      "param": {"act_type": "sigmoid"}, 
      "name": "activation698", 
      "inputs": [[483, 3]], 
      "backward_source_id": -1
    }, 
    {
      "op": "Activation", 
      "param": {"act_type": "sigmoid"}, 
      "name": "activation697", 
      "inputs": [[483, 2]], 
      "backward_source_id": -1
    }, 
    {
      "op": "_Mul", 
      "param": {}, 
      "name": "_mul417", 
      "inputs": [[485, 0], [478, 0]], 
      "backward_source_id": -1
    }, 
    {
      "op": "Activation", 
      "param": {"act_type": "sigmoid"}, 
      "name": "activation695", 
      "inputs": [[483, 0]], 
      "backward_source_id": -1
    }, 
    {
      "op": "Activation", 
      "param": {"act_type": "tanh"}, 
      "name": "activation696", 
      "inputs": [[483, 1]], 
      "backward_source_id": -1
    }, 
    {
      "op": "_Mul", 
      "param": {}, 
      "name": "_mul418", 
      "inputs": [[487, 0], [488, 0]], 
      "backward_source_id": -1
    }, 
    {
      "op": "_Plus", 
      "param": {}, 
      "name": "_plus279", 
      "inputs": [[486, 0], [489, 0]], 
      "backward_source_id": -1
    }, 
    {
      "op": "Activation", 
      "param": {"act_type": "tanh"}, 
      "name": "activation699", 
      "inputs": [[490, 0]], 
      "backward_source_id": -1
    }, 
    {
      "op": "_Mul", 
      "param": {}, 
      "name": "_mul419", 
      "inputs": [[484, 0], [491, 0]], 
      "backward_source_id": -1
    }, 
    {
      "op": "FullyConnected", 
      "param": {
        "no_bias": "False", 
        "num_hidden": "512"
      }, 
      "name": "t79_l1_h2h", 
      "inputs": [[492, 0], [6, 0], [7, 0]], 
      "backward_source_id": -1
    }, 
    {
      "op": "_Plus", 
      "param": {}, 
      "name": "_plus280", 
      "inputs": [[100, 0], [493, 0]], 
      "backward_source_id": -1
    }, 
    {
      "op": "SliceChannel", 
      "param": {
        "axis": "1", 
        "num_outputs": "4", 
        "squeeze_axis": "False"
      }, 
      "name": "t79_l1_slice", 
      "inputs": [[494, 0]], 
      "backward_source_id": -1
    }, 
    {
      "op": "Activation", 
      "param": {"act_type": "sigmoid"}, 
      "name": "activation703", 
      "inputs": [[495, 3]], 
      "backward_source_id": -1
    }, 
    {
      "op": "Activation", 
      "param": {"act_type": "sigmoid"}, 
      "name": "activation702", 
      "inputs": [[495, 2]], 
      "backward_source_id": -1
    }, 
    {
      "op": "_Mul", 
      "param": {}, 
      "name": "_mul420", 
      "inputs": [[497, 0], [490, 0]], 
      "backward_source_id": -1
    }, 
    {
      "op": "Activation", 
      "param": {"act_type": "sigmoid"}, 
      "name": "activation700", 
      "inputs": [[495, 0]], 
      "backward_source_id": -1
    }, 
    {
      "op": "Activation", 
      "param": {"act_type": "tanh"}, 
      "name": "activation701", 
      "inputs": [[495, 1]], 
      "backward_source_id": -1
    }, 
    {
      "op": "_Mul", 
      "param": {}, 
      "name": "_mul421", 
      "inputs": [[499, 0], [500, 0]], 
      "backward_source_id": -1
    }, 
    {
      "op": "_Plus", 
      "param": {}, 
      "name": "_plus281", 
      "inputs": [[498, 0], [501, 0]], 
      "backward_source_id": -1
    }, 
    {
      "op": "Activation", 
      "param": {"act_type": "tanh"}, 
      "name": "activation704", 
      "inputs": [[502, 0]], 
      "backward_source_id": -1
    }, 
    {
      "op": "_Mul", 
      "param": {}, 
      "name": "_mul422", 
      "inputs": [[496, 0], [503, 0]], 
      "backward_source_id": -1
    }, 
    {
      "op": "FullyConnected", 
      "param": {
        "no_bias": "False", 
        "num_hidden": "512"
      }, 
      "name": "t78_l1_h2h", 
      "inputs": [[504, 0], [6, 0], [7, 0]], 
      "backward_source_id": -1
    }, 
    {
      "op": "_Plus", 
      "param": {}, 
      "name": "_plus282", 
      "inputs": [[99, 0], [505, 0]], 
      "backward_source_id": -1
    }, 
    {
      "op": "SliceChannel", 
      "param": {
        "axis": "1", 
        "num_outputs": "4", 
        "squeeze_axis": "False"
      }, 
      "name": "t78_l1_slice", 
      "inputs": [[506, 0]], 
      "backward_source_id": -1
    }, 
    {
      "op": "Activation", 
      "param": {"act_type": "sigmoid"}, 
      "name": "activation708", 
      "inputs": [[507, 3]], 
      "backward_source_id": -1
    }, 
    {
      "op": "Activation", 
      "param": {"act_type": "sigmoid"}, 
      "name": "activation707", 
      "inputs": [[507, 2]], 
      "backward_source_id": -1
    }, 
    {
      "op": "_Mul", 
      "param": {}, 
      "name": "_mul423", 
      "inputs": [[509, 0], [502, 0]], 
      "backward_source_id": -1
    }, 
    {
      "op": "Activation", 
      "param": {"act_type": "sigmoid"}, 
      "name": "activation705", 
      "inputs": [[507, 0]], 
      "backward_source_id": -1
    }, 
    {
      "op": "Activation", 
      "param": {"act_type": "tanh"}, 
      "name": "activation706", 
      "inputs": [[507, 1]], 
      "backward_source_id": -1
    }, 
    {
      "op": "_Mul", 
      "param": {}, 
      "name": "_mul424", 
      "inputs": [[511, 0], [512, 0]], 
      "backward_source_id": -1
    }, 
    {
      "op": "_Plus", 
      "param": {}, 
      "name": "_plus283", 
      "inputs": [[510, 0], [513, 0]], 
      "backward_source_id": -1
    }, 
    {
      "op": "Activation", 
      "param": {"act_type": "tanh"}, 
      "name": "activation709", 
      "inputs": [[514, 0]], 
      "backward_source_id": -1
    }, 
    {
      "op": "_Mul", 
      "param": {}, 
      "name": "_mul425", 
      "inputs": [[508, 0], [515, 0]], 
      "backward_source_id": -1
    }, 
    {
      "op": "FullyConnected", 
      "param": {
        "no_bias": "False", 
        "num_hidden": "512"
      }, 
      "name": "t77_l1_h2h", 
      "inputs": [[516, 0], [6, 0], [7, 0]], 
      "backward_source_id": -1
    }, 
    {
      "op": "_Plus", 
      "param": {}, 
      "name": "_plus284", 
      "inputs": [[98, 0], [517, 0]], 
      "backward_source_id": -1
    }, 
    {
      "op": "SliceChannel", 
      "param": {
        "axis": "1", 
        "num_outputs": "4", 
        "squeeze_axis": "False"
      }, 
      "name": "t77_l1_slice", 
      "inputs": [[518, 0]], 
      "backward_source_id": -1
    }, 
    {
      "op": "Activation", 
      "param": {"act_type": "sigmoid"}, 
      "name": "activation713", 
      "inputs": [[519, 3]], 
      "backward_source_id": -1
    }, 
    {
      "op": "Activation", 
      "param": {"act_type": "sigmoid"}, 
      "name": "activation712", 
      "inputs": [[519, 2]], 
      "backward_source_id": -1
    }, 
    {
      "op": "_Mul", 
      "param": {}, 
      "name": "_mul426", 
      "inputs": [[521, 0], [514, 0]], 
      "backward_source_id": -1
    }, 
    {
      "op": "Activation", 
      "param": {"act_type": "sigmoid"}, 
      "name": "activation710", 
      "inputs": [[519, 0]], 
      "backward_source_id": -1
    }, 
    {
      "op": "Activation", 
      "param": {"act_type": "tanh"}, 
      "name": "activation711", 
      "inputs": [[519, 1]], 
      "backward_source_id": -1
    }, 
    {
      "op": "_Mul", 
      "param": {}, 
      "name": "_mul427", 
      "inputs": [[523, 0], [524, 0]], 
      "backward_source_id": -1
    }, 
    {
      "op": "_Plus", 
      "param": {}, 
      "name": "_plus285", 
      "inputs": [[522, 0], [525, 0]], 
      "backward_source_id": -1
    }, 
    {
      "op": "Activation", 
      "param": {"act_type": "tanh"}, 
      "name": "activation714", 
      "inputs": [[526, 0]], 
      "backward_source_id": -1
    }, 
    {
      "op": "_Mul", 
      "param": {}, 
      "name": "_mul428", 
      "inputs": [[520, 0], [527, 0]], 
      "backward_source_id": -1
    }, 
    {
      "op": "FullyConnected", 
      "param": {
        "no_bias": "False", 
        "num_hidden": "512"
      }, 
      "name": "t76_l1_h2h", 
      "inputs": [[528, 0], [6, 0], [7, 0]], 
      "backward_source_id": -1
    }, 
    {
      "op": "_Plus", 
      "param": {}, 
      "name": "_plus286", 
      "inputs": [[97, 0], [529, 0]], 
      "backward_source_id": -1
    }, 
    {
      "op": "SliceChannel", 
      "param": {
        "axis": "1", 
        "num_outputs": "4", 
        "squeeze_axis": "False"
      }, 
      "name": "t76_l1_slice", 
      "inputs": [[530, 0]], 
      "backward_source_id": -1
    }, 
    {
      "op": "Activation", 
      "param": {"act_type": "sigmoid"}, 
      "name": "activation718", 
      "inputs": [[531, 3]], 
      "backward_source_id": -1
    }, 
    {
      "op": "Activation", 
      "param": {"act_type": "sigmoid"}, 
      "name": "activation717", 
      "inputs": [[531, 2]], 
      "backward_source_id": -1
    }, 
    {
      "op": "_Mul", 
      "param": {}, 
      "name": "_mul429", 
      "inputs": [[533, 0], [526, 0]], 
      "backward_source_id": -1
    }, 
    {
      "op": "Activation", 
      "param": {"act_type": "sigmoid"}, 
      "name": "activation715", 
      "inputs": [[531, 0]], 
      "backward_source_id": -1
    }, 
    {
      "op": "Activation", 
      "param": {"act_type": "tanh"}, 
      "name": "activation716", 
      "inputs": [[531, 1]], 
      "backward_source_id": -1
    }, 
    {
      "op": "_Mul", 
      "param": {}, 
      "name": "_mul430", 
      "inputs": [[535, 0], [536, 0]], 
      "backward_source_id": -1
    }, 
    {
      "op": "_Plus", 
      "param": {}, 
      "name": "_plus287", 
      "inputs": [[534, 0], [537, 0]], 
      "backward_source_id": -1
    }, 
    {
      "op": "Activation", 
      "param": {"act_type": "tanh"}, 
      "name": "activation719", 
      "inputs": [[538, 0]], 
      "backward_source_id": -1
    }, 
    {
      "op": "_Mul", 
      "param": {}, 
      "name": "_mul431", 
      "inputs": [[532, 0], [539, 0]], 
      "backward_source_id": -1
    }, 
    {
      "op": "FullyConnected", 
      "param": {
        "no_bias": "False", 
        "num_hidden": "512"
      }, 
      "name": "t75_l1_h2h", 
      "inputs": [[540, 0], [6, 0], [7, 0]], 
      "backward_source_id": -1
    }, 
    {
      "op": "_Plus", 
      "param": {}, 
      "name": "_plus288", 
      "inputs": [[96, 0], [541, 0]], 
      "backward_source_id": -1
    }, 
    {
      "op": "SliceChannel", 
      "param": {
        "axis": "1", 
        "num_outputs": "4", 
        "squeeze_axis": "False"
      }, 
      "name": "t75_l1_slice", 
      "inputs": [[542, 0]], 
      "backward_source_id": -1
    }, 
    {
      "op": "Activation", 
      "param": {"act_type": "sigmoid"}, 
      "name": "activation723", 
      "inputs": [[543, 3]], 
      "backward_source_id": -1
    }, 
    {
      "op": "Activation", 
      "param": {"act_type": "sigmoid"}, 
      "name": "activation722", 
      "inputs": [[543, 2]], 
      "backward_source_id": -1
    }, 
    {
      "op": "_Mul", 
      "param": {}, 
      "name": "_mul432", 
      "inputs": [[545, 0], [538, 0]], 
      "backward_source_id": -1
    }, 
    {
      "op": "Activation", 
      "param": {"act_type": "sigmoid"}, 
      "name": "activation720", 
      "inputs": [[543, 0]], 
      "backward_source_id": -1
    }, 
    {
      "op": "Activation", 
      "param": {"act_type": "tanh"}, 
      "name": "activation721", 
      "inputs": [[543, 1]], 
      "backward_source_id": -1
    }, 
    {
      "op": "_Mul", 
      "param": {}, 
      "name": "_mul433", 
      "inputs": [[547, 0], [548, 0]], 
      "backward_source_id": -1
    }, 
    {
      "op": "_Plus", 
      "param": {}, 
      "name": "_plus289", 
      "inputs": [[546, 0], [549, 0]], 
      "backward_source_id": -1
    }, 
    {
      "op": "Activation", 
      "param": {"act_type": "tanh"}, 
      "name": "activation724", 
      "inputs": [[550, 0]], 
      "backward_source_id": -1
    }, 
    {
      "op": "_Mul", 
      "param": {}, 
      "name": "_mul434", 
      "inputs": [[544, 0], [551, 0]], 
      "backward_source_id": -1
    }, 
    {
      "op": "FullyConnected", 
      "param": {
        "no_bias": "False", 
        "num_hidden": "512"
      }, 
      "name": "t74_l1_h2h", 
      "inputs": [[552, 0], [6, 0], [7, 0]], 
      "backward_source_id": -1
    }, 
    {
      "op": "_Plus", 
      "param": {}, 
      "name": "_plus290", 
      "inputs": [[95, 0], [553, 0]], 
      "backward_source_id": -1
    }, 
    {
      "op": "SliceChannel", 
      "param": {
        "axis": "1", 
        "num_outputs": "4", 
        "squeeze_axis": "False"
      }, 
      "name": "t74_l1_slice", 
      "inputs": [[554, 0]], 
      "backward_source_id": -1
    }, 
    {
      "op": "Activation", 
      "param": {"act_type": "sigmoid"}, 
      "name": "activation728", 
      "inputs": [[555, 3]], 
      "backward_source_id": -1
    }, 
    {
      "op": "Activation", 
      "param": {"act_type": "sigmoid"}, 
      "name": "activation727", 
      "inputs": [[555, 2]], 
      "backward_source_id": -1
    }, 
    {
      "op": "_Mul", 
      "param": {}, 
      "name": "_mul435", 
      "inputs": [[557, 0], [550, 0]], 
      "backward_source_id": -1
    }, 
    {
      "op": "Activation", 
      "param": {"act_type": "sigmoid"}, 
      "name": "activation725", 
      "inputs": [[555, 0]], 
      "backward_source_id": -1
    }, 
    {
      "op": "Activation", 
      "param": {"act_type": "tanh"}, 
      "name": "activation726", 
      "inputs": [[555, 1]], 
      "backward_source_id": -1
    }, 
    {
      "op": "_Mul", 
      "param": {}, 
      "name": "_mul436", 
      "inputs": [[559, 0], [560, 0]], 
      "backward_source_id": -1
    }, 
    {
      "op": "_Plus", 
      "param": {}, 
      "name": "_plus291", 
      "inputs": [[558, 0], [561, 0]], 
      "backward_source_id": -1
    }, 
    {
      "op": "Activation", 
      "param": {"act_type": "tanh"}, 
      "name": "activation729", 
      "inputs": [[562, 0]], 
      "backward_source_id": -1
    }, 
    {
      "op": "_Mul", 
      "param": {}, 
      "name": "_mul437", 
      "inputs": [[556, 0], [563, 0]], 
      "backward_source_id": -1
    }, 
    {
      "op": "FullyConnected", 
      "param": {
        "no_bias": "False", 
        "num_hidden": "512"
      }, 
      "name": "t73_l1_h2h", 
      "inputs": [[564, 0], [6, 0], [7, 0]], 
      "backward_source_id": -1
    }, 
    {
      "op": "_Plus", 
      "param": {}, 
      "name": "_plus292", 
      "inputs": [[94, 0], [565, 0]], 
      "backward_source_id": -1
    }, 
    {
      "op": "SliceChannel", 
      "param": {
        "axis": "1", 
        "num_outputs": "4", 
        "squeeze_axis": "False"
      }, 
      "name": "t73_l1_slice", 
      "inputs": [[566, 0]], 
      "backward_source_id": -1
    }, 
    {
      "op": "Activation", 
      "param": {"act_type": "sigmoid"}, 
      "name": "activation733", 
      "inputs": [[567, 3]], 
      "backward_source_id": -1
    }, 
    {
      "op": "Activation", 
      "param": {"act_type": "sigmoid"}, 
      "name": "activation732", 
      "inputs": [[567, 2]], 
      "backward_source_id": -1
    }, 
    {
      "op": "_Mul", 
      "param": {}, 
      "name": "_mul438", 
      "inputs": [[569, 0], [562, 0]], 
      "backward_source_id": -1
    }, 
    {
      "op": "Activation", 
      "param": {"act_type": "sigmoid"}, 
      "name": "activation730", 
      "inputs": [[567, 0]], 
      "backward_source_id": -1
    }, 
    {
      "op": "Activation", 
      "param": {"act_type": "tanh"}, 
      "name": "activation731", 
      "inputs": [[567, 1]], 
      "backward_source_id": -1
    }, 
    {
      "op": "_Mul", 
      "param": {}, 
      "name": "_mul439", 
      "inputs": [[571, 0], [572, 0]], 
      "backward_source_id": -1
    }, 
    {
      "op": "_Plus", 
      "param": {}, 
      "name": "_plus293", 
      "inputs": [[570, 0], [573, 0]], 
      "backward_source_id": -1
    }, 
    {
      "op": "Activation", 
      "param": {"act_type": "tanh"}, 
      "name": "activation734", 
      "inputs": [[574, 0]], 
      "backward_source_id": -1
    }, 
    {
      "op": "_Mul", 
      "param": {}, 
      "name": "_mul440", 
      "inputs": [[568, 0], [575, 0]], 
      "backward_source_id": -1
    }, 
    {
      "op": "FullyConnected", 
      "param": {
        "no_bias": "False", 
        "num_hidden": "512"
      }, 
      "name": "t72_l1_h2h", 
      "inputs": [[576, 0], [6, 0], [7, 0]], 
      "backward_source_id": -1
    }, 
    {
      "op": "_Plus", 
      "param": {}, 
      "name": "_plus294", 
      "inputs": [[93, 0], [577, 0]], 
      "backward_source_id": -1
    }, 
    {
      "op": "SliceChannel", 
      "param": {
        "axis": "1", 
        "num_outputs": "4", 
        "squeeze_axis": "False"
      }, 
      "name": "t72_l1_slice", 
      "inputs": [[578, 0]], 
      "backward_source_id": -1
    }, 
    {
      "op": "Activation", 
      "param": {"act_type": "sigmoid"}, 
      "name": "activation738", 
      "inputs": [[579, 3]], 
      "backward_source_id": -1
    }, 
    {
      "op": "Activation", 
      "param": {"act_type": "sigmoid"}, 
      "name": "activation737", 
      "inputs": [[579, 2]], 
      "backward_source_id": -1
    }, 
    {
      "op": "_Mul", 
      "param": {}, 
      "name": "_mul441", 
      "inputs": [[581, 0], [574, 0]], 
      "backward_source_id": -1
    }, 
    {
      "op": "Activation", 
      "param": {"act_type": "sigmoid"}, 
      "name": "activation735", 
      "inputs": [[579, 0]], 
      "backward_source_id": -1
    }, 
    {
      "op": "Activation", 
      "param": {"act_type": "tanh"}, 
      "name": "activation736", 
      "inputs": [[579, 1]], 
      "backward_source_id": -1
    }, 
    {
      "op": "_Mul", 
      "param": {}, 
      "name": "_mul442", 
      "inputs": [[583, 0], [584, 0]], 
      "backward_source_id": -1
    }, 
    {
      "op": "_Plus", 
      "param": {}, 
      "name": "_plus295", 
      "inputs": [[582, 0], [585, 0]], 
      "backward_source_id": -1
    }, 
    {
      "op": "Activation", 
      "param": {"act_type": "tanh"}, 
      "name": "activation739", 
      "inputs": [[586, 0]], 
      "backward_source_id": -1
    }, 
    {
      "op": "_Mul", 
      "param": {}, 
      "name": "_mul443", 
      "inputs": [[580, 0], [587, 0]], 
      "backward_source_id": -1
    }, 
    {
      "op": "FullyConnected", 
      "param": {
        "no_bias": "False", 
        "num_hidden": "512"
      }, 
      "name": "t71_l1_h2h", 
      "inputs": [[588, 0], [6, 0], [7, 0]], 
      "backward_source_id": -1
    }, 
    {
      "op": "_Plus", 
      "param": {}, 
      "name": "_plus296", 
      "inputs": [[92, 0], [589, 0]], 
      "backward_source_id": -1
    }, 
    {
      "op": "SliceChannel", 
      "param": {
        "axis": "1", 
        "num_outputs": "4", 
        "squeeze_axis": "False"
      }, 
      "name": "t71_l1_slice", 
      "inputs": [[590, 0]], 
      "backward_source_id": -1
    }, 
    {
      "op": "Activation", 
      "param": {"act_type": "sigmoid"}, 
      "name": "activation743", 
      "inputs": [[591, 3]], 
      "backward_source_id": -1
    }, 
    {
      "op": "Activation", 
      "param": {"act_type": "sigmoid"}, 
      "name": "activation742", 
      "inputs": [[591, 2]], 
      "backward_source_id": -1
    }, 
    {
      "op": "_Mul", 
      "param": {}, 
      "name": "_mul444", 
      "inputs": [[593, 0], [586, 0]], 
      "backward_source_id": -1
    }, 
    {
      "op": "Activation", 
      "param": {"act_type": "sigmoid"}, 
      "name": "activation740", 
      "inputs": [[591, 0]], 
      "backward_source_id": -1
    }, 
    {
      "op": "Activation", 
      "param": {"act_type": "tanh"}, 
      "name": "activation741", 
      "inputs": [[591, 1]], 
      "backward_source_id": -1
    }, 
    {
      "op": "_Mul", 
      "param": {}, 
      "name": "_mul445", 
      "inputs": [[595, 0], [596, 0]], 
      "backward_source_id": -1
    }, 
    {
      "op": "_Plus", 
      "param": {}, 
      "name": "_plus297", 
      "inputs": [[594, 0], [597, 0]], 
      "backward_source_id": -1
    }, 
    {
      "op": "Activation", 
      "param": {"act_type": "tanh"}, 
      "name": "activation744", 
      "inputs": [[598, 0]], 
      "backward_source_id": -1
    }, 
    {
      "op": "_Mul", 
      "param": {}, 
      "name": "_mul446", 
      "inputs": [[592, 0], [599, 0]], 
      "backward_source_id": -1
    }, 
    {
      "op": "FullyConnected", 
      "param": {
        "no_bias": "False", 
        "num_hidden": "512"
      }, 
      "name": "t70_l1_h2h", 
      "inputs": [[600, 0], [6, 0], [7, 0]], 
      "backward_source_id": -1
    }, 
    {
      "op": "_Plus", 
      "param": {}, 
      "name": "_plus298", 
      "inputs": [[91, 0], [601, 0]], 
      "backward_source_id": -1
    }, 
    {
      "op": "SliceChannel", 
      "param": {
        "axis": "1", 
        "num_outputs": "4", 
        "squeeze_axis": "False"
      }, 
      "name": "t70_l1_slice", 
      "inputs": [[602, 0]], 
      "backward_source_id": -1
    }, 
    {
      "op": "Activation", 
      "param": {"act_type": "sigmoid"}, 
      "name": "activation748", 
      "inputs": [[603, 3]], 
      "backward_source_id": -1
    }, 
    {
      "op": "Activation", 
      "param": {"act_type": "sigmoid"}, 
      "name": "activation747", 
      "inputs": [[603, 2]], 
      "backward_source_id": -1
    }, 
    {
      "op": "_Mul", 
      "param": {}, 
      "name": "_mul447", 
      "inputs": [[605, 0], [598, 0]], 
      "backward_source_id": -1
    }, 
    {
      "op": "Activation", 
      "param": {"act_type": "sigmoid"}, 
      "name": "activation745", 
      "inputs": [[603, 0]], 
      "backward_source_id": -1
    }, 
    {
      "op": "Activation", 
      "param": {"act_type": "tanh"}, 
      "name": "activation746", 
      "inputs": [[603, 1]], 
      "backward_source_id": -1
    }, 
    {
      "op": "_Mul", 
      "param": {}, 
      "name": "_mul448", 
      "inputs": [[607, 0], [608, 0]], 
      "backward_source_id": -1
    }, 
    {
      "op": "_Plus", 
      "param": {}, 
      "name": "_plus299", 
      "inputs": [[606, 0], [609, 0]], 
      "backward_source_id": -1
    }, 
    {
      "op": "Activation", 
      "param": {"act_type": "tanh"}, 
      "name": "activation749", 
      "inputs": [[610, 0]], 
      "backward_source_id": -1
    }, 
    {
      "op": "_Mul", 
      "param": {}, 
      "name": "_mul449", 
      "inputs": [[604, 0], [611, 0]], 
      "backward_source_id": -1
    }, 
    {
      "op": "FullyConnected", 
      "param": {
        "no_bias": "False", 
        "num_hidden": "512"
      }, 
      "name": "t69_l1_h2h", 
      "inputs": [[612, 0], [6, 0], [7, 0]], 
      "backward_source_id": -1
    }, 
    {
      "op": "_Plus", 
      "param": {}, 
      "name": "_plus300", 
      "inputs": [[90, 0], [613, 0]], 
      "backward_source_id": -1
    }, 
    {
      "op": "SliceChannel", 
      "param": {
        "axis": "1", 
        "num_outputs": "4", 
        "squeeze_axis": "False"
      }, 
      "name": "t69_l1_slice", 
      "inputs": [[614, 0]], 
      "backward_source_id": -1
    }, 
    {
      "op": "Activation", 
      "param": {"act_type": "sigmoid"}, 
      "name": "activation753", 
      "inputs": [[615, 3]], 
      "backward_source_id": -1
    }, 
    {
      "op": "Activation", 
      "param": {"act_type": "sigmoid"}, 
      "name": "activation752", 
      "inputs": [[615, 2]], 
      "backward_source_id": -1
    }, 
    {
      "op": "_Mul", 
      "param": {}, 
      "name": "_mul450", 
      "inputs": [[617, 0], [610, 0]], 
      "backward_source_id": -1
    }, 
    {
      "op": "Activation", 
      "param": {"act_type": "sigmoid"}, 
      "name": "activation750", 
      "inputs": [[615, 0]], 
      "backward_source_id": -1
    }, 
    {
      "op": "Activation", 
      "param": {"act_type": "tanh"}, 
      "name": "activation751", 
      "inputs": [[615, 1]], 
      "backward_source_id": -1
    }, 
    {
      "op": "_Mul", 
      "param": {}, 
      "name": "_mul451", 
      "inputs": [[619, 0], [620, 0]], 
      "backward_source_id": -1
    }, 
    {
      "op": "_Plus", 
      "param": {}, 
      "name": "_plus301", 
      "inputs": [[618, 0], [621, 0]], 
      "backward_source_id": -1
    }, 
    {
      "op": "Activation", 
      "param": {"act_type": "tanh"}, 
      "name": "activation754", 
      "inputs": [[622, 0]], 
      "backward_source_id": -1
    }, 
    {
      "op": "_Mul", 
      "param": {}, 
      "name": "_mul452", 
      "inputs": [[616, 0], [623, 0]], 
      "backward_source_id": -1
    }, 
    {
      "op": "FullyConnected", 
      "param": {
        "no_bias": "False", 
        "num_hidden": "512"
      }, 
      "name": "t68_l1_h2h", 
      "inputs": [[624, 0], [6, 0], [7, 0]], 
      "backward_source_id": -1
    }, 
    {
      "op": "_Plus", 
      "param": {}, 
      "name": "_plus302", 
      "inputs": [[89, 0], [625, 0]], 
      "backward_source_id": -1
    }, 
    {
      "op": "SliceChannel", 
      "param": {
        "axis": "1", 
        "num_outputs": "4", 
        "squeeze_axis": "False"
      }, 
      "name": "t68_l1_slice", 
      "inputs": [[626, 0]], 
      "backward_source_id": -1
    }, 
    {
      "op": "Activation", 
      "param": {"act_type": "sigmoid"}, 
      "name": "activation758", 
      "inputs": [[627, 3]], 
      "backward_source_id": -1
    }, 
    {
      "op": "Activation", 
      "param": {"act_type": "sigmoid"}, 
      "name": "activation757", 
      "inputs": [[627, 2]], 
      "backward_source_id": -1
    }, 
    {
      "op": "_Mul", 
      "param": {}, 
      "name": "_mul453", 
      "inputs": [[629, 0], [622, 0]], 
      "backward_source_id": -1
    }, 
    {
      "op": "Activation", 
      "param": {"act_type": "sigmoid"}, 
      "name": "activation755", 
      "inputs": [[627, 0]], 
      "backward_source_id": -1
    }, 
    {
      "op": "Activation", 
      "param": {"act_type": "tanh"}, 
      "name": "activation756", 
      "inputs": [[627, 1]], 
      "backward_source_id": -1
    }, 
    {
      "op": "_Mul", 
      "param": {}, 
      "name": "_mul454", 
      "inputs": [[631, 0], [632, 0]], 
      "backward_source_id": -1
    }, 
    {
      "op": "_Plus", 
      "param": {}, 
      "name": "_plus303", 
      "inputs": [[630, 0], [633, 0]], 
      "backward_source_id": -1
    }, 
    {
      "op": "Activation", 
      "param": {"act_type": "tanh"}, 
      "name": "activation759", 
      "inputs": [[634, 0]], 
      "backward_source_id": -1
    }, 
    {
      "op": "_Mul", 
      "param": {}, 
      "name": "_mul455", 
      "inputs": [[628, 0], [635, 0]], 
      "backward_source_id": -1
    }, 
    {
      "op": "FullyConnected", 
      "param": {
        "no_bias": "False", 
        "num_hidden": "512"
      }, 
      "name": "t67_l1_h2h", 
      "inputs": [[636, 0], [6, 0], [7, 0]], 
      "backward_source_id": -1
    }, 
    {
      "op": "_Plus", 
      "param": {}, 
      "name": "_plus304", 
      "inputs": [[88, 0], [637, 0]], 
      "backward_source_id": -1
    }, 
    {
      "op": "SliceChannel", 
      "param": {
        "axis": "1", 
        "num_outputs": "4", 
        "squeeze_axis": "False"
      }, 
      "name": "t67_l1_slice", 
      "inputs": [[638, 0]], 
      "backward_source_id": -1
    }, 
    {
      "op": "Activation", 
      "param": {"act_type": "sigmoid"}, 
      "name": "activation763", 
      "inputs": [[639, 3]], 
      "backward_source_id": -1
    }, 
    {
      "op": "Activation", 
      "param": {"act_type": "sigmoid"}, 
      "name": "activation762", 
      "inputs": [[639, 2]], 
      "backward_source_id": -1
    }, 
    {
      "op": "_Mul", 
      "param": {}, 
      "name": "_mul456", 
      "inputs": [[641, 0], [634, 0]], 
      "backward_source_id": -1
    }, 
    {
      "op": "Activation", 
      "param": {"act_type": "sigmoid"}, 
      "name": "activation760", 
      "inputs": [[639, 0]], 
      "backward_source_id": -1
    }, 
    {
      "op": "Activation", 
      "param": {"act_type": "tanh"}, 
      "name": "activation761", 
      "inputs": [[639, 1]], 
      "backward_source_id": -1
    }, 
    {
      "op": "_Mul", 
      "param": {}, 
      "name": "_mul457", 
      "inputs": [[643, 0], [644, 0]], 
      "backward_source_id": -1
    }, 
    {
      "op": "_Plus", 
      "param": {}, 
      "name": "_plus305", 
      "inputs": [[642, 0], [645, 0]], 
      "backward_source_id": -1
    }, 
    {
      "op": "Activation", 
      "param": {"act_type": "tanh"}, 
      "name": "activation764", 
      "inputs": [[646, 0]], 
      "backward_source_id": -1
    }, 
    {
      "op": "_Mul", 
      "param": {}, 
      "name": "_mul458", 
      "inputs": [[640, 0], [647, 0]], 
      "backward_source_id": -1
    }, 
    {
      "op": "FullyConnected", 
      "param": {
        "no_bias": "False", 
        "num_hidden": "512"
      }, 
      "name": "t66_l1_h2h", 
      "inputs": [[648, 0], [6, 0], [7, 0]], 
      "backward_source_id": -1
    }, 
    {
      "op": "_Plus", 
      "param": {}, 
      "name": "_plus306", 
      "inputs": [[87, 0], [649, 0]], 
      "backward_source_id": -1
    }, 
    {
      "op": "SliceChannel", 
      "param": {
        "axis": "1", 
        "num_outputs": "4", 
        "squeeze_axis": "False"
      }, 
      "name": "t66_l1_slice", 
      "inputs": [[650, 0]], 
      "backward_source_id": -1
    }, 
    {
      "op": "Activation", 
      "param": {"act_type": "sigmoid"}, 
      "name": "activation768", 
      "inputs": [[651, 3]], 
      "backward_source_id": -1
    }, 
    {
      "op": "Activation", 
      "param": {"act_type": "sigmoid"}, 
      "name": "activation767", 
      "inputs": [[651, 2]], 
      "backward_source_id": -1
    }, 
    {
      "op": "_Mul", 
      "param": {}, 
      "name": "_mul459", 
      "inputs": [[653, 0], [646, 0]], 
      "backward_source_id": -1
    }, 
    {
      "op": "Activation", 
      "param": {"act_type": "sigmoid"}, 
      "name": "activation765", 
      "inputs": [[651, 0]], 
      "backward_source_id": -1
    }, 
    {
      "op": "Activation", 
      "param": {"act_type": "tanh"}, 
      "name": "activation766", 
      "inputs": [[651, 1]], 
      "backward_source_id": -1
    }, 
    {
      "op": "_Mul", 
      "param": {}, 
      "name": "_mul460", 
      "inputs": [[655, 0], [656, 0]], 
      "backward_source_id": -1
    }, 
    {
      "op": "_Plus", 
      "param": {}, 
      "name": "_plus307", 
      "inputs": [[654, 0], [657, 0]], 
      "backward_source_id": -1
    }, 
    {
      "op": "Activation", 
      "param": {"act_type": "tanh"}, 
      "name": "activation769", 
      "inputs": [[658, 0]], 
      "backward_source_id": -1
    }, 
    {
      "op": "_Mul", 
      "param": {}, 
      "name": "_mul461", 
      "inputs": [[652, 0], [659, 0]], 
      "backward_source_id": -1
    }, 
    {
      "op": "FullyConnected", 
      "param": {
        "no_bias": "False", 
        "num_hidden": "512"
      }, 
      "name": "t65_l1_h2h", 
      "inputs": [[660, 0], [6, 0], [7, 0]], 
      "backward_source_id": -1
    }, 
    {
      "op": "_Plus", 
      "param": {}, 
      "name": "_plus308", 
      "inputs": [[86, 0], [661, 0]], 
      "backward_source_id": -1
    }, 
    {
      "op": "SliceChannel", 
      "param": {
        "axis": "1", 
        "num_outputs": "4", 
        "squeeze_axis": "False"
      }, 
      "name": "t65_l1_slice", 
      "inputs": [[662, 0]], 
      "backward_source_id": -1
    }, 
    {
      "op": "Activation", 
      "param": {"act_type": "sigmoid"}, 
      "name": "activation773", 
      "inputs": [[663, 3]], 
      "backward_source_id": -1
    }, 
    {
      "op": "Activation", 
      "param": {"act_type": "sigmoid"}, 
      "name": "activation772", 
      "inputs": [[663, 2]], 
      "backward_source_id": -1
    }, 
    {
      "op": "_Mul", 
      "param": {}, 
      "name": "_mul462", 
      "inputs": [[665, 0], [658, 0]], 
      "backward_source_id": -1
    }, 
    {
      "op": "Activation", 
      "param": {"act_type": "sigmoid"}, 
      "name": "activation770", 
      "inputs": [[663, 0]], 
      "backward_source_id": -1
    }, 
    {
      "op": "Activation", 
      "param": {"act_type": "tanh"}, 
      "name": "activation771", 
      "inputs": [[663, 1]], 
      "backward_source_id": -1
    }, 
    {
      "op": "_Mul", 
      "param": {}, 
      "name": "_mul463", 
      "inputs": [[667, 0], [668, 0]], 
      "backward_source_id": -1
    }, 
    {
      "op": "_Plus", 
      "param": {}, 
      "name": "_plus309", 
      "inputs": [[666, 0], [669, 0]], 
      "backward_source_id": -1
    }, 
    {
      "op": "Activation", 
      "param": {"act_type": "tanh"}, 
      "name": "activation774", 
      "inputs": [[670, 0]], 
      "backward_source_id": -1
    }, 
    {
      "op": "_Mul", 
      "param": {}, 
      "name": "_mul464", 
      "inputs": [[664, 0], [671, 0]], 
      "backward_source_id": -1
    }, 
    {
      "op": "FullyConnected", 
      "param": {
        "no_bias": "False", 
        "num_hidden": "512"
      }, 
      "name": "t64_l1_h2h", 
      "inputs": [[672, 0], [6, 0], [7, 0]], 
      "backward_source_id": -1
    }, 
    {
      "op": "_Plus", 
      "param": {}, 
      "name": "_plus310", 
      "inputs": [[85, 0], [673, 0]], 
      "backward_source_id": -1
    }, 
    {
      "op": "SliceChannel", 
      "param": {
        "axis": "1", 
        "num_outputs": "4", 
        "squeeze_axis": "False"
      }, 
      "name": "t64_l1_slice", 
      "inputs": [[674, 0]], 
      "backward_source_id": -1
    }, 
    {
      "op": "Activation", 
      "param": {"act_type": "sigmoid"}, 
      "name": "activation778", 
      "inputs": [[675, 3]], 
      "backward_source_id": -1
    }, 
    {
      "op": "Activation", 
      "param": {"act_type": "sigmoid"}, 
      "name": "activation777", 
      "inputs": [[675, 2]], 
      "backward_source_id": -1
    }, 
    {
      "op": "_Mul", 
      "param": {}, 
      "name": "_mul465", 
      "inputs": [[677, 0], [670, 0]], 
      "backward_source_id": -1
    }, 
    {
      "op": "Activation", 
      "param": {"act_type": "sigmoid"}, 
      "name": "activation775", 
      "inputs": [[675, 0]], 
      "backward_source_id": -1
    }, 
    {
      "op": "Activation", 
      "param": {"act_type": "tanh"}, 
      "name": "activation776", 
      "inputs": [[675, 1]], 
      "backward_source_id": -1
    }, 
    {
      "op": "_Mul", 
      "param": {}, 
      "name": "_mul466", 
      "inputs": [[679, 0], [680, 0]], 
      "backward_source_id": -1
    }, 
    {
      "op": "_Plus", 
      "param": {}, 
      "name": "_plus311", 
      "inputs": [[678, 0], [681, 0]], 
      "backward_source_id": -1
    }, 
    {
      "op": "Activation", 
      "param": {"act_type": "tanh"}, 
      "name": "activation779", 
      "inputs": [[682, 0]], 
      "backward_source_id": -1
    }, 
    {
      "op": "_Mul", 
      "param": {}, 
      "name": "_mul467", 
      "inputs": [[676, 0], [683, 0]], 
      "backward_source_id": -1
    }, 
    {
      "op": "FullyConnected", 
      "param": {
        "no_bias": "False", 
        "num_hidden": "512"
      }, 
      "name": "t63_l1_h2h", 
      "inputs": [[684, 0], [6, 0], [7, 0]], 
      "backward_source_id": -1
    }, 
    {
      "op": "_Plus", 
      "param": {}, 
      "name": "_plus312", 
      "inputs": [[84, 0], [685, 0]], 
      "backward_source_id": -1
    }, 
    {
      "op": "SliceChannel", 
      "param": {
        "axis": "1", 
        "num_outputs": "4", 
        "squeeze_axis": "False"
      }, 
      "name": "t63_l1_slice", 
      "inputs": [[686, 0]], 
      "backward_source_id": -1
    }, 
    {
      "op": "Activation", 
      "param": {"act_type": "sigmoid"}, 
      "name": "activation783", 
      "inputs": [[687, 3]], 
      "backward_source_id": -1
    }, 
    {
      "op": "Activation", 
      "param": {"act_type": "sigmoid"}, 
      "name": "activation782", 
      "inputs": [[687, 2]], 
      "backward_source_id": -1
    }, 
    {
      "op": "_Mul", 
      "param": {}, 
      "name": "_mul468", 
      "inputs": [[689, 0], [682, 0]], 
      "backward_source_id": -1
    }, 
    {
      "op": "Activation", 
      "param": {"act_type": "sigmoid"}, 
      "name": "activation780", 
      "inputs": [[687, 0]], 
      "backward_source_id": -1
    }, 
    {
      "op": "Activation", 
      "param": {"act_type": "tanh"}, 
      "name": "activation781", 
      "inputs": [[687, 1]], 
      "backward_source_id": -1
    }, 
    {
      "op": "_Mul", 
      "param": {}, 
      "name": "_mul469", 
      "inputs": [[691, 0], [692, 0]], 
      "backward_source_id": -1
    }, 
    {
      "op": "_Plus", 
      "param": {}, 
      "name": "_plus313", 
      "inputs": [[690, 0], [693, 0]], 
      "backward_source_id": -1
    }, 
    {
      "op": "Activation", 
      "param": {"act_type": "tanh"}, 
      "name": "activation784", 
      "inputs": [[694, 0]], 
      "backward_source_id": -1
    }, 
    {
      "op": "_Mul", 
      "param": {}, 
      "name": "_mul470", 
      "inputs": [[688, 0], [695, 0]], 
      "backward_source_id": -1
    }, 
    {
      "op": "FullyConnected", 
      "param": {
        "no_bias": "False", 
        "num_hidden": "512"
      }, 
      "name": "t62_l1_h2h", 
      "inputs": [[696, 0], [6, 0], [7, 0]], 
      "backward_source_id": -1
    }, 
    {
      "op": "_Plus", 
      "param": {}, 
      "name": "_plus314", 
      "inputs": [[83, 0], [697, 0]], 
      "backward_source_id": -1
    }, 
    {
      "op": "SliceChannel", 
      "param": {
        "axis": "1", 
        "num_outputs": "4", 
        "squeeze_axis": "False"
      }, 
      "name": "t62_l1_slice", 
      "inputs": [[698, 0]], 
      "backward_source_id": -1
    }, 
    {
      "op": "Activation", 
      "param": {"act_type": "sigmoid"}, 
      "name": "activation788", 
      "inputs": [[699, 3]], 
      "backward_source_id": -1
    }, 
    {
      "op": "Activation", 
      "param": {"act_type": "sigmoid"}, 
      "name": "activation787", 
      "inputs": [[699, 2]], 
      "backward_source_id": -1
    }, 
    {
      "op": "_Mul", 
      "param": {}, 
      "name": "_mul471", 
      "inputs": [[701, 0], [694, 0]], 
      "backward_source_id": -1
    }, 
    {
      "op": "Activation", 
      "param": {"act_type": "sigmoid"}, 
      "name": "activation785", 
      "inputs": [[699, 0]], 
      "backward_source_id": -1
    }, 
    {
      "op": "Activation", 
      "param": {"act_type": "tanh"}, 
      "name": "activation786", 
      "inputs": [[699, 1]], 
      "backward_source_id": -1
    }, 
    {
      "op": "_Mul", 
      "param": {}, 
      "name": "_mul472", 
      "inputs": [[703, 0], [704, 0]], 
      "backward_source_id": -1
    }, 
    {
      "op": "_Plus", 
      "param": {}, 
      "name": "_plus315", 
      "inputs": [[702, 0], [705, 0]], 
      "backward_source_id": -1
    }, 
    {
      "op": "Activation", 
      "param": {"act_type": "tanh"}, 
      "name": "activation789", 
      "inputs": [[706, 0]], 
      "backward_source_id": -1
    }, 
    {
      "op": "_Mul", 
      "param": {}, 
      "name": "_mul473", 
      "inputs": [[700, 0], [707, 0]], 
      "backward_source_id": -1
    }, 
    {
      "op": "FullyConnected", 
      "param": {
        "no_bias": "False", 
        "num_hidden": "512"
      }, 
      "name": "t61_l1_h2h", 
      "inputs": [[708, 0], [6, 0], [7, 0]], 
      "backward_source_id": -1
    }, 
    {
      "op": "_Plus", 
      "param": {}, 
      "name": "_plus316", 
      "inputs": [[82, 0], [709, 0]], 
      "backward_source_id": -1
    }, 
    {
      "op": "SliceChannel", 
      "param": {
        "axis": "1", 
        "num_outputs": "4", 
        "squeeze_axis": "False"
      }, 
      "name": "t61_l1_slice", 
      "inputs": [[710, 0]], 
      "backward_source_id": -1
    }, 
    {
      "op": "Activation", 
      "param": {"act_type": "sigmoid"}, 
      "name": "activation793", 
      "inputs": [[711, 3]], 
      "backward_source_id": -1
    }, 
    {
      "op": "Activation", 
      "param": {"act_type": "sigmoid"}, 
      "name": "activation792", 
      "inputs": [[711, 2]], 
      "backward_source_id": -1
    }, 
    {
      "op": "_Mul", 
      "param": {}, 
      "name": "_mul474", 
      "inputs": [[713, 0], [706, 0]], 
      "backward_source_id": -1
    }, 
    {
      "op": "Activation", 
      "param": {"act_type": "sigmoid"}, 
      "name": "activation790", 
      "inputs": [[711, 0]], 
      "backward_source_id": -1
    }, 
    {
      "op": "Activation", 
      "param": {"act_type": "tanh"}, 
      "name": "activation791", 
      "inputs": [[711, 1]], 
      "backward_source_id": -1
    }, 
    {
      "op": "_Mul", 
      "param": {}, 
      "name": "_mul475", 
      "inputs": [[715, 0], [716, 0]], 
      "backward_source_id": -1
    }, 
    {
      "op": "_Plus", 
      "param": {}, 
      "name": "_plus317", 
      "inputs": [[714, 0], [717, 0]], 
      "backward_source_id": -1
    }, 
    {
      "op": "Activation", 
      "param": {"act_type": "tanh"}, 
      "name": "activation794", 
      "inputs": [[718, 0]], 
      "backward_source_id": -1
    }, 
    {
      "op": "_Mul", 
      "param": {}, 
      "name": "_mul476", 
      "inputs": [[712, 0], [719, 0]], 
      "backward_source_id": -1
    }, 
    {
      "op": "FullyConnected", 
      "param": {
        "no_bias": "False", 
        "num_hidden": "512"
      }, 
      "name": "t60_l1_h2h", 
      "inputs": [[720, 0], [6, 0], [7, 0]], 
      "backward_source_id": -1
    }, 
    {
      "op": "_Plus", 
      "param": {}, 
      "name": "_plus318", 
      "inputs": [[81, 0], [721, 0]], 
      "backward_source_id": -1
    }, 
    {
      "op": "SliceChannel", 
      "param": {
        "axis": "1", 
        "num_outputs": "4", 
        "squeeze_axis": "False"
      }, 
      "name": "t60_l1_slice", 
      "inputs": [[722, 0]], 
      "backward_source_id": -1
    }, 
    {
      "op": "Activation", 
      "param": {"act_type": "sigmoid"}, 
      "name": "activation798", 
      "inputs": [[723, 3]], 
      "backward_source_id": -1
    }, 
    {
      "op": "Activation", 
      "param": {"act_type": "sigmoid"}, 
      "name": "activation797", 
      "inputs": [[723, 2]], 
      "backward_source_id": -1
    }, 
    {
      "op": "_Mul", 
      "param": {}, 
      "name": "_mul477", 
      "inputs": [[725, 0], [718, 0]], 
      "backward_source_id": -1
    }, 
    {
      "op": "Activation", 
      "param": {"act_type": "sigmoid"}, 
      "name": "activation795", 
      "inputs": [[723, 0]], 
      "backward_source_id": -1
    }, 
    {
      "op": "Activation", 
      "param": {"act_type": "tanh"}, 
      "name": "activation796", 
      "inputs": [[723, 1]], 
      "backward_source_id": -1
    }, 
    {
      "op": "_Mul", 
      "param": {}, 
      "name": "_mul478", 
      "inputs": [[727, 0], [728, 0]], 
      "backward_source_id": -1
    }, 
    {
      "op": "_Plus", 
      "param": {}, 
      "name": "_plus319", 
      "inputs": [[726, 0], [729, 0]], 
      "backward_source_id": -1
    }, 
    {
      "op": "Activation", 
      "param": {"act_type": "tanh"}, 
      "name": "activation799", 
      "inputs": [[730, 0]], 
      "backward_source_id": -1
    }, 
    {
      "op": "_Mul", 
      "param": {}, 
      "name": "_mul479", 
      "inputs": [[724, 0], [731, 0]], 
      "backward_source_id": -1
    }, 
    {
      "op": "FullyConnected", 
      "param": {
        "no_bias": "False", 
        "num_hidden": "512"
      }, 
      "name": "t59_l1_h2h", 
      "inputs": [[732, 0], [6, 0], [7, 0]], 
      "backward_source_id": -1
    }, 
    {
      "op": "_Plus", 
      "param": {}, 
      "name": "_plus320", 
      "inputs": [[80, 0], [733, 0]], 
      "backward_source_id": -1
    }, 
    {
      "op": "SliceChannel", 
      "param": {
        "axis": "1", 
        "num_outputs": "4", 
        "squeeze_axis": "False"
      }, 
      "name": "t59_l1_slice", 
      "inputs": [[734, 0]], 
      "backward_source_id": -1
    }, 
    {
      "op": "Activation", 
      "param": {"act_type": "sigmoid"}, 
      "name": "activation803", 
      "inputs": [[735, 3]], 
      "backward_source_id": -1
    }, 
    {
      "op": "Activation", 
      "param": {"act_type": "sigmoid"}, 
      "name": "activation802", 
      "inputs": [[735, 2]], 
      "backward_source_id": -1
    }, 
    {
      "op": "_Mul", 
      "param": {}, 
      "name": "_mul480", 
      "inputs": [[737, 0], [730, 0]], 
      "backward_source_id": -1
    }, 
    {
      "op": "Activation", 
      "param": {"act_type": "sigmoid"}, 
      "name": "activation800", 
      "inputs": [[735, 0]], 
      "backward_source_id": -1
    }, 
    {
      "op": "Activation", 
      "param": {"act_type": "tanh"}, 
      "name": "activation801", 
      "inputs": [[735, 1]], 
      "backward_source_id": -1
    }, 
    {
      "op": "_Mul", 
      "param": {}, 
      "name": "_mul481", 
      "inputs": [[739, 0], [740, 0]], 
      "backward_source_id": -1
    }, 
    {
      "op": "_Plus", 
      "param": {}, 
      "name": "_plus321", 
      "inputs": [[738, 0], [741, 0]], 
      "backward_source_id": -1
    }, 
    {
      "op": "Activation", 
      "param": {"act_type": "tanh"}, 
      "name": "activation804", 
      "inputs": [[742, 0]], 
      "backward_source_id": -1
    }, 
    {
      "op": "_Mul", 
      "param": {}, 
      "name": "_mul482", 
      "inputs": [[736, 0], [743, 0]], 
      "backward_source_id": -1
    }, 
    {
      "op": "FullyConnected", 
      "param": {
        "no_bias": "False", 
        "num_hidden": "512"
      }, 
      "name": "t58_l1_h2h", 
      "inputs": [[744, 0], [6, 0], [7, 0]], 
      "backward_source_id": -1
    }, 
    {
      "op": "_Plus", 
      "param": {}, 
      "name": "_plus322", 
      "inputs": [[79, 0], [745, 0]], 
      "backward_source_id": -1
    }, 
    {
      "op": "SliceChannel", 
      "param": {
        "axis": "1", 
        "num_outputs": "4", 
        "squeeze_axis": "False"
      }, 
      "name": "t58_l1_slice", 
      "inputs": [[746, 0]], 
      "backward_source_id": -1
    }, 
    {
      "op": "Activation", 
      "param": {"act_type": "sigmoid"}, 
      "name": "activation808", 
      "inputs": [[747, 3]], 
      "backward_source_id": -1
    }, 
    {
      "op": "Activation", 
      "param": {"act_type": "sigmoid"}, 
      "name": "activation807", 
      "inputs": [[747, 2]], 
      "backward_source_id": -1
    }, 
    {
      "op": "_Mul", 
      "param": {}, 
      "name": "_mul483", 
      "inputs": [[749, 0], [742, 0]], 
      "backward_source_id": -1
    }, 
    {
      "op": "Activation", 
      "param": {"act_type": "sigmoid"}, 
      "name": "activation805", 
      "inputs": [[747, 0]], 
      "backward_source_id": -1
    }, 
    {
      "op": "Activation", 
      "param": {"act_type": "tanh"}, 
      "name": "activation806", 
      "inputs": [[747, 1]], 
      "backward_source_id": -1
    }, 
    {
      "op": "_Mul", 
      "param": {}, 
      "name": "_mul484", 
      "inputs": [[751, 0], [752, 0]], 
      "backward_source_id": -1
    }, 
    {
      "op": "_Plus", 
      "param": {}, 
      "name": "_plus323", 
      "inputs": [[750, 0], [753, 0]], 
      "backward_source_id": -1
    }, 
    {
      "op": "Activation", 
      "param": {"act_type": "tanh"}, 
      "name": "activation809", 
      "inputs": [[754, 0]], 
      "backward_source_id": -1
    }, 
    {
      "op": "_Mul", 
      "param": {}, 
      "name": "_mul485", 
      "inputs": [[748, 0], [755, 0]], 
      "backward_source_id": -1
    }, 
    {
      "op": "FullyConnected", 
      "param": {
        "no_bias": "False", 
        "num_hidden": "512"
      }, 
      "name": "t57_l1_h2h", 
      "inputs": [[756, 0], [6, 0], [7, 0]], 
      "backward_source_id": -1
    }, 
    {
      "op": "_Plus", 
      "param": {}, 
      "name": "_plus324", 
      "inputs": [[78, 0], [757, 0]], 
      "backward_source_id": -1
    }, 
    {
      "op": "SliceChannel", 
      "param": {
        "axis": "1", 
        "num_outputs": "4", 
        "squeeze_axis": "False"
      }, 
      "name": "t57_l1_slice", 
      "inputs": [[758, 0]], 
      "backward_source_id": -1
    }, 
    {
      "op": "Activation", 
      "param": {"act_type": "sigmoid"}, 
      "name": "activation813", 
      "inputs": [[759, 3]], 
      "backward_source_id": -1
    }, 
    {
      "op": "Activation", 
      "param": {"act_type": "sigmoid"}, 
      "name": "activation812", 
      "inputs": [[759, 2]], 
      "backward_source_id": -1
    }, 
    {
      "op": "_Mul", 
      "param": {}, 
      "name": "_mul486", 
      "inputs": [[761, 0], [754, 0]], 
      "backward_source_id": -1
    }, 
    {
      "op": "Activation", 
      "param": {"act_type": "sigmoid"}, 
      "name": "activation810", 
      "inputs": [[759, 0]], 
      "backward_source_id": -1
    }, 
    {
      "op": "Activation", 
      "param": {"act_type": "tanh"}, 
      "name": "activation811", 
      "inputs": [[759, 1]], 
      "backward_source_id": -1
    }, 
    {
      "op": "_Mul", 
      "param": {}, 
      "name": "_mul487", 
      "inputs": [[763, 0], [764, 0]], 
      "backward_source_id": -1
    }, 
    {
      "op": "_Plus", 
      "param": {}, 
      "name": "_plus325", 
      "inputs": [[762, 0], [765, 0]], 
      "backward_source_id": -1
    }, 
    {
      "op": "Activation", 
      "param": {"act_type": "tanh"}, 
      "name": "activation814", 
      "inputs": [[766, 0]], 
      "backward_source_id": -1
    }, 
    {
      "op": "_Mul", 
      "param": {}, 
      "name": "_mul488", 
      "inputs": [[760, 0], [767, 0]], 
      "backward_source_id": -1
    }, 
    {
      "op": "FullyConnected", 
      "param": {
        "no_bias": "False", 
        "num_hidden": "512"
      }, 
      "name": "t56_l1_h2h", 
      "inputs": [[768, 0], [6, 0], [7, 0]], 
      "backward_source_id": -1
    }, 
    {
      "op": "_Plus", 
      "param": {}, 
      "name": "_plus326", 
      "inputs": [[77, 0], [769, 0]], 
      "backward_source_id": -1
    }, 
    {
      "op": "SliceChannel", 
      "param": {
        "axis": "1", 
        "num_outputs": "4", 
        "squeeze_axis": "False"
      }, 
      "name": "t56_l1_slice", 
      "inputs": [[770, 0]], 
      "backward_source_id": -1
    }, 
    {
      "op": "Activation", 
      "param": {"act_type": "sigmoid"}, 
      "name": "activation818", 
      "inputs": [[771, 3]], 
      "backward_source_id": -1
    }, 
    {
      "op": "Activation", 
      "param": {"act_type": "sigmoid"}, 
      "name": "activation817", 
      "inputs": [[771, 2]], 
      "backward_source_id": -1
    }, 
    {
      "op": "_Mul", 
      "param": {}, 
      "name": "_mul489", 
      "inputs": [[773, 0], [766, 0]], 
      "backward_source_id": -1
    }, 
    {
      "op": "Activation", 
      "param": {"act_type": "sigmoid"}, 
      "name": "activation815", 
      "inputs": [[771, 0]], 
      "backward_source_id": -1
    }, 
    {
      "op": "Activation", 
      "param": {"act_type": "tanh"}, 
      "name": "activation816", 
      "inputs": [[771, 1]], 
      "backward_source_id": -1
    }, 
    {
      "op": "_Mul", 
      "param": {}, 
      "name": "_mul490", 
      "inputs": [[775, 0], [776, 0]], 
      "backward_source_id": -1
    }, 
    {
      "op": "_Plus", 
      "param": {}, 
      "name": "_plus327", 
      "inputs": [[774, 0], [777, 0]], 
      "backward_source_id": -1
    }, 
    {
      "op": "Activation", 
      "param": {"act_type": "tanh"}, 
      "name": "activation819", 
      "inputs": [[778, 0]], 
      "backward_source_id": -1
    }, 
    {
      "op": "_Mul", 
      "param": {}, 
      "name": "_mul491", 
      "inputs": [[772, 0], [779, 0]], 
      "backward_source_id": -1
    }, 
    {
      "op": "FullyConnected", 
      "param": {
        "no_bias": "False", 
        "num_hidden": "512"
      }, 
      "name": "t55_l1_h2h", 
      "inputs": [[780, 0], [6, 0], [7, 0]], 
      "backward_source_id": -1
    }, 
    {
      "op": "_Plus", 
      "param": {}, 
      "name": "_plus328", 
      "inputs": [[76, 0], [781, 0]], 
      "backward_source_id": -1
    }, 
    {
      "op": "SliceChannel", 
      "param": {
        "axis": "1", 
        "num_outputs": "4", 
        "squeeze_axis": "False"
      }, 
      "name": "t55_l1_slice", 
      "inputs": [[782, 0]], 
      "backward_source_id": -1
    }, 
    {
      "op": "Activation", 
      "param": {"act_type": "sigmoid"}, 
      "name": "activation823", 
      "inputs": [[783, 3]], 
      "backward_source_id": -1
    }, 
    {
      "op": "Activation", 
      "param": {"act_type": "sigmoid"}, 
      "name": "activation822", 
      "inputs": [[783, 2]], 
      "backward_source_id": -1
    }, 
    {
      "op": "_Mul", 
      "param": {}, 
      "name": "_mul492", 
      "inputs": [[785, 0], [778, 0]], 
      "backward_source_id": -1
    }, 
    {
      "op": "Activation", 
      "param": {"act_type": "sigmoid"}, 
      "name": "activation820", 
      "inputs": [[783, 0]], 
      "backward_source_id": -1
    }, 
    {
      "op": "Activation", 
      "param": {"act_type": "tanh"}, 
      "name": "activation821", 
      "inputs": [[783, 1]], 
      "backward_source_id": -1
    }, 
    {
      "op": "_Mul", 
      "param": {}, 
      "name": "_mul493", 
      "inputs": [[787, 0], [788, 0]], 
      "backward_source_id": -1
    }, 
    {
      "op": "_Plus", 
      "param": {}, 
      "name": "_plus329", 
      "inputs": [[786, 0], [789, 0]], 
      "backward_source_id": -1
    }, 
    {
      "op": "Activation", 
      "param": {"act_type": "tanh"}, 
      "name": "activation824", 
      "inputs": [[790, 0]], 
      "backward_source_id": -1
    }, 
    {
      "op": "_Mul", 
      "param": {}, 
      "name": "_mul494", 
      "inputs": [[784, 0], [791, 0]], 
      "backward_source_id": -1
    }, 
    {
      "op": "FullyConnected", 
      "param": {
        "no_bias": "False", 
        "num_hidden": "512"
      }, 
      "name": "t54_l1_h2h", 
      "inputs": [[792, 0], [6, 0], [7, 0]], 
      "backward_source_id": -1
    }, 
    {
      "op": "_Plus", 
      "param": {}, 
      "name": "_plus330", 
      "inputs": [[75, 0], [793, 0]], 
      "backward_source_id": -1
    }, 
    {
      "op": "SliceChannel", 
      "param": {
        "axis": "1", 
        "num_outputs": "4", 
        "squeeze_axis": "False"
      }, 
      "name": "t54_l1_slice", 
      "inputs": [[794, 0]], 
      "backward_source_id": -1
    }, 
    {
      "op": "Activation", 
      "param": {"act_type": "sigmoid"}, 
      "name": "activation828", 
      "inputs": [[795, 3]], 
      "backward_source_id": -1
    }, 
    {
      "op": "Activation", 
      "param": {"act_type": "sigmoid"}, 
      "name": "activation827", 
      "inputs": [[795, 2]], 
      "backward_source_id": -1
    }, 
    {
      "op": "_Mul", 
      "param": {}, 
      "name": "_mul495", 
      "inputs": [[797, 0], [790, 0]], 
      "backward_source_id": -1
    }, 
    {
      "op": "Activation", 
      "param": {"act_type": "sigmoid"}, 
      "name": "activation825", 
      "inputs": [[795, 0]], 
      "backward_source_id": -1
    }, 
    {
      "op": "Activation", 
      "param": {"act_type": "tanh"}, 
      "name": "activation826", 
      "inputs": [[795, 1]], 
      "backward_source_id": -1
    }, 
    {
      "op": "_Mul", 
      "param": {}, 
      "name": "_mul496", 
      "inputs": [[799, 0], [800, 0]], 
      "backward_source_id": -1
    }, 
    {
      "op": "_Plus", 
      "param": {}, 
      "name": "_plus331", 
      "inputs": [[798, 0], [801, 0]], 
      "backward_source_id": -1
    }, 
    {
      "op": "Activation", 
      "param": {"act_type": "tanh"}, 
      "name": "activation829", 
      "inputs": [[802, 0]], 
      "backward_source_id": -1
    }, 
    {
      "op": "_Mul", 
      "param": {}, 
      "name": "_mul497", 
      "inputs": [[796, 0], [803, 0]], 
      "backward_source_id": -1
    }, 
    {
      "op": "FullyConnected", 
      "param": {
        "no_bias": "False", 
        "num_hidden": "512"
      }, 
      "name": "t53_l1_h2h", 
      "inputs": [[804, 0], [6, 0], [7, 0]], 
      "backward_source_id": -1
    }, 
    {
      "op": "_Plus", 
      "param": {}, 
      "name": "_plus332", 
      "inputs": [[74, 0], [805, 0]], 
      "backward_source_id": -1
    }, 
    {
      "op": "SliceChannel", 
      "param": {
        "axis": "1", 
        "num_outputs": "4", 
        "squeeze_axis": "False"
      }, 
      "name": "t53_l1_slice", 
      "inputs": [[806, 0]], 
      "backward_source_id": -1
    }, 
    {
      "op": "Activation", 
      "param": {"act_type": "sigmoid"}, 
      "name": "activation833", 
      "inputs": [[807, 3]], 
      "backward_source_id": -1
    }, 
    {
      "op": "Activation", 
      "param": {"act_type": "sigmoid"}, 
      "name": "activation832", 
      "inputs": [[807, 2]], 
      "backward_source_id": -1
    }, 
    {
      "op": "_Mul", 
      "param": {}, 
      "name": "_mul498", 
      "inputs": [[809, 0], [802, 0]], 
      "backward_source_id": -1
    }, 
    {
      "op": "Activation", 
      "param": {"act_type": "sigmoid"}, 
      "name": "activation830", 
      "inputs": [[807, 0]], 
      "backward_source_id": -1
    }, 
    {
      "op": "Activation", 
      "param": {"act_type": "tanh"}, 
      "name": "activation831", 
      "inputs": [[807, 1]], 
      "backward_source_id": -1
    }, 
    {
      "op": "_Mul", 
      "param": {}, 
      "name": "_mul499", 
      "inputs": [[811, 0], [812, 0]], 
      "backward_source_id": -1
    }, 
    {
      "op": "_Plus", 
      "param": {}, 
      "name": "_plus333", 
      "inputs": [[810, 0], [813, 0]], 
      "backward_source_id": -1
    }, 
    {
      "op": "Activation", 
      "param": {"act_type": "tanh"}, 
      "name": "activation834", 
      "inputs": [[814, 0]], 
      "backward_source_id": -1
    }, 
    {
      "op": "_Mul", 
      "param": {}, 
      "name": "_mul500", 
      "inputs": [[808, 0], [815, 0]], 
      "backward_source_id": -1
    }, 
    {
      "op": "FullyConnected", 
      "param": {
        "no_bias": "False", 
        "num_hidden": "512"
      }, 
      "name": "t52_l1_h2h", 
      "inputs": [[816, 0], [6, 0], [7, 0]], 
      "backward_source_id": -1
    }, 
    {
      "op": "_Plus", 
      "param": {}, 
      "name": "_plus334", 
      "inputs": [[73, 0], [817, 0]], 
      "backward_source_id": -1
    }, 
    {
      "op": "SliceChannel", 
      "param": {
        "axis": "1", 
        "num_outputs": "4", 
        "squeeze_axis": "False"
      }, 
      "name": "t52_l1_slice", 
      "inputs": [[818, 0]], 
      "backward_source_id": -1
    }, 
    {
      "op": "Activation", 
      "param": {"act_type": "sigmoid"}, 
      "name": "activation838", 
      "inputs": [[819, 3]], 
      "backward_source_id": -1
    }, 
    {
      "op": "Activation", 
…
      "backward_source_id": -1
    }, 
    {
      "op": "FullyConnected", 
      "param": {
        "no_bias": "False", 
        "num_hidden": "512"
      }, 
      "name": "t92_l0_i2h", 
      "inputs": [[1, 92], [2, 0], [3, 0]], 
      "backward_source_id": -1
    }, 
    {
      "op": "FullyConnected", 
      "param": {
        "no_bias": "False", 
        "num_hidden": "512"
      }, 
      "name": "t92_l0_h2h", 
      "inputs": [[2726, 0], [6, 0], [7, 0]], 
      "backward_source_id": -1
    }, 
    {
      "op": "_Plus", 
      "param": {}, 
      "name": "_plus184", 
      "inputs": [[2728, 0], [2729, 0]], 
      "backward_source_id": -1
    }, 
    {
      "op": "SliceChannel", 
      "param": {
        "axis": "1", 
        "num_outputs": "4", 
        "squeeze_axis": "False"
      }, 
      "name": "t92_l0_slice", 
      "inputs": [[2730, 0]], 
      "backward_source_id": -1
    }, 
    {
      "op": "Activation", 
      "param": {"act_type": "sigmoid"}, 
      "name": "activation463", 
      "inputs": [[2731, 3]], 
      "backward_source_id": -1
    }, 
    {
      "op": "Activation", 
      "param": {"act_type": "sigmoid"}, 
      "name": "activation462", 
      "inputs": [[2731, 2]], 
      "backward_source_id": -1
    }, 
    {
      "op": "_Mul", 
      "param": {}, 
      "name": "_mul276", 
      "inputs": [[2733, 0], [2724, 0]], 
      "backward_source_id": -1
    }, 
    {
      "op": "Activation", 
      "param": {"act_type": "sigmoid"}, 
      "name": "activation460", 
      "inputs": [[2731, 0]], 
      "backward_source_id": -1
    }, 
    {
      "op": "Activation", 
      "param": {"act_type": "tanh"}, 
      "name": "activation461", 
      "inputs": [[2731, 1]], 
      "backward_source_id": -1
    }, 
    {
      "op": "_Mul", 
      "param": {}, 
      "name": "_mul277", 
      "inputs": [[2735, 0], [2736, 0]], 
      "backward_source_id": -1
    }, 
    {
      "op": "_Plus", 
      "param": {}, 
      "name": "_plus185", 
      "inputs": [[2734, 0], [2737, 0]], 
      "backward_source_id": -1
    }, 
    {
      "op": "Activation", 
      "param": {"act_type": "tanh"}, 
      "name": "activation464", 
      "inputs": [[2738, 0]], 
      "backward_source_id": -1
    }, 
    {
      "op": "_Mul", 
      "param": {}, 
      "name": "_mul278", 
      "inputs": [[2732, 0], [2739, 0]], 
      "backward_source_id": -1
    }, 
    {
      "op": "Concat", 
      "param": {
        "dim": "1", 
        "num_args": "2"
      }, 
      "name": "concat92", 
      "inputs": [[2740, 0], [348, 0]], 
      "backward_source_id": -1
    }, 
    {
      "op": "FullyConnected", 
      "param": {
        "no_bias": "False", 
        "num_hidden": "512"
      }, 
      "name": "t93_l0_i2h", 
      "inputs": [[1, 93], [2, 0], [3, 0]], 
      "backward_source_id": -1
    }, 
    {
      "op": "FullyConnected", 
      "param": {
        "no_bias": "False", 
        "num_hidden": "512"
      }, 
      "name": "t93_l0_h2h", 
      "inputs": [[2740, 0], [6, 0], [7, 0]], 
      "backward_source_id": -1
    }, 
    {
      "op": "_Plus", 
      "param": {}, 
      "name": "_plus186", 
      "inputs": [[2742, 0], [2743, 0]], 
      "backward_source_id": -1
    }, 
    {
      "op": "SliceChannel", 
      "param": {
        "axis": "1", 
        "num_outputs": "4", 
        "squeeze_axis": "False"
      }, 
      "name": "t93_l0_slice", 
      "inputs": [[2744, 0]], 
      "backward_source_id": -1
    }, 
    {
      "op": "Activation", 
      "param": {"act_type": "sigmoid"}, 
      "name": "activation468", 
      "inputs": [[2745, 3]], 
      "backward_source_id": -1
    }, 
    {
      "op": "Activation", 
      "param": {"act_type": "sigmoid"}, 
      "name": "activation467", 
      "inputs": [[2745, 2]], 
      "backward_source_id": -1
    }, 
    {
      "op": "_Mul", 
      "param": {}, 
      "name": "_mul279", 
      "inputs": [[2747, 0], [2738, 0]], 
      "backward_source_id": -1
    }, 
    {
      "op": "Activation", 
      "param": {"act_type": "sigmoid"}, 
      "name": "activation465", 
      "inputs": [[2745, 0]], 
      "backward_source_id": -1
    }, 
    {
      "op": "Activation", 
      "param": {"act_type": "tanh"}, 
      "name": "activation466", 
      "inputs": [[2745, 1]], 
      "backward_source_id": -1
    }, 
    {
      "op": "_Mul", 
      "param": {}, 
      "name": "_mul280", 
      "inputs": [[2749, 0], [2750, 0]], 
      "backward_source_id": -1
    }, 
    {
      "op": "_Plus", 
      "param": {}, 
      "name": "_plus187", 
      "inputs": [[2748, 0], [2751, 0]], 
      "backward_source_id": -1
    }, 
    {
      "op": "Activation", 
      "param": {"act_type": "tanh"}, 
      "name": "activation469", 
      "inputs": [[2752, 0]], 
      "backward_source_id": -1
    }, 
    {
      "op": "_Mul", 
      "param": {}, 
      "name": "_mul281", 
      "inputs": [[2746, 0], [2753, 0]], 
      "backward_source_id": -1
    }, 
    {
      "op": "Concat", 
      "param": {
        "dim": "1", 
        "num_args": "2"
      }, 
      "name": "concat93", 
      "inputs": [[2754, 0], [336, 0]], 
      "backward_source_id": -1
    }, 
    {
      "op": "FullyConnected", 
      "param": {
        "no_bias": "False", 
        "num_hidden": "512"
      }, 
      "name": "t94_l0_i2h", 
      "inputs": [[1, 94], [2, 0], [3, 0]], 
      "backward_source_id": -1
    }, 
    {
      "op": "FullyConnected", 
      "param": {
        "no_bias": "False", 
        "num_hidden": "512"
      }, 
      "name": "t94_l0_h2h", 
      "inputs": [[2754, 0], [6, 0], [7, 0]], 
      "backward_source_id": -1
    }, 
    {
      "op": "_Plus", 
      "param": {}, 
      "name": "_plus188", 
      "inputs": [[2756, 0], [2757, 0]], 
      "backward_source_id": -1
    }, 
    {
      "op": "SliceChannel", 
      "param": {
        "axis": "1", 
        "num_outputs": "4", 
        "squeeze_axis": "False"
      }, 
      "name": "t94_l0_slice", 
      "inputs": [[2758, 0]], 
      "backward_source_id": -1
    }, 
    {
      "op": "Activation", 
      "param": {"act_type": "sigmoid"}, 
      "name": "activation473", 
      "inputs": [[2759, 3]], 
      "backward_source_id": -1
    }, 
    {
      "op": "Activation", 
      "param": {"act_type": "sigmoid"}, 
      "name": "activation472", 
      "inputs": [[2759, 2]], 
      "backward_source_id": -1
    }, 
    {
      "op": "_Mul", 
      "param": {}, 
      "name": "_mul282", 
      "inputs": [[2761, 0], [2752, 0]], 
      "backward_source_id": -1
    }, 
    {
      "op": "Activation", 
      "param": {"act_type": "sigmoid"}, 
      "name": "activation470", 
      "inputs": [[2759, 0]], 
      "backward_source_id": -1
    }, 
    {
      "op": "Activation", 
      "param": {"act_type": "tanh"}, 
      "name": "activation471", 
      "inputs": [[2759, 1]], 
      "backward_source_id": -1
    }, 
    {
      "op": "_Mul", 
      "param": {}, 
      "name": "_mul283", 
      "inputs": [[2763, 0], [2764, 0]], 
      "backward_source_id": -1
    }, 
    {
      "op": "_Plus", 
      "param": {}, 
      "name": "_plus189", 
      "inputs": [[2762, 0], [2765, 0]], 
      "backward_source_id": -1
    }, 
    {
      "op": "Activation", 
      "param": {"act_type": "tanh"}, 
      "name": "activation474", 
      "inputs": [[2766, 0]], 
      "backward_source_id": -1
    }, 
    {
      "op": "_Mul", 
      "param": {}, 
      "name": "_mul284", 
      "inputs": [[2760, 0], [2767, 0]], 
      "backward_source_id": -1
    }, 
    {
      "op": "Concat", 
      "param": {
        "dim": "1", 
        "num_args": "2"
      }, 
      "name": "concat94", 
      "inputs": [[2768, 0], [324, 0]], 
      "backward_source_id": -1
    }, 
    {
      "op": "FullyConnected", 
      "param": {
        "no_bias": "False", 
        "num_hidden": "512"
      }, 
      "name": "t95_l0_i2h", 
      "inputs": [[1, 95], [2, 0], [3, 0]], 
      "backward_source_id": -1
    }, 
    {
      "op": "FullyConnected", 
      "param": {
        "no_bias": "False", 
        "num_hidden": "512"
      }, 
      "name": "t95_l0_h2h", 
      "inputs": [[2768, 0], [6, 0], [7, 0]], 
      "backward_source_id": -1
    }, 
    {
      "op": "_Plus", 
      "param": {}, 
      "name": "_plus190", 
      "inputs": [[2770, 0], [2771, 0]], 
      "backward_source_id": -1
    }, 
    {
      "op": "SliceChannel", 
      "param": {
        "axis": "1", 
        "num_outputs": "4", 
        "squeeze_axis": "False"
      }, 
      "name": "t95_l0_slice", 
      "inputs": [[2772, 0]], 
      "backward_source_id": -1
    }, 
    {
      "op": "Activation", 
      "param": {"act_type": "sigmoid"}, 
      "name": "activation478", 
      "inputs": [[2773, 3]], 
      "backward_source_id": -1
    }, 
    {
      "op": "Activation", 
      "param": {"act_type": "sigmoid"}, 
      "name": "activation477", 
      "inputs": [[2773, 2]], 
      "backward_source_id": -1
    }, 
    {
      "op": "_Mul", 
      "param": {}, 
      "name": "_mul285", 
      "inputs": [[2775, 0], [2766, 0]], 
      "backward_source_id": -1
    }, 
    {
      "op": "Activation", 
      "param": {"act_type": "sigmoid"}, 
      "name": "activation475", 
      "inputs": [[2773, 0]], 
      "backward_source_id": -1
    }, 
    {
      "op": "Activation", 
      "param": {"act_type": "tanh"}, 
      "name": "activation476", 
      "inputs": [[2773, 1]], 
      "backward_source_id": -1
    }, 
    {
      "op": "_Mul", 
      "param": {}, 
      "name": "_mul286", 
      "inputs": [[2777, 0], [2778, 0]], 
      "backward_source_id": -1
    }, 
    {
      "op": "_Plus", 
      "param": {}, 
      "name": "_plus191", 
      "inputs": [[2776, 0], [2779, 0]], 
      "backward_source_id": -1
    }, 
    {
      "op": "Activation", 
      "param": {"act_type": "tanh"}, 
      "name": "activation479", 
      "inputs": [[2780, 0]], 
      "backward_source_id": -1
    }, 
    {
      "op": "_Mul", 
      "param": {}, 
      "name": "_mul287", 
      "inputs": [[2774, 0], [2781, 0]], 
      "backward_source_id": -1
    }, 
    {
      "op": "Concat", 
      "param": {
        "dim": "1", 
        "num_args": "2"
      }, 
      "name": "concat95", 
      "inputs": [[2782, 0], [312, 0]], 
      "backward_source_id": -1
    }, 
    {
      "op": "FullyConnected", 
      "param": {
        "no_bias": "False", 
        "num_hidden": "512"
      }, 
      "name": "t96_l0_i2h", 
      "inputs": [[1, 96], [2, 0], [3, 0]], 
      "backward_source_id": -1
    }, 
    {
      "op": "FullyConnected", 
      "param": {
        "no_bias": "False", 
        "num_hidden": "512"
      }, 
      "name": "t96_l0_h2h", 
      "inputs": [[2782, 0], [6, 0], [7, 0]], 
      "backward_source_id": -1
    }, 
    {
      "op": "_Plus", 
      "param": {}, 
      "name": "_plus192", 
      "inputs": [[2784, 0], [2785, 0]], 
      "backward_source_id": -1
    }, 
    {
      "op": "SliceChannel", 
      "param": {
        "axis": "1", 
        "num_outputs": "4", 
        "squeeze_axis": "False"
      }, 
      "name": "t96_l0_slice", 
      "inputs": [[2786, 0]], 
      "backward_source_id": -1
    }, 
    {
      "op": "Activation", 
      "param": {"act_type": "sigmoid"}, 
      "name": "activation483", 
      "inputs": [[2787, 3]], 
      "backward_source_id": -1
    }, 
    {
      "op": "Activation", 
      "param": {"act_type": "sigmoid"}, 
      "name": "activation482", 
      "inputs": [[2787, 2]], 
      "backward_source_id": -1
    }, 
    {
      "op": "_Mul", 
      "param": {}, 
      "name": "_mul288", 
      "inputs": [[2789, 0], [2780, 0]], 
      "backward_source_id": -1
    }, 
    {
      "op": "Activation", 
      "param": {"act_type": "sigmoid"}, 
      "name": "activation480", 
      "inputs": [[2787, 0]], 
      "backward_source_id": -1
    }, 
    {
      "op": "Activation", 
      "param": {"act_type": "tanh"}, 
      "name": "activation481", 
      "inputs": [[2787, 1]], 
      "backward_source_id": -1
    }, 
    {
      "op": "_Mul", 
      "param": {}, 
      "name": "_mul289", 
      "inputs": [[2791, 0], [2792, 0]], 
      "backward_source_id": -1
    }, 
    {
      "op": "_Plus", 
      "param": {}, 
      "name": "_plus193", 
      "inputs": [[2790, 0], [2793, 0]], 
      "backward_source_id": -1
    }, 
    {
      "op": "Activation", 
      "param": {"act_type": "tanh"}, 
      "name": "activation484", 
      "inputs": [[2794, 0]], 
      "backward_source_id": -1
    }, 
    {
      "op": "_Mul", 
      "param": {}, 
      "name": "_mul290", 
      "inputs": [[2788, 0], [2795, 0]], 
      "backward_source_id": -1
    }, 
    {
      "op": "Concat", 
      "param": {
        "dim": "1", 
        "num_args": "2"
      }, 
      "name": "concat96", 
      "inputs": [[2796, 0], [300, 0]], 
      "backward_source_id": -1
    }, 
    {
      "op": "FullyConnected", 
      "param": {
        "no_bias": "False", 
        "num_hidden": "512"
      }, 
      "name": "t97_l0_i2h", 
      "inputs": [[1, 97], [2, 0], [3, 0]], 
      "backward_source_id": -1
    }, 
    {
      "op": "FullyConnected", 
      "param": {
        "no_bias": "False", 
        "num_hidden": "512"
      }, 
      "name": "t97_l0_h2h", 
      "inputs": [[2796, 0], [6, 0], [7, 0]], 
      "backward_source_id": -1
    }, 
    {
      "op": "_Plus", 
      "param": {}, 
      "name": "_plus194", 
      "inputs": [[2798, 0], [2799, 0]], 
      "backward_source_id": -1
    }, 
    {
      "op": "SliceChannel", 
      "param": {
        "axis": "1", 
        "num_outputs": "4", 
        "squeeze_axis": "False"
      }, 
      "name": "t97_l0_slice", 
      "inputs": [[2800, 0]], 
      "backward_source_id": -1
    }, 
    {
      "op": "Activation", 
      "param": {"act_type": "sigmoid"}, 
      "name": "activation488", 
      "inputs": [[2801, 3]], 
      "backward_source_id": -1
    }, 
    {
      "op": "Activation", 
      "param": {"act_type": "sigmoid"}, 
      "name": "activation487", 
      "inputs": [[2801, 2]], 
      "backward_source_id": -1
    }, 
    {
      "op": "_Mul", 
      "param": {}, 
      "name": "_mul291", 
      "inputs": [[2803, 0], [2794, 0]], 
      "backward_source_id": -1
    }, 
    {
      "op": "Activation", 
      "param": {"act_type": "sigmoid"}, 
      "name": "activation485", 
      "inputs": [[2801, 0]], 
      "backward_source_id": -1
    }, 
    {
      "op": "Activation", 
      "param": {"act_type": "tanh"}, 
      "name": "activation486", 
      "inputs": [[2801, 1]], 
      "backward_source_id": -1
    }, 
    {
      "op": "_Mul", 
      "param": {}, 
      "name": "_mul292", 
      "inputs": [[2805, 0], [2806, 0]], 
      "backward_source_id": -1
    }, 
    {
      "op": "_Plus", 
      "param": {}, 
      "name": "_plus195", 
      "inputs": [[2804, 0], [2807, 0]], 
      "backward_source_id": -1
    }, 
    {
      "op": "Activation", 
      "param": {"act_type": "tanh"}, 
      "name": "activation489", 
      "inputs": [[2808, 0]], 
      "backward_source_id": -1
    }, 
    {
      "op": "_Mul", 
      "param": {}, 
      "name": "_mul293", 
      "inputs": [[2802, 0], [2809, 0]], 
      "backward_source_id": -1
    }, 
    {
      "op": "Concat", 
      "param": {
        "dim": "1", 
        "num_args": "2"
      }, 
      "name": "concat97", 
      "inputs": [[2810, 0], [288, 0]], 
      "backward_source_id": -1
    }, 
    {
      "op": "FullyConnected", 
      "param": {
        "no_bias": "False", 
        "num_hidden": "512"
      }, 
      "name": "t98_l0_i2h", 
      "inputs": [[1, 98], [2, 0], [3, 0]], 
      "backward_source_id": -1
    }, 
    {
      "op": "FullyConnected", 
      "param": {
        "no_bias": "False", 
        "num_hidden": "512"
      }, 
      "name": "t98_l0_h2h", 
      "inputs": [[2810, 0], [6, 0], [7, 0]], 
      "backward_source_id": -1
    }, 
    {
      "op": "_Plus", 
      "param": {}, 
      "name": "_plus196", 
      "inputs": [[2812, 0], [2813, 0]], 
      "backward_source_id": -1
    }, 
    {
      "op": "SliceChannel", 
      "param": {
        "axis": "1", 
        "num_outputs": "4", 
        "squeeze_axis": "False"
      }, 
      "name": "t98_l0_slice", 
      "inputs": [[2814, 0]], 
      "backward_source_id": -1
    }, 
    {
      "op": "Activation", 
      "param": {"act_type": "sigmoid"}, 
      "name": "activation493", 
      "inputs": [[2815, 3]], 
      "backward_source_id": -1
    }, 
    {
      "op": "Activation", 
      "param": {"act_type": "sigmoid"}, 
      "name": "activation492", 
      "inputs": [[2815, 2]], 
      "backward_source_id": -1
    }, 
    {
      "op": "_Mul", 
      "param": {}, 
      "name": "_mul294", 
      "inputs": [[2817, 0], [2808, 0]], 
      "backward_source_id": -1
    }, 
    {
      "op": "Activation", 
      "param": {"act_type": "sigmoid"}, 
      "name": "activation490", 
      "inputs": [[2815, 0]], 
      "backward_source_id": -1
    }, 
    {
      "op": "Activation", 
      "param": {"act_type": "tanh"}, 
      "name": "activation491", 
      "inputs": [[2815, 1]], 
      "backward_source_id": -1
    }, 
    {
      "op": "_Mul", 
      "param": {}, 
      "name": "_mul295", 
      "inputs": [[2819, 0], [2820, 0]], 
      "backward_source_id": -1
    }, 
    {
      "op": "_Plus", 
      "param": {}, 
      "name": "_plus197", 
      "inputs": [[2818, 0], [2821, 0]], 
      "backward_source_id": -1
    }, 
    {
      "op": "Activation", 
      "param": {"act_type": "tanh"}, 
      "name": "activation494", 
      "inputs": [[2822, 0]], 
      "backward_source_id": -1
    }, 
    {
      "op": "_Mul", 
      "param": {}, 
      "name": "_mul296", 
      "inputs": [[2816, 0], [2823, 0]], 
      "backward_source_id": -1
    }, 
    {
      "op": "Concat", 
      "param": {
        "dim": "1", 
        "num_args": "2"
      }, 
      "name": "concat98", 
      "inputs": [[2824, 0], [276, 0]], 
      "backward_source_id": -1
    }, 
    {
      "op": "FullyConnected", 
      "param": {
        "no_bias": "False", 
        "num_hidden": "512"
      }, 
      "name": "t99_l0_i2h", 
      "inputs": [[1, 99], [2, 0], [3, 0]], 
      "backward_source_id": -1
    }, 
    {
      "op": "FullyConnected", 
      "param": {
        "no_bias": "False", 
        "num_hidden": "512"
      }, 
      "name": "t99_l0_h2h", 
      "inputs": [[2824, 0], [6, 0], [7, 0]], 
      "backward_source_id": -1
    }, 
    {
      "op": "_Plus", 
      "param": {}, 
      "name": "_plus198", 
      "inputs": [[2826, 0], [2827, 0]], 
      "backward_source_id": -1
    }, 
    {
      "op": "SliceChannel", 
      "param": {
        "axis": "1", 
        "num_outputs": "4", 
        "squeeze_axis": "False"
      }, 
      "name": "t99_l0_slice", 
      "inputs": [[2828, 0]], 
      "backward_source_id": -1
    }, 
    {
      "op": "Activation", 
      "param": {"act_type": "sigmoid"}, 
      "name": "activation498", 
      "inputs": [[2829, 3]], 
      "backward_source_id": -1
    }, 
    {
      "op": "Activation", 
      "param": {"act_type": "sigmoid"}, 
      "name": "activation497", 
      "inputs": [[2829, 2]], 
      "backward_source_id": -1
    }, 
    {
      "op": "_Mul", 
      "param": {}, 
      "name": "_mul297", 
      "inputs": [[2831, 0], [2822, 0]], 
      "backward_source_id": -1
    }, 
    {
      "op": "Activation", 
      "param": {"act_type": "sigmoid"}, 
      "name": "activation495", 
      "inputs": [[2829, 0]], 
      "backward_source_id": -1
    }, 
    {
      "op": "Activation", 
      "param": {"act_type": "tanh"}, 
      "name": "activation496", 
      "inputs": [[2829, 1]], 
      "backward_source_id": -1
    }, 
    {
      "op": "_Mul", 
      "param": {}, 
      "name": "_mul298", 
      "inputs": [[2833, 0], [2834, 0]], 
      "backward_source_id": -1
    }, 
    {
      "op": "_Plus", 
      "param": {}, 
      "name": "_plus199", 
      "inputs": [[2832, 0], [2835, 0]], 
      "backward_source_id": -1
    }, 
    {
      "op": "Activation", 
      "param": {"act_type": "tanh"}, 
      "name": "activation499", 
      "inputs": [[2836, 0]], 
      "backward_source_id": -1
    }, 
    {
      "op": "_Mul", 
      "param": {}, 
      "name": "_mul299", 
      "inputs": [[2830, 0], [2837, 0]], 
      "backward_source_id": -1
    }, 
    {
      "op": "Concat", 
      "param": {
        "dim": "1", 
        "num_args": "2"
      }, 
      "name": "concat99", 
      "inputs": [[2838, 0], [264, 0]], 
      "backward_source_id": -1
    }, 
    {
      "op": "FullyConnected", 
      "param": {
        "no_bias": "False", 
        "num_hidden": "512"
      }, 
      "name": "t100_l0_i2h", 
      "inputs": [[1, 100], [2, 0], [3, 0]], 
      "backward_source_id": -1
    }, 
    {
      "op": "FullyConnected", 
      "param": {
        "no_bias": "False", 
        "num_hidden": "512"
      }, 
      "name": "t100_l0_h2h", 
      "inputs": [[2838, 0], [6, 0], [7, 0]], 
      "backward_source_id": -1
    }, 
    {
      "op": "_Plus", 
      "param": {}, 
      "name": "_plus200", 
      "inputs": [[2840, 0], [2841, 0]], 
      "backward_source_id": -1
    }, 
    {
      "op": "SliceChannel", 
      "param": {
        "axis": "1", 
        "num_outputs": "4", 
        "squeeze_axis": "False"
      }, 
      "name": "t100_l0_slice", 
      "inputs": [[2842, 0]], 
      "backward_source_id": -1
    }, 
    {
      "op": "Activation", 
      "param": {"act_type": "sigmoid"}, 
      "name": "activation503", 
      "inputs": [[2843, 3]], 
      "backward_source_id": -1
    }, 
    {
      "op": "Activation", 
      "param": {"act_type": "sigmoid"}, 
      "name": "activation502", 
      "inputs": [[2843, 2]], 
      "backward_source_id": -1
    }, 
    {
      "op": "_Mul", 
      "param": {}, 
      "name": "_mul300", 
      "inputs": [[2845, 0], [2836, 0]], 
      "backward_source_id": -1
    }, 
    {
      "op": "Activation", 
      "param": {"act_type": "sigmoid"}, 
      "name": "activation500", 
      "inputs": [[2843, 0]], 
      "backward_source_id": -1
    }, 
    {
      "op": "Activation", 
      "param": {"act_type": "tanh"}, 
      "name": "activation501", 
      "inputs": [[2843, 1]], 
      "backward_source_id": -1
    }, 
    {
      "op": "_Mul", 
      "param": {}, 
      "name": "_mul301", 
      "inputs": [[2847, 0], [2848, 0]], 
      "backward_source_id": -1
    }, 
    {
      "op": "_Plus", 
      "param": {}, 
      "name": "_plus201", 
      "inputs": [[2846, 0], [2849, 0]], 
      "backward_source_id": -1
    }, 
    {
      "op": "Activation", 
      "param": {"act_type": "tanh"}, 
      "name": "activation504", 
      "inputs": [[2850, 0]], 
      "backward_source_id": -1
    }, 
    {
      "op": "_Mul", 
      "param": {}, 
      "name": "_mul302", 
      "inputs": [[2844, 0], [2851, 0]], 
      "backward_source_id": -1
    }, 
    {
      "op": "Concat", 
      "param": {
        "dim": "1", 
        "num_args": "2"
      }, 
      "name": "concat100", 
      "inputs": [[2852, 0], [252, 0]], 
      "backward_source_id": -1
    }, 
    {
      "op": "FullyConnected", 
      "param": {
        "no_bias": "False", 
        "num_hidden": "512"
      }, 
      "name": "t101_l0_i2h", 
      "inputs": [[1, 101], [2, 0], [3, 0]], 
      "backward_source_id": -1
    }, 
    {
      "op": "FullyConnected", 
      "param": {
        "no_bias": "False", 
        "num_hidden": "512"
      }, 
      "name": "t101_l0_h2h", 
      "inputs": [[2852, 0], [6, 0], [7, 0]], 
      "backward_source_id": -1
    }, 
    {
      "op": "_Plus", 
      "param": {}, 
      "name": "_plus202", 
      "inputs": [[2854, 0], [2855, 0]], 
      "backward_source_id": -1
    }, 
    {
      "op": "SliceChannel", 
      "param": {
        "axis": "1", 
        "num_outputs": "4", 
        "squeeze_axis": "False"
      }, 
      "name": "t101_l0_slice", 
      "inputs": [[2856, 0]], 
      "backward_source_id": -1
    }, 
    {
      "op": "Activation", 
      "param": {"act_type": "sigmoid"}, 
      "name": "activation508", 
      "inputs": [[2857, 3]], 
      "backward_source_id": -1
    }, 
    {
      "op": "Activation", 
      "param": {"act_type": "sigmoid"}, 
      "name": "activation507", 
      "inputs": [[2857, 2]], 
      "backward_source_id": -1
    }, 
    {
      "op": "_Mul", 
      "param": {}, 
      "name": "_mul303", 
      "inputs": [[2859, 0], [2850, 0]], 
      "backward_source_id": -1
    }, 
    {
      "op": "Activation", 
      "param": {"act_type": "sigmoid"}, 
      "name": "activation505", 
      "inputs": [[2857, 0]], 
      "backward_source_id": -1
    }, 
    {
      "op": "Activation", 
      "param": {"act_type": "tanh"}, 
      "name": "activation506", 
      "inputs": [[2857, 1]], 
      "backward_source_id": -1
    }, 
    {
      "op": "_Mul", 
      "param": {}, 
      "name": "_mul304", 
      "inputs": [[2861, 0], [2862, 0]], 
      "backward_source_id": -1
    }, 
    {
      "op": "_Plus", 
      "param": {}, 
      "name": "_plus203", 
      "inputs": [[2860, 0], [2863, 0]], 
      "backward_source_id": -1
    }, 
    {
      "op": "Activation", 
      "param": {"act_type": "tanh"}, 
      "name": "activation509", 
      "inputs": [[2864, 0]], 
      "backward_source_id": -1
    }, 
    {
      "op": "_Mul", 
      "param": {}, 
      "name": "_mul305", 
      "inputs": [[2858, 0], [2865, 0]], 
      "backward_source_id": -1
    }, 
    {
      "op": "Concat", 
      "param": {
        "dim": "1", 
        "num_args": "2"
      }, 
      "name": "concat101", 
      "inputs": [[2866, 0], [240, 0]], 
      "backward_source_id": -1
    }, 
    {
      "op": "FullyConnected", 
      "param": {
        "no_bias": "False", 
        "num_hidden": "512"
      }, 
      "name": "t102_l0_i2h", 
      "inputs": [[1, 102], [2, 0], [3, 0]], 
      "backward_source_id": -1
    }, 
    {
      "op": "FullyConnected", 
      "param": {
        "no_bias": "False", 
        "num_hidden": "512"
      }, 
      "name": "t102_l0_h2h", 
      "inputs": [[2866, 0], [6, 0], [7, 0]], 
      "backward_source_id": -1
    }, 
    {
      "op": "_Plus", 
      "param": {}, 
      "name": "_plus204", 
      "inputs": [[2868, 0], [2869, 0]], 
      "backward_source_id": -1
    }, 
    {
      "op": "SliceChannel", 
      "param": {
        "axis": "1", 
        "num_outputs": "4", 
        "squeeze_axis": "False"
      }, 
      "name": "t102_l0_slice", 
      "inputs": [[2870, 0]], 
      "backward_source_id": -1
    }, 
    {
      "op": "Activation", 
      "param": {"act_type": "sigmoid"}, 
      "name": "activation513", 
      "inputs": [[2871, 3]], 
      "backward_source_id": -1
    }, 
    {
      "op": "Activation", 
      "param": {"act_type": "sigmoid"}, 
      "name": "activation512", 
      "inputs": [[2871, 2]], 
      "backward_source_id": -1
    }, 
    {
      "op": "_Mul", 
      "param": {}, 
      "name": "_mul306", 
      "inputs": [[2873, 0], [2864, 0]], 
      "backward_source_id": -1
    }, 
    {
      "op": "Activation", 
      "param": {"act_type": "sigmoid"}, 
      "name": "activation510", 
      "inputs": [[2871, 0]], 
      "backward_source_id": -1
    }, 
    {
      "op": "Activation", 
      "param": {"act_type": "tanh"}, 
      "name": "activation511", 
      "inputs": [[2871, 1]], 
      "backward_source_id": -1
    }, 
    {
      "op": "_Mul", 
      "param": {}, 
      "name": "_mul307", 
      "inputs": [[2875, 0], [2876, 0]], 
      "backward_source_id": -1
    }, 
    {
      "op": "_Plus", 
      "param": {}, 
      "name": "_plus205", 
      "inputs": [[2874, 0], [2877, 0]], 
      "backward_source_id": -1
    }, 
    {
      "op": "Activation", 
      "param": {"act_type": "tanh"}, 
      "name": "activation514", 
      "inputs": [[2878, 0]], 
      "backward_source_id": -1
    }, 
    {
      "op": "_Mul", 
      "param": {}, 
      "name": "_mul308", 
      "inputs": [[2872, 0], [2879, 0]], 
      "backward_source_id": -1
    }, 
    {
      "op": "Concat", 
      "param": {
        "dim": "1", 
        "num_args": "2"
      }, 
      "name": "concat102", 
      "inputs": [[2880, 0], [228, 0]], 
      "backward_source_id": -1
    }, 
    {
      "op": "FullyConnected", 
      "param": {
        "no_bias": "False", 
        "num_hidden": "512"
      }, 
      "name": "t103_l0_i2h", 
      "inputs": [[1, 103], [2, 0], [3, 0]], 
      "backward_source_id": -1
    }, 
    {
      "op": "FullyConnected", 
      "param": {
        "no_bias": "False", 
        "num_hidden": "512"
      }, 
      "name": "t103_l0_h2h", 
      "inputs": [[2880, 0], [6, 0], [7, 0]], 
      "backward_source_id": -1
    }, 
    {
      "op": "_Plus", 
      "param": {}, 
      "name": "_plus206", 
      "inputs": [[2882, 0], [2883, 0]], 
      "backward_source_id": -1
    }, 
    {
      "op": "SliceChannel", 
      "param": {
        "axis": "1", 
        "num_outputs": "4", 
        "squeeze_axis": "False"
      }, 
      "name": "t103_l0_slice", 
      "inputs": [[2884, 0]], 
      "backward_source_id": -1
    }, 
    {
      "op": "Activation", 
      "param": {"act_type": "sigmoid"}, 
      "name": "activation518", 
      "inputs": [[2885, 3]], 
      "backward_source_id": -1
    }, 
    {
      "op": "Activation", 
      "param": {"act_type": "sigmoid"}, 
      "name": "activation517", 
      "inputs": [[2885, 2]], 
      "backward_source_id": -1
    }, 
    {
      "op": "_Mul", 
      "param": {}, 
      "name": "_mul309", 
      "inputs": [[2887, 0], [2878, 0]], 
      "backward_source_id": -1
    }, 
    {
      "op": "Activation", 
      "param": {"act_type": "sigmoid"}, 
      "name": "activation515", 
      "inputs": [[2885, 0]], 
      "backward_source_id": -1
    }, 
    {
      "op": "Activation", 
      "param": {"act_type": "tanh"}, 
      "name": "activation516", 
      "inputs": [[2885, 1]], 
      "backward_source_id": -1
    }, 
    {
      "op": "_Mul", 
      "param": {}, 
      "name": "_mul310", 
      "inputs": [[2889, 0], [2890, 0]], 
      "backward_source_id": -1
    }, 
    {
      "op": "_Plus", 
      "param": {}, 
      "name": "_plus207", 
      "inputs": [[2888, 0], [2891, 0]], 
      "backward_source_id": -1
    }, 
    {
      "op": "Activation", 
      "param": {"act_type": "tanh"}, 
      "name": "activation519", 
      "inputs": [[2892, 0]], 
      "backward_source_id": -1
    }, 
    {
      "op": "_Mul", 
      "param": {}, 
      "name": "_mul311", 
      "inputs": [[2886, 0], [2893, 0]], 
      "backward_source_id": -1
    }, 
    {
      "op": "Concat", 
      "param": {
        "dim": "1", 
        "num_args": "2"
      }, 
      "name": "concat103", 
      "inputs": [[2894, 0], [216, 0]], 
      "backward_source_id": -1
    }, 
    {
      "op": "FullyConnected", 
      "param": {
        "no_bias": "False", 
        "num_hidden": "512"
      }, 
      "name": "t104_l0_i2h", 
      "inputs": [[1, 104], [2, 0], [3, 0]], 
      "backward_source_id": -1
    }, 
    {
      "op": "FullyConnected", 
      "param": {
        "no_bias": "False", 
        "num_hidden": "512"
      }, 
      "name": "t104_l0_h2h", 
      "inputs": [[2894, 0], [6, 0], [7, 0]], 
      "backward_source_id": -1
    }, 
    {
      "op": "_Plus", 
      "param": {}, 
      "name": "_plus208", 
      "inputs": [[2896, 0], [2897, 0]], 
      "backward_source_id": -1
    }, 
    {
      "op": "SliceChannel", 
      "param": {
        "axis": "1", 
        "num_outputs": "4", 
        "squeeze_axis": "False"
      }, 
      "name": "t104_l0_slice", 
      "inputs": [[2898, 0]], 
      "backward_source_id": -1
    }, 
    {
      "op": "Activation", 
      "param": {"act_type": "sigmoid"}, 
      "name": "activation523", 
      "inputs": [[2899, 3]], 
      "backward_source_id": -1
    }, 
    {
      "op": "Activation", 
      "param": {"act_type": "sigmoid"}, 
      "name": "activation522", 
      "inputs": [[2899, 2]], 
      "backward_source_id": -1
    }, 
    {
      "op": "_Mul", 
      "param": {}, 
      "name": "_mul312", 
      "inputs": [[2901, 0], [2892, 0]], 
      "backward_source_id": -1
    }, 
    {
      "op": "Activation", 
      "param": {"act_type": "sigmoid"}, 
      "name": "activation520", 
      "inputs": [[2899, 0]], 
      "backward_source_id": -1
    }, 
    {
      "op": "Activation", 
      "param": {"act_type": "tanh"}, 
      "name": "activation521", 
      "inputs": [[2899, 1]], 
      "backward_source_id": -1
    }, 
    {
      "op": "_Mul", 
      "param": {}, 
      "name": "_mul313", 
      "inputs": [[2903, 0], [2904, 0]], 
      "backward_source_id": -1
    }, 
    {
      "op": "_Plus", 
      "param": {}, 
      "name": "_plus209", 
      "inputs": [[2902, 0], [2905, 0]], 
      "backward_source_id": -1
    }, 
    {
      "op": "Activation", 
      "param": {"act_type": "tanh"}, 
      "name": "activation524", 
      "inputs": [[2906, 0]], 
      "backward_source_id": -1
    }, 
    {
      "op": "_Mul", 
      "param": {}, 
      "name": "_mul314", 
      "inputs": [[2900, 0], [2907, 0]], 
      "backward_source_id": -1
    }, 
    {
      "op": "Concat", 
      "param": {
        "dim": "1", 
        "num_args": "2"
      }, 
      "name": "concat104", 
      "inputs": [[2908, 0], [204, 0]], 
      "backward_source_id": -1
    }, 
    {
      "op": "FullyConnected", 
      "param": {
        "no_bias": "False", 
        "num_hidden": "512"
      }, 
      "name": "t105_l0_i2h", 
      "inputs": [[1, 105], [2, 0], [3, 0]], 
      "backward_source_id": -1
    }, 
    {
      "op": "FullyConnected", 
      "param": {
        "no_bias": "False", 
        "num_hidden": "512"
      }, 
      "name": "t105_l0_h2h", 
      "inputs": [[2908, 0], [6, 0], [7, 0]], 
      "backward_source_id": -1
    }, 
    {
      "op": "_Plus", 
      "param": {}, 
      "name": "_plus210", 
      "inputs": [[2910, 0], [2911, 0]], 
      "backward_source_id": -1
    }, 
    {
      "op": "SliceChannel", 
      "param": {
        "axis": "1", 
        "num_outputs": "4", 
        "squeeze_axis": "False"
      }, 
      "name": "t105_l0_slice", 
      "inputs": [[2912, 0]], 
      "backward_source_id": -1
    }, 
    {
      "op": "Activation", 
      "param": {"act_type": "sigmoid"}, 
      "name": "activation528", 
      "inputs": [[2913, 3]], 
      "backward_source_id": -1
    }, 
    {
      "op": "Activation", 
      "param": {"act_type": "sigmoid"}, 
      "name": "activation527", 
      "inputs": [[2913, 2]], 
      "backward_source_id": -1
    }, 
    {
      "op": "_Mul", 
      "param": {}, 
      "name": "_mul315", 
      "inputs": [[2915, 0], [2906, 0]], 
      "backward_source_id": -1
    }, 
    {
      "op": "Activation", 
      "param": {"act_type": "sigmoid"}, 
      "name": "activation525", 
      "inputs": [[2913, 0]], 
      "backward_source_id": -1
    }, 
    {
      "op": "Activation", 
      "param": {"act_type": "tanh"}, 
      "name": "activation526", 
      "inputs": [[2913, 1]], 
      "backward_source_id": -1
    }, 
    {
      "op": "_Mul", 
      "param": {}, 
      "name": "_mul316", 
      "inputs": [[2917, 0], [2918, 0]], 
      "backward_source_id": -1
    }, 
    {
      "op": "_Plus", 
      "param": {}, 
      "name": "_plus211", 
      "inputs": [[2916, 0], [2919, 0]], 
      "backward_source_id": -1
    }, 
    {
      "op": "Activation", 
      "param": {"act_type": "tanh"}, 
      "name": "activation529", 
      "inputs": [[2920, 0]], 
      "backward_source_id": -1
    }, 
    {
      "op": "_Mul", 
      "param": {}, 
      "name": "_mul317", 
      "inputs": [[2914, 0], [2921, 0]], 
      "backward_source_id": -1
    }, 
    {
      "op": "Concat", 
      "param": {
        "dim": "1", 
        "num_args": "2"
      }, 
      "name": "concat105", 
      "inputs": [[2922, 0], [192, 0]], 
      "backward_source_id": -1
    }, 
    {
      "op": "FullyConnected", 
      "param": {
        "no_bias": "False", 
        "num_hidden": "512"
      }, 
      "name": "t106_l0_i2h", 
      "inputs": [[1, 106], [2, 0], [3, 0]], 
      "backward_source_id": -1
    }, 
    {
      "op": "FullyConnected", 
      "param": {
        "no_bias": "False", 
        "num_hidden": "512"
      }, 
      "name": "t106_l0_h2h", 
      "inputs": [[2922, 0], [6, 0], [7, 0]], 
      "backward_source_id": -1
    }, 
    {
      "op": "_Plus", 
      "param": {}, 
      "name": "_plus212", 
      "inputs": [[2924, 0], [2925, 0]], 
      "backward_source_id": -1
    }, 
    {
      "op": "SliceChannel", 
      "param": {
        "axis": "1", 
        "num_outputs": "4", 
        "squeeze_axis": "False"
      }, 
      "name": "t106_l0_slice", 
      "inputs": [[2926, 0]], 
      "backward_source_id": -1
    }, 
    {
      "op": "Activation", 
      "param": {"act_type": "sigmoid"}, 
      "name": "activation533", 
      "inputs": [[2927, 3]], 
      "backward_source_id": -1
    }, 
    {
      "op": "Activation", 
      "param": {"act_type": "sigmoid"}, 
      "name": "activation532", 
      "inputs": [[2927, 2]], 
      "backward_source_id": -1
    }, 
    {
      "op": "_Mul", 
      "param": {}, 
      "name": "_mul318", 
      "inputs": [[2929, 0], [2920, 0]], 
      "backward_source_id": -1
    }, 
    {
      "op": "Activation", 
      "param": {"act_type": "sigmoid"}, 
      "name": "activation530", 
      "inputs": [[2927, 0]], 
      "backward_source_id": -1
    }, 
    {
      "op": "Activation", 
      "param": {"act_type": "tanh"}, 
      "name": "activation531", 
      "inputs": [[2927, 1]], 
      "backward_source_id": -1
    }, 
    {
      "op": "_Mul", 
      "param": {}, 
      "name": "_mul319", 
      "inputs": [[2931, 0], [2932, 0]], 
      "backward_source_id": -1
    }, 
    {
      "op": "_Plus", 
      "param": {}, 
      "name": "_plus213", 
      "inputs": [[2930, 0], [2933, 0]], 
      "backward_source_id": -1
    }, 
    {
      "op": "Activation", 
      "param": {"act_type": "tanh"}, 
      "name": "activation534", 
      "inputs": [[2934, 0]], 
      "backward_source_id": -1
    }, 
    {
      "op": "_Mul", 
      "param": {}, 
      "name": "_mul320", 
      "inputs": [[2928, 0], [2935, 0]], 
      "backward_source_id": -1
    }, 
    {
      "op": "Concat", 
      "param": {
        "dim": "1", 
        "num_args": "2"
      }, 
      "name": "concat106", 
      "inputs": [[2936, 0], [180, 0]], 
      "backward_source_id": -1
    }, 
    {
      "op": "FullyConnected", 
      "param": {
        "no_bias": "False", 
        "num_hidden": "512"
      }, 
      "name": "t107_l0_i2h", 
      "inputs": [[1, 107], [2, 0], [3, 0]], 
      "backward_source_id": -1
    }, 
    {
      "op": "FullyConnected", 
      "param": {
        "no_bias": "False", 
        "num_hidden": "512"
      }, 
      "name": "t107_l0_h2h", 
      "inputs": [[2936, 0], [6, 0], [7, 0]], 
      "backward_source_id": -1
    }, 
    {
      "op": "_Plus", 
      "param": {}, 
      "name": "_plus214", 
      "inputs": [[2938, 0], [2939, 0]], 
      "backward_source_id": -1
    }, 
    {
      "op": "SliceChannel", 
      "param": {
        "axis": "1", 
        "num_outputs": "4", 
        "squeeze_axis": "False"
      }, 
      "name": "t107_l0_slice", 
      "inputs": [[2940, 0]], 
      "backward_source_id": -1
    }, 
    {
      "op": "Activation", 
      "param": {"act_type": "sigmoid"}, 
      "name": "activation538", 
      "inputs": [[2941, 3]], 
      "backward_source_id": -1
    }, 
    {
      "op": "Activation", 
      "param": {"act_type": "sigmoid"}, 
      "name": "activation537", 
      "inputs": [[2941, 2]], 
      "backward_source_id": -1
    }, 
    {
      "op": "_Mul", 
      "param": {}, 
      "name": "_mul321", 
      "inputs": [[2943, 0], [2934, 0]], 
      "backward_source_id": -1
    }, 
    {
      "op": "Activation", 
      "param": {"act_type": "sigmoid"}, 
      "name": "activation535", 
      "inputs": [[2941, 0]], 
      "backward_source_id": -1
    }, 
    {
      "op": "Activation", 
      "param": {"act_type": "tanh"}, 
      "name": "activation536", 
      "inputs": [[2941, 1]], 
      "backward_source_id": -1
    }, 
    {
      "op": "_Mul", 
      "param": {}, 
      "name": "_mul322", 
      "inputs": [[2945, 0], [2946, 0]], 
      "backward_source_id": -1
    }, 
    {
      "op": "_Plus", 
      "param": {}, 
      "name": "_plus215", 
      "inputs": [[2944, 0], [2947, 0]], 
      "backward_source_id": -1
    }, 
    {
      "op": "Activation", 
      "param": {"act_type": "tanh"}, 
      "name": "activation539", 
      "inputs": [[2948, 0]], 
      "backward_source_id": -1
    }, 
    {
      "op": "_Mul", 
      "param": {}, 
      "name": "_mul323", 
      "inputs": [[2942, 0], [2949, 0]], 
      "backward_source_id": -1
    }, 
    {
      "op": "Concat", 
      "param": {
        "dim": "1", 
        "num_args": "2"
      }, 
      "name": "concat107", 
      "inputs": [[2950, 0], [168, 0]], 
      "backward_source_id": -1
    }, 
    {
      "op": "FullyConnected", 
      "param": {
        "no_bias": "False", 
        "num_hidden": "512"
      }, 
      "name": "t108_l0_i2h", 
      "inputs": [[1, 108], [2, 0], [3, 0]], 
      "backward_source_id": -1
    }, 
    {
      "op": "FullyConnected", 
      "param": {
        "no_bias": "False", 
        "num_hidden": "512"
      }, 
      "name": "t108_l0_h2h", 
      "inputs": [[2950, 0], [6, 0], [7, 0]], 
      "backward_source_id": -1
    }, 
    {
      "op": "_Plus", 
      "param": {}, 
      "name": "_plus216", 
      "inputs": [[2952, 0], [2953, 0]], 
      "backward_source_id": -1
    }, 
    {
      "op": "SliceChannel", 
      "param": {
        "axis": "1", 
        "num_outputs": "4", 
        "squeeze_axis": "False"
      }, 
      "name": "t108_l0_slice", 
      "inputs": [[2954, 0]], 
      "backward_source_id": -1
    }, 
    {
      "op": "Activation", 
      "param": {"act_type": "sigmoid"}, 
      "name": "activation543", 
      "inputs": [[2955, 3]], 
      "backward_source_id": -1
    }, 
    {
      "op": "Activation", 
      "param": {"act_type": "sigmoid"}, 
      "name": "activation542", 
      "inputs": [[2955, 2]], 
      "backward_source_id": -1
    }, 
    {
      "op": "_Mul", 
      "param": {}, 
      "name": "_mul324", 
      "inputs": [[2957, 0], [2948, 0]], 
      "backward_source_id": -1
    }, 
    {
      "op": "Activation", 
      "param": {"act_type": "sigmoid"}, 
      "name": "activation540", 
      "inputs": [[2955, 0]], 
      "backward_source_id": -1
    }, 
    {
      "op": "Activation", 
      "param": {"act_type": "tanh"}, 
      "name": "activation541", 
      "inputs": [[2955, 1]], 
      "backward_source_id": -1
    }, 
    {
      "op": "_Mul", 
      "param": {}, 
      "name": "_mul325", 
      "inputs": [[2959, 0], [2960, 0]], 
      "backward_source_id": -1
    }, 
    {
      "op": "_Plus", 
      "param": {}, 
      "name": "_plus217", 
      "inputs": [[2958, 0], [2961, 0]], 
      "backward_source_id": -1
    }, 
    {
      "op": "Activation", 
      "param": {"act_type": "tanh"}, 
      "name": "activation544", 
      "inputs": [[2962, 0]], 
      "backward_source_id": -1
    }, 
    {
      "op": "_Mul", 
      "param": {}, 
      "name": "_mul326", 
      "inputs": [[2956, 0], [2963, 0]], 
      "backward_source_id": -1
    }, 
    {
      "op": "Concat", 
      "param": {
        "dim": "1", 
        "num_args": "2"
      }, 
      "name": "concat108", 
      "inputs": [[2964, 0], [156, 0]], 
      "backward_source_id": -1
    }, 
    {
      "op": "FullyConnected", 
      "param": {
        "no_bias": "False", 
        "num_hidden": "512"
      }, 
      "name": "t109_l0_i2h", 
      "inputs": [[1, 109], [2, 0], [3, 0]], 
      "backward_source_id": -1
    }, 
    {
      "op": "FullyConnected", 
      "param": {
        "no_bias": "False", 
        "num_hidden": "512"
      }, 
      "name": "t109_l0_h2h", 
      "inputs": [[2964, 0], [6, 0], [7, 0]], 
      "backward_source_id": -1
    }, 
    {
      "op": "_Plus", 
      "param": {}, 
      "name": "_plus218", 
      "inputs": [[2966, 0], [2967, 0]], 
      "backward_source_id": -1
    }, 
    {
      "op": "SliceChannel", 
      "param": {
        "axis": "1", 
        "num_outputs": "4", 
        "squeeze_axis": "False"
      }, 
      "name": "t109_l0_slice", 
      "inputs": [[2968, 0]], 
      "backward_source_id": -1
    }, 
    {
      "op": "Activation", 
      "param": {"act_type": "sigmoid"}, 
      "name": "activation548", 
      "inputs": [[2969, 3]], 
      "backward_source_id": -1
    }, 
    {
      "op": "Activation", 
      "param": {"act_type": "sigmoid"}, 
      "name": "activation547", 
      "inputs": [[2969, 2]], 
      "backward_source_id": -1
    }, 
    {
      "op": "_Mul", 
      "param": {}, 
      "name": "_mul327", 
      "inputs": [[2971, 0], [2962, 0]], 
      "backward_source_id": -1
    }, 
    {
      "op": "Activation", 
      "param": {"act_type": "sigmoid"}, 
      "name": "activation545", 
      "inputs": [[2969, 0]], 
      "backward_source_id": -1
    }, 
    {
      "op": "Activation", 
      "param": {"act_type": "tanh"}, 
      "name": "activation546", 
      "inputs": [[2969, 1]], 
      "backward_source_id": -1
    }, 
    {
      "op": "_Mul", 
      "param": {}, 
      "name": "_mul328", 
      "inputs": [[2973, 0], [2974, 0]], 
      "backward_source_id": -1
    }, 
    {
      "op": "_Plus", 
      "param": {}, 
      "name": "_plus219", 
      "inputs": [[2972, 0], [2975, 0]], 
      "backward_source_id": -1
    }, 
    {
      "op": "Activation", 
      "param": {"act_type": "tanh"}, 
      "name": "activation549", 
      "inputs": [[2976, 0]], 
      "backward_source_id": -1
    }, 
    {
      "op": "_Mul", 
      "param": {}, 
      "name": "_mul329", 
      "inputs": [[2970, 0], [2977, 0]], 
      "backward_source_id": -1
    }, 
    {
      "op": "Concat", 
      "param": {
        "dim": "1", 
        "num_args": "2"
      }, 
      "name": "concat109", 
      "inputs": [[2978, 0], [144, 0]], 
      "backward_source_id": -1
    }, 
    {
      "op": "Concat", 
      "param": {
        "dim": "0", 
        "num_args": "110"
      }, 
      "name": "concat110", 
      "inputs": [
        [1453, 0], 
        [1467, 0], 
        [1481, 0], 
        [1495, 0], 
        [1509, 0], 
        [1523, 0], 
        [1537, 0], 
        [1551, 0], 
        [1565, 0], 
        [1579, 0], 
        [1593, 0], 
        [1607, 0], 
        [1621, 0], 
        [1635, 0], 
        [1649, 0], 
        [1663, 0], 
        [1677, 0], 
        [1691, 0], 
        [1705, 0], 
        [1719, 0], 
        [1733, 0], 
        [1747, 0], 
        [1761, 0], 
        [1775, 0], 
        [1789, 0], 
        [1803, 0], 
        [1817, 0], 
        [1831, 0], 
        [1845, 0], 
        [1859, 0], 
        [1873, 0], 
        [1887, 0], 
        [1901, 0], 
        [1915, 0], 
        [1929, 0], 
        [1943, 0], 
        [1957, 0], 
        [1971, 0], 
        [1985, 0], 
        [1999, 0], 
        [2013, 0], 
        [2027, 0], 
        [2041, 0], 
        [2055, 0], 
        [2069, 0], 
        [2083, 0], 
        [2097, 0], 
        [2111, 0], 
        [2125, 0], 
        [2139, 0], 
        [2153, 0], 
        [2167, 0], 
        [2181, 0], 
        [2195, 0], 
        [2209, 0], 
        [2223, 0], 
        [2237, 0], 
        [2251, 0], 
        [2265, 0], 
        [2279, 0], 
        [2293, 0], 
        [2307, 0], 
        [2321, 0], 
        [2335, 0], 
        [2349, 0], 
        [2363, 0], 
        [2377, 0], 
        [2391, 0], 
        [2405, 0], 
        [2419, 0], 
        [2433, 0], 
        [2447, 0], 
        [2461, 0], 
        [2475, 0], 
        [2489, 0], 
        [2503, 0], 
        [2517, 0], 
        [2531, 0], 
        [2545, 0], 
        [2559, 0], 
        [2573, 0], 
        [2587, 0], 
        [2601, 0], 
        [2615, 0], 
        [2629, 0], 
        [2643, 0], 
        [2657, 0], 
        [2671, 0], 
        [2685, 0], 
        [2699, 0], 
        [2713, 0], 
        [2727, 0], 
        [2741, 0], 
        [2755, 0], 
        [2769, 0], 
        [2783, 0], 
        [2797, 0], 
        [2811, 0], 
        [2825, 0], 
        [2839, 0], 
        [2853, 0], 
        [2867, 0], 
        [2881, 0], 
        [2895, 0], 
        [2909, 0], 
        [2923, 0], 
        [2937, 0], 
        [2951, 0], 
        [2965, 0], 
        [2979, 0]
      ], 
      "backward_source_id": -1
    }, 
    {
      "op": "null", 
      "param": {}, 
      "name": "fullyconnected0_weight", 
      "inputs": [], 
      "backward_source_id": -1
    }, 
    {
      "op": "null", 
      "param": {}, 
      "name": "fullyconnected0_bias", 
      "inputs": [], 
      "backward_source_id": -1
    }, 
    {
      "op": "FullyConnected", 
      "param": {
        "no_bias": "False", 
        "num_hidden": "66"
      }, 
      "name": "fullyconnected0", 
      "inputs": [[2980, 0], [2981, 0], [2982, 0]], 
      "backward_source_id": -1
    }, 
    {
      "op": "null", 
      "param": {}, 
      "name": "label", 
      "inputs": [], 
      "backward_source_id": -1
    }, 
    {
      "op": "Reshape", 
      "param": {
        "keep_highest": "False", 
        "reverse": "False", 
        "shape": "(-1,)", 
        "target_shape": "(0,0)"
      }, 
      "name": "reshape0", 
      "inputs": [[2984, 0]], 
      "backward_source_id": -1
    }, 
    {
      "op": "Cast", 
      "param": {"dtype": "int32"}, 
      "name": "cast0", 
      "inputs": [[2985, 0]], 
      "backward_source_id": -1
    }, 
    {
      "op": "WarpCTC", 
      "param": {
        "input_length": "110", 
        "label_length": "7"
      }, 
      "name": "warpctc0", 
      "inputs": [[2983, 0], [2986, 0]], 
      "backward_source_id": -1
    }
  ], 
  "arg_nodes": [
    0, 
    2, 
    3, 
    5, 
    6, 
    7, 
    13, 
    131, 
    137, 
    2981, 
    2982, 
    2984
  ], 
  "heads": [[2987, 0]]
}