{
  "nodes": [
    {
      "op": "null", 
      "name": "data", 
      "inputs": []
    }, 
    {
      "op": "SliceChannel", 
      "name": "slicechannel0", 
      "attr": {"num_outputs": "80"}, 
      "inputs": [[0, 0, 0]]
    }, 
    {
      "op": "null", 
      "name": "l0_i2h_weight", 
      "inputs": []
    }, 
    {
      "op": "null", 
      "name": "l0_i2h_bias", 
      "inputs": []
    }, 
    {
      "op": "FullyConnected", 
      "name": "t0_l0_i2h", 
      "attr": {"num_hidden": "400"}, 
      "inputs": [[1, 0, 0], [2, 0, 0], [3, 0, 0]]
    }, 
    {
      "op": "null", 
      "name": "l0_init_h", 
      "inputs": []
    }, 
    {
      "op": "null", 
      "name": "l0_h2h_weight", 
      "inputs": []
    }, 
    {
      "op": "null", 
      "name": "l0_h2h_bias", 
      "inputs": []
    }, 
    {
      "op": "FullyConnected", 
      "name": "t0_l0_h2h", 
      "attr": {"num_hidden": "400"}, 
      "inputs": [[5, 0, 0], [6, 0, 0], [7, 0, 0]]
    }, 
    {
      "op": "elemwise_add", 
      "name": "_plus0", 
      "inputs": [[4, 0, 0], [8, 0, 0]]
    }, 
    {
      "op": "SliceChannel", 
      "name": "t0_l0_slice", 
      "attr": {"num_outputs": "4"}, 
      "inputs": [[9, 0, 0]]
    }, 
    {
      "op": "Activation", 
      "name": "activation3", 
      "attr": {"act_type": "sigmoid"}, 
      "inputs": [[10, 3, 0]]
    }, 
    {
      "op": "Activation", 
      "name": "activation2", 
      "attr": {"act_type": "sigmoid"}, 
      "inputs": [[10, 2, 0]]
    }, 
    {
      "op": "null", 
      "name": "l0_init_c", 
      "inputs": []
    }, 
    {
      "op": "_mul", 
      "name": "_mul0", 
      "inputs": [[12, 0, 0], [13, 0, 0]]
    }, 
    {
      "op": "Activation", 
      "name": "activation0", 
      "attr": {"act_type": "sigmoid"}, 
      "inputs": [[10, 0, 0]]
    }, 
    {
      "op": "Activation", 
      "name": "activation1", 
      "attr": {"act_type": "tanh"}, 
      "inputs": [[10, 1, 0]]
    }, 
    {
      "op": "_mul", 
      "name": "_mul1", 
      "inputs": [[15, 0, 0], [16, 0, 0]]
    }, 
    {
      "op": "elemwise_add", 
      "name": "_plus1", 
      "inputs": [[14, 0, 0], [17, 0, 0]]
    }, 
    {
      "op": "Activation", 
      "name": "activation4", 
      "attr": {"act_type": "tanh"}, 
      "inputs": [[18, 0, 0]]
    }, 
    {
      "op": "_mul", 
      "name": "_mul2", 
      "inputs": [[11, 0, 0], [19, 0, 0]]
    }, 
    {
      "op": "null", 
      "name": "l1_i2h_weight", 
      "inputs": []
    }, 
    {
      "op": "null", 
      "name": "l1_i2h_bias", 
      "inputs": []
    }, 
    {
      "op": "FullyConnected", 
      "name": "t0_l1_i2h", 
      "attr": {"num_hidden": "400"}, 
      "inputs": [[20, 0, 0], [21, 0, 0], [22, 0, 0]]
    }, 
    {
      "op": "null", 
      "name": "l1_init_h", 
      "inputs": []
    }, 
    {
      "op": "null", 
      "name": "l1_h2h_weight", 
      "inputs": []
    }, 
    {
      "op": "null", 
      "name": "l1_h2h_bias", 
      "inputs": []
    }, 
    {
      "op": "FullyConnected", 
      "name": "t0_l1_h2h", 
      "attr": {"num_hidden": "400"}, 
      "inputs": [[24, 0, 0], [25, 0, 0], [26, 0, 0]]
    }, 
    {
      "op": "elemwise_add", 
      "name": "_plus2", 
      "inputs": [[23, 0, 0], [27, 0, 0]]
    }, 
    {
      "op": "SliceChannel", 
      "name": "t0_l1_slice", 
      "attr": {"num_outputs": "4"}, 
      "inputs": [[28, 0, 0]]
    }, 
    {
      "op": "Activation", 
      "name": "activation8", 
      "attr": {"act_type": "sigmoid"}, 
      "inputs": [[29, 3, 0]]
    }, 
    {
      "op": "Activation", 
      "name": "activation7", 
      "attr": {"act_type": "sigmoid"}, 
      "inputs": [[29, 2, 0]]
    }, 
    {
      "op": "null", 
      "name": "l1_init_c", 
      "inputs": []
    }, 
    {
      "op": "_mul", 
      "name": "_mul3", 
      "inputs": [[31, 0, 0], [32, 0, 0]]
    }, 
    {
      "op": "Activation", 
      "name": "activation5", 
      "attr": {"act_type": "sigmoid"}, 
      "inputs": [[29, 0, 0]]
    }, 
    {
      "op": "Activation", 
      "name": "activation6", 
      "attr": {"act_type": "tanh"}, 
      "inputs": [[29, 1, 0]]
    }, 
    {
      "op": "_mul", 
      "name": "_mul4", 
      "inputs": [[34, 0, 0], [35, 0, 0]]
    }, 
    {
      "op": "elemwise_add", 
      "name": "_plus3", 
      "inputs": [[33, 0, 0], [36, 0, 0]]
    }, 
    {
      "op": "Activation", 
      "name": "activation9", 
      "attr": {"act_type": "tanh"}, 
      "inputs": [[37, 0, 0]]
    }, 
    {
      "op": "_mul", 
      "name": "_mul5", 
      "inputs": [[30, 0, 0], [38, 0, 0]]
    }, 
    {
      "op": "FullyConnected", 
      "name": "t1_l0_i2h", 
      "attr": {"num_hidden": "400"}, 
      "inputs": [[1, 1, 0], [2, 0, 0], [3, 0, 0]]
    }, 
    {
      "op": "FullyConnected", 
      "name": "t1_l0_h2h", 
      "attr": {"num_hidden": "400"}, 
      "inputs": [[20, 0, 0], [6, 0, 0], [7, 0, 0]]
    }, 
    {
      "op": "elemwise_add", 
      "name": "_plus4", 
      "inputs": [[40, 0, 0], [41, 0, 0]]
    }, 
    {
      "op": "SliceChannel", 
      "name": "t1_l0_slice", 
      "attr": {"num_outputs": "4"}, 
      "inputs": [[42, 0, 0]]
    }, 
    {
      "op": "Activation", 
      "name": "activation13", 
      "attr": {"act_type": "sigmoid"}, 
      "inputs": [[43, 3, 0]]
    }, 
    {
      "op": "Activation", 
      "name": "activation12", 
      "attr": {"act_type": "sigmoid"}, 
      "inputs": [[43, 2, 0]]
    }, 
    {
      "op": "_mul", 
      "name": "_mul6", 
      "inputs": [[45, 0, 0], [18, 0, 0]]
    }, 
    {
      "op": "Activation", 
      "name": "activation10", 
      "attr": {"act_type": "sigmoid"}, 
      "inputs": [[43, 0, 0]]
    }, 
    {
      "op": "Activation", 
      "name": "activation11", 
      "attr": {"act_type": "tanh"}, 
      "inputs": [[43, 1, 0]]
    }, 
    {
      "op": "_mul", 
      "name": "_mul7", 
      "inputs": [[47, 0, 0], [48, 0, 0]]
    }, 
    {
      "op": "elemwise_add", 
      "name": "_plus5", 
      "inputs": [[46, 0, 0], [49, 0, 0]]
    }, 
    {
      "op": "Activation", 
      "name": "activation14", 
      "attr": {"act_type": "tanh"}, 
      "inputs": [[50, 0, 0]]
    }, 
    {
      "op": "_mul", 
      "name": "_mul8", 
      "inputs": [[44, 0, 0], [51, 0, 0]]
    }, 
    {
      "op": "FullyConnected", 
      "name": "t1_l1_i2h", 
      "attr": {"num_hidden": "400"}, 
      "inputs": [[52, 0, 0], [21, 0, 0], [22, 0, 0]]
    }, 
    {
      "op": "FullyConnected", 
      "name": "t1_l1_h2h", 
      "attr": {"num_hidden": "400"}, 
      "inputs": [[39, 0, 0], [25, 0, 0], [26, 0, 0]]
    }, 
    {
      "op": "elemwise_add", 
      "name": "_plus6", 
      "inputs": [[53, 0, 0], [54, 0, 0]]
    }, 
    {
      "op": "SliceChannel", 
      "name": "t1_l1_slice", 
      "attr": {"num_outputs": "4"}, 
      "inputs": [[55, 0, 0]]
    }, 
    {
      "op": "Activation", 
      "name": "activation18", 
      "attr": {"act_type": "sigmoid"}, 
      "inputs": [[56, 3, 0]]
    }, 
    {
      "op": "Activation", 
      "name": "activation17", 
      "attr": {"act_type": "sigmoid"}, 
      "inputs": [[56, 2, 0]]
    }, 
    {
      "op": "_mul", 
      "name": "_mul9", 
      "inputs": [[58, 0, 0], [37, 0, 0]]
    }, 
    {
      "op": "Activation", 
      "name": "activation15", 
      "attr": {"act_type": "sigmoid"}, 
      "inputs": [[56, 0, 0]]
    }, 
    {
      "op": "Activation", 
      "name": "activation16", 
      "attr": {"act_type": "tanh"}, 
      "inputs": [[56, 1, 0]]
    }, 
    {
      "op": "_mul", 
      "name": "_mul10", 
      "inputs": [[60, 0, 0], [61, 0, 0]]
    }, 
    {
      "op": "elemwise_add", 
      "name": "_plus7", 
      "inputs": [[59, 0, 0], [62, 0, 0]]
    }, 
    {
      "op": "Activation", 
      "name": "activation19", 
      "attr": {"act_type": "tanh"}, 
      "inputs": [[63, 0, 0]]
    }, 
    {
      "op": "_mul", 
      "name": "_mul11", 
      "inputs": [[57, 0, 0], [64, 0, 0]]
    }, 
    {
      "op": "FullyConnected", 
      "name": "t2_l0_i2h", 
      "attr": {"num_hidden": "400"}, 
      "inputs": [[1, 2, 0], [2, 0, 0], [3, 0, 0]]
    }, 
    {
      "op": "FullyConnected", 
      "name": "t2_l0_h2h", 
      "attr": {"num_hidden": "400"}, 
      "inputs": [[52, 0, 0], [6, 0, 0], [7, 0, 0]]
    }, 
    {
      "op": "elemwise_add", 
      "name": "_plus8", 
      "inputs": [[66, 0, 0], [67, 0, 0]]
    }, 
    {
      "op": "SliceChannel", 
      "name": "t2_l0_slice", 
      "attr": {"num_outputs": "4"}, 
      "inputs": [[68, 0, 0]]
    }, 
    {
      "op": "Activation", 
      "name": "activation23", 
      "attr": {"act_type": "sigmoid"}, 
      "inputs": [[69, 3, 0]]
    }, 
    {
      "op": "Activation", 
      "name": "activation22", 
      "attr": {"act_type": "sigmoid"}, 
      "inputs": [[69, 2, 0]]
    }, 
    {
      "op": "_mul", 
      "name": "_mul12", 
      "inputs": [[71, 0, 0], [50, 0, 0]]
    }, 
    {
      "op": "Activation", 
      "name": "activation20", 
      "attr": {"act_type": "sigmoid"}, 
      "inputs": [[69, 0, 0]]
    }, 
    {
      "op": "Activation", 
      "name": "activation21", 
      "attr": {"act_type": "tanh"}, 
      "inputs": [[69, 1, 0]]
    }, 
    {
      "op": "_mul", 
      "name": "_mul13", 
      "inputs": [[73, 0, 0], [74, 0, 0]]
    }, 
    {
      "op": "elemwise_add", 
      "name": "_plus9", 
      "inputs": [[72, 0, 0], [75, 0, 0]]
    }, 
    {
      "op": "Activation", 
      "name": "activation24", 
      "attr": {"act_type": "tanh"}, 
      "inputs": [[76, 0, 0]]
    }, 
    {
      "op": "_mul", 
      "name": "_mul14", 
      "inputs": [[70, 0, 0], [77, 0, 0]]
    }, 
    {
      "op": "FullyConnected", 
      "name": "t2_l1_i2h", 
      "attr": {"num_hidden": "400"}, 
      "inputs": [[78, 0, 0], [21, 0, 0], [22, 0, 0]]
    }, 
    {
      "op": "FullyConnected", 
      "name": "t2_l1_h2h", 
      "attr": {"num_hidden": "400"}, 
      "inputs": [[65, 0, 0], [25, 0, 0], [26, 0, 0]]
    }, 
    {
      "op": "elemwise_add", 
      "name": "_plus10", 
      "inputs": [[79, 0, 0], [80, 0, 0]]
    }, 
    {
      "op": "SliceChannel", 
      "name": "t2_l1_slice", 
      "attr": {"num_outputs": "4"}, 
      "inputs": [[81, 0, 0]]
    }, 
    {
      "op": "Activation", 
      "name": "activation28", 
      "attr": {"act_type": "sigmoid"}, 
      "inputs": [[82, 3, 0]]
    }, 
    {
      "op": "Activation", 
      "name": "activation27", 
      "attr": {"act_type": "sigmoid"}, 
      "inputs": [[82, 2, 0]]
    }, 
    {
      "op": "_mul", 
      "name": "_mul15", 
      "inputs": [[84, 0, 0], [63, 0, 0]]
    }, 
    {
      "op": "Activation", 
      "name": "activation25", 
      "attr": {"act_type": "sigmoid"}, 
      "inputs": [[82, 0, 0]]
    }, 
    {
      "op": "Activation", 
      "name": "activation26", 
      "attr": {"act_type": "tanh"}, 
      "inputs": [[82, 1, 0]]
    }, 
    {
      "op": "_mul", 
      "name": "_mul16", 
      "inputs": [[86, 0, 0], [87, 0, 0]]
    }, 
    {
      "op": "elemwise_add", 
      "name": "_plus11", 
      "inputs": [[85, 0, 0], [88, 0, 0]]
    }, 
    {
      "op": "Activation", 
      "name": "activation29", 
      "attr": {"act_type": "tanh"}, 
      "inputs": [[89, 0, 0]]
    }, 
    {
      "op": "_mul", 
      "name": "_mul17", 
      "inputs": [[83, 0, 0], [90, 0, 0]]
    }, 
    {
      "op": "FullyConnected", 
      "name": "t3_l0_i2h", 
      "attr": {"num_hidden": "400"}, 
      "inputs": [[1, 3, 0], [2, 0, 0], [3, 0, 0]]
    }, 
    {
      "op": "FullyConnected", 
      "name": "t3_l0_h2h", 
      "attr": {"num_hidden": "400"}, 
      "inputs": [[78, 0, 0], [6, 0, 0], [7, 0, 0]]
    }, 
    {
      "op": "elemwise_add", 
      "name": "_plus12", 
      "inputs": [[92, 0, 0], [93, 0, 0]]
    }, 
    {
      "op": "SliceChannel", 
      "name": "t3_l0_slice", 
      "attr": {"num_outputs": "4"}, 
      "inputs": [[94, 0, 0]]
    }, 
    {
      "op": "Activation", 
      "name": "activation33", 
      "attr": {"act_type": "sigmoid"}, 
      "inputs": [[95, 3, 0]]
    }, 
    {
      "op": "Activation", 
      "name": "activation32", 
      "attr": {"act_type": "sigmoid"}, 
      "inputs": [[95, 2, 0]]
    }, 
    {
      "op": "_mul", 
      "name": "_mul18", 
      "inputs": [[97, 0, 0], [76, 0, 0]]
    }, 
    {
      "op": "Activation", 
      "name": "activation30", 
      "attr": {"act_type": "sigmoid"}, 
      "inputs": [[95, 0, 0]]
    }, 
    {
      "op": "Activation", 
      "name": "activation31", 
      "attr": {"act_type": "tanh"}, 
      "inputs": [[95, 1, 0]]
    }, 
    {
      "op": "_mul", 
      "name": "_mul19", 
      "inputs": [[99, 0, 0], [100, 0, 0]]
    }, 
    {
      "op": "elemwise_add", 
      "name": "_plus13", 
      "inputs": [[98, 0, 0], [101, 0, 0]]
    }, 
    {
      "op": "Activation", 
      "name": "activation34", 
      "attr": {"act_type": "tanh"}, 
      "inputs": [[102, 0, 0]]
    }, 
    {
      "op": "_mul", 
      "name": "_mul20", 
      "inputs": [[96, 0, 0], [103, 0, 0]]
    }, 
    {
      "op": "FullyConnected", 
      "name": "t3_l1_i2h", 
      "attr": {"num_hidden": "400"}, 
      "inputs": [[104, 0, 0], [21, 0, 0], [22, 0, 0]]
    }, 
    {
      "op": "FullyConnected", 
      "name": "t3_l1_h2h", 
      "attr": {"num_hidden": "400"}, 
      "inputs": [[91, 0, 0], [25, 0, 0], [26, 0, 0]]
    }, 
    {
      "op": "elemwise_add", 
      "name": "_plus14", 
      "inputs": [[105, 0, 0], [106, 0, 0]]
    }, 
    {
      "op": "SliceChannel", 
      "name": "t3_l1_slice", 
      "attr": {"num_outputs": "4"}, 
      "inputs": [[107, 0, 0]]
    }, 
    {
      "op": "Activation", 
      "name": "activation38", 
      "attr": {"act_type": "sigmoid"}, 
      "inputs": [[108, 3, 0]]
    }, 
    {
      "op": "Activation", 
      "name": "activation37", 
      "attr": {"act_type": "sigmoid"}, 
      "inputs": [[108, 2, 0]]
    }, 
    {
      "op": "_mul", 
      "name": "_mul21", 
      "inputs": [[110, 0, 0], [89, 0, 0]]
    }, 
    {
      "op": "Activation", 
      "name": "activation35", 
      "attr": {"act_type": "sigmoid"}, 
      "inputs": [[108, 0, 0]]
    }, 
    {
      "op": "Activation", 
      "name": "activation36", 
      "attr": {"act_type": "tanh"}, 
      "inputs": [[108, 1, 0]]
    }, 
    {
      "op": "_mul", 
      "name": "_mul22", 
      "inputs": [[112, 0, 0], [113, 0, 0]]
    }, 
    {
      "op": "elemwise_add", 
      "name": "_plus15", 
      "inputs": [[111, 0, 0], [114, 0, 0]]
    }, 
    {
      "op": "Activation", 
      "name": "activation39", 
      "attr": {"act_type": "tanh"}, 
      "inputs": [[115, 0, 0]]
    }, 
    {
      "op": "_mul", 
      "name": "_mul23", 
      "inputs": [[109, 0, 0], [116, 0, 0]]
    }, 
    {
      "op": "FullyConnected", 
      "name": "t4_l0_i2h", 
      "attr": {"num_hidden": "400"}, 
      "inputs": [[1, 4, 0], [2, 0, 0], [3, 0, 0]]
    }, 
    {
      "op": "FullyConnected", 
      "name": "t4_l0_h2h", 
      "attr": {"num_hidden": "400"}, 
      "inputs": [[104, 0, 0], [6, 0, 0], [7, 0, 0]]
    }, 
    {
      "op": "elemwise_add", 
      "name": "_plus16", 
      "inputs": [[118, 0, 0], [119, 0, 0]]
    }, 
    {
      "op": "SliceChannel", 
      "name": "t4_l0_slice", 
      "attr": {"num_outputs": "4"}, 
      "inputs": [[120, 0, 0]]
    }, 
    {
      "op": "Activation", 
      "name": "activation43", 
      "attr": {"act_type": "sigmoid"}, 
      "inputs": [[121, 3, 0]]
    }, 
    {
      "op": "Activation", 
      "name": "activation42", 
      "attr": {"act_type": "sigmoid"}, 
      "inputs": [[121, 2, 0]]
    }, 
    {
      "op": "_mul", 
      "name": "_mul24", 
      "inputs": [[123, 0, 0], [102, 0, 0]]
    }, 
    {
      "op": "Activation", 
      "name": "activation40", 
      "attr": {"act_type": "sigmoid"}, 
      "inputs": [[121, 0, 0]]
    }, 
    {
      "op": "Activation", 
      "name": "activation41", 
      "attr": {"act_type": "tanh"}, 
      "inputs": [[121, 1, 0]]
    }, 
    {
      "op": "_mul", 
      "name": "_mul25", 
      "inputs": [[125, 0, 0], [126, 0, 0]]
    }, 
    {
      "op": "elemwise_add", 
      "name": "_plus17", 
      "inputs": [[124, 0, 0], [127, 0, 0]]
    }, 
    {
      "op": "Activation", 
      "name": "activation44", 
      "attr": {"act_type": "tanh"}, 
      "inputs": [[128, 0, 0]]
    }, 
    {
      "op": "_mul", 
      "name": "_mul26", 
      "inputs": [[122, 0, 0], [129, 0, 0]]
    }, 
    {
      "op": "FullyConnected", 
      "name": "t4_l1_i2h", 
      "attr": {"num_hidden": "400"}, 
      "inputs": [[130, 0, 0], [21, 0, 0], [22, 0, 0]]
    }, 
    {
      "op": "FullyConnected", 
      "name": "t4_l1_h2h", 
      "attr": {"num_hidden": "400"}, 
      "inputs": [[117, 0, 0], [25, 0, 0], [26, 0, 0]]
    }, 
    {
      "op": "elemwise_add", 
      "name": "_plus18", 
      "inputs": [[131, 0, 0], [132, 0, 0]]
    }, 
    {
      "op": "SliceChannel", 
      "name": "t4_l1_slice", 
      "attr": {"num_outputs": "4"}, 
      "inputs": [[133, 0, 0]]
    }, 
    {
      "op": "Activation", 
      "name": "activation48", 
      "attr": {"act_type": "sigmoid"}, 
      "inputs": [[134, 3, 0]]
    }, 
    {
      "op": "Activation", 
      "name": "activation47", 
      "attr": {"act_type": "sigmoid"}, 
      "inputs": [[134, 2, 0]]
    }, 
    {
      "op": "_mul", 
      "name": "_mul27", 
      "inputs": [[136, 0, 0], [115, 0, 0]]
    }, 
    {
      "op": "Activation", 
      "name": "activation45", 
      "attr": {"act_type": "sigmoid"}, 
      "inputs": [[134, 0, 0]]
    }, 
    {
      "op": "Activation", 
      "name": "activation46", 
      "attr": {"act_type": "tanh"}, 
      "inputs": [[134, 1, 0]]
    }, 
    {
      "op": "_mul", 
      "name": "_mul28", 
      "inputs": [[138, 0, 0], [139, 0, 0]]
    }, 
    {
      "op": "elemwise_add", 
      "name": "_plus19", 
      "inputs": [[137, 0, 0], [140, 0, 0]]
    }, 
    {
      "op": "Activation", 
      "name": "activation49", 
      "attr": {"act_type": "tanh"}, 
      "inputs": [[141, 0, 0]]
    }, 
    {
      "op": "_mul", 
      "name": "_mul29", 
      "inputs": [[135, 0, 0], [142, 0, 0]]
    }, 
    {
      "op": "FullyConnected", 
      "name": "t5_l0_i2h", 
      "attr": {"num_hidden": "400"}, 
      "inputs": [[1, 5, 0], [2, 0, 0], [3, 0, 0]]
    }, 
    {
      "op": "FullyConnected", 
      "name": "t5_l0_h2h", 
      "attr": {"num_hidden": "400"}, 
      "inputs": [[130, 0, 0], [6, 0, 0], [7, 0, 0]]
    }, 
    {
      "op": "elemwise_add", 
      "name": "_plus20", 
      "inputs": [[144, 0, 0], [145, 0, 0]]
    }, 
    {
      "op": "SliceChannel", 
      "name": "t5_l0_slice", 
      "attr": {"num_outputs": "4"}, 
      "inputs": [[146, 0, 0]]
    }, 
    {
      "op": "Activation", 
      "name": "activation53", 
      "attr": {"act_type": "sigmoid"}, 
      "inputs": [[147, 3, 0]]
    }, 
    {
      "op": "Activation", 
      "name": "activation52", 
      "attr": {"act_type": "sigmoid"}, 
      "inputs": [[147, 2, 0]]
    }, 
    {
      "op": "_mul", 
      "name": "_mul30", 
      "inputs": [[149, 0, 0], [128, 0, 0]]
    }, 
    {
      "op": "Activation", 
      "name": "activation50", 
      "attr": {"act_type": "sigmoid"}, 
      "inputs": [[147, 0, 0]]
    }, 
    {
      "op": "Activation", 
      "name": "activation51", 
      "attr": {"act_type": "tanh"}, 
      "inputs": [[147, 1, 0]]
    }, 
    {
      "op": "_mul", 
      "name": "_mul31", 
      "inputs": [[151, 0, 0], [152, 0, 0]]
    }, 
    {
      "op": "elemwise_add", 
      "name": "_plus21", 
      "inputs": [[150, 0, 0], [153, 0, 0]]
    }, 
    {
      "op": "Activation", 
      "name": "activation54", 
      "attr": {"act_type": "tanh"}, 
      "inputs": [[154, 0, 0]]
    }, 
    {
      "op": "_mul", 
      "name": "_mul32", 
      "inputs": [[148, 0, 0], [155, 0, 0]]
    }, 
    {
      "op": "FullyConnected", 
      "name": "t5_l1_i2h", 
      "attr": {"num_hidden": "400"}, 
      "inputs": [[156, 0, 0], [21, 0, 0], [22, 0, 0]]
    }, 
    {
      "op": "FullyConnected", 
      "name": "t5_l1_h2h", 
      "attr": {"num_hidden": "400"}, 
      "inputs": [[143, 0, 0], [25, 0, 0], [26, 0, 0]]
    }, 
    {
      "op": "elemwise_add", 
      "name": "_plus22", 
      "inputs": [[157, 0, 0], [158, 0, 0]]
    }, 
    {
      "op": "SliceChannel", 
      "name": "t5_l1_slice", 
      "attr": {"num_outputs": "4"}, 
      "inputs": [[159, 0, 0]]
    }, 
    {
      "op": "Activation", 
      "name": "activation58", 
      "attr": {"act_type": "sigmoid"}, 
      "inputs": [[160, 3, 0]]
    }, 
    {
      "op": "Activation", 
      "name": "activation57", 
      "attr": {"act_type": "sigmoid"}, 
      "inputs": [[160, 2, 0]]
    }, 
    {
      "op": "_mul", 
      "name": "_mul33", 
      "inputs": [[162, 0, 0], [141, 0, 0]]
    }, 
    {
      "op": "Activation", 
      "name": "activation55", 
      "attr": {"act_type": "sigmoid"}, 
      "inputs": [[160, 0, 0]]
    }, 
    {
      "op": "Activation", 
      "name": "activation56", 
      "attr": {"act_type": "tanh"}, 
      "inputs": [[160, 1, 0]]
    }, 
    {
      "op": "_mul", 
      "name": "_mul34", 
      "inputs": [[164, 0, 0], [165, 0, 0]]
    }, 
    {
      "op": "elemwise_add", 
      "name": "_plus23", 
      "inputs": [[163, 0, 0], [166, 0, 0]]
    }, 
    {
      "op": "Activation", 
      "name": "activation59", 
      "attr": {"act_type": "tanh"}, 
      "inputs": [[167, 0, 0]]
    }, 
    {
      "op": "_mul", 
      "name": "_mul35", 
      "inputs": [[161, 0, 0], [168, 0, 0]]
    }, 
    {
      "op": "FullyConnected", 
      "name": "t6_l0_i2h", 
      "attr": {"num_hidden": "400"}, 
      "inputs": [[1, 6, 0], [2, 0, 0], [3, 0, 0]]
    }, 
    {
      "op": "FullyConnected", 
      "name": "t6_l0_h2h", 
      "attr": {"num_hidden": "400"}, 
      "inputs": [[156, 0, 0], [6, 0, 0], [7, 0, 0]]
    }, 
    {
      "op": "elemwise_add", 
      "name": "_plus24", 
      "inputs": [[170, 0, 0], [171, 0, 0]]
    }, 
    {
      "op": "SliceChannel", 
      "name": "t6_l0_slice", 
      "attr": {"num_outputs": "4"}, 
      "inputs": [[172, 0, 0]]
    }, 
    {
      "op": "Activation", 
      "name": "activation63", 
      "attr": {"act_type": "sigmoid"}, 
      "inputs": [[173, 3, 0]]
    }, 
    {
      "op": "Activation", 
      "name": "activation62", 
      "attr": {"act_type": "sigmoid"}, 
      "inputs": [[173, 2, 0]]
    }, 
    {
      "op": "_mul", 
      "name": "_mul36", 
      "inputs": [[175, 0, 0], [154, 0, 0]]
    }, 
    {
      "op": "Activation", 
      "name": "activation60", 
      "attr": {"act_type": "sigmoid"}, 
      "inputs": [[173, 0, 0]]
    }, 
    {
      "op": "Activation", 
      "name": "activation61", 
      "attr": {"act_type": "tanh"}, 
      "inputs": [[173, 1, 0]]
    }, 
    {
      "op": "_mul", 
      "name": "_mul37", 
      "inputs": [[177, 0, 0], [178, 0, 0]]
    }, 
    {
      "op": "elemwise_add", 
      "name": "_plus25", 
      "inputs": [[176, 0, 0], [179, 0, 0]]
    }, 
    {
      "op": "Activation", 
      "name": "activation64", 
      "attr": {"act_type": "tanh"}, 
      "inputs": [[180, 0, 0]]
    }, 
    {
      "op": "_mul", 
      "name": "_mul38", 
      "inputs": [[174, 0, 0], [181, 0, 0]]
    }, 
    {
      "op": "FullyConnected", 
      "name": "t6_l1_i2h", 
      "attr": {"num_hidden": "400"}, 
      "inputs": [[182, 0, 0], [21, 0, 0], [22, 0, 0]]
    }, 
    {
      "op": "FullyConnected", 
      "name": "t6_l1_h2h", 
      "attr": {"num_hidden": "400"}, 
      "inputs": [[169, 0, 0], [25, 0, 0], [26, 0, 0]]
    }, 
    {
      "op": "elemwise_add", 
      "name": "_plus26", 
      "inputs": [[183, 0, 0], [184, 0, 0]]
    }, 
    {
      "op": "SliceChannel", 
      "name": "t6_l1_slice", 
      "attr": {"num_outputs": "4"}, 
      "inputs": [[185, 0, 0]]
    }, 
    {
      "op": "Activation", 
      "name": "activation68", 
      "attr": {"act_type": "sigmoid"}, 
      "inputs": [[186, 3, 0]]
    }, 
    {
      "op": "Activation", 
      "name": "activation67", 
      "attr": {"act_type": "sigmoid"}, 
      "inputs": [[186, 2, 0]]
    }, 
    {
      "op": "_mul", 
      "name": "_mul39", 
      "inputs": [[188, 0, 0], [167, 0, 0]]
    }, 
    {
      "op": "Activation", 
      "name": "activation65", 
      "attr": {"act_type": "sigmoid"}, 
      "inputs": [[186, 0, 0]]
    }, 
    {
      "op": "Activation", 
      "name": "activation66", 
      "attr": {"act_type": "tanh"}, 
      "inputs": [[186, 1, 0]]
    }, 
    {
      "op": "_mul", 
      "name": "_mul40", 
      "inputs": [[190, 0, 0], [191, 0, 0]]
    }, 
    {
      "op": "elemwise_add", 
      "name": "_plus27", 
      "inputs": [[189, 0, 0], [192, 0, 0]]
    }, 
    {
      "op": "Activation", 
      "name": "activation69", 
      "attr": {"act_type": "tanh"}, 
      "inputs": [[193, 0, 0]]
    }, 
    {
      "op": "_mul", 
      "name": "_mul41", 
      "inputs": [[187, 0, 0], [194, 0, 0]]
    }, 
    {
      "op": "FullyConnected", 
      "name": "t7_l0_i2h", 
      "attr": {"num_hidden": "400"}, 
      "inputs": [[1, 7, 0], [2, 0, 0], [3, 0, 0]]
    }, 
    {
      "op": "FullyConnected", 
      "name": "t7_l0_h2h", 
      "attr": {"num_hidden": "400"}, 
      "inputs": [[182, 0, 0], [6, 0, 0], [7, 0, 0]]
    }, 
    {
      "op": "elemwise_add", 
      "name": "_plus28", 
      "inputs": [[196, 0, 0], [197, 0, 0]]
    }, 
    {
      "op": "SliceChannel", 
      "name": "t7_l0_slice", 
      "attr": {"num_outputs": "4"}, 
      "inputs": [[198, 0, 0]]
    }, 
    {
      "op": "Activation", 
      "name": "activation73", 
      "attr": {"act_type": "sigmoid"}, 
      "inputs": [[199, 3, 0]]
    }, 
    {
      "op": "Activation", 
      "name": "activation72", 
      "attr": {"act_type": "sigmoid"}, 
      "inputs": [[199, 2, 0]]
    }, 
    {
      "op": "_mul", 
      "name": "_mul42", 
      "inputs": [[201, 0, 0], [180, 0, 0]]
    }, 
    {
      "op": "Activation", 
      "name": "activation70", 
      "attr": {"act_type": "sigmoid"}, 
      "inputs": [[199, 0, 0]]
    }, 
    {
      "op": "Activation", 
      "name": "activation71", 
      "attr": {"act_type": "tanh"}, 
      "inputs": [[199, 1, 0]]
    }, 
    {
      "op": "_mul", 
      "name": "_mul43", 
      "inputs": [[203, 0, 0], [204, 0, 0]]
    }, 
    {
      "op": "elemwise_add", 
      "name": "_plus29", 
      "inputs": [[202, 0, 0], [205, 0, 0]]
    }, 
    {
      "op": "Activation", 
      "name": "activation74", 
      "attr": {"act_type": "tanh"}, 
      "inputs": [[206, 0, 0]]
    }, 
    {
      "op": "_mul", 
      "name": "_mul44", 
      "inputs": [[200, 0, 0], [207, 0, 0]]
    }, 
    {
      "op": "FullyConnected", 
      "name": "t7_l1_i2h", 
      "attr": {"num_hidden": "400"}, 
      "inputs": [[208, 0, 0], [21, 0, 0], [22, 0, 0]]
    }, 
    {
      "op": "FullyConnected", 
      "name": "t7_l1_h2h", 
      "attr": {"num_hidden": "400"}, 
      "inputs": [[195, 0, 0], [25, 0, 0], [26, 0, 0]]
    }, 
    {
      "op": "elemwise_add", 
      "name": "_plus30", 
      "inputs": [[209, 0, 0], [210, 0, 0]]
    }, 
    {
      "op": "SliceChannel", 
      "name": "t7_l1_slice", 
      "attr": {"num_outputs": "4"}, 
      "inputs": [[211, 0, 0]]
    }, 
    {
      "op": "Activation", 
      "name": "activation78", 
      "attr": {"act_type": "sigmoid"}, 
      "inputs": [[212, 3, 0]]
    }, 
    {
      "op": "Activation", 
      "name": "activation77", 
      "attr": {"act_type": "sigmoid"}, 
      "inputs": [[212, 2, 0]]
    }, 
    {
      "op": "_mul", 
      "name": "_mul45", 
      "inputs": [[214, 0, 0], [193, 0, 0]]
    }, 
    {
      "op": "Activation", 
      "name": "activation75", 
      "attr": {"act_type": "sigmoid"}, 
      "inputs": [[212, 0, 0]]
    }, 
    {
      "op": "Activation", 
      "name": "activation76", 
      "attr": {"act_type": "tanh"}, 
      "inputs": [[212, 1, 0]]
    }, 
    {
      "op": "_mul", 
      "name": "_mul46", 
      "inputs": [[216, 0, 0], [217, 0, 0]]
    }, 
    {
      "op": "elemwise_add", 
      "name": "_plus31", 
      "inputs": [[215, 0, 0], [218, 0, 0]]
    }, 
    {
      "op": "Activation", 
      "name": "activation79", 
      "attr": {"act_type": "tanh"}, 
      "inputs": [[219, 0, 0]]
    }, 
    {
      "op": "_mul", 
      "name": "_mul47", 
      "inputs": [[213, 0, 0], [220, 0, 0]]
    }, 
    {
      "op": "FullyConnected", 
      "name": "t8_l0_i2h", 
      "attr": {"num_hidden": "400"}, 
      "inputs": [[1, 8, 0], [2, 0, 0], [3, 0, 0]]
    }, 
    {
      "op": "FullyConnected", 
      "name": "t8_l0_h2h", 
      "attr": {"num_hidden": "400"}, 
      "inputs": [[208, 0, 0], [6, 0, 0], [7, 0, 0]]
    }, 
    {
      "op": "elemwise_add", 
      "name": "_plus32", 
      "inputs": [[222, 0, 0], [223, 0, 0]]
    }, 
    {
      "op": "SliceChannel", 
      "name": "t8_l0_slice", 
      "attr": {"num_outputs": "4"}, 
      "inputs": [[224, 0, 0]]
    }, 
    {
      "op": "Activation", 
      "name": "activation83", 
      "attr": {"act_type": "sigmoid"}, 
      "inputs": [[225, 3, 0]]
    }, 
    {
      "op": "Activation", 
      "name": "activation82", 
      "attr": {"act_type": "sigmoid"}, 
      "inputs": [[225, 2, 0]]
    }, 
    {
      "op": "_mul", 
      "name": "_mul48", 
      "inputs": [[227, 0, 0], [206, 0, 0]]
    }, 
    {
      "op": "Activation", 
      "name": "activation80", 
      "attr": {"act_type": "sigmoid"}, 
      "inputs": [[225, 0, 0]]
    }, 
    {
      "op": "Activation", 
      "name": "activation81", 
      "attr": {"act_type": "tanh"}, 
      "inputs": [[225, 1, 0]]
    }, 
    {
      "op": "_mul", 
      "name": "_mul49", 
      "inputs": [[229, 0, 0], [230, 0, 0]]
    }, 
    {
      "op": "elemwise_add", 
      "name": "_plus33", 
      "inputs": [[228, 0, 0], [231, 0, 0]]
    }, 
    {
      "op": "Activation", 
      "name": "activation84", 
      "attr": {"act_type": "tanh"}, 
      "inputs": [[232, 0, 0]]
    }, 
    {
      "op": "_mul", 
      "name": "_mul50", 
      "inputs": [[226, 0, 0], [233, 0, 0]]
    }, 
    {
      "op": "FullyConnected", 
      "name": "t8_l1_i2h", 
      "attr": {"num_hidden": "400"}, 
      "inputs": [[234, 0, 0], [21, 0, 0], [22, 0, 0]]
    }, 
    {
      "op": "FullyConnected", 
      "name": "t8_l1_h2h", 
      "attr": {"num_hidden": "400"}, 
      "inputs": [[221, 0, 0], [25, 0, 0], [26, 0, 0]]
    }, 
    {
      "op": "elemwise_add", 
      "name": "_plus34", 
      "inputs": [[235, 0, 0], [236, 0, 0]]
    }, 
    {
      "op": "SliceChannel", 
      "name": "t8_l1_slice", 
      "attr": {"num_outputs": "4"}, 
      "inputs": [[237, 0, 0]]
    }, 
    {
      "op": "Activation", 
      "name": "activation88", 
      "attr": {"act_type": "sigmoid"}, 
      "inputs": [[238, 3, 0]]
    }, 
    {
      "op": "Activation", 
      "name": "activation87", 
      "attr": {"act_type": "sigmoid"}, 
      "inputs": [[238, 2, 0]]
    }, 
    {
      "op": "_mul", 
      "name": "_mul51", 
      "inputs": [[240, 0, 0], [219, 0, 0]]
    }, 
    {
      "op": "Activation", 
      "name": "activation85", 
      "attr": {"act_type": "sigmoid"}, 
      "inputs": [[238, 0, 0]]
    }, 
    {
      "op": "Activation", 
      "name": "activation86", 
      "attr": {"act_type": "tanh"}, 
      "inputs": [[238, 1, 0]]
    }, 
    {
      "op": "_mul", 
      "name": "_mul52", 
      "inputs": [[242, 0, 0], [243, 0, 0]]
    }, 
    {
      "op": "elemwise_add", 
      "name": "_plus35", 
      "inputs": [[241, 0, 0], [244, 0, 0]]
    }, 
    {
      "op": "Activation", 
      "name": "activation89", 
      "attr": {"act_type": "tanh"}, 
      "inputs": [[245, 0, 0]]
    }, 
    {
      "op": "_mul", 
      "name": "_mul53", 
      "inputs": [[239, 0, 0], [246, 0, 0]]
    }, 
    {
      "op": "FullyConnected", 
      "name": "t9_l0_i2h", 
      "attr": {"num_hidden": "400"}, 
      "inputs": [[1, 9, 0], [2, 0, 0], [3, 0, 0]]
    }, 
    {
      "op": "FullyConnected", 
      "name": "t9_l0_h2h", 
      "attr": {"num_hidden": "400"}, 
      "inputs": [[234, 0, 0], [6, 0, 0], [7, 0, 0]]
    }, 
    {
      "op": "elemwise_add", 
      "name": "_plus36", 
      "inputs": [[248, 0, 0], [249, 0, 0]]
    }, 
    {
      "op": "SliceChannel", 
      "name": "t9_l0_slice", 
      "attr": {"num_outputs": "4"}, 
      "inputs": [[250, 0, 0]]
    }, 
    {
      "op": "Activation", 
      "name": "activation93", 
      "attr": {"act_type": "sigmoid"}, 
      "inputs": [[251, 3, 0]]
    }, 
    {
      "op": "Activation", 
      "name": "activation92", 
      "attr": {"act_type": "sigmoid"}, 
      "inputs": [[251, 2, 0]]
    }, 
    {
      "op": "_mul", 
      "name": "_mul54", 
      "inputs": [[253, 0, 0], [232, 0, 0]]
    }, 
    {
      "op": "Activation", 
      "name": "activation90", 
      "attr": {"act_type": "sigmoid"}, 
      "inputs": [[251, 0, 0]]
    }, 
    {
      "op": "Activation", 
      "name": "activation91", 
      "attr": {"act_type": "tanh"}, 
      "inputs": [[251, 1, 0]]
    }, 
    {
      "op": "_mul", 
      "name": "_mul55", 
      "inputs": [[255, 0, 0], [256, 0, 0]]
    }, 
    {
      "op": "elemwise_add", 
      "name": "_plus37", 
      "inputs": [[254, 0, 0], [257, 0, 0]]
    }, 
    {
      "op": "Activation", 
      "name": "activation94", 
      "attr": {"act_type": "tanh"}, 
      "inputs": [[258, 0, 0]]
    }, 
    {
      "op": "_mul", 
      "name": "_mul56", 
      "inputs": [[252, 0, 0], [259, 0, 0]]
    }, 
    {
      "op": "FullyConnected", 
      "name": "t9_l1_i2h", 
      "attr": {"num_hidden": "400"}, 
      "inputs": [[260, 0, 0], [21, 0, 0], [22, 0, 0]]
    }, 
    {
      "op": "FullyConnected", 
      "name": "t9_l1_h2h", 
      "attr": {"num_hidden": "400"}, 
      "inputs": [[247, 0, 0], [25, 0, 0], [26, 0, 0]]
    }, 
    {
      "op": "elemwise_add", 
      "name": "_plus38", 
      "inputs": [[261, 0, 0], [262, 0, 0]]
    }, 
    {
      "op": "SliceChannel", 
      "name": "t9_l1_slice", 
      "attr": {"num_outputs": "4"}, 
      "inputs": [[263, 0, 0]]
    }, 
    {
      "op": "Activation", 
      "name": "activation98", 
      "attr": {"act_type": "sigmoid"}, 
      "inputs": [[264, 3, 0]]
    }, 
    {
      "op": "Activation", 
      "name": "activation97", 
      "attr": {"act_type": "sigmoid"}, 
      "inputs": [[264, 2, 0]]
    }, 
    {
      "op": "_mul", 
      "name": "_mul57", 
      "inputs": [[266, 0, 0], [245, 0, 0]]
    }, 
    {
      "op": "Activation", 
      "name": "activation95", 
      "attr": {"act_type": "sigmoid"}, 
      "inputs": [[264, 0, 0]]
    }, 
    {
      "op": "Activation", 
      "name": "activation96", 
      "attr": {"act_type": "tanh"}, 
      "inputs": [[264, 1, 0]]
    }, 
    {
      "op": "_mul", 
      "name": "_mul58", 
      "inputs": [[268, 0, 0], [269, 0, 0]]
    }, 
    {
      "op": "elemwise_add", 
      "name": "_plus39", 
      "inputs": [[267, 0, 0], [270, 0, 0]]
    }, 
    {
      "op": "Activation", 
      "name": "activation99", 
      "attr": {"act_type": "tanh"}, 
      "inputs": [[271, 0, 0]]
    }, 
    {
      "op": "_mul", 
      "name": "_mul59", 
      "inputs": [[265, 0, 0], [272, 0, 0]]
    }, 
    {
      "op": "FullyConnected", 
      "name": "t10_l0_i2h", 
      "attr": {"num_hidden": "400"}, 
      "inputs": [[1, 10, 0], [2, 0, 0], [3, 0, 0]]
    }, 
    {
      "op": "FullyConnected", 
      "name": "t10_l0_h2h", 
      "attr": {"num_hidden": "400"}, 
      "inputs": [[260, 0, 0], [6, 0, 0], [7, 0, 0]]
    }, 
    {
      "op": "elemwise_add", 
      "name": "_plus40", 
      "inputs": [[274, 0, 0], [275, 0, 0]]
    }, 
    {
      "op": "SliceChannel", 
      "name": "t10_l0_slice", 
      "attr": {"num_outputs": "4"}, 
      "inputs": [[276, 0, 0]]
    }, 
    {
      "op": "Activation", 
      "name": "activation103", 
      "attr": {"act_type": "sigmoid"}, 
      "inputs": [[277, 3, 0]]
    }, 
    {
      "op": "Activation", 
      "name": "activation102", 
      "attr": {"act_type": "sigmoid"}, 
      "inputs": [[277, 2, 0]]
    }, 
    {
      "op": "_mul", 
      "name": "_mul60", 
      "inputs": [[279, 0, 0], [258, 0, 0]]
    }, 
    {
      "op": "Activation", 
      "name": "activation100", 
      "attr": {"act_type": "sigmoid"}, 
      "inputs": [[277, 0, 0]]
    }, 
    {
      "op": "Activation", 
      "name": "activation101", 
      "attr": {"act_type": "tanh"}, 
      "inputs": [[277, 1, 0]]
    }, 
    {
      "op": "_mul", 
      "name": "_mul61", 
      "inputs": [[281, 0, 0], [282, 0, 0]]
    }, 
    {
      "op": "elemwise_add", 
      "name": "_plus41", 
      "inputs": [[280, 0, 0], [283, 0, 0]]
    }, 
    {
      "op": "Activation", 
      "name": "activation104", 
      "attr": {"act_type": "tanh"}, 
      "inputs": [[284, 0, 0]]
    }, 
    {
      "op": "_mul", 
      "name": "_mul62", 
      "inputs": [[278, 0, 0], [285, 0, 0]]
    }, 
    {
      "op": "FullyConnected", 
      "name": "t10_l1_i2h", 
      "attr": {"num_hidden": "400"}, 
      "inputs": [[286, 0, 0], [21, 0, 0], [22, 0, 0]]
    }, 
    {
      "op": "FullyConnected", 
      "name": "t10_l1_h2h", 
      "attr": {"num_hidden": "400"}, 
      "inputs": [[273, 0, 0], [25, 0, 0], [26, 0, 0]]
    }, 
    {
      "op": "elemwise_add", 
      "name": "_plus42", 
      "inputs": [[287, 0, 0], [288, 0, 0]]
    }, 
    {
      "op": "SliceChannel", 
      "name": "t10_l1_slice", 
      "attr": {"num_outputs": "4"}, 
      "inputs": [[289, 0, 0]]
    }, 
    {
      "op": "Activation", 
      "name": "activation108", 
      "attr": {"act_type": "sigmoid"}, 
      "inputs": [[290, 3, 0]]
    }, 
    {
      "op": "Activation", 
      "name": "activation107", 
      "attr": {"act_type": "sigmoid"}, 
      "inputs": [[290, 2, 0]]
    }, 
    {
      "op": "_mul", 
      "name": "_mul63", 
      "inputs": [[292, 0, 0], [271, 0, 0]]
    }, 
    {
      "op": "Activation", 
      "name": "activation105", 
      "attr": {"act_type": "sigmoid"}, 
      "inputs": [[290, 0, 0]]
    }, 
    {
      "op": "Activation", 
      "name": "activation106", 
      "attr": {"act_type": "tanh"}, 
      "inputs": [[290, 1, 0]]
    }, 
    {
      "op": "_mul", 
      "name": "_mul64", 
      "inputs": [[294, 0, 0], [295, 0, 0]]
    }, 
    {
      "op": "elemwise_add", 
      "name": "_plus43", 
      "inputs": [[293, 0, 0], [296, 0, 0]]
    }, 
    {
      "op": "Activation", 
      "name": "activation109", 
      "attr": {"act_type": "tanh"}, 
      "inputs": [[297, 0, 0]]
    }, 
    {
      "op": "_mul", 
      "name": "_mul65", 
      "inputs": [[291, 0, 0], [298, 0, 0]]
    }, 
    {
      "op": "FullyConnected", 
      "name": "t11_l0_i2h", 
      "attr": {"num_hidden": "400"}, 
      "inputs": [[1, 11, 0], [2, 0, 0], [3, 0, 0]]
    }, 
    {
      "op": "FullyConnected", 
      "name": "t11_l0_h2h", 
      "attr": {"num_hidden": "400"}, 
      "inputs": [[286, 0, 0], [6, 0, 0], [7, 0, 0]]
    }, 
    {
      "op": "elemwise_add", 
      "name": "_plus44", 
      "inputs": [[300, 0, 0], [301, 0, 0]]
    }, 
    {
      "op": "SliceChannel", 
      "name": "t11_l0_slice", 
      "attr": {"num_outputs": "4"}, 
      "inputs": [[302, 0, 0]]
    }, 
    {
      "op": "Activation", 
      "name": "activation113", 
      "attr": {"act_type": "sigmoid"}, 
      "inputs": [[303, 3, 0]]
    }, 
    {
      "op": "Activation", 
      "name": "activation112", 
      "attr": {"act_type": "sigmoid"}, 
      "inputs": [[303, 2, 0]]
    }, 
    {
      "op": "_mul", 
      "name": "_mul66", 
      "inputs": [[305, 0, 0], [284, 0, 0]]
    }, 
    {
      "op": "Activation", 
      "name": "activation110", 
      "attr": {"act_type": "sigmoid"}, 
      "inputs": [[303, 0, 0]]
    }, 
    {
      "op": "Activation", 
      "name": "activation111", 
      "attr": {"act_type": "tanh"}, 
      "inputs": [[303, 1, 0]]
    }, 
    {
      "op": "_mul", 
      "name": "_mul67", 
      "inputs": [[307, 0, 0], [308, 0, 0]]
    }, 
    {
      "op": "elemwise_add", 
      "name": "_plus45", 
      "inputs": [[306, 0, 0], [309, 0, 0]]
    }, 
    {
      "op": "Activation", 
      "name": "activation114", 
      "attr": {"act_type": "tanh"}, 
      "inputs": [[310, 0, 0]]
    }, 
    {
      "op": "_mul", 
      "name": "_mul68", 
      "inputs": [[304, 0, 0], [311, 0, 0]]
    }, 
    {
      "op": "FullyConnected", 
      "name": "t11_l1_i2h", 
      "attr": {"num_hidden": "400"}, 
      "inputs": [[312, 0, 0], [21, 0, 0], [22, 0, 0]]
    }, 
    {
      "op": "FullyConnected", 
      "name": "t11_l1_h2h", 
      "attr": {"num_hidden": "400"}, 
      "inputs": [[299, 0, 0], [25, 0, 0], [26, 0, 0]]
    }, 
    {
      "op": "elemwise_add", 
      "name": "_plus46", 
      "inputs": [[313, 0, 0], [314, 0, 0]]
    }, 
    {
      "op": "SliceChannel", 
      "name": "t11_l1_slice", 
      "attr": {"num_outputs": "4"}, 
      "inputs": [[315, 0, 0]]
    }, 
    {
      "op": "Activation", 
      "name": "activation118", 
      "attr": {"act_type": "sigmoid"}, 
      "inputs": [[316, 3, 0]]
    }, 
    {
      "op": "Activation", 
      "name": "activation117", 
      "attr": {"act_type": "sigmoid"}, 
      "inputs": [[316, 2, 0]]
    }, 
    {
      "op": "_mul", 
      "name": "_mul69", 
      "inputs": [[318, 0, 0], [297, 0, 0]]
    }, 
    {
      "op": "Activation", 
      "name": "activation115", 
      "attr": {"act_type": "sigmoid"}, 
      "inputs": [[316, 0, 0]]
    }, 
    {
      "op": "Activation", 
      "name": "activation116", 
      "attr": {"act_type": "tanh"}, 
      "inputs": [[316, 1, 0]]
    }, 
    {
      "op": "_mul", 
      "name": "_mul70", 
      "inputs": [[320, 0, 0], [321, 0, 0]]
    }, 
    {
      "op": "elemwise_add", 
      "name": "_plus47", 
      "inputs": [[319, 0, 0], [322, 0, 0]]
    }, 
    {
      "op": "Activation", 
      "name": "activation119", 
      "attr": {"act_type": "tanh"}, 
      "inputs": [[323, 0, 0]]
    }, 
    {
      "op": "_mul", 
      "name": "_mul71", 
      "inputs": [[317, 0, 0], [324, 0, 0]]
    }, 
    {
      "op": "FullyConnected", 
      "name": "t12_l0_i2h", 
      "attr": {"num_hidden": "400"}, 
      "inputs": [[1, 12, 0], [2, 0, 0], [3, 0, 0]]
    }, 
    {
      "op": "FullyConnected", 
      "name": "t12_l0_h2h", 
      "attr": {"num_hidden": "400"}, 
      "inputs": [[312, 0, 0], [6, 0, 0], [7, 0, 0]]
    }, 
    {
      "op": "elemwise_add", 
      "name": "_plus48", 
      "inputs": [[326, 0, 0], [327, 0, 0]]
    }, 
    {
      "op": "SliceChannel", 
      "name": "t12_l0_slice", 
      "attr": {"num_outputs": "4"}, 
      "inputs": [[328, 0, 0]]
    }, 
    {
      "op": "Activation", 
      "name": "activation123", 
      "attr": {"act_type": "sigmoid"}, 
      "inputs": [[329, 3, 0]]
    }, 
    {
      "op": "Activation", 
      "name": "activation122", 
      "attr": {"act_type": "sigmoid"}, 
      "inputs": [[329, 2, 0]]
    }, 
    {
      "op": "_mul", 
      "name": "_mul72", 
      "inputs": [[331, 0, 0], [310, 0, 0]]
    }, 
    {
      "op": "Activation", 
      "name": "activation120", 
      "attr": {"act_type": "sigmoid"}, 
      "inputs": [[329, 0, 0]]
    }, 
    {
      "op": "Activation", 
      "name": "activation121", 
      "attr": {"act_type": "tanh"}, 
      "inputs": [[329, 1, 0]]
    }, 
    {
      "op": "_mul", 
      "name": "_mul73", 
      "inputs": [[333, 0, 0], [334, 0, 0]]
    }, 
    {
      "op": "elemwise_add", 
      "name": "_plus49", 
      "inputs": [[332, 0, 0], [335, 0, 0]]
    }, 
    {
      "op": "Activation", 
      "name": "activation124", 
      "attr": {"act_type": "tanh"}, 
      "inputs": [[336, 0, 0]]
    }, 
    {
      "op": "_mul", 
      "name": "_mul74", 
      "inputs": [[330, 0, 0], [337, 0, 0]]
    }, 
    {
      "op": "FullyConnected", 
      "name": "t12_l1_i2h", 
      "attr": {"num_hidden": "400"}, 
      "inputs": [[338, 0, 0], [21, 0, 0], [22, 0, 0]]
    }, 
    {
      "op": "FullyConnected", 
      "name": "t12_l1_h2h", 
      "attr": {"num_hidden": "400"}, 
      "inputs": [[325, 0, 0], [25, 0, 0], [26, 0, 0]]
    }, 
    {
      "op": "elemwise_add", 
      "name": "_plus50", 
      "inputs": [[339, 0, 0], [340, 0, 0]]
    }, 
    {
      "op": "SliceChannel", 
      "name": "t12_l1_slice", 
      "attr": {"num_outputs": "4"}, 
      "inputs": [[341, 0, 0]]
    }, 
    {
      "op": "Activation", 
      "name": "activation128", 
      "attr": {"act_type": "sigmoid"}, 
      "inputs": [[342, 3, 0]]
    }, 
    {
      "op": "Activation", 
      "name": "activation127", 
      "attr": {"act_type": "sigmoid"}, 
      "inputs": [[342, 2, 0]]
    }, 
    {
      "op": "_mul", 
      "name": "_mul75", 
      "inputs": [[344, 0, 0], [323, 0, 0]]
    }, 
    {
      "op": "Activation", 
      "name": "activation125", 
      "attr": {"act_type": "sigmoid"}, 
      "inputs": [[342, 0, 0]]
    }, 
    {
      "op": "Activation", 
      "name": "activation126", 
      "attr": {"act_type": "tanh"}, 
      "inputs": [[342, 1, 0]]
    }, 
    {
      "op": "_mul", 
      "name": "_mul76", 
      "inputs": [[346, 0, 0], [347, 0, 0]]
    }, 
    {
      "op": "elemwise_add", 
      "name": "_plus51", 
      "inputs": [[345, 0, 0], [348, 0, 0]]
    }, 
    {
      "op": "Activation", 
      "name": "activation129", 
      "attr": {"act_type": "tanh"}, 
      "inputs": [[349, 0, 0]]
    }, 
    {
      "op": "_mul", 
      "name": "_mul77", 
      "inputs": [[343, 0, 0], [350, 0, 0]]
    }, 
    {
      "op": "FullyConnected", 
      "name": "t13_l0_i2h", 
      "attr": {"num_hidden": "400"}, 
      "inputs": [[1, 13, 0], [2, 0, 0], [3, 0, 0]]
    }, 
    {
      "op": "FullyConnected", 
      "name": "t13_l0_h2h", 
      "attr": {"num_hidden": "400"}, 
      "inputs": [[338, 0, 0], [6, 0, 0], [7, 0, 0]]
    }, 
    {
      "op": "elemwise_add", 
      "name": "_plus52", 
      "inputs": [[352, 0, 0], [353, 0, 0]]
    }, 
    {
      "op": "SliceChannel", 
      "name": "t13_l0_slice", 
      "attr": {"num_outputs": "4"}, 
      "inputs": [[354, 0, 0]]
    }, 
    {
      "op": "Activation", 
      "name": "activation133", 
      "attr": {"act_type": "sigmoid"}, 
      "inputs": [[355, 3, 0]]
    }, 
    {
      "op": "Activation", 
      "name": "activation132", 
      "attr": {"act_type": "sigmoid"}, 
      "inputs": [[355, 2, 0]]
    }, 
    {
      "op": "_mul", 
      "name": "_mul78", 
      "inputs": [[357, 0, 0], [336, 0, 0]]
    }, 
    {
      "op": "Activation", 
      "name": "activation130", 
      "attr": {"act_type": "sigmoid"}, 
      "inputs": [[355, 0, 0]]
    }, 
    {
      "op": "Activation", 
      "name": "activation131", 
      "attr": {"act_type": "tanh"}, 
      "inputs": [[355, 1, 0]]
    }, 
    {
      "op": "_mul", 
      "name": "_mul79", 
      "inputs": [[359, 0, 0], [360, 0, 0]]
    }, 
    {
      "op": "elemwise_add", 
      "name": "_plus53", 
      "inputs": [[358, 0, 0], [361, 0, 0]]
    }, 
    {
      "op": "Activation", 
      "name": "activation134", 
      "attr": {"act_type": "tanh"}, 
      "inputs": [[362, 0, 0]]
    }, 
    {
      "op": "_mul", 
      "name": "_mul80", 
      "inputs": [[356, 0, 0], [363, 0, 0]]
    }, 
    {
      "op": "FullyConnected", 
      "name": "t13_l1_i2h", 
      "attr": {"num_hidden": "400"}, 
      "inputs": [[364, 0, 0], [21, 0, 0], [22, 0, 0]]
    }, 
    {
      "op": "FullyConnected", 
      "name": "t13_l1_h2h", 
      "attr": {"num_hidden": "400"}, 
      "inputs": [[351, 0, 0], [25, 0, 0], [26, 0, 0]]
    }, 
    {
      "op": "elemwise_add", 
      "name": "_plus54", 
      "inputs": [[365, 0, 0], [366, 0, 0]]
    }, 
    {
      "op": "SliceChannel", 
      "name": "t13_l1_slice", 
      "attr": {"num_outputs": "4"}, 
      "inputs": [[367, 0, 0]]
    }, 
    {
      "op": "Activation", 
      "name": "activation138", 
      "attr": {"act_type": "sigmoid"}, 
      "inputs": [[368, 3, 0]]
    }, 
    {
      "op": "Activation", 
      "name": "activation137", 
      "attr": {"act_type": "sigmoid"}, 
      "inputs": [[368, 2, 0]]
    }, 
    {
      "op": "_mul", 
      "name": "_mul81", 
      "inputs": [[370, 0, 0], [349, 0, 0]]
    }, 
    {
      "op": "Activation", 
      "name": "activation135", 
      "attr": {"act_type": "sigmoid"}, 
      "inputs": [[368, 0, 0]]
    }, 
    {
      "op": "Activation", 
      "name": "activation136", 
      "attr": {"act_type": "tanh"}, 
      "inputs": [[368, 1, 0]]
    }, 
    {
      "op": "_mul", 
      "name": "_mul82", 
      "inputs": [[372, 0, 0], [373, 0, 0]]
    }, 
    {
      "op": "elemwise_add", 
      "name": "_plus55", 
      "inputs": [[371, 0, 0], [374, 0, 0]]
    }, 
    {
      "op": "Activation", 
      "name": "activation139", 
      "attr": {"act_type": "tanh"}, 
      "inputs": [[375, 0, 0]]
    }, 
    {
      "op": "_mul", 
      "name": "_mul83", 
      "inputs": [[369, 0, 0], [376, 0, 0]]
    }, 
    {
      "op": "FullyConnected", 
      "name": "t14_l0_i2h", 
      "attr": {"num_hidden": "400"}, 
      "inputs": [[1, 14, 0], [2, 0, 0], [3, 0, 0]]
    }, 
    {
      "op": "FullyConnected", 
      "name": "t14_l0_h2h", 
      "attr": {"num_hidden": "400"}, 
      "inputs": [[364, 0, 0], [6, 0, 0], [7, 0, 0]]
    }, 
    {
      "op": "elemwise_add", 
      "name": "_plus56", 
      "inputs": [[378, 0, 0], [379, 0, 0]]
    }, 
    {
      "op": "SliceChannel", 
      "name": "t14_l0_slice", 
      "attr": {"num_outputs": "4"}, 
      "inputs": [[380, 0, 0]]
    }, 
    {
      "op": "Activation", 
      "name": "activation143", 
      "attr": {"act_type": "sigmoid"}, 
      "inputs": [[381, 3, 0]]
    }, 
    {
      "op": "Activation", 
      "name": "activation142", 
      "attr": {"act_type": "sigmoid"}, 
      "inputs": [[381, 2, 0]]
    }, 
    {
      "op": "_mul", 
      "name": "_mul84", 
      "inputs": [[383, 0, 0], [362, 0, 0]]
    }, 
    {
      "op": "Activation", 
      "name": "activation140", 
      "attr": {"act_type": "sigmoid"}, 
      "inputs": [[381, 0, 0]]
    }, 
    {
      "op": "Activation", 
      "name": "activation141", 
      "attr": {"act_type": "tanh"}, 
      "inputs": [[381, 1, 0]]
    }, 
    {
      "op": "_mul", 
      "name": "_mul85", 
      "inputs": [[385, 0, 0], [386, 0, 0]]
    }, 
    {
      "op": "elemwise_add", 
      "name": "_plus57", 
      "inputs": [[384, 0, 0], [387, 0, 0]]
    }, 
    {
      "op": "Activation", 
      "name": "activation144", 
      "attr": {"act_type": "tanh"}, 
      "inputs": [[388, 0, 0]]
    }, 
    {
      "op": "_mul", 
      "name": "_mul86", 
      "inputs": [[382, 0, 0], [389, 0, 0]]
    }, 
    {
      "op": "FullyConnected", 
      "name": "t14_l1_i2h", 
      "attr": {"num_hidden": "400"}, 
      "inputs": [[390, 0, 0], [21, 0, 0], [22, 0, 0]]
    }, 
    {
      "op": "FullyConnected", 
      "name": "t14_l1_h2h", 
      "attr": {"num_hidden": "400"}, 
      "inputs": [[377, 0, 0], [25, 0, 0], [26, 0, 0]]
    }, 
    {
      "op": "elemwise_add", 
      "name": "_plus58", 
      "inputs": [[391, 0, 0], [392, 0, 0]]
    }, 
    {
      "op": "SliceChannel", 
      "name": "t14_l1_slice", 
      "attr": {"num_outputs": "4"}, 
      "inputs": [[393, 0, 0]]
    }, 
    {
      "op": "Activation", 
      "name": "activation148", 
      "attr": {"act_type": "sigmoid"}, 
      "inputs": [[394, 3, 0]]
    }, 
    {
      "op": "Activation", 
      "name": "activation147", 
      "attr": {"act_type": "sigmoid"}, 
      "inputs": [[394, 2, 0]]
    }, 
    {
      "op": "_mul", 
      "name": "_mul87", 
      "inputs": [[396, 0, 0], [375, 0, 0]]
    }, 
    {
      "op": "Activation", 
      "name": "activation145", 
      "attr": {"act_type": "sigmoid"}, 
      "inputs": [[394, 0, 0]]
    }, 
    {
      "op": "Activation", 
      "name": "activation146", 
      "attr": {"act_type": "tanh"}, 
      "inputs": [[394, 1, 0]]
    }, 
    {
      "op": "_mul", 
      "name": "_mul88", 
      "inputs": [[398, 0, 0], [399, 0, 0]]
    }, 
    {
      "op": "elemwise_add", 
      "name": "_plus59", 
      "inputs": [[397, 0, 0], [400, 0, 0]]
    }, 
    {
      "op": "Activation", 
      "name": "activation149", 
      "attr": {"act_type": "tanh"}, 
      "inputs": [[401, 0, 0]]
    }, 
    {
      "op": "_mul", 
      "name": "_mul89", 
      "inputs": [[395, 0, 0], [402, 0, 0]]
    }, 
    {
      "op": "FullyConnected", 
      "name": "t15_l0_i2h", 
      "attr": {"num_hidden": "400"}, 
      "inputs": [[1, 15, 0], [2, 0, 0], [3, 0, 0]]
    }, 
    {
      "op": "FullyConnected", 
      "name": "t15_l0_h2h", 
      "attr": {"num_hidden": "400"}, 
      "inputs": [[390, 0, 0], [6, 0, 0], [7, 0, 0]]
    }, 
    {
      "op": "elemwise_add", 
      "name": "_plus60", 
      "inputs": [[404, 0, 0], [405, 0, 0]]
    }, 
    {
      "op": "SliceChannel", 
      "name": "t15_l0_slice", 
      "attr": {"num_outputs": "4"}, 
      "inputs": [[406, 0, 0]]
    }, 
    {
      "op": "Activation", 
      "name": "activation153", 
      "attr": {"act_type": "sigmoid"}, 
      "inputs": [[407, 3, 0]]
    }, 
    {
      "op": "Activation", 
      "name": "activation152", 
      "attr": {"act_type": "sigmoid"}, 
      "inputs": [[407, 2, 0]]
    }, 
    {
      "op": "_mul", 
      "name": "_mul90", 
      "inputs": [[409, 0, 0], [388, 0, 0]]
    }, 
    {
      "op": "Activation", 
      "name": "activation150", 
      "attr": {"act_type": "sigmoid"}, 
      "inputs": [[407, 0, 0]]
    }, 
    {
      "op": "Activation", 
      "name": "activation151", 
      "attr": {"act_type": "tanh"}, 
      "inputs": [[407, 1, 0]]
    }, 
    {
      "op": "_mul", 
      "name": "_mul91", 
      "inputs": [[411, 0, 0], [412, 0, 0]]
    }, 
    {
      "op": "elemwise_add", 
      "name": "_plus61", 
      "inputs": [[410, 0, 0], [413, 0, 0]]
    }, 
    {
      "op": "Activation", 
      "name": "activation154", 
      "attr": {"act_type": "tanh"}, 
      "inputs": [[414, 0, 0]]
    }, 
    {
      "op": "_mul", 
      "name": "_mul92", 
      "inputs": [[408, 0, 0], [415, 0, 0]]
    }, 
    {
      "op": "FullyConnected", 
      "name": "t15_l1_i2h", 
      "attr": {"num_hidden": "400"}, 
      "inputs": [[416, 0, 0], [21, 0, 0], [22, 0, 0]]
    }, 
    {
      "op": "FullyConnected", 
      "name": "t15_l1_h2h", 
      "attr": {"num_hidden": "400"}, 
      "inputs": [[403, 0, 0], [25, 0, 0], [26, 0, 0]]
    }, 
    {
      "op": "elemwise_add", 
      "name": "_plus62", 
      "inputs": [[417, 0, 0], [418, 0, 0]]
    }, 
    {
      "op": "SliceChannel", 
      "name": "t15_l1_slice", 
      "attr": {"num_outputs": "4"}, 
      "inputs": [[419, 0, 0]]
    }, 
    {
      "op": "Activation", 
      "name": "activation158", 
      "attr": {"act_type": "sigmoid"}, 
      "inputs": [[420, 3, 0]]
    }, 
    {
      "op": "Activation", 
      "name": "activation157", 
      "attr": {"act_type": "sigmoid"}, 
      "inputs": [[420, 2, 0]]
    }, 
    {
      "op": "_mul", 
      "name": "_mul93", 
      "inputs": [[422, 0, 0], [401, 0, 0]]
    }, 
    {
      "op": "Activation", 
      "name": "activation155", 
      "attr": {"act_type": "sigmoid"}, 
      "inputs": [[420, 0, 0]]
    }, 
    {
      "op": "Activation", 
      "name": "activation156", 
      "attr": {"act_type": "tanh"}, 
      "inputs": [[420, 1, 0]]
    }, 
    {
      "op": "_mul", 
      "name": "_mul94", 
      "inputs": [[424, 0, 0], [425, 0, 0]]
    }, 
    {
      "op": "elemwise_add", 
      "name": "_plus63", 
      "inputs": [[423, 0, 0], [426, 0, 0]]
    }, 
    {
      "op": "Activation", 
      "name": "activation159", 
      "attr": {"act_type": "tanh"}, 
      "inputs": [[427, 0, 0]]
    }, 
    {
      "op": "_mul", 
      "name": "_mul95", 
      "inputs": [[421, 0, 0], [428, 0, 0]]
    }, 
    {
      "op": "FullyConnected", 
      "name": "t16_l0_i2h", 
      "attr": {"num_hidden": "400"}, 
      "inputs": [[1, 16, 0], [2, 0, 0], [3, 0, 0]]
    }, 
    {
      "op": "FullyConnected", 
      "name": "t16_l0_h2h", 
      "attr": {"num_hidden": "400"}, 
      "inputs": [[416, 0, 0], [6, 0, 0], [7, 0, 0]]
    }, 
    {
      "op": "elemwise_add", 
      "name": "_plus64", 
      "inputs": [[430, 0, 0], [431, 0, 0]]
    }, 
    {
      "op": "SliceChannel", 
      "name": "t16_l0_slice", 
      "attr": {"num_outputs": "4"}, 
      "inputs": [[432, 0, 0]]
    }, 
    {
      "op": "Activation", 
      "name": "activation163", 
      "attr": {"act_type": "sigmoid"}, 
      "inputs": [[433, 3, 0]]
    }, 
    {
      "op": "Activation", 
      "name": "activation162", 
      "attr": {"act_type": "sigmoid"}, 
      "inputs": [[433, 2, 0]]
    }, 
    {
      "op": "_mul", 
      "name": "_mul96", 
      "inputs": [[435, 0, 0], [414, 0, 0]]
    }, 
    {
      "op": "Activation", 
      "name": "activation160", 
      "attr": {"act_type": "sigmoid"}, 
      "inputs": [[433, 0, 0]]
    }, 
    {
      "op": "Activation", 
      "name": "activation161", 
      "attr": {"act_type": "tanh"}, 
      "inputs": [[433, 1, 0]]
    }, 
    {
      "op": "_mul", 
      "name": "_mul97", 
      "inputs": [[437, 0, 0], [438, 0, 0]]
    }, 
    {
      "op": "elemwise_add", 
      "name": "_plus65", 
      "inputs": [[436, 0, 0], [439, 0, 0]]
    }, 
    {
      "op": "Activation", 
      "name": "activation164", 
      "attr": {"act_type": "tanh"}, 
      "inputs": [[440, 0, 0]]
    }, 
    {
      "op": "_mul", 
      "name": "_mul98", 
      "inputs": [[434, 0, 0], [441, 0, 0]]
    }, 
    {
      "op": "FullyConnected", 
      "name": "t16_l1_i2h", 
      "attr": {"num_hidden": "400"}, 
      "inputs": [[442, 0, 0], [21, 0, 0], [22, 0, 0]]
    }, 
    {
      "op": "FullyConnected", 
      "name": "t16_l1_h2h", 
      "attr": {"num_hidden": "400"}, 
      "inputs": [[429, 0, 0], [25, 0, 0], [26, 0, 0]]
    }, 
    {
      "op": "elemwise_add", 
      "name": "_plus66", 
      "inputs": [[443, 0, 0], [444, 0, 0]]
    }, 
    {
      "op": "SliceChannel", 
      "name": "t16_l1_slice", 
      "attr": {"num_outputs": "4"}, 
      "inputs": [[445, 0, 0]]
    }, 
    {
      "op": "Activation", 
      "name": "activation168", 
      "attr": {"act_type": "sigmoid"}, 
      "inputs": [[446, 3, 0]]
    }, 
    {
      "op": "Activation", 
      "name": "activation167", 
      "attr": {"act_type": "sigmoid"}, 
      "inputs": [[446, 2, 0]]
    }, 
    {
      "op": "_mul", 
      "name": "_mul99", 
      "inputs": [[448, 0, 0], [427, 0, 0]]
    }, 
    {
      "op": "Activation", 
      "name": "activation165", 
      "attr": {"act_type": "sigmoid"}, 
      "inputs": [[446, 0, 0]]
    }, 
    {
      "op": "Activation", 
      "name": "activation166", 
      "attr": {"act_type": "tanh"}, 
      "inputs": [[446, 1, 0]]
    }, 
    {
      "op": "_mul", 
      "name": "_mul100", 
      "inputs": [[450, 0, 0], [451, 0, 0]]
    }, 
    {
      "op": "elemwise_add", 
      "name": "_plus67", 
      "inputs": [[449, 0, 0], [452, 0, 0]]
    }, 
    {
      "op": "Activation", 
      "name": "activation169", 
      "attr": {"act_type": "tanh"}, 
      "inputs": [[453, 0, 0]]
    }, 
    {
      "op": "_mul", 
      "name": "_mul101", 
      "inputs": [[447, 0, 0], [454, 0, 0]]
    }, 
    {
      "op": "FullyConnected", 
      "name": "t17_l0_i2h", 
      "attr": {"num_hidden": "400"}, 
      "inputs": [[1, 17, 0], [2, 0, 0], [3, 0, 0]]
    }, 
    {
      "op": "FullyConnected", 
      "name": "t17_l0_h2h", 
      "attr": {"num_hidden": "400"}, 
      "inputs": [[442, 0, 0], [6, 0, 0], [7, 0, 0]]
    }, 
    {
      "op": "elemwise_add", 
      "name": "_plus68", 
      "inputs": [[456, 0, 0], [457, 0, 0]]
    }, 
    {
      "op": "SliceChannel", 
      "name": "t17_l0_slice", 
      "attr": {"num_outputs": "4"}, 
      "inputs": [[458, 0, 0]]
    }, 
    {
      "op": "Activation", 
      "name": "activation173", 
      "attr": {"act_type": "sigmoid"}, 
      "inputs": [[459, 3, 0]]
    }, 
    {
      "op": "Activation", 
      "name": "activation172", 
      "attr": {"act_type": "sigmoid"}, 
      "inputs": [[459, 2, 0]]
    }, 
    {
      "op": "_mul", 
      "name": "_mul102", 
      "inputs": [[461, 0, 0], [440, 0, 0]]
    }, 
    {
      "op": "Activation", 
      "name": "activation170", 
      "attr": {"act_type": "sigmoid"}, 
      "inputs": [[459, 0, 0]]
    }, 
    {
      "op": "Activation", 
      "name": "activation171", 
      "attr": {"act_type": "tanh"}, 
      "inputs": [[459, 1, 0]]
    }, 
    {
      "op": "_mul", 
      "name": "_mul103", 
      "inputs": [[463, 0, 0], [464, 0, 0]]
    }, 
    {
      "op": "elemwise_add", 
      "name": "_plus69", 
      "inputs": [[462, 0, 0], [465, 0, 0]]
    }, 
    {
      "op": "Activation", 
      "name": "activation174", 
      "attr": {"act_type": "tanh"}, 
      "inputs": [[466, 0, 0]]
    }, 
    {
      "op": "_mul", 
      "name": "_mul104", 
      "inputs": [[460, 0, 0], [467, 0, 0]]
    }, 
    {
      "op": "FullyConnected", 
      "name": "t17_l1_i2h", 
      "attr": {"num_hidden": "400"}, 
      "inputs": [[468, 0, 0], [21, 0, 0], [22, 0, 0]]
    }, 
    {
      "op": "FullyConnected", 
      "name": "t17_l1_h2h", 
      "attr": {"num_hidden": "400"}, 
      "inputs": [[455, 0, 0], [25, 0, 0], [26, 0, 0]]
    }, 
    {
      "op": "elemwise_add", 
      "name": "_plus70", 
      "inputs": [[469, 0, 0], [470, 0, 0]]
    }, 
    {
      "op": "SliceChannel", 
      "name": "t17_l1_slice", 
      "attr": {"num_outputs": "4"}, 
      "inputs": [[471, 0, 0]]
    }, 
    {
      "op": "Activation", 
      "name": "activation178", 
      "attr": {"act_type": "sigmoid"}, 
      "inputs": [[472, 3, 0]]
    }, 
    {
      "op": "Activation", 
      "name": "activation177", 
      "attr": {"act_type": "sigmoid"}, 
      "inputs": [[472, 2, 0]]
    }, 
    {
      "op": "_mul", 
      "name": "_mul105", 
      "inputs": [[474, 0, 0], [453, 0, 0]]
    }, 
    {
      "op": "Activation", 
      "name": "activation175", 
      "attr": {"act_type": "sigmoid"}, 
      "inputs": [[472, 0, 0]]
    }, 
    {
      "op": "Activation", 
      "name": "activation176", 
      "attr": {"act_type": "tanh"}, 
      "inputs": [[472, 1, 0]]
    }, 
    {
      "op": "_mul", 
      "name": "_mul106", 
      "inputs": [[476, 0, 0], [477, 0, 0]]
    }, 
    {
      "op": "elemwise_add", 
      "name": "_plus71", 
      "inputs": [[475, 0, 0], [478, 0, 0]]
    }, 
    {
      "op": "Activation", 
      "name": "activation179", 
      "attr": {"act_type": "tanh"}, 
      "inputs": [[479, 0, 0]]
    }, 
    {
      "op": "_mul", 
      "name": "_mul107", 
      "inputs": [[473, 0, 0], [480, 0, 0]]
    }, 
    {
      "op": "FullyConnected", 
      "name": "t18_l0_i2h", 
      "attr": {"num_hidden": "400"}, 
      "inputs": [[1, 18, 0], [2, 0, 0], [3, 0, 0]]
    }, 
    {
      "op": "FullyConnected", 
      "name": "t18_l0_h2h", 
      "attr": {"num_hidden": "400"}, 
      "inputs": [[468, 0, 0], [6, 0, 0], [7, 0, 0]]
    }, 
    {
      "op": "elemwise_add", 
      "name": "_plus72", 
      "inputs": [[482, 0, 0], [483, 0, 0]]
    }, 
    {
      "op": "SliceChannel", 
      "name": "t18_l0_slice", 
      "attr": {"num_outputs": "4"}, 
      "inputs": [[484, 0, 0]]
    }, 
    {
      "op": "Activation", 
      "name": "activation183", 
      "attr": {"act_type": "sigmoid"}, 
      "inputs": [[485, 3, 0]]
    }, 
    {
      "op": "Activation", 
      "name": "activation182", 
      "attr": {"act_type": "sigmoid"}, 
      "inputs": [[485, 2, 0]]
    }, 
    {
      "op": "_mul", 
      "name": "_mul108", 
      "inputs": [[487, 0, 0], [466, 0, 0]]
    }, 
    {
      "op": "Activation", 
      "name": "activation180", 
      "attr": {"act_type": "sigmoid"}, 
      "inputs": [[485, 0, 0]]
    }, 
    {
      "op": "Activation", 
      "name": "activation181", 
      "attr": {"act_type": "tanh"}, 
      "inputs": [[485, 1, 0]]
    }, 
    {
      "op": "_mul", 
      "name": "_mul109", 
      "inputs": [[489, 0, 0], [490, 0, 0]]
    }, 
    {
      "op": "elemwise_add", 
      "name": "_plus73", 
      "inputs": [[488, 0, 0], [491, 0, 0]]
    }, 
    {
      "op": "Activation", 
      "name": "activation184", 
      "attr": {"act_type": "tanh"}, 
      "inputs": [[492, 0, 0]]
    }, 
    {
      "op": "_mul", 
      "name": "_mul110", 
      "inputs": [[486, 0, 0], [493, 0, 0]]
    }, 
    {
      "op": "FullyConnected", 
      "name": "t18_l1_i2h", 
      "attr": {"num_hidden": "400"}, 
      "inputs": [[494, 0, 0], [21, 0, 0], [22, 0, 0]]
    }, 
    {
      "op": "FullyConnected", 
      "name": "t18_l1_h2h", 
      "attr": {"num_hidden": "400"}, 
      "inputs": [[481, 0, 0], [25, 0, 0], [26, 0, 0]]
    }, 
    {
      "op": "elemwise_add", 
      "name": "_plus74", 
      "inputs": [[495, 0, 0], [496, 0, 0]]
    }, 
    {
      "op": "SliceChannel", 
      "name": "t18_l1_slice", 
      "attr": {"num_outputs": "4"}, 
      "inputs": [[497, 0, 0]]
    }, 
    {
      "op": "Activation", 
      "name": "activation188", 
      "attr": {"act_type": "sigmoid"}, 
      "inputs": [[498, 3, 0]]
    }, 
    {
      "op": "Activation", 
      "name": "activation187", 
      "attr": {"act_type": "sigmoid"}, 
      "inputs": [[498, 2, 0]]
    }, 
    {
      "op": "_mul", 
      "name": "_mul111", 
      "inputs": [[500, 0, 0], [479, 0, 0]]
    }, 
    {
      "op": "Activation", 
      "name": "activation185", 
      "attr": {"act_type": "sigmoid"}, 
      "inputs": [[498, 0, 0]]
    }, 
    {
      "op": "Activation", 
      "name": "activation186", 
      "attr": {"act_type": "tanh"}, 
      "inputs": [[498, 1, 0]]
    }, 
    {
      "op": "_mul", 
      "name": "_mul112", 
      "inputs": [[502, 0, 0], [503, 0, 0]]
    }, 
    {
      "op": "elemwise_add", 
      "name": "_plus75", 
      "inputs": [[501, 0, 0], [504, 0, 0]]
    }, 
    {
      "op": "Activation", 
      "name": "activation189", 
      "attr": {"act_type": "tanh"}, 
      "inputs": [[505, 0, 0]]
    }, 
    {
      "op": "_mul", 
      "name": "_mul113", 
      "inputs": [[499, 0, 0], [506, 0, 0]]
    }, 
    {
      "op": "FullyConnected", 
      "name": "t19_l0_i2h", 
      "attr": {"num_hidden": "400"}, 
      "inputs": [[1, 19, 0], [2, 0, 0], [3, 0, 0]]
    }, 
    {
      "op": "FullyConnected", 
      "name": "t19_l0_h2h", 
      "attr": {"num_hidden": "400"}, 
      "inputs": [[494, 0, 0], [6, 0, 0], [7, 0, 0]]
    }, 
    {
      "op": "elemwise_add", 
      "name": "_plus76", 
      "inputs": [[508, 0, 0], [509, 0, 0]]
    }, 
    {
      "op": "SliceChannel", 
      "name": "t19_l0_slice", 
      "attr": {"num_outputs": "4"}, 
      "inputs": [[510, 0, 0]]
    }, 
    {
      "op": "Activation", 
      "name": "activation193", 
      "attr": {"act_type": "sigmoid"}, 
      "inputs": [[511, 3, 0]]
    }, 
    {
      "op": "Activation", 
      "name": "activation192", 
      "attr": {"act_type": "sigmoid"}, 
      "inputs": [[511, 2, 0]]
    }, 
    {
      "op": "_mul", 
      "name": "_mul114", 
      "inputs": [[513, 0, 0], [492, 0, 0]]
    }, 
    {
      "op": "Activation", 
      "name": "activation190", 
      "attr": {"act_type": "sigmoid"}, 
      "inputs": [[511, 0, 0]]
    }, 
    {
      "op": "Activation", 
      "name": "activation191", 
      "attr": {"act_type": "tanh"}, 
      "inputs": [[511, 1, 0]]
    }, 
    {
      "op": "_mul", 
      "name": "_mul115", 
      "inputs": [[515, 0, 0], [516, 0, 0]]
    }, 
    {
      "op": "elemwise_add", 
      "name": "_plus77", 
      "inputs": [[514, 0, 0], [517, 0, 0]]
    }, 
    {
      "op": "Activation", 
      "name": "activation194", 
      "attr": {"act_type": "tanh"}, 
      "inputs": [[518, 0, 0]]
    }, 
    {
      "op": "_mul", 
      "name": "_mul116", 
      "inputs": [[512, 0, 0], [519, 0, 0]]
    }, 
    {
      "op": "FullyConnected", 
      "name": "t19_l1_i2h", 
      "attr": {"num_hidden": "400"}, 
      "inputs": [[520, 0, 0], [21, 0, 0], [22, 0, 0]]
    }, 
    {
      "op": "FullyConnected", 
      "name": "t19_l1_h2h", 
      "attr": {"num_hidden": "400"}, 
      "inputs": [[507, 0, 0], [25, 0, 0], [26, 0, 0]]
    }, 
    {
      "op": "elemwise_add", 
      "name": "_plus78", 
      "inputs": [[521, 0, 0], [522, 0, 0]]
    }, 
    {
      "op": "SliceChannel", 
      "name": "t19_l1_slice", 
      "attr": {"num_outputs": "4"}, 
      "inputs": [[523, 0, 0]]
    }, 
    {
      "op": "Activation", 
      "name": "activation198", 
      "attr": {"act_type": "sigmoid"}, 
      "inputs": [[524, 3, 0]]
    }, 
    {
      "op": "Activation", 
      "name": "activation197", 
      "attr": {"act_type": "sigmoid"}, 
      "inputs": [[524, 2, 0]]
    }, 
    {
      "op": "_mul", 
      "name": "_mul117", 
      "inputs": [[526, 0, 0], [505, 0, 0]]
    }, 
    {
      "op": "Activation", 
      "name": "activation195", 
      "attr": {"act_type": "sigmoid"}, 
      "inputs": [[524, 0, 0]]
    }, 
    {
      "op": "Activation", 
      "name": "activation196", 
      "attr": {"act_type": "tanh"}, 
      "inputs": [[524, 1, 0]]
    }, 
    {
      "op": "_mul", 
      "name": "_mul118", 
      "inputs": [[528, 0, 0], [529, 0, 0]]
    }, 
    {
      "op": "elemwise_add", 
      "name": "_plus79", 
      "inputs": [[527, 0, 0], [530, 0, 0]]
    }, 
    {
      "op": "Activation", 
      "name": "activation199", 
      "attr": {"act_type": "tanh"}, 
      "inputs": [[531, 0, 0]]
    }, 
    {
      "op": "_mul", 
      "name": "_mul119", 
      "inputs": [[525, 0, 0], [532, 0, 0]]
    }, 
    {
      "op": "FullyConnected", 
      "name": "t20_l0_i2h", 
      "attr": {"num_hidden": "400"}, 
      "inputs": [[1, 20, 0], [2, 0, 0], [3, 0, 0]]
    }, 
    {
      "op": "FullyConnected", 
      "name": "t20_l0_h2h", 
      "attr": {"num_hidden": "400"}, 
      "inputs": [[520, 0, 0], [6, 0, 0], [7, 0, 0]]
    }, 
    {
      "op": "elemwise_add", 
      "name": "_plus80", 
      "inputs": [[534, 0, 0], [535, 0, 0]]
    }, 
    {
      "op": "SliceChannel", 
      "name": "t20_l0_slice", 
      "attr": {"num_outputs": "4"}, 
      "inputs": [[536, 0, 0]]
    }, 
    {
      "op": "Activation", 
      "name": "activation203", 
      "attr": {"act_type": "sigmoid"}, 
      "inputs": [[537, 3, 0]]
    }, 
    {
      "op": "Activation", 
      "name": "activation202", 
      "attr": {"act_type": "sigmoid"}, 
      "inputs": [[537, 2, 0]]
    }, 
    {
      "op": "_mul", 
      "name": "_mul120", 
      "inputs": [[539, 0, 0], [518, 0, 0]]
    }, 
    {
      "op": "Activation", 
      "name": "activation200", 
      "attr": {"act_type": "sigmoid"}, 
      "inputs": [[537, 0, 0]]
    }, 
    {
      "op": "Activation", 
      "name": "activation201", 
      "attr": {"act_type": "tanh"}, 
      "inputs": [[537, 1, 0]]
    }, 
    {
      "op": "_mul", 
      "name": "_mul121", 
      "inputs": [[541, 0, 0], [542, 0, 0]]
    }, 
    {
      "op": "elemwise_add", 
      "name": "_plus81", 
      "inputs": [[540, 0, 0], [543, 0, 0]]
    }, 
    {
      "op": "Activation", 
      "name": "activation204", 
      "attr": {"act_type": "tanh"}, 
      "inputs": [[544, 0, 0]]
    }, 
    {
      "op": "_mul", 
      "name": "_mul122", 
      "inputs": [[538, 0, 0], [545, 0, 0]]
    }, 
    {
      "op": "FullyConnected", 
      "name": "t20_l1_i2h", 
      "attr": {"num_hidden": "400"}, 
      "inputs": [[546, 0, 0], [21, 0, 0], [22, 0, 0]]
    }, 
    {
      "op": "FullyConnected", 
      "name": "t20_l1_h2h", 
      "attr": {"num_hidden": "400"}, 
      "inputs": [[533, 0, 0], [25, 0, 0], [26, 0, 0]]
    }, 
    {
      "op": "elemwise_add", 
      "name": "_plus82", 
      "inputs": [[547, 0, 0], [548, 0, 0]]
    }, 
    {
      "op": "SliceChannel", 
      "name": "t20_l1_slice", 
      "attr": {"num_outputs": "4"}, 
      "inputs": [[549, 0, 0]]
    }, 
    {
      "op": "Activation", 
      "name": "activation208", 
      "attr": {"act_type": "sigmoid"}, 
      "inputs": [[550, 3, 0]]
    }, 
    {
      "op": "Activation", 
      "name": "activation207", 
      "attr": {"act_type": "sigmoid"}, 
      "inputs": [[550, 2, 0]]
    }, 
    {
      "op": "_mul", 
      "name": "_mul123", 
      "inputs": [[552, 0, 0], [531, 0, 0]]
    }, 
    {
      "op": "Activation", 
      "name": "activation205", 
      "attr": {"act_type": "sigmoid"}, 
      "inputs": [[550, 0, 0]]
    }, 
    {
      "op": "Activation", 
      "name": "activation206", 
      "attr": {"act_type": "tanh"}, 
      "inputs": [[550, 1, 0]]
    }, 
    {
      "op": "_mul", 
      "name": "_mul124", 
      "inputs": [[554, 0, 0], [555, 0, 0]]
    }, 
    {
      "op": "elemwise_add", 
      "name": "_plus83", 
      "inputs": [[553, 0, 0], [556, 0, 0]]
    }, 
    {
      "op": "Activation", 
      "name": "activation209", 
      "attr": {"act_type": "tanh"}, 
      "inputs": [[557, 0, 0]]
    }, 
    {
      "op": "_mul", 
      "name": "_mul125", 
      "inputs": [[551, 0, 0], [558, 0, 0]]
    }, 
    {
      "op": "FullyConnected", 
      "name": "t21_l0_i2h", 
      "attr": {"num_hidden": "400"}, 
      "inputs": [[1, 21, 0], [2, 0, 0], [3, 0, 0]]
    }, 
    {
      "op": "FullyConnected", 
      "name": "t21_l0_h2h", 
      "attr": {"num_hidden": "400"}, 
      "inputs": [[546, 0, 0], [6, 0, 0], [7, 0, 0]]
    }, 
    {
      "op": "elemwise_add", 
      "name": "_plus84", 
      "inputs": [[560, 0, 0], [561, 0, 0]]
    }, 
    {
      "op": "SliceChannel", 
      "name": "t21_l0_slice", 
      "attr": {"num_outputs": "4"}, 
      "inputs": [[562, 0, 0]]
    }, 
    {
      "op": "Activation", 
      "name": "activation213", 
      "attr": {"act_type": "sigmoid"}, 
      "inputs": [[563, 3, 0]]
    }, 
    {
      "op": "Activation", 
      "name": "activation212", 
      "attr": {"act_type": "sigmoid"}, 
      "inputs": [[563, 2, 0]]
    }, 
    {
      "op": "_mul", 
      "name": "_mul126", 
      "inputs": [[565, 0, 0], [544, 0, 0]]
    }, 
    {
      "op": "Activation", 
      "name": "activation210", 
      "attr": {"act_type": "sigmoid"}, 
      "inputs": [[563, 0, 0]]
    }, 
    {
      "op": "Activation", 
      "name": "activation211", 
      "attr": {"act_type": "tanh"}, 
      "inputs": [[563, 1, 0]]
    }, 
    {
      "op": "_mul", 
      "name": "_mul127", 
      "inputs": [[567, 0, 0], [568, 0, 0]]
    }, 
    {
      "op": "elemwise_add", 
      "name": "_plus85", 
      "inputs": [[566, 0, 0], [569, 0, 0]]
    }, 
    {
      "op": "Activation", 
      "name": "activation214", 
      "attr": {"act_type": "tanh"}, 
      "inputs": [[570, 0, 0]]
    }, 
    {
      "op": "_mul", 
      "name": "_mul128", 
      "inputs": [[564, 0, 0], [571, 0, 0]]
    }, 
    {
      "op": "FullyConnected", 
      "name": "t21_l1_i2h", 
      "attr": {"num_hidden": "400"}, 
      "inputs": [[572, 0, 0], [21, 0, 0], [22, 0, 0]]
    }, 
    {
      "op": "FullyConnected", 
      "name": "t21_l1_h2h", 
      "attr": {"num_hidden": "400"}, 
      "inputs": [[559, 0, 0], [25, 0, 0], [26, 0, 0]]
    }, 
    {
      "op": "elemwise_add", 
      "name": "_plus86", 
      "inputs": [[573, 0, 0], [574, 0, 0]]
    }, 
    {
      "op": "SliceChannel", 
      "name": "t21_l1_slice", 
      "attr": {"num_outputs": "4"}, 
      "inputs": [[575, 0, 0]]
    }, 
    {
      "op": "Activation", 
      "name": "activation218", 
      "attr": {"act_type": "sigmoid"}, 
      "inputs": [[576, 3, 0]]
    }, 
    {
      "op": "Activation", 
      "name": "activation217", 
      "attr": {"act_type": "sigmoid"}, 
      "inputs": [[576, 2, 0]]
    }, 
    {
      "op": "_mul", 
      "name": "_mul129", 
      "inputs": [[578, 0, 0], [557, 0, 0]]
    }, 
    {
      "op": "Activation", 
      "name": "activation215", 
      "attr": {"act_type": "sigmoid"}, 
      "inputs": [[576, 0, 0]]
    }, 
    {
      "op": "Activation", 
      "name": "activation216", 
      "attr": {"act_type": "tanh"}, 
      "inputs": [[576, 1, 0]]
    }, 
    {
      "op": "_mul", 
      "name": "_mul130", 
      "inputs": [[580, 0, 0], [581, 0, 0]]
    }, 
    {
      "op": "elemwise_add", 
      "name": "_plus87", 
      "inputs": [[579, 0, 0], [582, 0, 0]]
    }, 
    {
      "op": "Activation", 
      "name": "activation219", 
      "attr": {"act_type": "tanh"}, 
      "inputs": [[583, 0, 0]]
    }, 
    {
      "op": "_mul", 
      "name": "_mul131", 
      "inputs": [[577, 0, 0], [584, 0, 0]]
    }, 
    {
      "op": "FullyConnected", 
      "name": "t22_l0_i2h", 
      "attr": {"num_hidden": "400"}, 
      "inputs": [[1, 22, 0], [2, 0, 0], [3, 0, 0]]
    }, 
    {
      "op": "FullyConnected", 
      "name": "t22_l0_h2h", 
      "attr": {"num_hidden": "400"}, 
      "inputs": [[572, 0, 0], [6, 0, 0], [7, 0, 0]]
    }, 
    {
      "op": "elemwise_add", 
      "name": "_plus88", 
      "inputs": [[586, 0, 0], [587, 0, 0]]
    }, 
    {
      "op": "SliceChannel", 
      "name": "t22_l0_slice", 
      "attr": {"num_outputs": "4"}, 
      "inputs": [[588, 0, 0]]
    }, 
    {
      "op": "Activation", 
      "name": "activation223", 
      "attr": {"act_type": "sigmoid"}, 
      "inputs": [[589, 3, 0]]
    }, 
    {
      "op": "Activation", 
      "name": "activation222", 
      "attr": {"act_type": "sigmoid"}, 
      "inputs": [[589, 2, 0]]
    }, 
    {
      "op": "_mul", 
      "name": "_mul132", 
      "inputs": [[591, 0, 0], [570, 0, 0]]
    }, 
    {
      "op": "Activation", 
      "name": "activation220", 
      "attr": {"act_type": "sigmoid"}, 
      "inputs": [[589, 0, 0]]
    }, 
    {
      "op": "Activation", 
      "name": "activation221", 
      "attr": {"act_type": "tanh"}, 
      "inputs": [[589, 1, 0]]
    }, 
    {
      "op": "_mul", 
      "name": "_mul133", 
      "inputs": [[593, 0, 0], [594, 0, 0]]
    }, 
    {
      "op": "elemwise_add", 
      "name": "_plus89", 
      "inputs": [[592, 0, 0], [595, 0, 0]]
    }, 
    {
      "op": "Activation", 
      "name": "activation224", 
      "attr": {"act_type": "tanh"}, 
      "inputs": [[596, 0, 0]]
    }, 
    {
      "op": "_mul", 
      "name": "_mul134", 
      "inputs": [[590, 0, 0], [597, 0, 0]]
    }, 
    {
      "op": "FullyConnected", 
      "name": "t22_l1_i2h", 
      "attr": {"num_hidden": "400"}, 
      "inputs": [[598, 0, 0], [21, 0, 0], [22, 0, 0]]
    }, 
    {
      "op": "FullyConnected", 
      "name": "t22_l1_h2h", 
      "attr": {"num_hidden": "400"}, 
      "inputs": [[585, 0, 0], [25, 0, 0], [26, 0, 0]]
    }, 
    {
      "op": "elemwise_add", 
      "name": "_plus90", 
      "inputs": [[599, 0, 0], [600, 0, 0]]
    }, 
    {
      "op": "SliceChannel", 
      "name": "t22_l1_slice", 
      "attr": {"num_outputs": "4"}, 
      "inputs": [[601, 0, 0]]
    }, 
    {
      "op": "Activation", 
      "name": "activation228", 
      "attr": {"act_type": "sigmoid"}, 
      "inputs": [[602, 3, 0]]
    }, 
    {
      "op": "Activation", 
      "name": "activation227", 
      "attr": {"act_type": "sigmoid"}, 
      "inputs": [[602, 2, 0]]
    }, 
    {
      "op": "_mul", 
      "name": "_mul135", 
      "inputs": [[604, 0, 0], [583, 0, 0]]
    }, 
    {
      "op": "Activation", 
      "name": "activation225", 
      "attr": {"act_type": "sigmoid"}, 
      "inputs": [[602, 0, 0]]
    }, 
    {
      "op": "Activation", 
      "name": "activation226", 
      "attr": {"act_type": "tanh"}, 
      "inputs": [[602, 1, 0]]
    }, 
    {
      "op": "_mul", 
      "name": "_mul136", 
      "inputs": [[606, 0, 0], [607, 0, 0]]
    }, 
    {
      "op": "elemwise_add", 
      "name": "_plus91", 
      "inputs": [[605, 0, 0], [608, 0, 0]]
    }, 
    {
      "op": "Activation", 
      "name": "activation229", 
      "attr": {"act_type": "tanh"}, 
      "inputs": [[609, 0, 0]]
    }, 
    {
      "op": "_mul", 
      "name": "_mul137", 
      "inputs": [[603, 0, 0], [610, 0, 0]]
    }, 
    {
      "op": "FullyConnected", 
      "name": "t23_l0_i2h", 
      "attr": {"num_hidden": "400"}, 
      "inputs": [[1, 23, 0], [2, 0, 0], [3, 0, 0]]
    }, 
    {
      "op": "FullyConnected", 
      "name": "t23_l0_h2h", 
      "attr": {"num_hidden": "400"}, 
      "inputs": [[598, 0, 0], [6, 0, 0], [7, 0, 0]]
    }, 
    {
      "op": "elemwise_add", 
      "name": "_plus92", 
      "inputs": [[612, 0, 0], [613, 0, 0]]
    }, 
    {
      "op": "SliceChannel", 
      "name": "t23_l0_slice", 
      "attr": {"num_outputs": "4"}, 
      "inputs": [[614, 0, 0]]
    }, 
    {
      "op": "Activation", 
      "name": "activation233", 
      "attr": {"act_type": "sigmoid"}, 
      "inputs": [[615, 3, 0]]
    }, 
    {
      "op": "Activation", 
      "name": "activation232", 
      "attr": {"act_type": "sigmoid"}, 
      "inputs": [[615, 2, 0]]
    }, 
    {
      "op": "_mul", 
      "name": "_mul138", 
      "inputs": [[617, 0, 0], [596, 0, 0]]
    }, 
    {
      "op": "Activation", 
      "name": "activation230", 
      "attr": {"act_type": "sigmoid"}, 
      "inputs": [[615, 0, 0]]
    }, 
    {
      "op": "Activation", 
      "name": "activation231", 
      "attr": {"act_type": "tanh"}, 
      "inputs": [[615, 1, 0]]
    }, 
    {
      "op": "_mul", 
      "name": "_mul139", 
      "inputs": [[619, 0, 0], [620, 0, 0]]
    }, 
    {
      "op": "elemwise_add", 
      "name": "_plus93", 
      "inputs": [[618, 0, 0], [621, 0, 0]]
    }, 
    {
      "op": "Activation", 
      "name": "activation234", 
      "attr": {"act_type": "tanh"}, 
      "inputs": [[622, 0, 0]]
    }, 
    {
      "op": "_mul", 
      "name": "_mul140", 
      "inputs": [[616, 0, 0], [623, 0, 0]]
    }, 
    {
      "op": "FullyConnected", 
      "name": "t23_l1_i2h", 
      "attr": {"num_hidden": "400"}, 
      "inputs": [[624, 0, 0], [21, 0, 0], [22, 0, 0]]
    }, 
    {
      "op": "FullyConnected", 
      "name": "t23_l1_h2h", 
      "attr": {"num_hidden": "400"}, 
      "inputs": [[611, 0, 0], [25, 0, 0], [26, 0, 0]]
    }, 
    {
      "op": "elemwise_add", 
      "name": "_plus94", 
      "inputs": [[625, 0, 0], [626, 0, 0]]
    }, 
    {
      "op": "SliceChannel", 
      "name": "t23_l1_slice", 
      "attr": {"num_outputs": "4"}, 
      "inputs": [[627, 0, 0]]
    }, 
    {
      "op": "Activation", 
      "name": "activation238", 
      "attr": {"act_type": "sigmoid"}, 
      "inputs": [[628, 3, 0]]
    }, 
    {
      "op": "Activation", 
      "name": "activation237", 
      "attr": {"act_type": "sigmoid"}, 
      "inputs": [[628, 2, 0]]
    }, 
    {
      "op": "_mul", 
      "name": "_mul141", 
      "inputs": [[630, 0, 0], [609, 0, 0]]
    }, 
    {
      "op": "Activation", 
      "name": "activation235", 
      "attr": {"act_type": "sigmoid"}, 
      "inputs": [[628, 0, 0]]
    }, 
    {
      "op": "Activation", 
      "name": "activation236", 
      "attr": {"act_type": "tanh"}, 
      "inputs": [[628, 1, 0]]
    }, 
    {
      "op": "_mul", 
      "name": "_mul142", 
      "inputs": [[632, 0, 0], [633, 0, 0]]
    }, 
    {
      "op": "elemwise_add", 
      "name": "_plus95", 
      "inputs": [[631, 0, 0], [634, 0, 0]]
    }, 
    {
      "op": "Activation", 
      "name": "activation239", 
      "attr": {"act_type": "tanh"}, 
      "inputs": [[635, 0, 0]]
    }, 
    {
      "op": "_mul", 
      "name": "_mul143", 
      "inputs": [[629, 0, 0], [636, 0, 0]]
    }, 
    {
      "op": "FullyConnected", 
      "name": "t24_l0_i2h", 
      "attr": {"num_hidden": "400"}, 
      "inputs": [[1, 24, 0], [2, 0, 0], [3, 0, 0]]
    }, 
    {
      "op": "FullyConnected", 
      "name": "t24_l0_h2h", 
      "attr": {"num_hidden": "400"}, 
      "inputs": [[624, 0, 0], [6, 0, 0], [7, 0, 0]]
    }, 
    {
      "op": "elemwise_add", 
      "name": "_plus96", 
      "inputs": [[638, 0, 0], [639, 0, 0]]
    }, 
    {
      "op": "SliceChannel", 
      "name": "t24_l0_slice", 
      "attr": {"num_outputs": "4"}, 
      "inputs": [[640, 0, 0]]
    }, 
    {
      "op": "Activation", 
      "name": "activation243", 
      "attr": {"act_type": "sigmoid"}, 
      "inputs": [[641, 3, 0]]
    }, 
    {
      "op": "Activation", 
      "name": "activation242", 
      "attr": {"act_type": "sigmoid"}, 
      "inputs": [[641, 2, 0]]
    }, 
    {
      "op": "_mul", 
      "name": "_mul144", 
      "inputs": [[643, 0, 0], [622, 0, 0]]
    }, 
    {
      "op": "Activation", 
      "name": "activation240", 
      "attr": {"act_type": "sigmoid"}, 
      "inputs": [[641, 0, 0]]
    }, 
    {
      "op": "Activation", 
      "name": "activation241", 
      "attr": {"act_type": "tanh"}, 
      "inputs": [[641, 1, 0]]
    }, 
    {
      "op": "_mul", 
      "name": "_mul145", 
      "inputs": [[645, 0, 0], [646, 0, 0]]
    }, 
    {
      "op": "elemwise_add", 
      "name": "_plus97", 
      "inputs": [[644, 0, 0], [647, 0, 0]]
    }, 
    {
      "op": "Activation", 
      "name": "activation244", 
      "attr": {"act_type": "tanh"}, 
      "inputs": [[648, 0, 0]]
    }, 
    {
      "op": "_mul", 
      "name": "_mul146", 
      "inputs": [[642, 0, 0], [649, 0, 0]]
    }, 
    {
      "op": "FullyConnected", 
      "name": "t24_l1_i2h", 
      "attr": {"num_hidden": "400"}, 
      "inputs": [[650, 0, 0], [21, 0, 0], [22, 0, 0]]
    }, 
    {
      "op": "FullyConnected", 
      "name": "t24_l1_h2h", 
      "attr": {"num_hidden": "400"}, 
      "inputs": [[637, 0, 0], [25, 0, 0], [26, 0, 0]]
    }, 
    {
      "op": "elemwise_add", 
      "name": "_plus98", 
      "inputs": [[651, 0, 0], [652, 0, 0]]
    }, 
    {
      "op": "SliceChannel", 
      "name": "t24_l1_slice", 
      "attr": {"num_outputs": "4"}, 
      "inputs": [[653, 0, 0]]
    }, 
    {
      "op": "Activation", 
      "name": "activation248", 
      "attr": {"act_type": "sigmoid"}, 
      "inputs": [[654, 3, 0]]
    }, 
    {
      "op": "Activation", 
      "name": "activation247", 
      "attr": {"act_type": "sigmoid"}, 
      "inputs": [[654, 2, 0]]
    }, 
    {
      "op": "_mul", 
      "name": "_mul147", 
      "inputs": [[656, 0, 0], [635, 0, 0]]
    }, 
    {
      "op": "Activation", 
      "name": "activation245", 
      "attr": {"act_type": "sigmoid"}, 
      "inputs": [[654, 0, 0]]
    }, 
    {
      "op": "Activation", 
      "name": "activation246", 
      "attr": {"act_type": "tanh"}, 
      "inputs": [[654, 1, 0]]
    }, 
    {
      "op": "_mul", 
      "name": "_mul148", 
      "inputs": [[658, 0, 0], [659, 0, 0]]
    }, 
    {
      "op": "elemwise_add", 
      "name": "_plus99", 
      "inputs": [[657, 0, 0], [660, 0, 0]]
    }, 
    {
      "op": "Activation", 
      "name": "activation249", 
      "attr": {"act_type": "tanh"}, 
      "inputs": [[661, 0, 0]]
    }, 
    {
      "op": "_mul", 
      "name": "_mul149", 
      "inputs": [[655, 0, 0], [662, 0, 0]]
    }, 
    {
      "op": "FullyConnected", 
      "name": "t25_l0_i2h", 
      "attr": {"num_hidden": "400"}, 
      "inputs": [[1, 25, 0], [2, 0, 0], [3, 0, 0]]
    }, 
    {
      "op": "FullyConnected", 
      "name": "t25_l0_h2h", 
      "attr": {"num_hidden": "400"}, 
      "inputs": [[650, 0, 0], [6, 0, 0], [7, 0, 0]]
    }, 
    {
      "op": "elemwise_add", 
      "name": "_plus100", 
      "inputs": [[664, 0, 0], [665, 0, 0]]
    }, 
    {
      "op": "SliceChannel", 
      "name": "t25_l0_slice", 
      "attr": {"num_outputs": "4"}, 
      "inputs": [[666, 0, 0]]
    }, 
    {
      "op": "Activation", 
      "name": "activation253", 
      "attr": {"act_type": "sigmoid"}, 
      "inputs": [[667, 3, 0]]
    }, 
    {
      "op": "Activation", 
      "name": "activation252", 
      "attr": {"act_type": "sigmoid"}, 
      "inputs": [[667, 2, 0]]
    }, 
    {
      "op": "_mul", 
      "name": "_mul150", 
      "inputs": [[669, 0, 0], [648, 0, 0]]
    }, 
    {
      "op": "Activation", 
      "name": "activation250", 
      "attr": {"act_type": "sigmoid"}, 
      "inputs": [[667, 0, 0]]
    }, 
    {
      "op": "Activation", 
      "name": "activation251", 
      "attr": {"act_type": "tanh"}, 
      "inputs": [[667, 1, 0]]
    }, 
    {
      "op": "_mul", 
      "name": "_mul151", 
      "inputs": [[671, 0, 0], [672, 0, 0]]
    }, 
    {
      "op": "elemwise_add", 
      "name": "_plus101", 
      "inputs": [[670, 0, 0], [673, 0, 0]]
    }, 
    {
      "op": "Activation", 
      "name": "activation254", 
      "attr": {"act_type": "tanh"}, 
      "inputs": [[674, 0, 0]]
    }, 
    {
      "op": "_mul", 
      "name": "_mul152", 
      "inputs": [[668, 0, 0], [675, 0, 0]]
    }, 
    {
      "op": "FullyConnected", 
      "name": "t25_l1_i2h", 
      "attr": {"num_hidden": "400"}, 
      "inputs": [[676, 0, 0], [21, 0, 0], [22, 0, 0]]
    }, 
    {
      "op": "FullyConnected", 
      "name": "t25_l1_h2h", 
      "attr": {"num_hidden": "400"}, 
      "inputs": [[663, 0, 0], [25, 0, 0], [26, 0, 0]]
    }, 
    {
      "op": "elemwise_add", 
      "name": "_plus102", 
      "inputs": [[677, 0, 0], [678, 0, 0]]
    }, 
    {
      "op": "SliceChannel", 
      "name": "t25_l1_slice", 
      "attr": {"num_outputs": "4"}, 
      "inputs": [[679, 0, 0]]
    }, 
    {
      "op": "Activation", 
      "name": "activation258", 
      "attr": {"act_type": "sigmoid"}, 
      "inputs": [[680, 3, 0]]
    }, 
    {
      "op": "Activation", 
      "name": "activation257", 
      "attr": {"act_type": "sigmoid"}, 
      "inputs": [[680, 2, 0]]
    }, 
    {
      "op": "_mul", 
      "name": "_mul153", 
      "inputs": [[682, 0, 0], [661, 0, 0]]
    }, 
    {
      "op": "Activation", 
      "name": "activation255", 
      "attr": {"act_type": "sigmoid"}, 
      "inputs": [[680, 0, 0]]
    }, 
    {
      "op": "Activation", 
      "name": "activation256", 
      "attr": {"act_type": "tanh"}, 
      "inputs": [[680, 1, 0]]
    }, 
    {
      "op": "_mul", 
      "name": "_mul154", 
      "inputs": [[684, 0, 0], [685, 0, 0]]
    }, 
    {
      "op": "elemwise_add", 
      "name": "_plus103", 
      "inputs": [[683, 0, 0], [686, 0, 0]]
    }, 
    {
      "op": "Activation", 
      "name": "activation259", 
      "attr": {"act_type": "tanh"}, 
      "inputs": [[687, 0, 0]]
    }, 
    {
      "op": "_mul", 
      "name": "_mul155", 
      "inputs": [[681, 0, 0], [688, 0, 0]]
    }, 
    {
      "op": "FullyConnected", 
      "name": "t26_l0_i2h", 
      "attr": {"num_hidden": "400"}, 
      "inputs": [[1, 26, 0], [2, 0, 0], [3, 0, 0]]
    }, 
    {
      "op": "FullyConnected", 
      "name": "t26_l0_h2h", 
      "attr": {"num_hidden": "400"}, 
      "inputs": [[676, 0, 0], [6, 0, 0], [7, 0, 0]]
    }, 
    {
      "op": "elemwise_add", 
      "name": "_plus104", 
      "inputs": [[690, 0, 0], [691, 0, 0]]
    }, 
    {
      "op": "SliceChannel", 
      "name": "t26_l0_slice", 
      "attr": {"num_outputs": "4"}, 
      "inputs": [[692, 0, 0]]
    }, 
    {
      "op": "Activation", 
      "name": "activation263", 
      "attr": {"act_type": "sigmoid"}, 
      "inputs": [[693, 3, 0]]
    }, 
    {
      "op": "Activation", 
      "name": "activation262", 
      "attr": {"act_type": "sigmoid"}, 
      "inputs": [[693, 2, 0]]
    }, 
    {
      "op": "_mul", 
      "name": "_mul156", 
      "inputs": [[695, 0, 0], [674, 0, 0]]
    }, 
    {
      "op": "Activation", 
      "name": "activation260", 
      "attr": {"act_type": "sigmoid"}, 
      "inputs": [[693, 0, 0]]
    }, 
    {
      "op": "Activation", 
      "name": "activation261", 
      "attr": {"act_type": "tanh"}, 
      "inputs": [[693, 1, 0]]
    }, 
    {
      "op": "_mul", 
      "name": "_mul157", 
      "inputs": [[697, 0, 0], [698, 0, 0]]
    }, 
    {
      "op": "elemwise_add", 
      "name": "_plus105", 
      "inputs": [[696, 0, 0], [699, 0, 0]]
    }, 
    {
      "op": "Activation", 
      "name": "activation264", 
      "attr": {"act_type": "tanh"}, 
      "inputs": [[700, 0, 0]]
    }, 
    {
      "op": "_mul", 
      "name": "_mul158", 
      "inputs": [[694, 0, 0], [701, 0, 0]]
    }, 
    {
      "op": "FullyConnected", 
      "name": "t26_l1_i2h", 
      "attr": {"num_hidden": "400"}, 
      "inputs": [[702, 0, 0], [21, 0, 0], [22, 0, 0]]
    }, 
    {
      "op": "FullyConnected", 
      "name": "t26_l1_h2h", 
      "attr": {"num_hidden": "400"}, 
      "inputs": [[689, 0, 0], [25, 0, 0], [26, 0, 0]]
    }, 
    {
      "op": "elemwise_add", 
      "name": "_plus106", 
      "inputs": [[703, 0, 0], [704, 0, 0]]
    }, 
    {
      "op": "SliceChannel", 
      "name": "t26_l1_slice", 
      "attr": {"num_outputs": "4"}, 
      "inputs": [[705, 0, 0]]
    }, 
    {
      "op": "Activation", 
      "name": "activation268", 
      "attr": {"act_type": "sigmoid"}, 
      "inputs": [[706, 3, 0]]
    }, 
    {
      "op": "Activation", 
      "name": "activation267", 
      "attr": {"act_type": "sigmoid"}, 
      "inputs": [[706, 2, 0]]
    }, 
    {
      "op": "_mul", 
      "name": "_mul159", 
      "inputs": [[708, 0, 0], [687, 0, 0]]
    }, 
    {
      "op": "Activation", 
      "name": "activation265", 
      "attr": {"act_type": "sigmoid"}, 
      "inputs": [[706, 0, 0]]
    }, 
    {
      "op": "Activation", 
      "name": "activation266", 
      "attr": {"act_type": "tanh"}, 
      "inputs": [[706, 1, 0]]
    }, 
    {
      "op": "_mul", 
      "name": "_mul160", 
      "inputs": [[710, 0, 0], [711, 0, 0]]
    }, 
    {
      "op": "elemwise_add", 
      "name": "_plus107", 
      "inputs": [[709, 0, 0], [712, 0, 0]]
    }, 
    {
      "op": "Activation", 
      "name": "activation269", 
      "attr": {"act_type": "tanh"}, 
      "inputs": [[713, 0, 0]]
    }, 
    {
      "op": "_mul", 
      "name": "_mul161", 
      "inputs": [[707, 0, 0], [714, 0, 0]]
    }, 
    {
      "op": "FullyConnected", 
      "name": "t27_l0_i2h", 
      "attr": {"num_hidden": "400"}, 
      "inputs": [[1, 27, 0], [2, 0, 0], [3, 0, 0]]
    }, 
    {
      "op": "FullyConnected", 
      "name": "t27_l0_h2h", 
      "attr": {"num_hidden": "400"}, 
      "inputs": [[702, 0, 0], [6, 0, 0], [7, 0, 0]]
    }, 
    {
      "op": "elemwise_add", 
      "name": "_plus108", 
      "inputs": [[716, 0, 0], [717, 0, 0]]
    }, 
    {
      "op": "SliceChannel", 
      "name": "t27_l0_slice", 
      "attr": {"num_outputs": "4"}, 
      "inputs": [[718, 0, 0]]
    }, 
    {
      "op": "Activation", 
      "name": "activation273", 
      "attr": {"act_type": "sigmoid"}, 
      "inputs": [[719, 3, 0]]
    }, 
    {
      "op": "Activation", 
      "name": "activation272", 
      "attr": {"act_type": "sigmoid"}, 
      "inputs": [[719, 2, 0]]
    }, 
    {
      "op": "_mul", 
      "name": "_mul162", 
      "inputs": [[721, 0, 0], [700, 0, 0]]
    }, 
    {
      "op": "Activation", 
      "name": "activation270", 
      "attr": {"act_type": "sigmoid"}, 
      "inputs": [[719, 0, 0]]
    }, 
    {
      "op": "Activation", 
      "name": "activation271", 
      "attr": {"act_type": "tanh"}, 
      "inputs": [[719, 1, 0]]
    }, 
    {
      "op": "_mul", 
      "name": "_mul163", 
      "inputs": [[723, 0, 0], [724, 0, 0]]
    }, 
    {
      "op": "elemwise_add", 
      "name": "_plus109", 
      "inputs": [[722, 0, 0], [725, 0, 0]]
    }, 
    {
      "op": "Activation", 
      "name": "activation274", 
      "attr": {"act_type": "tanh"}, 
      "inputs": [[726, 0, 0]]
    }, 
    {
      "op": "_mul", 
      "name": "_mul164", 
      "inputs": [[720, 0, 0], [727, 0, 0]]
    }, 
    {
      "op": "FullyConnected", 
      "name": "t27_l1_i2h", 
      "attr": {"num_hidden": "400"}, 
      "inputs": [[728, 0, 0], [21, 0, 0], [22, 0, 0]]
    }, 
    {
      "op": "FullyConnected", 
      "name": "t27_l1_h2h", 
      "attr": {"num_hidden": "400"}, 
      "inputs": [[715, 0, 0], [25, 0, 0], [26, 0, 0]]
    }, 
    {
      "op": "elemwise_add", 
      "name": "_plus110", 
      "inputs": [[729, 0, 0], [730, 0, 0]]
    }, 
    {
      "op": "SliceChannel", 
      "name": "t27_l1_slice", 
      "attr": {"num_outputs": "4"}, 
      "inputs": [[731, 0, 0]]
    }, 
    {
      "op": "Activation", 
      "name": "activation278", 
      "attr": {"act_type": "sigmoid"}, 
      "inputs": [[732, 3, 0]]
    }, 
    {
      "op": "Activation", 
      "name": "activation277", 
      "attr": {"act_type": "sigmoid"}, 
      "inputs": [[732, 2, 0]]
    }, 
    {
      "op": "_mul", 
      "name": "_mul165", 
      "inputs": [[734, 0, 0], [713, 0, 0]]
    }, 
    {
      "op": "Activation", 
      "name": "activation275", 
      "attr": {"act_type": "sigmoid"}, 
      "inputs": [[732, 0, 0]]
    }, 
    {
      "op": "Activation", 
      "name": "activation276", 
      "attr": {"act_type": "tanh"}, 
      "inputs": [[732, 1, 0]]
    }, 
    {
      "op": "_mul", 
      "name": "_mul166", 
      "inputs": [[736, 0, 0], [737, 0, 0]]
    }, 
    {
      "op": "elemwise_add", 
      "name": "_plus111", 
      "inputs": [[735, 0, 0], [738, 0, 0]]
    }, 
    {
      "op": "Activation", 
      "name": "activation279", 
      "attr": {"act_type": "tanh"}, 
      "inputs": [[739, 0, 0]]
    }, 
    {
      "op": "_mul", 
      "name": "_mul167", 
      "inputs": [[733, 0, 0], [740, 0, 0]]
    }, 
    {
      "op": "FullyConnected", 
      "name": "t28_l0_i2h", 
      "attr": {"num_hidden": "400"}, 
      "inputs": [[1, 28, 0], [2, 0, 0], [3, 0, 0]]
    }, 
    {
      "op": "FullyConnected", 
      "name": "t28_l0_h2h", 
      "attr": {"num_hidden": "400"}, 
      "inputs": [[728, 0, 0], [6, 0, 0], [7, 0, 0]]
    }, 
    {
      "op": "elemwise_add", 
      "name": "_plus112", 
      "inputs": [[742, 0, 0], [743, 0, 0]]
    }, 
    {
      "op": "SliceChannel", 
      "name": "t28_l0_slice", 
      "attr": {"num_outputs": "4"}, 
      "inputs": [[744, 0, 0]]
    }, 
    {
      "op": "Activation", 
      "name": "activation283", 
      "attr": {"act_type": "sigmoid"}, 
      "inputs": [[745, 3, 0]]
    }, 
    {
      "op": "Activation", 
      "name": "activation282", 
      "attr": {"act_type": "sigmoid"}, 
      "inputs": [[745, 2, 0]]
    }, 
    {
      "op": "_mul", 
      "name": "_mul168", 
      "inputs": [[747, 0, 0], [726, 0, 0]]
    }, 
    {
      "op": "Activation", 
      "name": "activation280", 
      "attr": {"act_type": "sigmoid"}, 
      "inputs": [[745, 0, 0]]
    }, 
    {
      "op": "Activation", 
      "name": "activation281", 
      "attr": {"act_type": "tanh"}, 
      "inputs": [[745, 1, 0]]
    }, 
    {
      "op": "_mul", 
      "name": "_mul169", 
      "inputs": [[749, 0, 0], [750, 0, 0]]
    }, 
    {
      "op": "elemwise_add", 
      "name": "_plus113", 
      "inputs": [[748, 0, 0], [751, 0, 0]]
    }, 
    {
      "op": "Activation", 
      "name": "activation284", 
      "attr": {"act_type": "tanh"}, 
      "inputs": [[752, 0, 0]]
    }, 
    {
      "op": "_mul", 
      "name": "_mul170", 
      "inputs": [[746, 0, 0], [753, 0, 0]]
    }, 
    {
      "op": "FullyConnected", 
      "name": "t28_l1_i2h", 
      "attr": {"num_hidden": "400"}, 
      "inputs": [[754, 0, 0], [21, 0, 0], [22, 0, 0]]
    }, 
    {
      "op": "FullyConnected", 
      "name": "t28_l1_h2h", 
      "attr": {"num_hidden": "400"}, 
      "inputs": [[741, 0, 0], [25, 0, 0], [26, 0, 0]]
    }, 
    {
      "op": "elemwise_add", 
      "name": "_plus114", 
      "inputs": [[755, 0, 0], [756, 0, 0]]
    }, 
    {
      "op": "SliceChannel", 
      "name": "t28_l1_slice", 
      "attr": {"num_outputs": "4"}, 
      "inputs": [[757, 0, 0]]
    }, 
    {
      "op": "Activation", 
      "name": "activation288", 
      "attr": {"act_type": "sigmoid"}, 
      "inputs": [[758, 3, 0]]
    }, 
    {
      "op": "Activation", 
      "name": "activation287", 
      "attr": {"act_type": "sigmoid"}, 
      "inputs": [[758, 2, 0]]
    }, 
    {
      "op": "_mul", 
      "name": "_mul171", 
      "inputs": [[760, 0, 0], [739, 0, 0]]
    }, 
    {
      "op": "Activation", 
      "name": "activation285", 
      "attr": {"act_type": "sigmoid"}, 
      "inputs": [[758, 0, 0]]
    }, 
    {
      "op": "Activation", 
      "name": "activation286", 
      "attr": {"act_type": "tanh"}, 
      "inputs": [[758, 1, 0]]
    }, 
    {
      "op": "_mul", 
      "name": "_mul172", 
      "inputs": [[762, 0, 0], [763, 0, 0]]
    }, 
    {
      "op": "elemwise_add", 
      "name": "_plus115", 
      "inputs": [[761, 0, 0], [764, 0, 0]]
    }, 
    {
      "op": "Activation", 
      "name": "activation289", 
      "attr": {"act_type": "tanh"}, 
      "inputs": [[765, 0, 0]]
    }, 
    {
      "op": "_mul", 
      "name": "_mul173", 
      "inputs": [[759, 0, 0], [766, 0, 0]]
    }, 
    {
      "op": "FullyConnected", 
      "name": "t29_l0_i2h", 
      "attr": {"num_hidden": "400"}, 
      "inputs": [[1, 29, 0], [2, 0, 0], [3, 0, 0]]
    }, 
    {
      "op": "FullyConnected", 
      "name": "t29_l0_h2h", 
      "attr": {"num_hidden": "400"}, 
      "inputs": [[754, 0, 0], [6, 0, 0], [7, 0, 0]]
    }, 
    {
      "op": "elemwise_add", 
      "name": "_plus116", 
      "inputs": [[768, 0, 0], [769, 0, 0]]
    }, 
    {
      "op": "SliceChannel", 
      "name": "t29_l0_slice", 
      "attr": {"num_outputs": "4"}, 
      "inputs": [[770, 0, 0]]
    }, 
    {
      "op": "Activation", 
      "name": "activation293", 
      "attr": {"act_type": "sigmoid"}, 
      "inputs": [[771, 3, 0]]
    }, 
    {
      "op": "Activation", 
      "name": "activation292", 
      "attr": {"act_type": "sigmoid"}, 
      "inputs": [[771, 2, 0]]
    }, 
    {
      "op": "_mul", 
      "name": "_mul174", 
      "inputs": [[773, 0, 0], [752, 0, 0]]
    }, 
    {
      "op": "Activation", 
      "name": "activation290", 
      "attr": {"act_type": "sigmoid"}, 
      "inputs": [[771, 0, 0]]
    }, 
    {
      "op": "Activation", 
      "name": "activation291", 
      "attr": {"act_type": "tanh"}, 
      "inputs": [[771, 1, 0]]
    }, 
    {
      "op": "_mul", 
      "name": "_mul175", 
      "inputs": [[775, 0, 0], [776, 0, 0]]
    }, 
    {
      "op": "elemwise_add", 
      "name": "_plus117", 
      "inputs": [[774, 0, 0], [777, 0, 0]]
    }, 
    {
      "op": "Activation", 
      "name": "activation294", 
      "attr": {"act_type": "tanh"}, 
      "inputs": [[778, 0, 0]]
    }, 
    {
      "op": "_mul", 
      "name": "_mul176", 
      "inputs": [[772, 0, 0], [779, 0, 0]]
    }, 
    {
      "op": "FullyConnected", 
      "name": "t29_l1_i2h", 
      "attr": {"num_hidden": "400"}, 
      "inputs": [[780, 0, 0], [21, 0, 0], [22, 0, 0]]
    }, 
    {
      "op": "FullyConnected", 
      "name": "t29_l1_h2h", 
      "attr": {"num_hidden": "400"}, 
      "inputs": [[767, 0, 0], [25, 0, 0], [26, 0, 0]]
    }, 
    {
      "op": "elemwise_add", 
      "name": "_plus118", 
      "inputs": [[781, 0, 0], [782, 0, 0]]
    }, 
    {
      "op": "SliceChannel", 
      "name": "t29_l1_slice", 
      "attr": {"num_outputs": "4"}, 
      "inputs": [[783, 0, 0]]
    }, 
    {
      "op": "Activation", 
      "name": "activation298", 
      "attr": {"act_type": "sigmoid"}, 
      "inputs": [[784, 3, 0]]
    }, 
    {
      "op": "Activation", 
      "name": "activation297", 
      "attr": {"act_type": "sigmoid"}, 
      "inputs": [[784, 2, 0]]
    }, 
    {
      "op": "_mul", 
      "name": "_mul177", 
      "inputs": [[786, 0, 0], [765, 0, 0]]
    }, 
    {
      "op": "Activation", 
      "name": "activation295", 
      "attr": {"act_type": "sigmoid"}, 
      "inputs": [[784, 0, 0]]
    }, 
    {
      "op": "Activation", 
      "name": "activation296", 
      "attr": {"act_type": "tanh"}, 
      "inputs": [[784, 1, 0]]
    }, 
    {
      "op": "_mul", 
      "name": "_mul178", 
      "inputs": [[788, 0, 0], [789, 0, 0]]
    }, 
    {
      "op": "elemwise_add", 
      "name": "_plus119", 
      "inputs": [[787, 0, 0], [790, 0, 0]]
    }, 
    {
      "op": "Activation", 
      "name": "activation299", 
      "attr": {"act_type": "tanh"}, 
      "inputs": [[791, 0, 0]]
    }, 
    {
      "op": "_mul", 
      "name": "_mul179", 
      "inputs": [[785, 0, 0], [792, 0, 0]]
    }, 
    {
      "op": "FullyConnected", 
      "name": "t30_l0_i2h", 
      "attr": {"num_hidden": "400"}, 
      "inputs": [[1, 30, 0], [2, 0, 0], [3, 0, 0]]
    }, 
    {
      "op": "FullyConnected", 
      "name": "t30_l0_h2h", 
      "attr": {"num_hidden": "400"}, 
      "inputs": [[780, 0, 0], [6, 0, 0], [7, 0, 0]]
    }, 
    {
      "op": "elemwise_add", 
      "name": "_plus120", 
      "inputs": [[794, 0, 0], [795, 0, 0]]
    }, 
    {
      "op": "SliceChannel", 
      "name": "t30_l0_slice", 
      "attr": {"num_outputs": "4"}, 
      "inputs": [[796, 0, 0]]
    }, 
    {
      "op": "Activation", 
      "name": "activation303", 
      "attr": {"act_type": "sigmoid"}, 
      "inputs": [[797, 3, 0]]
    }, 
    {
      "op": "Activation", 
      "name": "activation302", 
      "attr": {"act_type": "sigmoid"}, 
      "inputs": [[797, 2, 0]]
    }, 
    {
      "op": "_mul", 
      "name": "_mul180", 
      "inputs": [[799, 0, 0], [778, 0, 0]]
    }, 
    {
      "op": "Activation", 
      "name": "activation300", 
      "attr": {"act_type": "sigmoid"}, 
      "inputs": [[797, 0, 0]]
    }, 
    {
      "op": "Activation", 
      "name": "activation301", 
      "attr": {"act_type": "tanh"}, 
      "inputs": [[797, 1, 0]]
    }, 
    {
      "op": "_mul", 
      "name": "_mul181", 
      "inputs": [[801, 0, 0], [802, 0, 0]]
    }, 
    {
      "op": "elemwise_add", 
      "name": "_plus121", 
      "inputs": [[800, 0, 0], [803, 0, 0]]
    }, 
    {
      "op": "Activation", 
      "name": "activation304", 
      "attr": {"act_type": "tanh"}, 
      "inputs": [[804, 0, 0]]
    }, 
    {
      "op": "_mul", 
      "name": "_mul182", 
      "inputs": [[798, 0, 0], [805, 0, 0]]
    }, 
    {
      "op": "FullyConnected", 
      "name": "t30_l1_i2h", 
      "attr": {"num_hidden": "400"}, 
      "inputs": [[806, 0, 0], [21, 0, 0], [22, 0, 0]]
    }, 
    {
      "op": "FullyConnected", 
      "name": "t30_l1_h2h", 
      "attr": {"num_hidden": "400"}, 
      "inputs": [[793, 0, 0], [25, 0, 0], [26, 0, 0]]
    }, 
    {
      "op": "elemwise_add", 
      "name": "_plus122", 
      "inputs": [[807, 0, 0], [808, 0, 0]]
    }, 
    {
      "op": "SliceChannel", 
      "name": "t30_l1_slice", 
      "attr": {"num_outputs": "4"}, 
      "inputs": [[809, 0, 0]]
    }, 
    {
      "op": "Activation", 
      "name": "activation308", 
      "attr": {"act_type": "sigmoid"}, 
      "inputs": [[810, 3, 0]]
    }, 
    {
      "op": "Activation", 
      "name": "activation307", 
      "attr": {"act_type": "sigmoid"}, 
      "inputs": [[810, 2, 0]]
    }, 
    {
      "op": "_mul", 
      "name": "_mul183", 
      "inputs": [[812, 0, 0], [791, 0, 0]]
    }, 
    {
      "op": "Activation", 
      "name": "activation305", 
      "attr": {"act_type": "sigmoid"}, 
      "inputs": [[810, 0, 0]]
    }, 
    {
      "op": "Activation", 
      "name": "activation306", 
      "attr": {"act_type": "tanh"}, 
      "inputs": [[810, 1, 0]]
    }, 
    {
      "op": "_mul", 
      "name": "_mul184", 
      "inputs": [[814, 0, 0], [815, 0, 0]]
    }, 
    {
      "op": "elemwise_add", 
      "name": "_plus123", 
      "inputs": [[813, 0, 0], [816, 0, 0]]
    }, 
    {
      "op": "Activation", 
      "name": "activation309", 
      "attr": {"act_type": "tanh"}, 
      "inputs": [[817, 0, 0]]
    }, 
    {
      "op": "_mul", 
      "name": "_mul185", 
      "inputs": [[811, 0, 0], [818, 0, 0]]
    }, 
    {
      "op": "FullyConnected", 
      "name": "t31_l0_i2h", 
      "attr": {"num_hidden": "400"}, 
      "inputs": [[1, 31, 0], [2, 0, 0], [3, 0, 0]]
    }, 
    {
      "op": "FullyConnected", 
      "name": "t31_l0_h2h", 
      "attr": {"num_hidden": "400"}, 
      "inputs": [[806, 0, 0], [6, 0, 0], [7, 0, 0]]
    }, 
    {
      "op": "elemwise_add", 
      "name": "_plus124", 
      "inputs": [[820, 0, 0], [821, 0, 0]]
    }, 
    {
      "op": "SliceChannel", 
      "name": "t31_l0_slice", 
      "attr": {"num_outputs": "4"}, 
      "inputs": [[822, 0, 0]]
    }, 
    {
      "op": "Activation", 
      "name": "activation313", 
      "attr": {"act_type": "sigmoid"}, 
      "inputs": [[823, 3, 0]]
    }, 
    {
      "op": "Activation", 
      "name": "activation312", 
      "attr": {"act_type": "sigmoid"}, 
      "inputs": [[823, 2, 0]]
    }, 
    {
      "op": "_mul", 
      "name": "_mul186", 
      "inputs": [[825, 0, 0], [804, 0, 0]]
    }, 
    {
      "op": "Activation", 
      "name": "activation310", 
      "attr": {"act_type": "sigmoid"}, 
      "inputs": [[823, 0, 0]]
    }, 
    {
      "op": "Activation", 
      "name": "activation311", 
      "attr": {"act_type": "tanh"}, 
      "inputs": [[823, 1, 0]]
    }, 
    {
      "op": "_mul", 
      "name": "_mul187", 
      "inputs": [[827, 0, 0], [828, 0, 0]]
    }, 
    {
      "op": "elemwise_add", 
      "name": "_plus125", 
      "inputs": [[826, 0, 0], [829, 0, 0]]
    }, 
    {
      "op": "Activation", 
      "name": "activation314", 
      "attr": {"act_type": "tanh"}, 
      "inputs": [[830, 0, 0]]
    }, 
    {
      "op": "_mul", 
      "name": "_mul188", 
      "inputs": [[824, 0, 0], [831, 0, 0]]
    }, 
    {
      "op": "FullyConnected", 
      "name": "t31_l1_i2h", 
      "attr": {"num_hidden": "400"}, 
      "inputs": [[832, 0, 0], [21, 0, 0], [22, 0, 0]]
    }, 
    {
      "op": "FullyConnected", 
      "name": "t31_l1_h2h", 
      "attr": {"num_hidden": "400"}, 
      "inputs": [[819, 0, 0], [25, 0, 0], [26, 0, 0]]
    }, 
    {
      "op": "elemwise_add", 
      "name": "_plus126", 
      "inputs": [[833, 0, 0], [834, 0, 0]]
    }, 
    {
      "op": "SliceChannel", 
      "name": "t31_l1_slice", 
      "attr": {"num_outputs": "4"}, 
      "inputs": [[835, 0, 0]]
    }, 
    {
      "op": "Activation", 
      "name": "activation318", 
      "attr": {"act_type": "sigmoid"}, 
      "inputs": [[836, 3, 0]]
    }, 
    {
      "op": "Activation", 
      "name": "activation317", 
      "attr": {"act_type": "sigmoid"}, 
      "inputs": [[836, 2, 0]]
    }, 
    {
      "op": "_mul", 
      "name": "_mul189", 
      "inputs": [[838, 0, 0], [817, 0, 0]]
    }, 
    {
      "op": "Activation", 
      "name": "activation315", 
      "attr": {"act_type": "sigmoid"}, 
      "inputs": [[836, 0, 0]]
    }, 
    {
      "op": "Activation", 
      "name": "activation316", 
      "attr": {"act_type": "tanh"}, 
      "inputs": [[836, 1, 0]]
    }, 
    {
      "op": "_mul", 
      "name": "_mul190", 
      "inputs": [[840, 0, 0], [841, 0, 0]]
    }, 
    {
      "op": "elemwise_add", 
      "name": "_plus127", 
      "inputs": [[839, 0, 0], [842, 0, 0]]
    }, 
    {
      "op": "Activation", 
      "name": "activation319", 
      "attr": {"act_type": "tanh"}, 
      "inputs": [[843, 0, 0]]
    }, 
    {
      "op": "_mul", 
      "name": "_mul191", 
      "inputs": [[837, 0, 0], [844, 0, 0]]
    }, 
    {
      "op": "FullyConnected", 
      "name": "t32_l0_i2h", 
      "attr": {"num_hidden": "400"}, 
      "inputs": [[1, 32, 0], [2, 0, 0], [3, 0, 0]]
    }, 
    {
      "op": "FullyConnected", 
      "name": "t32_l0_h2h", 
      "attr": {"num_hidden": "400"}, 
      "inputs": [[832, 0, 0], [6, 0, 0], [7, 0, 0]]
    }, 
    {
      "op": "elemwise_add", 
      "name": "_plus128", 
      "inputs": [[846, 0, 0], [847, 0, 0]]
    }, 
    {
      "op": "SliceChannel", 
      "name": "t32_l0_slice", 
      "attr": {"num_outputs": "4"}, 
      "inputs": [[848, 0, 0]]
    }, 
    {
      "op": "Activation", 
      "name": "activation323", 
      "attr": {"act_type": "sigmoid"}, 
      "inputs": [[849, 3, 0]]
    }, 
    {
      "op": "Activation", 
      "name": "activation322", 
      "attr": {"act_type": "sigmoid"}, 
      "inputs": [[849, 2, 0]]
    }, 
    {
      "op": "_mul", 
      "name": "_mul192", 
      "inputs": [[851, 0, 0], [830, 0, 0]]
    }, 
    {
      "op": "Activation", 
      "name": "activation320", 
      "attr": {"act_type": "sigmoid"}, 
      "inputs": [[849, 0, 0]]
    }, 
    {
      "op": "Activation", 
      "name": "activation321", 
      "attr": {"act_type": "tanh"}, 
      "inputs": [[849, 1, 0]]
    }, 
    {
      "op": "_mul", 
      "name": "_mul193", 
      "inputs": [[853, 0, 0], [854, 0, 0]]
    }, 
    {
      "op": "elemwise_add", 
      "name": "_plus129", 
      "inputs": [[852, 0, 0], [855, 0, 0]]
    }, 
    {
      "op": "Activation", 
      "name": "activation324", 
      "attr": {"act_type": "tanh"}, 
      "inputs": [[856, 0, 0]]
    }, 
    {
      "op": "_mul", 
      "name": "_mul194", 
      "inputs": [[850, 0, 0], [857, 0, 0]]
    }, 
    {
      "op": "FullyConnected", 
      "name": "t32_l1_i2h", 
      "attr": {"num_hidden": "400"}, 
      "inputs": [[858, 0, 0], [21, 0, 0], [22, 0, 0]]
    }, 
    {
      "op": "FullyConnected", 
      "name": "t32_l1_h2h", 
      "attr": {"num_hidden": "400"}, 
      "inputs": [[845, 0, 0], [25, 0, 0], [26, 0, 0]]
    }, 
    {
      "op": "elemwise_add", 
      "name": "_plus130", 
      "inputs": [[859, 0, 0], [860, 0, 0]]
    }, 
    {
      "op": "SliceChannel", 
      "name": "t32_l1_slice", 
      "attr": {"num_outputs": "4"}, 
      "inputs": [[861, 0, 0]]
    }, 
    {
      "op": "Activation", 
      "name": "activation328", 
      "attr": {"act_type": "sigmoid"}, 
      "inputs": [[862, 3, 0]]
    }, 
    {
      "op": "Activation", 
      "name": "activation327", 
      "attr": {"act_type": "sigmoid"}, 
      "inputs": [[862, 2, 0]]
    }, 
    {
      "op": "_mul", 
      "name": "_mul195", 
      "inputs": [[864, 0, 0], [843, 0, 0]]
    }, 
    {
      "op": "Activation", 
      "name": "activation325", 
      "attr": {"act_type": "sigmoid"}, 
      "inputs": [[862, 0, 0]]
    }, 
    {
      "op": "Activation", 
      "name": "activation326", 
      "attr": {"act_type": "tanh"}, 
      "inputs": [[862, 1, 0]]
    }, 
    {
      "op": "_mul", 
      "name": "_mul196", 
      "inputs": [[866, 0, 0], [867, 0, 0]]
    }, 
    {
      "op": "elemwise_add", 
      "name": "_plus131", 
      "inputs": [[865, 0, 0], [868, 0, 0]]
    }, 
    {
      "op": "Activation", 
      "name": "activation329", 
      "attr": {"act_type": "tanh"}, 
      "inputs": [[869, 0, 0]]
    }, 
    {
      "op": "_mul", 
      "name": "_mul197", 
      "inputs": [[863, 0, 0], [870, 0, 0]]
    }, 
    {
      "op": "FullyConnected", 
      "name": "t33_l0_i2h", 
      "attr": {"num_hidden": "400"}, 
      "inputs": [[1, 33, 0], [2, 0, 0], [3, 0, 0]]
    }, 
    {
      "op": "FullyConnected", 
      "name": "t33_l0_h2h", 
      "attr": {"num_hidden": "400"}, 
      "inputs": [[858, 0, 0], [6, 0, 0], [7, 0, 0]]
    }, 
    {
      "op": "elemwise_add", 
      "name": "_plus132", 
      "inputs": [[872, 0, 0], [873, 0, 0]]
    }, 
    {
      "op": "SliceChannel", 
      "name": "t33_l0_slice", 
      "attr": {"num_outputs": "4"}, 
      "inputs": [[874, 0, 0]]
    }, 
    {
      "op": "Activation", 
      "name": "activation333", 
      "attr": {"act_type": "sigmoid"}, 
      "inputs": [[875, 3, 0]]
    }, 
    {
      "op": "Activation", 
      "name": "activation332", 
      "attr": {"act_type": "sigmoid"}, 
      "inputs": [[875, 2, 0]]
    }, 
    {
      "op": "_mul", 
      "name": "_mul198", 
      "inputs": [[877, 0, 0], [856, 0, 0]]
    }, 
    {
      "op": "Activation", 
      "name": "activation330", 
      "attr": {"act_type": "sigmoid"}, 
      "inputs": [[875, 0, 0]]
    }, 
    {
      "op": "Activation", 
      "name": "activation331", 
      "attr": {"act_type": "tanh"}, 
      "inputs": [[875, 1, 0]]
    }, 
    {
      "op": "_mul", 
      "name": "_mul199", 
      "inputs": [[879, 0, 0], [880, 0, 0]]
    }, 
    {
      "op": "elemwise_add", 
      "name": "_plus133", 
      "inputs": [[878, 0, 0], [881, 0, 0]]
    }, 
    {
      "op": "Activation", 
      "name": "activation334", 
      "attr": {"act_type": "tanh"}, 
      "inputs": [[882, 0, 0]]
    }, 
    {
      "op": "_mul", 
      "name": "_mul200", 
      "inputs": [[876, 0, 0], [883, 0, 0]]
    }, 
    {
      "op": "FullyConnected", 
      "name": "t33_l1_i2h", 
      "attr": {"num_hidden": "400"}, 
      "inputs": [[884, 0, 0], [21, 0, 0], [22, 0, 0]]
    }, 
    {
      "op": "FullyConnected", 
      "name": "t33_l1_h2h", 
      "attr": {"num_hidden": "400"}, 
      "inputs": [[871, 0, 0], [25, 0, 0], [26, 0, 0]]
    }, 
    {
      "op": "elemwise_add", 
      "name": "_plus134", 
      "inputs": [[885, 0, 0], [886, 0, 0]]
    }, 
    {
      "op": "SliceChannel", 
      "name": "t33_l1_slice", 
      "attr": {"num_outputs": "4"}, 
      "inputs": [[887, 0, 0]]
    }, 
    {
      "op": "Activation", 
      "name": "activation338", 
      "attr": {"act_type": "sigmoid"}, 
      "inputs": [[888, 3, 0]]
    }, 
    {
      "op": "Activation", 
      "name": "activation337", 
      "attr": {"act_type": "sigmoid"}, 
      "inputs": [[888, 2, 0]]
    }, 
    {
      "op": "_mul", 
      "name": "_mul201", 
      "inputs": [[890, 0, 0], [869, 0, 0]]
    }, 
    {
      "op": "Activation", 
      "name": "activation335", 
      "attr": {"act_type": "sigmoid"}, 
      "inputs": [[888, 0, 0]]
    }, 
    {
      "op": "Activation", 
      "name": "activation336", 
      "attr": {"act_type": "tanh"}, 
      "inputs": [[888, 1, 0]]
    }, 
    {
      "op": "_mul", 
      "name": "_mul202", 
      "inputs": [[892, 0, 0], [893, 0, 0]]
    }, 
    {
      "op": "elemwise_add", 
      "name": "_plus135", 
      "inputs": [[891, 0, 0], [894, 0, 0]]
    }, 
    {
      "op": "Activation", 
      "name": "activation339", 
      "attr": {"act_type": "tanh"}, 
      "inputs": [[895, 0, 0]]
    }, 
    {
      "op": "_mul", 
      "name": "_mul203", 
      "inputs": [[889, 0, 0], [896, 0, 0]]
    }, 
    {
      "op": "FullyConnected", 
      "name": "t34_l0_i2h", 
      "attr": {"num_hidden": "400"}, 
      "inputs": [[1, 34, 0], [2, 0, 0], [3, 0, 0]]
    }, 
    {
      "op": "FullyConnected", 
      "name": "t34_l0_h2h", 
      "attr": {"num_hidden": "400"}, 
      "inputs": [[884, 0, 0], [6, 0, 0], [7, 0, 0]]
    }, 
    {
      "op": "elemwise_add", 
      "name": "_plus136", 
      "inputs": [[898, 0, 0], [899, 0, 0]]
    }, 
    {
      "op": "SliceChannel", 
      "name": "t34_l0_slice", 
      "attr": {"num_outputs": "4"}, 
      "inputs": [[900, 0, 0]]
    }, 
    {
      "op": "Activation", 
      "name": "activation343", 
      "attr": {"act_type": "sigmoid"}, 
      "inputs": [[901, 3, 0]]
    }, 
    {
      "op": "Activation", 
      "name": "activation342", 
      "attr": {"act_type": "sigmoid"}, 
      "inputs": [[901, 2, 0]]
    }, 
    {
      "op": "_mul", 
      "name": "_mul204", 
      "inputs": [[903, 0, 0], [882, 0, 0]]
    }, 
    {
      "op": "Activation", 
      "name": "activation340", 
      "attr": {"act_type": "sigmoid"}, 
      "inputs": [[901, 0, 0]]
    }, 
    {
      "op": "Activation", 
      "name": "activation341", 
      "attr": {"act_type": "tanh"}, 
      "inputs": [[901, 1, 0]]
    }, 
    {
      "op": "_mul", 
      "name": "_mul205", 
      "inputs": [[905, 0, 0], [906, 0, 0]]
    }, 
    {
      "op": "elemwise_add", 
      "name": "_plus137", 
      "inputs": [[904, 0, 0], [907, 0, 0]]
    }, 
    {
      "op": "Activation", 
      "name": "activation344", 
      "attr": {"act_type": "tanh"}, 
      "inputs": [[908, 0, 0]]
    }, 
    {
      "op": "_mul", 
      "name": "_mul206", 
      "inputs": [[902, 0, 0], [909, 0, 0]]
    }, 
    {
      "op": "FullyConnected", 
      "name": "t34_l1_i2h", 
      "attr": {"num_hidden": "400"}, 
      "inputs": [[910, 0, 0], [21, 0, 0], [22, 0, 0]]
    }, 
    {
      "op": "FullyConnected", 
      "name": "t34_l1_h2h", 
      "attr": {"num_hidden": "400"}, 
      "inputs": [[897, 0, 0], [25, 0, 0], [26, 0, 0]]
    }, 
    {
      "op": "elemwise_add", 
      "name": "_plus138", 
      "inputs": [[911, 0, 0], [912, 0, 0]]
    }, 
    {
      "op": "SliceChannel", 
      "name": "t34_l1_slice", 
      "attr": {"num_outputs": "4"}, 
      "inputs": [[913, 0, 0]]
    }, 
    {
      "op": "Activation", 
      "name": "activation348", 
      "attr": {"act_type": "sigmoid"}, 
      "inputs": [[914, 3, 0]]
    }, 
    {
      "op": "Activation", 
      "name": "activation347", 
      "attr": {"act_type": "sigmoid"}, 
      "inputs": [[914, 2, 0]]
    }, 
    {
      "op": "_mul", 
      "name": "_mul207", 
      "inputs": [[916, 0, 0], [895, 0, 0]]
    }, 
    {
      "op": "Activation", 
      "name": "activation345", 
      "attr": {"act_type": "sigmoid"}, 
      "inputs": [[914, 0, 0]]
    }, 
    {
      "op": "Activation", 
      "name": "activation346", 
      "attr": {"act_type": "tanh"}, 
      "inputs": [[914, 1, 0]]
    }, 
    {
      "op": "_mul", 
      "name": "_mul208", 
      "inputs": [[918, 0, 0], [919, 0, 0]]
    }, 
    {
      "op": "elemwise_add", 
      "name": "_plus139", 
      "inputs": [[917, 0, 0], [920, 0, 0]]
    }, 
    {
      "op": "Activation", 
      "name": "activation349", 
      "attr": {"act_type": "tanh"}, 
      "inputs": [[921, 0, 0]]
    }, 
    {
      "op": "_mul", 
      "name": "_mul209", 
      "inputs": [[915, 0, 0], [922, 0, 0]]
    }, 
    {
      "op": "FullyConnected", 
      "name": "t35_l0_i2h", 
      "attr": {"num_hidden": "400"}, 
      "inputs": [[1, 35, 0], [2, 0, 0], [3, 0, 0]]
    }, 
    {
      "op": "FullyConnected", 
      "name": "t35_l0_h2h", 
      "attr": {"num_hidden": "400"}, 
      "inputs": [[910, 0, 0], [6, 0, 0], [7, 0, 0]]
    }, 
    {
      "op": "elemwise_add", 
      "name": "_plus140", 
      "inputs": [[924, 0, 0], [925, 0, 0]]
    }, 
    {
      "op": "SliceChannel", 
      "name": "t35_l0_slice", 
      "attr": {"num_outputs": "4"}, 
      "inputs": [[926, 0, 0]]
    }, 
    {
      "op": "Activation", 
      "name": "activation353", 
      "attr": {"act_type": "sigmoid"}, 
      "inputs": [[927, 3, 0]]
    }, 
    {
      "op": "Activation", 
      "name": "activation352", 
      "attr": {"act_type": "sigmoid"}, 
      "inputs": [[927, 2, 0]]
    }, 
    {
      "op": "_mul", 
      "name": "_mul210", 
      "inputs": [[929, 0, 0], [908, 0, 0]]
    }, 
    {
      "op": "Activation", 
      "name": "activation350", 
      "attr": {"act_type": "sigmoid"}, 
      "inputs": [[927, 0, 0]]
    }, 
    {
      "op": "Activation", 
      "name": "activation351", 
      "attr": {"act_type": "tanh"}, 
      "inputs": [[927, 1, 0]]
    }, 
    {
      "op": "_mul", 
      "name": "_mul211", 
      "inputs": [[931, 0, 0], [932, 0, 0]]
    }, 
    {
      "op": "elemwise_add", 
      "name": "_plus141", 
      "inputs": [[930, 0, 0], [933, 0, 0]]
    }, 
    {
      "op": "Activation", 
      "name": "activation354", 
      "attr": {"act_type": "tanh"}, 
      "inputs": [[934, 0, 0]]
    }, 
    {
      "op": "_mul", 
      "name": "_mul212", 
      "inputs": [[928, 0, 0], [935, 0, 0]]
    }, 
    {
      "op": "FullyConnected", 
      "name": "t35_l1_i2h", 
      "attr": {"num_hidden": "400"}, 
      "inputs": [[936, 0, 0], [21, 0, 0], [22, 0, 0]]
    }, 
    {
      "op": "FullyConnected", 
      "name": "t35_l1_h2h", 
      "attr": {"num_hidden": "400"}, 
      "inputs": [[923, 0, 0], [25, 0, 0], [26, 0, 0]]
    }, 
    {
      "op": "elemwise_add", 
      "name": "_plus142", 
      "inputs": [[937, 0, 0], [938, 0, 0]]
    }, 
    {
      "op": "SliceChannel", 
      "name": "t35_l1_slice", 
      "attr": {"num_outputs": "4"}, 
      "inputs": [[939, 0, 0]]
    }, 
    {
      "op": "Activation", 
      "name": "activation358", 
      "attr": {"act_type": "sigmoid"}, 
      "inputs": [[940, 3, 0]]
    }, 
    {
      "op": "Activation", 
      "name": "activation357", 
      "attr": {"act_type": "sigmoid"}, 
      "inputs": [[940, 2, 0]]
    }, 
    {
      "op": "_mul", 
      "name": "_mul213", 
      "inputs": [[942, 0, 0], [921, 0, 0]]
    }, 
    {
      "op": "Activation", 
      "name": "activation355", 
      "attr": {"act_type": "sigmoid"}, 
      "inputs": [[940, 0, 0]]
    }, 
    {
      "op": "Activation", 
      "name": "activation356", 
      "attr": {"act_type": "tanh"}, 
      "inputs": [[940, 1, 0]]
    }, 
    {
      "op": "_mul", 
      "name": "_mul214", 
      "inputs": [[944, 0, 0], [945, 0, 0]]
    }, 
    {
      "op": "elemwise_add", 
      "name": "_plus143", 
      "inputs": [[943, 0, 0], [946, 0, 0]]
    }, 
    {
      "op": "Activation", 
      "name": "activation359", 
      "attr": {"act_type": "tanh"}, 
      "inputs": [[947, 0, 0]]
    }, 
    {
      "op": "_mul", 
      "name": "_mul215", 
      "inputs": [[941, 0, 0], [948, 0, 0]]
    }, 
    {
      "op": "FullyConnected", 
      "name": "t36_l0_i2h", 
      "attr": {"num_hidden": "400"}, 
      "inputs": [[1, 36, 0], [2, 0, 0], [3, 0, 0]]
    }, 
    {
      "op": "FullyConnected", 
      "name": "t36_l0_h2h", 
      "attr": {"num_hidden": "400"}, 
      "inputs": [[936, 0, 0], [6, 0, 0], [7, 0, 0]]
    }, 
    {
      "op": "elemwise_add", 
      "name": "_plus144", 
      "inputs": [[950, 0, 0], [951, 0, 0]]
    }, 
    {
      "op": "SliceChannel", 
      "name": "t36_l0_slice", 
      "attr": {"num_outputs": "4"}, 
      "inputs": [[952, 0, 0]]
    }, 
    {
      "op": "Activation", 
      "name": "activation363", 
      "attr": {"act_type": "sigmoid"}, 
      "inputs": [[953, 3, 0]]
    }, 
    {
      "op": "Activation", 
      "name": "activation362", 
      "attr": {"act_type": "sigmoid"}, 
      "inputs": [[953, 2, 0]]
    }, 
    {
      "op": "_mul", 
      "name": "_mul216", 
      "inputs": [[955, 0, 0], [934, 0, 0]]
    }, 
    {
      "op": "Activation", 
      "name": "activation360", 
      "attr": {"act_type": "sigmoid"}, 
      "inputs": [[953, 0, 0]]
    }, 
    {
      "op": "Activation", 
      "name": "activation361", 
      "attr": {"act_type": "tanh"}, 
      "inputs": [[953, 1, 0]]
    }, 
    {
      "op": "_mul", 
      "name": "_mul217", 
      "inputs": [[957, 0, 0], [958, 0, 0]]
    }, 
    {
      "op": "elemwise_add", 
      "name": "_plus145", 
      "inputs": [[956, 0, 0], [959, 0, 0]]
    }, 
    {
      "op": "Activation", 
      "name": "activation364", 
      "attr": {"act_type": "tanh"}, 
      "inputs": [[960, 0, 0]]
    }, 
    {
      "op": "_mul", 
      "name": "_mul218", 
      "inputs": [[954, 0, 0], [961, 0, 0]]
    }, 
    {
      "op": "FullyConnected", 
      "name": "t36_l1_i2h", 
      "attr": {"num_hidden": "400"}, 
      "inputs": [[962, 0, 0], [21, 0, 0], [22, 0, 0]]
    }, 
    {
      "op": "FullyConnected", 
      "name": "t36_l1_h2h", 
      "attr": {"num_hidden": "400"}, 
      "inputs": [[949, 0, 0], [25, 0, 0], [26, 0, 0]]
    }, 
    {
      "op": "elemwise_add", 
      "name": "_plus146", 
      "inputs": [[963, 0, 0], [964, 0, 0]]
    }, 
    {
      "op": "SliceChannel", 
      "name": "t36_l1_slice", 
      "attr": {"num_outputs": "4"}, 
      "inputs": [[965, 0, 0]]
    }, 
    {
      "op": "Activation", 
      "name": "activation368", 
      "attr": {"act_type": "sigmoid"}, 
      "inputs": [[966, 3, 0]]
    }, 
    {
      "op": "Activation", 
      "name": "activation367", 
      "attr": {"act_type": "sigmoid"}, 
      "inputs": [[966, 2, 0]]
    }, 
    {
      "op": "_mul", 
      "name": "_mul219", 
      "inputs": [[968, 0, 0], [947, 0, 0]]
    }, 
    {
      "op": "Activation", 
      "name": "activation365", 
      "attr": {"act_type": "sigmoid"}, 
      "inputs": [[966, 0, 0]]
    }, 
    {
      "op": "Activation", 
      "name": "activation366", 
      "attr": {"act_type": "tanh"}, 
      "inputs": [[966, 1, 0]]
    }, 
    {
      "op": "_mul", 
      "name": "_mul220", 
      "inputs": [[970, 0, 0], [971, 0, 0]]
    }, 
    {
      "op": "elemwise_add", 
      "name": "_plus147", 
      "inputs": [[969, 0, 0], [972, 0, 0]]
    }, 
    {
      "op": "Activation", 
      "name": "activation369", 
      "attr": {"act_type": "tanh"}, 
      "inputs": [[973, 0, 0]]
    }, 
    {
      "op": "_mul", 
      "name": "_mul221", 
      "inputs": [[967, 0, 0], [974, 0, 0]]
    }, 
    {
      "op": "FullyConnected", 
      "name": "t37_l0_i2h", 
      "attr": {"num_hidden": "400"}, 
      "inputs": [[1, 37, 0], [2, 0, 0], [3, 0, 0]]
    }, 
    {
      "op": "FullyConnected", 
      "name": "t37_l0_h2h", 
      "attr": {"num_hidden": "400"}, 
      "inputs": [[962, 0, 0], [6, 0, 0], [7, 0, 0]]
    }, 
    {
      "op": "elemwise_add", 
      "name": "_plus148", 
      "inputs": [[976, 0, 0], [977, 0, 0]]
    }, 
    {
      "op": "SliceChannel", 
      "name": "t37_l0_slice", 
      "attr": {"num_outputs": "4"}, 
      "inputs": [[978, 0, 0]]
    }, 
    {
      "op": "Activation", 
      "name": "activation373", 
      "attr": {"act_type": "sigmoid"}, 
      "inputs": [[979, 3, 0]]
    }, 
    {
      "op": "Activation", 
      "name": "activation372", 
      "attr": {"act_type": "sigmoid"}, 
      "inputs": [[979, 2, 0]]
    }, 
    {
      "op": "_mul", 
      "name": "_mul222", 
      "inputs": [[981, 0, 0], [960, 0, 0]]
    }, 
    {
      "op": "Activation", 
      "name": "activation370", 
      "attr": {"act_type": "sigmoid"}, 
      "inputs": [[979, 0, 0]]
    }, 
    {
      "op": "Activation", 
      "name": "activation371", 
      "attr": {"act_type": "tanh"}, 
      "inputs": [[979, 1, 0]]
    }, 
    {
      "op": "_mul", 
      "name": "_mul223", 
      "inputs": [[983, 0, 0], [984, 0, 0]]
    }, 
    {
      "op": "elemwise_add", 
      "name": "_plus149", 
      "inputs": [[982, 0, 0], [985, 0, 0]]
    }, 
    {
      "op": "Activation", 
      "name": "activation374", 
      "attr": {"act_type": "tanh"}, 
      "inputs": [[986, 0, 0]]
    }, 
    {
      "op": "_mul", 
      "name": "_mul224", 
      "inputs": [[980, 0, 0], [987, 0, 0]]
    }, 
    {
      "op": "FullyConnected", 
      "name": "t37_l1_i2h", 
      "attr": {"num_hidden": "400"}, 
      "inputs": [[988, 0, 0], [21, 0, 0], [22, 0, 0]]
    }, 
    {
      "op": "FullyConnected", 
      "name": "t37_l1_h2h", 
      "attr": {"num_hidden": "400"}, 
      "inputs": [[975, 0, 0], [25, 0, 0], [26, 0, 0]]
    }, 
    {
      "op": "elemwise_add", 
      "name": "_plus150", 
      "inputs": [[989, 0, 0], [990, 0, 0]]
    }, 
    {
      "op": "SliceChannel", 
      "name": "t37_l1_slice", 
      "attr": {"num_outputs": "4"}, 
      "inputs": [[991, 0, 0]]
    }, 
    {
      "op": "Activation", 
      "name": "activation378", 
      "attr": {"act_type": "sigmoid"}, 
      "inputs": [[992, 3, 0]]
    }, 
    {
      "op": "Activation", 
      "name": "activation377", 
      "attr": {"act_type": "sigmoid"}, 
      "inputs": [[992, 2, 0]]
    }, 
    {
      "op": "_mul", 
      "name": "_mul225", 
      "inputs": [[994, 0, 0], [973, 0, 0]]
    }, 
    {
      "op": "Activation", 
      "name": "activation375", 
      "attr": {"act_type": "sigmoid"}, 
      "inputs": [[992, 0, 0]]
    }, 
    {
      "op": "Activation", 
      "name": "activation376", 
      "attr": {"act_type": "tanh"}, 
      "inputs": [[992, 1, 0]]
    }, 
    {
      "op": "_mul", 
      "name": "_mul226", 
      "inputs": [[996, 0, 0], [997, 0, 0]]
    }, 
    {
      "op": "elemwise_add", 
      "name": "_plus151", 
      "inputs": [[995, 0, 0], [998, 0, 0]]
    }, 
    {
      "op": "Activation", 
      "name": "activation379", 
      "attr": {"act_type": "tanh"}, 
      "inputs": [[999, 0, 0]]
    }, 
    {
      "op": "_mul", 
      "name": "_mul227", 
      "inputs": [[993, 0, 0], [1000, 0, 0]]
    }, 
    {
      "op": "FullyConnected", 
      "name": "t38_l0_i2h", 
      "attr": {"num_hidden": "400"}, 
      "inputs": [[1, 38, 0], [2, 0, 0], [3, 0, 0]]
    }, 
    {
      "op": "FullyConnected", 
      "name": "t38_l0_h2h", 
      "attr": {"num_hidden": "400"}, 
      "inputs": [[988, 0, 0], [6, 0, 0], [7, 0, 0]]
    }, 
    {
      "op": "elemwise_add", 
      "name": "_plus152", 
      "inputs": [[1002, 0, 0], [1003, 0, 0]]
    }, 
    {
      "op": "SliceChannel", 
      "name": "t38_l0_slice", 
      "attr": {"num_outputs": "4"}, 
      "inputs": [[1004, 0, 0]]
    }, 
    {
      "op": "Activation", 
      "name": "activation383", 
      "attr": {"act_type": "sigmoid"}, 
      "inputs": [[1005, 3, 0]]
    }, 
    {
      "op": "Activation", 
      "name": "activation382", 
      "attr": {"act_type": "sigmoid"}, 
      "inputs": [[1005, 2, 0]]
    }, 
    {
      "op": "_mul", 
      "name": "_mul228", 
      "inputs": [[1007, 0, 0], [986, 0, 0]]
    }, 
    {
      "op": "Activation", 
      "name": "activation380", 
      "attr": {"act_type": "sigmoid"}, 
      "inputs": [[1005, 0, 0]]
    }, 
    {
      "op": "Activation", 
      "name": "activation381", 
      "attr": {"act_type": "tanh"}, 
      "inputs": [[1005, 1, 0]]
    }, 
    {
      "op": "_mul", 
      "name": "_mul229", 
      "inputs": [[1009, 0, 0], [1010, 0, 0]]
    }, 
    {
      "op": "elemwise_add", 
      "name": "_plus153", 
      "inputs": [[1008, 0, 0], [1011, 0, 0]]
    }, 
    {
      "op": "Activation", 
      "name": "activation384", 
      "attr": {"act_type": "tanh"}, 
      "inputs": [[1012, 0, 0]]
    }, 
    {
      "op": "_mul", 
      "name": "_mul230", 
      "inputs": [[1006, 0, 0], [1013, 0, 0]]
    }, 
    {
      "op": "FullyConnected", 
      "name": "t38_l1_i2h", 
      "attr": {"num_hidden": "400"}, 
      "inputs": [[1014, 0, 0], [21, 0, 0], [22, 0, 0]]
    }, 
    {
      "op": "FullyConnected", 
      "name": "t38_l1_h2h", 
      "attr": {"num_hidden": "400"}, 
      "inputs": [[1001, 0, 0], [25, 0, 0], [26, 0, 0]]
    }, 
    {
      "op": "elemwise_add", 
      "name": "_plus154", 
      "inputs": [[1015, 0, 0], [1016, 0, 0]]
    }, 
    {
      "op": "SliceChannel", 
      "name": "t38_l1_slice", 
      "attr": {"num_outputs": "4"}, 
      "inputs": [[1017, 0, 0]]
    }, 
    {
      "op": "Activation", 
      "name": "activation388", 
      "attr": {"act_type": "sigmoid"}, 
      "inputs": [[1018, 3, 0]]
    }, 
    {
      "op": "Activation", 
      "name": "activation387", 
      "attr": {"act_type": "sigmoid"}, 
      "inputs": [[1018, 2, 0]]
    }, 
    {
      "op": "_mul", 
      "name": "_mul231", 
      "inputs": [[1020, 0, 0], [999, 0, 0]]
    }, 
    {
      "op": "Activation", 
      "name": "activation385", 
      "attr": {"act_type": "sigmoid"}, 
      "inputs": [[1018, 0, 0]]
    }, 
    {
      "op": "Activation", 
      "name": "activation386", 
      "attr": {"act_type": "tanh"}, 
      "inputs": [[1018, 1, 0]]
    }, 
    {
      "op": "_mul", 
      "name": "_mul232", 
      "inputs": [[1022, 0, 0], [1023, 0, 0]]
    }, 
    {
      "op": "elemwise_add", 
      "name": "_plus155", 
      "inputs": [[1021, 0, 0], [1024, 0, 0]]
    }, 
    {
      "op": "Activation", 
      "name": "activation389", 
      "attr": {"act_type": "tanh"}, 
      "inputs": [[1025, 0, 0]]
    }, 
    {
      "op": "_mul", 
      "name": "_mul233", 
      "inputs": [[1019, 0, 0], [1026, 0, 0]]
    }, 
    {
      "op": "FullyConnected", 
      "name": "t39_l0_i2h", 
      "attr": {"num_hidden": "400"}, 
      "inputs": [[1, 39, 0], [2, 0, 0], [3, 0, 0]]
    }, 
    {
      "op": "FullyConnected", 
      "name": "t39_l0_h2h", 
      "attr": {"num_hidden": "400"}, 
      "inputs": [[1014, 0, 0], [6, 0, 0], [7, 0, 0]]
    }, 
    {
      "op": "elemwise_add", 
      "name": "_plus156", 
      "inputs": [[1028, 0, 0], [1029, 0, 0]]
    }, 
    {
      "op": "SliceChannel", 
      "name": "t39_l0_slice", 
      "attr": {"num_outputs": "4"}, 
      "inputs": [[1030, 0, 0]]
    }, 
    {
      "op": "Activation", 
      "name": "activation393", 
      "attr": {"act_type": "sigmoid"}, 
      "inputs": [[1031, 3, 0]]
    }, 
    {
      "op": "Activation", 
      "name": "activation392", 
      "attr": {"act_type": "sigmoid"}, 
      "inputs": [[1031, 2, 0]]
    }, 
    {
      "op": "_mul", 
      "name": "_mul234", 
      "inputs": [[1033, 0, 0], [1012, 0, 0]]
    }, 
    {
      "op": "Activation", 
      "name": "activation390", 
      "attr": {"act_type": "sigmoid"}, 
      "inputs": [[1031, 0, 0]]
    }, 
    {
      "op": "Activation", 
      "name": "activation391", 
      "attr": {"act_type": "tanh"}, 
      "inputs": [[1031, 1, 0]]
    }, 
    {
      "op": "_mul", 
      "name": "_mul235", 
      "inputs": [[1035, 0, 0], [1036, 0, 0]]
    }, 
    {
      "op": "elemwise_add", 
      "name": "_plus157", 
      "inputs": [[1034, 0, 0], [1037, 0, 0]]
    }, 
    {
      "op": "Activation", 
      "name": "activation394", 
      "attr": {"act_type": "tanh"}, 
      "inputs": [[1038, 0, 0]]
    }, 
    {
      "op": "_mul", 
      "name": "_mul236", 
      "inputs": [[1032, 0, 0], [1039, 0, 0]]
    }, 
    {
      "op": "FullyConnected", 
      "name": "t39_l1_i2h", 
      "attr": {"num_hidden": "400"}, 
      "inputs": [[1040, 0, 0], [21, 0, 0], [22, 0, 0]]
    }, 
    {
      "op": "FullyConnected", 
      "name": "t39_l1_h2h", 
      "attr": {"num_hidden": "400"}, 
      "inputs": [[1027, 0, 0], [25, 0, 0], [26, 0, 0]]
    }, 
    {
      "op": "elemwise_add", 
      "name": "_plus158", 
      "inputs": [[1041, 0, 0], [1042, 0, 0]]
    }, 
    {
      "op": "SliceChannel", 
      "name": "t39_l1_slice", 
      "attr": {"num_outputs": "4"}, 
      "inputs": [[1043, 0, 0]]
    }, 
    {
      "op": "Activation", 
      "name": "activation398", 
      "attr": {"act_type": "sigmoid"}, 
      "inputs": [[1044, 3, 0]]
    }, 
    {
      "op": "Activation", 
      "name": "activation397", 
      "attr": {"act_type": "sigmoid"}, 
      "inputs": [[1044, 2, 0]]
    }, 
    {
      "op": "_mul", 
      "name": "_mul237", 
      "inputs": [[1046, 0, 0], [1025, 0, 0]]
    }, 
    {
      "op": "Activation", 
      "name": "activation395", 
      "attr": {"act_type": "sigmoid"}, 
      "inputs": [[1044, 0, 0]]
    }, 
    {
      "op": "Activation", 
      "name": "activation396", 
      "attr": {"act_type": "tanh"}, 
      "inputs": [[1044, 1, 0]]
    }, 
    {
      "op": "_mul", 
      "name": "_mul238", 
      "inputs": [[1048, 0, 0], [1049, 0, 0]]
    }, 
    {
      "op": "elemwise_add", 
      "name": "_plus159", 
      "inputs": [[1047, 0, 0], [1050, 0, 0]]
    }, 
    {
      "op": "Activation", 
      "name": "activation399", 
      "attr": {"act_type": "tanh"}, 
      "inputs": [[1051, 0, 0]]
    }, 
    {
      "op": "_mul", 
      "name": "_mul239", 
      "inputs": [[1045, 0, 0], [1052, 0, 0]]
    }, 
    {
      "op": "FullyConnected", 
      "name": "t40_l0_i2h", 
      "attr": {"num_hidden": "400"}, 
      "inputs": [[1, 40, 0], [2, 0, 0], [3, 0, 0]]
    }, 
    {
      "op": "FullyConnected", 
      "name": "t40_l0_h2h", 
      "attr": {"num_hidden": "400"}, 
      "inputs": [[1040, 0, 0], [6, 0, 0], [7, 0, 0]]
    }, 
    {
      "op": "elemwise_add", 
      "name": "_plus160", 
      "inputs": [[1054, 0, 0], [1055, 0, 0]]
    }, 
    {
      "op": "SliceChannel", 
      "name": "t40_l0_slice", 
      "attr": {"num_outputs": "4"}, 
      "inputs": [[1056, 0, 0]]
    }, 
    {
      "op": "Activation", 
      "name": "activation403", 
      "attr": {"act_type": "sigmoid"}, 
      "inputs": [[1057, 3, 0]]
    }, 
    {
      "op": "Activation", 
      "name": "activation402", 
      "attr": {"act_type": "sigmoid"}, 
      "inputs": [[1057, 2, 0]]
    }, 
    {
      "op": "_mul", 
      "name": "_mul240", 
      "inputs": [[1059, 0, 0], [1038, 0, 0]]
    }, 
    {
      "op": "Activation", 
      "name": "activation400", 
      "attr": {"act_type": "sigmoid"}, 
      "inputs": [[1057, 0, 0]]
    }, 
    {
      "op": "Activation", 
      "name": "activation401", 
      "attr": {"act_type": "tanh"}, 
      "inputs": [[1057, 1, 0]]
    }, 
    {
      "op": "_mul", 
      "name": "_mul241", 
      "inputs": [[1061, 0, 0], [1062, 0, 0]]
    }, 
    {
      "op": "elemwise_add", 
      "name": "_plus161", 
      "inputs": [[1060, 0, 0], [1063, 0, 0]]
    }, 
    {
      "op": "Activation", 
      "name": "activation404", 
      "attr": {"act_type": "tanh"}, 
      "inputs": [[1064, 0, 0]]
    }, 
    {
      "op": "_mul", 
      "name": "_mul242", 
      "inputs": [[1058, 0, 0], [1065, 0, 0]]
    }, 
    {
      "op": "FullyConnected", 
      "name": "t40_l1_i2h", 
      "attr": {"num_hidden": "400"}, 
      "inputs": [[1066, 0, 0], [21, 0, 0], [22, 0, 0]]
    }, 
    {
      "op": "FullyConnected", 
      "name": "t40_l1_h2h", 
      "attr": {"num_hidden": "400"}, 
      "inputs": [[1053, 0, 0], [25, 0, 0], [26, 0, 0]]
    }, 
    {
      "op": "elemwise_add", 
      "name": "_plus162", 
      "inputs": [[1067, 0, 0], [1068, 0, 0]]
    }, 
    {
      "op": "SliceChannel", 
      "name": "t40_l1_slice", 
      "attr": {"num_outputs": "4"}, 
      "inputs": [[1069, 0, 0]]
    }, 
    {
      "op": "Activation", 
      "name": "activation408", 
      "attr": {"act_type": "sigmoid"}, 
      "inputs": [[1070, 3, 0]]
    }, 
    {
      "op": "Activation", 
      "name": "activation407", 
      "attr": {"act_type": "sigmoid"}, 
      "inputs": [[1070, 2, 0]]
    }, 
    {
      "op": "_mul", 
      "name": "_mul243", 
      "inputs": [[1072, 0, 0], [1051, 0, 0]]
    }, 
    {
      "op": "Activation", 
      "name": "activation405", 
      "attr": {"act_type": "sigmoid"}, 
      "inputs": [[1070, 0, 0]]
    }, 
    {
      "op": "Activation", 
      "name": "activation406", 
      "attr": {"act_type": "tanh"}, 
      "inputs": [[1070, 1, 0]]
    }, 
    {
      "op": "_mul", 
      "name": "_mul244", 
      "inputs": [[1074, 0, 0], [1075, 0, 0]]
    }, 
    {
      "op": "elemwise_add", 
      "name": "_plus163", 
      "inputs": [[1073, 0, 0], [1076, 0, 0]]
    }, 
    {
      "op": "Activation", 
      "name": "activation409", 
      "attr": {"act_type": "tanh"}, 
      "inputs": [[1077, 0, 0]]
    }, 
    {
      "op": "_mul", 
      "name": "_mul245", 
      "inputs": [[1071, 0, 0], [1078, 0, 0]]
    }, 
    {
      "op": "FullyConnected", 
      "name": "t41_l0_i2h", 
      "attr": {"num_hidden": "400"}, 
      "inputs": [[1, 41, 0], [2, 0, 0], [3, 0, 0]]
    }, 
    {
      "op": "FullyConnected", 
      "name": "t41_l0_h2h", 
      "attr": {"num_hidden": "400"}, 
      "inputs": [[1066, 0, 0], [6, 0, 0], [7, 0, 0]]
    }, 
    {
      "op": "elemwise_add", 
      "name": "_plus164", 
      "inputs": [[1080, 0, 0], [1081, 0, 0]]
    }, 
    {
      "op": "SliceChannel", 
      "name": "t41_l0_slice", 
      "attr": {"num_outputs": "4"}, 
      "inputs": [[1082, 0, 0]]
    }, 
    {
      "op": "Activation", 
      "name": "activation413", 
      "attr": {"act_type": "sigmoid"}, 
      "inputs": [[1083, 3, 0]]
    }, 
    {
      "op": "Activation", 
      "name": "activation412", 
      "attr": {"act_type": "sigmoid"}, 
      "inputs": [[1083, 2, 0]]
    }, 
    {
      "op": "_mul", 
      "name": "_mul246", 
      "inputs": [[1085, 0, 0], [1064, 0, 0]]
    }, 
    {
      "op": "Activation", 
      "name": "activation410", 
      "attr": {"act_type": "sigmoid"}, 
      "inputs": [[1083, 0, 0]]
    }, 
    {
      "op": "Activation", 
      "name": "activation411", 
      "attr": {"act_type": "tanh"}, 
      "inputs": [[1083, 1, 0]]
    }, 
    {
      "op": "_mul", 
      "name": "_mul247", 
      "inputs": [[1087, 0, 0], [1088, 0, 0]]
    }, 
    {
      "op": "elemwise_add", 
      "name": "_plus165", 
      "inputs": [[1086, 0, 0], [1089, 0, 0]]
    }, 
    {
      "op": "Activation", 
      "name": "activation414", 
      "attr": {"act_type": "tanh"}, 
      "inputs": [[1090, 0, 0]]
    }, 
    {
      "op": "_mul", 
      "name": "_mul248", 
      "inputs": [[1084, 0, 0], [1091, 0, 0]]
    }, 
    {
      "op": "FullyConnected", 
      "name": "t41_l1_i2h", 
      "attr": {"num_hidden": "400"}, 
      "inputs": [[1092, 0, 0], [21, 0, 0], [22, 0, 0]]
    }, 
    {
      "op": "FullyConnected", 
      "name": "t41_l1_h2h", 
      "attr": {"num_hidden": "400"}, 
      "inputs": [[1079, 0, 0], [25, 0, 0], [26, 0, 0]]
    }, 
    {
      "op": "elemwise_add", 
      "name": "_plus166", 
      "inputs": [[1093, 0, 0], [1094, 0, 0]]
    }, 
    {
      "op": "SliceChannel", 
      "name": "t41_l1_slice", 
      "attr": {"num_outputs": "4"}, 
      "inputs": [[1095, 0, 0]]
    }, 
    {
      "op": "Activation", 
      "name": "activation418", 
      "attr": {"act_type": "sigmoid"}, 
      "inputs": [[1096, 3, 0]]
    }, 
    {
      "op": "Activation", 
      "name": "activation417", 
      "attr": {"act_type": "sigmoid"}, 
      "inputs": [[1096, 2, 0]]
    }, 
    {
      "op": "_mul", 
      "name": "_mul249", 
      "inputs": [[1098, 0, 0], [1077, 0, 0]]
    }, 
    {
      "op": "Activation", 
      "name": "activation415", 
      "attr": {"act_type": "sigmoid"}, 
      "inputs": [[1096, 0, 0]]
    }, 
    {
      "op": "Activation", 
      "name": "activation416", 
      "attr": {"act_type": "tanh"}, 
      "inputs": [[1096, 1, 0]]
    }, 
    {
      "op": "_mul", 
      "name": "_mul250", 
      "inputs": [[1100, 0, 0], [1101, 0, 0]]
    }, 
    {
      "op": "elemwise_add", 
      "name": "_plus167", 
      "inputs": [[1099, 0, 0], [1102, 0, 0]]
    }, 
    {
      "op": "Activation", 
      "name": "activation419", 
      "attr": {"act_type": "tanh"}, 
      "inputs": [[1103, 0, 0]]
    }, 
    {
      "op": "_mul", 
      "name": "_mul251", 
      "inputs": [[1097, 0, 0], [1104, 0, 0]]
    }, 
    {
      "op": "FullyConnected", 
      "name": "t42_l0_i2h", 
      "attr": {"num_hidden": "400"}, 
      "inputs": [[1, 42, 0], [2, 0, 0], [3, 0, 0]]
    }, 
    {
      "op": "FullyConnected", 
      "name": "t42_l0_h2h", 
      "attr": {"num_hidden": "400"}, 
      "inputs": [[1092, 0, 0], [6, 0, 0], [7, 0, 0]]
    }, 
    {
      "op": "elemwise_add", 
      "name": "_plus168", 
      "inputs": [[1106, 0, 0], [1107, 0, 0]]
    }, 
    {
      "op": "SliceChannel", 
      "name": "t42_l0_slice", 
      "attr": {"num_outputs": "4"}, 
      "inputs": [[1108, 0, 0]]
    }, 
    {
      "op": "Activation", 
      "name": "activation423", 
      "attr": {"act_type": "sigmoid"}, 
      "inputs": [[1109, 3, 0]]
    }, 
    {
      "op": "Activation", 
      "name": "activation422", 
      "attr": {"act_type": "sigmoid"}, 
      "inputs": [[1109, 2, 0]]
    }, 
    {
      "op": "_mul", 
      "name": "_mul252", 
      "inputs": [[1111, 0, 0], [1090, 0, 0]]
    }, 
    {
      "op": "Activation", 
      "name": "activation420", 
      "attr": {"act_type": "sigmoid"}, 
      "inputs": [[1109, 0, 0]]
    }, 
    {
      "op": "Activation", 
      "name": "activation421", 
      "attr": {"act_type": "tanh"}, 
      "inputs": [[1109, 1, 0]]
    }, 
    {
      "op": "_mul", 
      "name": "_mul253", 
      "inputs": [[1113, 0, 0], [1114, 0, 0]]
    }, 
    {
      "op": "elemwise_add", 
      "name": "_plus169", 
      "inputs": [[1112, 0, 0], [1115, 0, 0]]
    }, 
    {
      "op": "Activation", 
      "name": "activation424", 
      "attr": {"act_type": "tanh"}, 
      "inputs": [[1116, 0, 0]]
    }, 
    {
      "op": "_mul", 
      "name": "_mul254", 
      "inputs": [[1110, 0, 0], [1117, 0, 0]]
    }, 
    {
      "op": "FullyConnected", 
      "name": "t42_l1_i2h", 
      "attr": {"num_hidden": "400"}, 
      "inputs": [[1118, 0, 0], [21, 0, 0], [22, 0, 0]]
    }, 
    {
      "op": "FullyConnected", 
      "name": "t42_l1_h2h", 
      "attr": {"num_hidden": "400"}, 
      "inputs": [[1105, 0, 0], [25, 0, 0], [26, 0, 0]]
    }, 
    {
      "op": "elemwise_add", 
      "name": "_plus170", 
      "inputs": [[1119, 0, 0], [1120, 0, 0]]
    }, 
    {
      "op": "SliceChannel", 
      "name": "t42_l1_slice", 
      "attr": {"num_outputs": "4"}, 
      "inputs": [[1121, 0, 0]]
    }, 
    {
      "op": "Activation", 
      "name": "activation428", 
      "attr": {"act_type": "sigmoid"}, 
      "inputs": [[1122, 3, 0]]
    }, 
    {
      "op": "Activation", 
      "name": "activation427", 
      "attr": {"act_type": "sigmoid"}, 
      "inputs": [[1122, 2, 0]]
    }, 
    {
      "op": "_mul", 
      "name": "_mul255", 
      "inputs": [[1124, 0, 0], [1103, 0, 0]]
    }, 
    {
      "op": "Activation", 
      "name": "activation425", 
      "attr": {"act_type": "sigmoid"}, 
      "inputs": [[1122, 0, 0]]
    }, 
    {
      "op": "Activation", 
      "name": "activation426", 
      "attr": {"act_type": "tanh"}, 
      "inputs": [[1122, 1, 0]]
    }, 
    {
      "op": "_mul", 
      "name": "_mul256", 
      "inputs": [[1126, 0, 0], [1127, 0, 0]]
    }, 
    {
      "op": "elemwise_add", 
      "name": "_plus171", 
      "inputs": [[1125, 0, 0], [1128, 0, 0]]
    }, 
    {
      "op": "Activation", 
      "name": "activation429", 
      "attr": {"act_type": "tanh"}, 
      "inputs": [[1129, 0, 0]]
    }, 
    {
      "op": "_mul", 
      "name": "_mul257", 
      "inputs": [[1123, 0, 0], [1130, 0, 0]]
    }, 
    {
      "op": "FullyConnected", 
      "name": "t43_l0_i2h", 
      "attr": {"num_hidden": "400"}, 
      "inputs": [[1, 43, 0], [2, 0, 0], [3, 0, 0]]
    }, 
    {
      "op": "FullyConnected", 
      "name": "t43_l0_h2h", 
      "attr": {"num_hidden": "400"}, 
      "inputs": [[1118, 0, 0], [6, 0, 0], [7, 0, 0]]
    }, 
    {
      "op": "elemwise_add", 
      "name": "_plus172", 
      "inputs": [[1132, 0, 0], [1133, 0, 0]]
    }, 
    {
      "op": "SliceChannel", 
      "name": "t43_l0_slice", 
      "attr": {"num_outputs": "4"}, 
      "inputs": [[1134, 0, 0]]
    }, 
    {
      "op": "Activation", 
      "name": "activation433", 
      "attr": {"act_type": "sigmoid"}, 
      "inputs": [[1135, 3, 0]]
    }, 
    {
      "op": "Activation", 
      "name": "activation432", 
      "attr": {"act_type": "sigmoid"}, 
      "inputs": [[1135, 2, 0]]
    }, 
    {
      "op": "_mul", 
      "name": "_mul258", 
      "inputs": [[1137, 0, 0], [1116, 0, 0]]
    }, 
    {
      "op": "Activation", 
      "name": "activation430", 
      "attr": {"act_type": "sigmoid"}, 
      "inputs": [[1135, 0, 0]]
    }, 
    {
      "op": "Activation", 
      "name": "activation431", 
      "attr": {"act_type": "tanh"}, 
      "inputs": [[1135, 1, 0]]
    }, 
    {
      "op": "_mul", 
      "name": "_mul259", 
      "inputs": [[1139, 0, 0], [1140, 0, 0]]
    }, 
    {
      "op": "elemwise_add", 
…
      "attr": {"act_type": "tanh"}, 
      "inputs": [[1909, 0, 0]]
    }, 
    {
      "op": "_mul", 
      "name": "_mul437", 
      "inputs": [[1903, 0, 0], [1910, 0, 0]]
    }, 
    {
      "op": "FullyConnected", 
      "name": "t73_l0_i2h", 
      "attr": {"num_hidden": "400"}, 
      "inputs": [[1, 73, 0], [2, 0, 0], [3, 0, 0]]
    }, 
    {
      "op": "FullyConnected", 
      "name": "t73_l0_h2h", 
      "attr": {"num_hidden": "400"}, 
      "inputs": [[1898, 0, 0], [6, 0, 0], [7, 0, 0]]
    }, 
    {
      "op": "elemwise_add", 
      "name": "_plus292", 
      "inputs": [[1912, 0, 0], [1913, 0, 0]]
    }, 
    {
      "op": "SliceChannel", 
      "name": "t73_l0_slice", 
      "attr": {"num_outputs": "4"}, 
      "inputs": [[1914, 0, 0]]
    }, 
    {
      "op": "Activation", 
      "name": "activation733", 
      "attr": {"act_type": "sigmoid"}, 
      "inputs": [[1915, 3, 0]]
    }, 
    {
      "op": "Activation", 
      "name": "activation732", 
      "attr": {"act_type": "sigmoid"}, 
      "inputs": [[1915, 2, 0]]
    }, 
    {
      "op": "_mul", 
      "name": "_mul438", 
      "inputs": [[1917, 0, 0], [1896, 0, 0]]
    }, 
    {
      "op": "Activation", 
      "name": "activation730", 
      "attr": {"act_type": "sigmoid"}, 
      "inputs": [[1915, 0, 0]]
    }, 
    {
      "op": "Activation", 
      "name": "activation731", 
      "attr": {"act_type": "tanh"}, 
      "inputs": [[1915, 1, 0]]
    }, 
    {
      "op": "_mul", 
      "name": "_mul439", 
      "inputs": [[1919, 0, 0], [1920, 0, 0]]
    }, 
    {
      "op": "elemwise_add", 
      "name": "_plus293", 
      "inputs": [[1918, 0, 0], [1921, 0, 0]]
    }, 
    {
      "op": "Activation", 
      "name": "activation734", 
      "attr": {"act_type": "tanh"}, 
      "inputs": [[1922, 0, 0]]
    }, 
    {
      "op": "_mul", 
      "name": "_mul440", 
      "inputs": [[1916, 0, 0], [1923, 0, 0]]
    }, 
    {
      "op": "FullyConnected", 
      "name": "t73_l1_i2h", 
      "attr": {"num_hidden": "400"}, 
      "inputs": [[1924, 0, 0], [21, 0, 0], [22, 0, 0]]
    }, 
    {
      "op": "FullyConnected", 
      "name": "t73_l1_h2h", 
      "attr": {"num_hidden": "400"}, 
      "inputs": [[1911, 0, 0], [25, 0, 0], [26, 0, 0]]
    }, 
    {
      "op": "elemwise_add", 
      "name": "_plus294", 
      "inputs": [[1925, 0, 0], [1926, 0, 0]]
    }, 
    {
      "op": "SliceChannel", 
      "name": "t73_l1_slice", 
      "attr": {"num_outputs": "4"}, 
      "inputs": [[1927, 0, 0]]
    }, 
    {
      "op": "Activation", 
      "name": "activation738", 
      "attr": {"act_type": "sigmoid"}, 
      "inputs": [[1928, 3, 0]]
    }, 
    {
      "op": "Activation", 
      "name": "activation737", 
      "attr": {"act_type": "sigmoid"}, 
      "inputs": [[1928, 2, 0]]
    }, 
    {
      "op": "_mul", 
      "name": "_mul441", 
      "inputs": [[1930, 0, 0], [1909, 0, 0]]
    }, 
    {
      "op": "Activation", 
      "name": "activation735", 
      "attr": {"act_type": "sigmoid"}, 
      "inputs": [[1928, 0, 0]]
    }, 
    {
      "op": "Activation", 
      "name": "activation736", 
      "attr": {"act_type": "tanh"}, 
      "inputs": [[1928, 1, 0]]
    }, 
    {
      "op": "_mul", 
      "name": "_mul442", 
      "inputs": [[1932, 0, 0], [1933, 0, 0]]
    }, 
    {
      "op": "elemwise_add", 
      "name": "_plus295", 
      "inputs": [[1931, 0, 0], [1934, 0, 0]]
    }, 
    {
      "op": "Activation", 
      "name": "activation739", 
      "attr": {"act_type": "tanh"}, 
      "inputs": [[1935, 0, 0]]
    }, 
    {
      "op": "_mul", 
      "name": "_mul443", 
      "inputs": [[1929, 0, 0], [1936, 0, 0]]
    }, 
    {
      "op": "FullyConnected", 
      "name": "t74_l0_i2h", 
      "attr": {"num_hidden": "400"}, 
      "inputs": [[1, 74, 0], [2, 0, 0], [3, 0, 0]]
    }, 
    {
      "op": "FullyConnected", 
      "name": "t74_l0_h2h", 
      "attr": {"num_hidden": "400"}, 
      "inputs": [[1924, 0, 0], [6, 0, 0], [7, 0, 0]]
    }, 
    {
      "op": "elemwise_add", 
      "name": "_plus296", 
      "inputs": [[1938, 0, 0], [1939, 0, 0]]
    }, 
    {
      "op": "SliceChannel", 
      "name": "t74_l0_slice", 
      "attr": {"num_outputs": "4"}, 
      "inputs": [[1940, 0, 0]]
    }, 
    {
      "op": "Activation", 
      "name": "activation743", 
      "attr": {"act_type": "sigmoid"}, 
      "inputs": [[1941, 3, 0]]
    }, 
    {
      "op": "Activation", 
      "name": "activation742", 
      "attr": {"act_type": "sigmoid"}, 
      "inputs": [[1941, 2, 0]]
    }, 
    {
      "op": "_mul", 
      "name": "_mul444", 
      "inputs": [[1943, 0, 0], [1922, 0, 0]]
    }, 
    {
      "op": "Activation", 
      "name": "activation740", 
      "attr": {"act_type": "sigmoid"}, 
      "inputs": [[1941, 0, 0]]
    }, 
    {
      "op": "Activation", 
      "name": "activation741", 
      "attr": {"act_type": "tanh"}, 
      "inputs": [[1941, 1, 0]]
    }, 
    {
      "op": "_mul", 
      "name": "_mul445", 
      "inputs": [[1945, 0, 0], [1946, 0, 0]]
    }, 
    {
      "op": "elemwise_add", 
      "name": "_plus297", 
      "inputs": [[1944, 0, 0], [1947, 0, 0]]
    }, 
    {
      "op": "Activation", 
      "name": "activation744", 
      "attr": {"act_type": "tanh"}, 
      "inputs": [[1948, 0, 0]]
    }, 
    {
      "op": "_mul", 
      "name": "_mul446", 
      "inputs": [[1942, 0, 0], [1949, 0, 0]]
    }, 
    {
      "op": "FullyConnected", 
      "name": "t74_l1_i2h", 
      "attr": {"num_hidden": "400"}, 
      "inputs": [[1950, 0, 0], [21, 0, 0], [22, 0, 0]]
    }, 
    {
      "op": "FullyConnected", 
      "name": "t74_l1_h2h", 
      "attr": {"num_hidden": "400"}, 
      "inputs": [[1937, 0, 0], [25, 0, 0], [26, 0, 0]]
    }, 
    {
      "op": "elemwise_add", 
      "name": "_plus298", 
      "inputs": [[1951, 0, 0], [1952, 0, 0]]
    }, 
    {
      "op": "SliceChannel", 
      "name": "t74_l1_slice", 
      "attr": {"num_outputs": "4"}, 
      "inputs": [[1953, 0, 0]]
    }, 
    {
      "op": "Activation", 
      "name": "activation748", 
      "attr": {"act_type": "sigmoid"}, 
      "inputs": [[1954, 3, 0]]
    }, 
    {
      "op": "Activation", 
      "name": "activation747", 
      "attr": {"act_type": "sigmoid"}, 
      "inputs": [[1954, 2, 0]]
    }, 
    {
      "op": "_mul", 
      "name": "_mul447", 
      "inputs": [[1956, 0, 0], [1935, 0, 0]]
    }, 
    {
      "op": "Activation", 
      "name": "activation745", 
      "attr": {"act_type": "sigmoid"}, 
      "inputs": [[1954, 0, 0]]
    }, 
    {
      "op": "Activation", 
      "name": "activation746", 
      "attr": {"act_type": "tanh"}, 
      "inputs": [[1954, 1, 0]]
    }, 
    {
      "op": "_mul", 
      "name": "_mul448", 
      "inputs": [[1958, 0, 0], [1959, 0, 0]]
    }, 
    {
      "op": "elemwise_add", 
      "name": "_plus299", 
      "inputs": [[1957, 0, 0], [1960, 0, 0]]
    }, 
    {
      "op": "Activation", 
      "name": "activation749", 
      "attr": {"act_type": "tanh"}, 
      "inputs": [[1961, 0, 0]]
    }, 
    {
      "op": "_mul", 
      "name": "_mul449", 
      "inputs": [[1955, 0, 0], [1962, 0, 0]]
    }, 
    {
      "op": "FullyConnected", 
      "name": "t75_l0_i2h", 
      "attr": {"num_hidden": "400"}, 
      "inputs": [[1, 75, 0], [2, 0, 0], [3, 0, 0]]
    }, 
    {
      "op": "FullyConnected", 
      "name": "t75_l0_h2h", 
      "attr": {"num_hidden": "400"}, 
      "inputs": [[1950, 0, 0], [6, 0, 0], [7, 0, 0]]
    }, 
    {
      "op": "elemwise_add", 
      "name": "_plus300", 
      "inputs": [[1964, 0, 0], [1965, 0, 0]]
    }, 
    {
      "op": "SliceChannel", 
      "name": "t75_l0_slice", 
      "attr": {"num_outputs": "4"}, 
      "inputs": [[1966, 0, 0]]
    }, 
    {
      "op": "Activation", 
      "name": "activation753", 
      "attr": {"act_type": "sigmoid"}, 
      "inputs": [[1967, 3, 0]]
    }, 
    {
      "op": "Activation", 
      "name": "activation752", 
      "attr": {"act_type": "sigmoid"}, 
      "inputs": [[1967, 2, 0]]
    }, 
    {
      "op": "_mul", 
      "name": "_mul450", 
      "inputs": [[1969, 0, 0], [1948, 0, 0]]
    }, 
    {
      "op": "Activation", 
      "name": "activation750", 
      "attr": {"act_type": "sigmoid"}, 
      "inputs": [[1967, 0, 0]]
    }, 
    {
      "op": "Activation", 
      "name": "activation751", 
      "attr": {"act_type": "tanh"}, 
      "inputs": [[1967, 1, 0]]
    }, 
    {
      "op": "_mul", 
      "name": "_mul451", 
      "inputs": [[1971, 0, 0], [1972, 0, 0]]
    }, 
    {
      "op": "elemwise_add", 
      "name": "_plus301", 
      "inputs": [[1970, 0, 0], [1973, 0, 0]]
    }, 
    {
      "op": "Activation", 
      "name": "activation754", 
      "attr": {"act_type": "tanh"}, 
      "inputs": [[1974, 0, 0]]
    }, 
    {
      "op": "_mul", 
      "name": "_mul452", 
      "inputs": [[1968, 0, 0], [1975, 0, 0]]
    }, 
    {
      "op": "FullyConnected", 
      "name": "t75_l1_i2h", 
      "attr": {"num_hidden": "400"}, 
      "inputs": [[1976, 0, 0], [21, 0, 0], [22, 0, 0]]
    }, 
    {
      "op": "FullyConnected", 
      "name": "t75_l1_h2h", 
      "attr": {"num_hidden": "400"}, 
      "inputs": [[1963, 0, 0], [25, 0, 0], [26, 0, 0]]
    }, 
    {
      "op": "elemwise_add", 
      "name": "_plus302", 
      "inputs": [[1977, 0, 0], [1978, 0, 0]]
    }, 
    {
      "op": "SliceChannel", 
      "name": "t75_l1_slice", 
      "attr": {"num_outputs": "4"}, 
      "inputs": [[1979, 0, 0]]
    }, 
    {
      "op": "Activation", 
      "name": "activation758", 
      "attr": {"act_type": "sigmoid"}, 
      "inputs": [[1980, 3, 0]]
    }, 
    {
      "op": "Activation", 
      "name": "activation757", 
      "attr": {"act_type": "sigmoid"}, 
      "inputs": [[1980, 2, 0]]
    }, 
    {
      "op": "_mul", 
      "name": "_mul453", 
      "inputs": [[1982, 0, 0], [1961, 0, 0]]
    }, 
    {
      "op": "Activation", 
      "name": "activation755", 
      "attr": {"act_type": "sigmoid"}, 
      "inputs": [[1980, 0, 0]]
    }, 
    {
      "op": "Activation", 
      "name": "activation756", 
      "attr": {"act_type": "tanh"}, 
      "inputs": [[1980, 1, 0]]
    }, 
    {
      "op": "_mul", 
      "name": "_mul454", 
      "inputs": [[1984, 0, 0], [1985, 0, 0]]
    }, 
    {
      "op": "elemwise_add", 
      "name": "_plus303", 
      "inputs": [[1983, 0, 0], [1986, 0, 0]]
    }, 
    {
      "op": "Activation", 
      "name": "activation759", 
      "attr": {"act_type": "tanh"}, 
      "inputs": [[1987, 0, 0]]
    }, 
    {
      "op": "_mul", 
      "name": "_mul455", 
      "inputs": [[1981, 0, 0], [1988, 0, 0]]
    }, 
    {
      "op": "FullyConnected", 
      "name": "t76_l0_i2h", 
      "attr": {"num_hidden": "400"}, 
      "inputs": [[1, 76, 0], [2, 0, 0], [3, 0, 0]]
    }, 
    {
      "op": "FullyConnected", 
      "name": "t76_l0_h2h", 
      "attr": {"num_hidden": "400"}, 
      "inputs": [[1976, 0, 0], [6, 0, 0], [7, 0, 0]]
    }, 
    {
      "op": "elemwise_add", 
      "name": "_plus304", 
      "inputs": [[1990, 0, 0], [1991, 0, 0]]
    }, 
    {
      "op": "SliceChannel", 
      "name": "t76_l0_slice", 
      "attr": {"num_outputs": "4"}, 
      "inputs": [[1992, 0, 0]]
    }, 
    {
      "op": "Activation", 
      "name": "activation763", 
      "attr": {"act_type": "sigmoid"}, 
      "inputs": [[1993, 3, 0]]
    }, 
    {
      "op": "Activation", 
      "name": "activation762", 
      "attr": {"act_type": "sigmoid"}, 
      "inputs": [[1993, 2, 0]]
    }, 
    {
      "op": "_mul", 
      "name": "_mul456", 
      "inputs": [[1995, 0, 0], [1974, 0, 0]]
    }, 
    {
      "op": "Activation", 
      "name": "activation760", 
      "attr": {"act_type": "sigmoid"}, 
      "inputs": [[1993, 0, 0]]
    }, 
    {
      "op": "Activation", 
      "name": "activation761", 
      "attr": {"act_type": "tanh"}, 
      "inputs": [[1993, 1, 0]]
    }, 
    {
      "op": "_mul", 
      "name": "_mul457", 
      "inputs": [[1997, 0, 0], [1998, 0, 0]]
    }, 
    {
      "op": "elemwise_add", 
      "name": "_plus305", 
      "inputs": [[1996, 0, 0], [1999, 0, 0]]
    }, 
    {
      "op": "Activation", 
      "name": "activation764", 
      "attr": {"act_type": "tanh"}, 
      "inputs": [[2000, 0, 0]]
    }, 
    {
      "op": "_mul", 
      "name": "_mul458", 
      "inputs": [[1994, 0, 0], [2001, 0, 0]]
    }, 
    {
      "op": "FullyConnected", 
      "name": "t76_l1_i2h", 
      "attr": {"num_hidden": "400"}, 
      "inputs": [[2002, 0, 0], [21, 0, 0], [22, 0, 0]]
    }, 
    {
      "op": "FullyConnected", 
      "name": "t76_l1_h2h", 
      "attr": {"num_hidden": "400"}, 
      "inputs": [[1989, 0, 0], [25, 0, 0], [26, 0, 0]]
    }, 
    {
      "op": "elemwise_add", 
      "name": "_plus306", 
      "inputs": [[2003, 0, 0], [2004, 0, 0]]
    }, 
    {
      "op": "SliceChannel", 
      "name": "t76_l1_slice", 
      "attr": {"num_outputs": "4"}, 
      "inputs": [[2005, 0, 0]]
    }, 
    {
      "op": "Activation", 
      "name": "activation768", 
      "attr": {"act_type": "sigmoid"}, 
      "inputs": [[2006, 3, 0]]
    }, 
    {
      "op": "Activation", 
      "name": "activation767", 
      "attr": {"act_type": "sigmoid"}, 
      "inputs": [[2006, 2, 0]]
    }, 
    {
      "op": "_mul", 
      "name": "_mul459", 
      "inputs": [[2008, 0, 0], [1987, 0, 0]]
    }, 
    {
      "op": "Activation", 
      "name": "activation765", 
      "attr": {"act_type": "sigmoid"}, 
      "inputs": [[2006, 0, 0]]
    }, 
    {
      "op": "Activation", 
      "name": "activation766", 
      "attr": {"act_type": "tanh"}, 
      "inputs": [[2006, 1, 0]]
    }, 
    {
      "op": "_mul", 
      "name": "_mul460", 
      "inputs": [[2010, 0, 0], [2011, 0, 0]]
    }, 
    {
      "op": "elemwise_add", 
      "name": "_plus307", 
      "inputs": [[2009, 0, 0], [2012, 0, 0]]
    }, 
    {
      "op": "Activation", 
      "name": "activation769", 
      "attr": {"act_type": "tanh"}, 
      "inputs": [[2013, 0, 0]]
    }, 
    {
      "op": "_mul", 
      "name": "_mul461", 
      "inputs": [[2007, 0, 0], [2014, 0, 0]]
    }, 
    {
      "op": "FullyConnected", 
      "name": "t77_l0_i2h", 
      "attr": {"num_hidden": "400"}, 
      "inputs": [[1, 77, 0], [2, 0, 0], [3, 0, 0]]
    }, 
    {
      "op": "FullyConnected", 
      "name": "t77_l0_h2h", 
      "attr": {"num_hidden": "400"}, 
      "inputs": [[2002, 0, 0], [6, 0, 0], [7, 0, 0]]
    }, 
    {
      "op": "elemwise_add", 
      "name": "_plus308", 
      "inputs": [[2016, 0, 0], [2017, 0, 0]]
    }, 
    {
      "op": "SliceChannel", 
      "name": "t77_l0_slice", 
      "attr": {"num_outputs": "4"}, 
      "inputs": [[2018, 0, 0]]
    }, 
    {
      "op": "Activation", 
      "name": "activation773", 
      "attr": {"act_type": "sigmoid"}, 
      "inputs": [[2019, 3, 0]]
    }, 
    {
      "op": "Activation", 
      "name": "activation772", 
      "attr": {"act_type": "sigmoid"}, 
      "inputs": [[2019, 2, 0]]
    }, 
    {
      "op": "_mul", 
      "name": "_mul462", 
      "inputs": [[2021, 0, 0], [2000, 0, 0]]
    }, 
    {
      "op": "Activation", 
      "name": "activation770", 
      "attr": {"act_type": "sigmoid"}, 
      "inputs": [[2019, 0, 0]]
    }, 
    {
      "op": "Activation", 
      "name": "activation771", 
      "attr": {"act_type": "tanh"}, 
      "inputs": [[2019, 1, 0]]
    }, 
    {
      "op": "_mul", 
      "name": "_mul463", 
      "inputs": [[2023, 0, 0], [2024, 0, 0]]
    }, 
    {
      "op": "elemwise_add", 
      "name": "_plus309", 
      "inputs": [[2022, 0, 0], [2025, 0, 0]]
    }, 
    {
      "op": "Activation", 
      "name": "activation774", 
      "attr": {"act_type": "tanh"}, 
      "inputs": [[2026, 0, 0]]
    }, 
    {
      "op": "_mul", 
      "name": "_mul464", 
      "inputs": [[2020, 0, 0], [2027, 0, 0]]
    }, 
    {
      "op": "FullyConnected", 
      "name": "t77_l1_i2h", 
      "attr": {"num_hidden": "400"}, 
      "inputs": [[2028, 0, 0], [21, 0, 0], [22, 0, 0]]
    }, 
    {
      "op": "FullyConnected", 
      "name": "t77_l1_h2h", 
      "attr": {"num_hidden": "400"}, 
      "inputs": [[2015, 0, 0], [25, 0, 0], [26, 0, 0]]
    }, 
    {
      "op": "elemwise_add", 
      "name": "_plus310", 
      "inputs": [[2029, 0, 0], [2030, 0, 0]]
    }, 
    {
      "op": "SliceChannel", 
      "name": "t77_l1_slice", 
      "attr": {"num_outputs": "4"}, 
      "inputs": [[2031, 0, 0]]
    }, 
    {
      "op": "Activation", 
      "name": "activation778", 
      "attr": {"act_type": "sigmoid"}, 
      "inputs": [[2032, 3, 0]]
    }, 
    {
      "op": "Activation", 
      "name": "activation777", 
      "attr": {"act_type": "sigmoid"}, 
      "inputs": [[2032, 2, 0]]
    }, 
    {
      "op": "_mul", 
      "name": "_mul465", 
      "inputs": [[2034, 0, 0], [2013, 0, 0]]
    }, 
    {
      "op": "Activation", 
      "name": "activation775", 
      "attr": {"act_type": "sigmoid"}, 
      "inputs": [[2032, 0, 0]]
    }, 
    {
      "op": "Activation", 
      "name": "activation776", 
      "attr": {"act_type": "tanh"}, 
      "inputs": [[2032, 1, 0]]
    }, 
    {
      "op": "_mul", 
      "name": "_mul466", 
      "inputs": [[2036, 0, 0], [2037, 0, 0]]
    }, 
    {
      "op": "elemwise_add", 
      "name": "_plus311", 
      "inputs": [[2035, 0, 0], [2038, 0, 0]]
    }, 
    {
      "op": "Activation", 
      "name": "activation779", 
      "attr": {"act_type": "tanh"}, 
      "inputs": [[2039, 0, 0]]
    }, 
    {
      "op": "_mul", 
      "name": "_mul467", 
      "inputs": [[2033, 0, 0], [2040, 0, 0]]
    }, 
    {
      "op": "FullyConnected", 
      "name": "t78_l0_i2h", 
      "attr": {"num_hidden": "400"}, 
      "inputs": [[1, 78, 0], [2, 0, 0], [3, 0, 0]]
    }, 
    {
      "op": "FullyConnected", 
      "name": "t78_l0_h2h", 
      "attr": {"num_hidden": "400"}, 
      "inputs": [[2028, 0, 0], [6, 0, 0], [7, 0, 0]]
    }, 
    {
      "op": "elemwise_add", 
      "name": "_plus312", 
      "inputs": [[2042, 0, 0], [2043, 0, 0]]
    }, 
    {
      "op": "SliceChannel", 
      "name": "t78_l0_slice", 
      "attr": {"num_outputs": "4"}, 
      "inputs": [[2044, 0, 0]]
    }, 
    {
      "op": "Activation", 
      "name": "activation783", 
      "attr": {"act_type": "sigmoid"}, 
      "inputs": [[2045, 3, 0]]
    }, 
    {
      "op": "Activation", 
      "name": "activation782", 
      "attr": {"act_type": "sigmoid"}, 
      "inputs": [[2045, 2, 0]]
    }, 
    {
      "op": "_mul", 
      "name": "_mul468", 
      "inputs": [[2047, 0, 0], [2026, 0, 0]]
    }, 
    {
      "op": "Activation", 
      "name": "activation780", 
      "attr": {"act_type": "sigmoid"}, 
      "inputs": [[2045, 0, 0]]
    }, 
    {
      "op": "Activation", 
      "name": "activation781", 
      "attr": {"act_type": "tanh"}, 
      "inputs": [[2045, 1, 0]]
    }, 
    {
      "op": "_mul", 
      "name": "_mul469", 
      "inputs": [[2049, 0, 0], [2050, 0, 0]]
    }, 
    {
      "op": "elemwise_add", 
      "name": "_plus313", 
      "inputs": [[2048, 0, 0], [2051, 0, 0]]
    }, 
    {
      "op": "Activation", 
      "name": "activation784", 
      "attr": {"act_type": "tanh"}, 
      "inputs": [[2052, 0, 0]]
    }, 
    {
      "op": "_mul", 
      "name": "_mul470", 
      "inputs": [[2046, 0, 0], [2053, 0, 0]]
    }, 
    {
      "op": "FullyConnected", 
      "name": "t78_l1_i2h", 
      "attr": {"num_hidden": "400"}, 
      "inputs": [[2054, 0, 0], [21, 0, 0], [22, 0, 0]]
    }, 
    {
      "op": "FullyConnected", 
      "name": "t78_l1_h2h", 
      "attr": {"num_hidden": "400"}, 
      "inputs": [[2041, 0, 0], [25, 0, 0], [26, 0, 0]]
    }, 
    {
      "op": "elemwise_add", 
      "name": "_plus314", 
      "inputs": [[2055, 0, 0], [2056, 0, 0]]
    }, 
    {
      "op": "SliceChannel", 
      "name": "t78_l1_slice", 
      "attr": {"num_outputs": "4"}, 
      "inputs": [[2057, 0, 0]]
    }, 
    {
      "op": "Activation", 
      "name": "activation788", 
      "attr": {"act_type": "sigmoid"}, 
      "inputs": [[2058, 3, 0]]
    }, 
    {
      "op": "Activation", 
      "name": "activation787", 
      "attr": {"act_type": "sigmoid"}, 
      "inputs": [[2058, 2, 0]]
    }, 
    {
      "op": "_mul", 
      "name": "_mul471", 
      "inputs": [[2060, 0, 0], [2039, 0, 0]]
    }, 
    {
      "op": "Activation", 
      "name": "activation785", 
      "attr": {"act_type": "sigmoid"}, 
      "inputs": [[2058, 0, 0]]
    }, 
    {
      "op": "Activation", 
      "name": "activation786", 
      "attr": {"act_type": "tanh"}, 
      "inputs": [[2058, 1, 0]]
    }, 
    {
      "op": "_mul", 
      "name": "_mul472", 
      "inputs": [[2062, 0, 0], [2063, 0, 0]]
    }, 
    {
      "op": "elemwise_add", 
      "name": "_plus315", 
      "inputs": [[2061, 0, 0], [2064, 0, 0]]
    }, 
    {
      "op": "Activation", 
      "name": "activation789", 
      "attr": {"act_type": "tanh"}, 
      "inputs": [[2065, 0, 0]]
    }, 
    {
      "op": "_mul", 
      "name": "_mul473", 
      "inputs": [[2059, 0, 0], [2066, 0, 0]]
    }, 
    {
      "op": "FullyConnected", 
      "name": "t79_l0_i2h", 
      "attr": {"num_hidden": "400"}, 
      "inputs": [[1, 79, 0], [2, 0, 0], [3, 0, 0]]
    }, 
    {
      "op": "FullyConnected", 
      "name": "t79_l0_h2h", 
      "attr": {"num_hidden": "400"}, 
      "inputs": [[2054, 0, 0], [6, 0, 0], [7, 0, 0]]
    }, 
    {
      "op": "elemwise_add", 
      "name": "_plus316", 
      "inputs": [[2068, 0, 0], [2069, 0, 0]]
    }, 
    {
      "op": "SliceChannel", 
      "name": "t79_l0_slice", 
      "attr": {"num_outputs": "4"}, 
      "inputs": [[2070, 0, 0]]
    }, 
    {
      "op": "Activation", 
      "name": "activation793", 
      "attr": {"act_type": "sigmoid"}, 
      "inputs": [[2071, 3, 0]]
    }, 
    {
      "op": "Activation", 
      "name": "activation792", 
      "attr": {"act_type": "sigmoid"}, 
      "inputs": [[2071, 2, 0]]
    }, 
    {
      "op": "_mul", 
      "name": "_mul474", 
      "inputs": [[2073, 0, 0], [2052, 0, 0]]
    }, 
    {
      "op": "Activation", 
      "name": "activation790", 
      "attr": {"act_type": "sigmoid"}, 
      "inputs": [[2071, 0, 0]]
    }, 
    {
      "op": "Activation", 
      "name": "activation791", 
      "attr": {"act_type": "tanh"}, 
      "inputs": [[2071, 1, 0]]
    }, 
    {
      "op": "_mul", 
      "name": "_mul475", 
      "inputs": [[2075, 0, 0], [2076, 0, 0]]
    }, 
    {
      "op": "elemwise_add", 
      "name": "_plus317", 
      "inputs": [[2074, 0, 0], [2077, 0, 0]]
    }, 
    {
      "op": "Activation", 
      "name": "activation794", 
      "attr": {"act_type": "tanh"}, 
      "inputs": [[2078, 0, 0]]
    }, 
    {
      "op": "_mul", 
      "name": "_mul476", 
      "inputs": [[2072, 0, 0], [2079, 0, 0]]
    }, 
    {
      "op": "FullyConnected", 
      "name": "t79_l1_i2h", 
      "attr": {"num_hidden": "400"}, 
      "inputs": [[2080, 0, 0], [21, 0, 0], [22, 0, 0]]
    }, 
    {
      "op": "FullyConnected", 
      "name": "t79_l1_h2h", 
      "attr": {"num_hidden": "400"}, 
      "inputs": [[2067, 0, 0], [25, 0, 0], [26, 0, 0]]
    }, 
    {
      "op": "elemwise_add", 
      "name": "_plus318", 
      "inputs": [[2081, 0, 0], [2082, 0, 0]]
    }, 
    {
      "op": "SliceChannel", 
      "name": "t79_l1_slice", 
      "attr": {"num_outputs": "4"}, 
      "inputs": [[2083, 0, 0]]
    }, 
    {
      "op": "Activation", 
      "name": "activation798", 
      "attr": {"act_type": "sigmoid"}, 
      "inputs": [[2084, 3, 0]]
    }, 
    {
      "op": "Activation", 
      "name": "activation797", 
      "attr": {"act_type": "sigmoid"}, 
      "inputs": [[2084, 2, 0]]
    }, 
    {
      "op": "_mul", 
      "name": "_mul477", 
      "inputs": [[2086, 0, 0], [2065, 0, 0]]
    }, 
    {
      "op": "Activation", 
      "name": "activation795", 
      "attr": {"act_type": "sigmoid"}, 
      "inputs": [[2084, 0, 0]]
    }, 
    {
      "op": "Activation", 
      "name": "activation796", 
      "attr": {"act_type": "tanh"}, 
      "inputs": [[2084, 1, 0]]
    }, 
    {
      "op": "_mul", 
      "name": "_mul478", 
      "inputs": [[2088, 0, 0], [2089, 0, 0]]
    }, 
    {
      "op": "elemwise_add", 
      "name": "_plus319", 
      "inputs": [[2087, 0, 0], [2090, 0, 0]]
    }, 
    {
      "op": "Activation", 
      "name": "activation799", 
      "attr": {"act_type": "tanh"}, 
      "inputs": [[2091, 0, 0]]
    }, 
    {
      "op": "_mul", 
      "name": "_mul479", 
      "inputs": [[2085, 0, 0], [2092, 0, 0]]
    }, 
    {
      "op": "Concat", 
      "name": "concat0", 
      "attr": {
        "dim": "0", 
        "num_args": "80"
      }, 
      "inputs": [
        [39, 0, 0], 
        [65, 0, 0], 
        [91, 0, 0], 
        [117, 0, 0], 
        [143, 0, 0], 
        [169, 0, 0], 
        [195, 0, 0], 
        [221, 0, 0], 
        [247, 0, 0], 
        [273, 0, 0], 
        [299, 0, 0], 
        [325, 0, 0], 
        [351, 0, 0], 
        [377, 0, 0], 
        [403, 0, 0], 
        [429, 0, 0], 
        [455, 0, 0], 
        [481, 0, 0], 
        [507, 0, 0], 
        [533, 0, 0], 
        [559, 0, 0], 
        [585, 0, 0], 
        [611, 0, 0], 
        [637, 0, 0], 
        [663, 0, 0], 
        [689, 0, 0], 
        [715, 0, 0], 
        [741, 0, 0], 
        [767, 0, 0], 
        [793, 0, 0], 
        [819, 0, 0], 
        [845, 0, 0], 
        [871, 0, 0], 
        [897, 0, 0], 
        [923, 0, 0], 
        [949, 0, 0], 
        [975, 0, 0], 
        [1001, 0, 0], 
        [1027, 0, 0], 
        [1053, 0, 0], 
        [1079, 0, 0], 
        [1105, 0, 0], 
        [1131, 0, 0], 
        [1157, 0, 0], 
        [1183, 0, 0], 
        [1209, 0, 0], 
        [1235, 0, 0], 
        [1261, 0, 0], 
        [1287, 0, 0], 
        [1313, 0, 0], 
        [1339, 0, 0], 
        [1365, 0, 0], 
        [1391, 0, 0], 
        [1417, 0, 0], 
        [1443, 0, 0], 
        [1469, 0, 0], 
        [1495, 0, 0], 
        [1521, 0, 0], 
        [1547, 0, 0], 
        [1573, 0, 0], 
        [1599, 0, 0], 
        [1625, 0, 0], 
        [1651, 0, 0], 
        [1677, 0, 0], 
        [1703, 0, 0], 
        [1729, 0, 0], 
        [1755, 0, 0], 
        [1781, 0, 0], 
        [1807, 0, 0], 
        [1833, 0, 0], 
        [1859, 0, 0], 
        [1885, 0, 0], 
        [1911, 0, 0], 
        [1937, 0, 0], 
        [1963, 0, 0], 
        [1989, 0, 0], 
        [2015, 0, 0], 
        [2041, 0, 0], 
        [2067, 0, 0], 
        [2093, 0, 0]
      ]
    }, 
    {
      "op": "null", 
      "name": "fullyconnected0_weight", 
      "attr": {"num_hidden": "11"}, 
      "inputs": []
    }, 
    {
      "op": "null", 
      "name": "fullyconnected0_bias", 
      "attr": {"num_hidden": "11"}, 
      "inputs": []
    }, 
    {
      "op": "FullyConnected", 
      "name": "fullyconnected0", 
      "attr": {"num_hidden": "11"}, 
      "inputs": [[2094, 0, 0], [2095, 0, 0], [2096, 0, 0]]
    }, 
    {
      "op": "null", 
      "name": "label", 
      "inputs": []
    }, 
    {
      "op": "Reshape", 
      "name": "reshape0", 
      "attr": {"shape": "(-1,)"}, 
      "inputs": [[2098, 0, 0]]
    }, 
    {
      "op": "Cast", 
      "name": "cast0", 
      "attr": {"dtype": "int32"}, 
      "inputs": [[2099, 0, 0]]
    }, 
    {
      "op": "WarpCTC", 
      "name": "warpctc0", 
      "attr": {
        "input_length": "80", 
        "label_length": "4"
      }, 
      "inputs": [[2097, 0, 0], [2100, 0, 0]]
    }
  ], 
  "arg_nodes": [
    0, 
    2, 
    3, 
    5, 
    6, 
    7, 
    13, 
    21, 
    22, 
    24, 
    25, 
    26, 
    32, 
    2095, 
    2096, 
    2098
  ], 
  "node_row_ptr": [
    0, 
    1, 
    81, 
    82, 
    83, 
    84, 
    85, 
    86, 
    87, 
    88, 
    89, 
    93, 
    94, 
    95, 
    96, 
    97, 
    98, 
    99, 
    100, 
    101, 
    102, 
    103, 
    104, 
    105, 
    106, 
    107, 
    108, 
    109, 
    110, 
    111, 
    115, 
    116, 
    117, 
    118, 
    119, 
    120, 
    121, 
    122, 
    123, 
    124, 
    125, 
    126, 
    127, 
    128, 
    132, 
    133, 
    134, 
    135, 
    136, 
    137, 
    138, 
    139, 
    140, 
    141, 
    142, 
    143, 
    144, 
    148, 
    149, 
    150, 
    151, 
    152, 
    153, 
    154, 
    155, 
    156, 
    157, 
    158, 
    159, 
    160, 
    164, 
    165, 
    166, 
    167, 
    168, 
    169, 
    170, 
    171, 
    172, 
    173, 
    174, 
    175, 
    176, 
    180, 
    181, 
    182, 
    183, 
    184, 
    185, 
    186, 
    187, 
    188, 
    189, 
    190, 
    191, 
    192, 
    196, 
    197, 
    198, 
    199, 
    200, 
    201, 
    202, 
    203, 
    204, 
    205, 
    206, 
    207, 
    208, 
    212, 
    213, 
    214, 
    215, 
    216, 
    217, 
    218, 
    219, 
    220, 
    221, 
    222, 
    223, 
    224, 
    228, 
    229, 
    230, 
    231, 
    232, 
    233, 
    234, 
    235, 
    236, 
    237, 
    238, 
    239, 
    240, 
    244, 
    245, 
    246, 
    247, 
    248, 
    249, 
    250, 
    251, 
    252, 
    253, 
    254, 
    255, 
    256, 
    260, 
    261, 
    262, 
    263, 
    264, 
    265, 
    266, 
    267, 
    268, 
    269, 
    270, 
    271, 
    272, 
    276, 
    277, 
    278, 
    279, 
    280, 
    281, 
    282, 
    283, 
    284, 
    285, 
    286, 
    287, 
    288, 
    292, 
    293, 
    294, 
    295, 
    296, 
    297, 
    298, 
    299, 
    300, 
    301, 
    302, 
    303, 
    304, 
    308, 
    309, 
    310, 
    311, 
    312, 
    313, 
    314, 
    315, 
    316, 
    317, 
    318, 
    319, 
    320, 
    324, 
    325, 
    326, 
    327, 
    328, 
    329, 
    330, 
    331, 
    332, 
    333, 
    334, 
    335, 
    336, 
    340, 
    341, 
    342, 
    343, 
    344, 
    345, 
    346, 
    347, 
    348, 
    349, 
    350, 
    351, 
    352, 
    356, 
    357, 
    358, 
    359, 
    360, 
    361, 
    362, 
    363, 
    364, 
    365, 
    366, 
    367, 
    368, 
    372, 
    373, 
    374, 
    375, 
    376, 
    377, 
    378, 
    379, 
    380, 
    381, 
    382, 
    383, 
    384, 
    388, 
    389, 
    390, 
    391, 
    392, 
    393, 
    394, 
    395, 
    396, 
    397, 
    398, 
    399, 
    400, 
    404, 
    405, 
    406, 
    407, 
    408, 
    409, 
    410, 
    411, 
    412, 
    413, 
    414, 
    415, 
    416, 
    420, 
    421, 
    422, 
    423, 
    424, 
    425, 
    426, 
    427, 
    428, 
    429, 
    430, 
    431, 
    432, 
    436, 
    437, 
    438, 
    439, 
    440, 
    441, 
    442, 
    443, 
    444, 
    445, 
    446, 
    447, 
    448, 
    452, 
    453, 
    454, 
    455, 
    456, 
    457, 
    458, 
    459, 
    460, 
    461, 
    462, 
    463, 
    464, 
    468, 
    469, 
    470, 
    471, 
    472, 
    473, 
    474, 
    475, 
    476, 
    477, 
    478, 
    479, 
    480, 
    484, 
    485, 
    486, 
    487, 
    488, 
    489, 
    490, 
    491, 
    492, 
    493, 
    494, 
    495, 
    496, 
    500, 
    501, 
    502, 
    503, 
    504, 
    505, 
    506, 
    507, 
    508, 
    509, 
    510, 
    511, 
    512, 
    516, 
    517, 
    518, 
    519, 
    520, 
    521, 
    522, 
    523, 
    524, 
    525, 
    526, 
    527, 
    528, 
    532, 
    533, 
    534, 
    535, 
    536, 
    537, 
    538, 
    539, 
    540, 
    541, 
    542, 
    543, 
    544, 
    548, 
    549, 
    550, 
    551, 
    552, 
    553, 
    554, 
    555, 
    556, 
    557, 
    558, 
    559, 
    560, 
    564, 
    565, 
    566, 
    567, 
    568, 
    569, 
    570, 
    571, 
    572, 
    573, 
    574, 
    575, 
    576, 
    580, 
    581, 
    582, 
    583, 
    584, 
    585, 
    586, 
    587, 
    588, 
    589, 
    590, 
    591, 
    592, 
    596, 
    597, 
    598, 
    599, 
    600, 
    601, 
    602, 
    603, 
    604, 
    605, 
    606, 
    607, 
    608, 
    612, 
    613, 
    614, 
    615, 
    616, 
    617, 
    618, 
    619, 
    620, 
    621, 
    622, 
    623, 
    624, 
    628, 
    629, 
    630, 
    631, 
    632, 
    633, 
    634, 
    635, 
    636, 
    637, 
    638, 
    639, 
    640, 
    644, 
    645, 
    646, 
    647, 
    648, 
    649, 
    650, 
    651, 
    652, 
    653, 
    654, 
    655, 
    656, 
    660, 
    661, 
    662, 
    663, 
    664, 
    665, 
    666, 
    667, 
    668, 
    669, 
    670, 
    671, 
    672, 
    676, 
    677, 
    678, 
    679, 
    680, 
    681, 
    682, 
    683, 
    684, 
    685, 
    686, 
    687, 
    688, 
    692, 
    693, 
    694, 
    695, 
    696, 
    697, 
    698, 
    699, 
    700, 
    701, 
    702, 
    703, 
    704, 
    708, 
    709, 
    710, 
    711, 
    712, 
    713, 
    714, 
    715, 
    716, 
    717, 
    718, 
    719, 
    720, 
    724, 
    725, 
    726, 
    727, 
    728, 
    729, 
    730, 
    731, 
    732, 
    733, 
    734, 
    735, 
    736, 
    740, 
    741, 
    742, 
    743, 
    744, 
    745, 
    746, 
    747, 
    748, 
    749, 
    750, 
    751, 
    752, 
    756, 
    757, 
    758, 
    759, 
    760, 
    761, 
    762, 
    763, 
    764, 
    765, 
    766, 
    767, 
    768, 
    772, 
    773, 
    774, 
    775, 
    776, 
    777, 
    778, 
    779, 
    780, 
    781, 
    782, 
    783, 
    784, 
    788, 
    789, 
    790, 
    791, 
    792, 
    793, 
    794, 
    795, 
    796, 
    797, 
    798, 
    799, 
    800, 
    804, 
    805, 
    806, 
    807, 
    808, 
    809, 
    810, 
    811, 
    812, 
    813, 
    814, 
    815, 
    816, 
    820, 
    821, 
    822, 
    823, 
    824, 
    825, 
    826, 
    827, 
    828, 
    829, 
    830, 
    831, 
    832, 
    836, 
    837, 
    838, 
    839, 
    840, 
    841, 
    842, 
    843, 
    844, 
    845, 
    846, 
    847, 
    848, 
    852, 
    853, 
    854, 
    855, 
    856, 
    857, 
    858, 
    859, 
    860, 
    861, 
    862, 
    863, 
    864, 
    868, 
    869, 
    870, 
    871, 
    872, 
    873, 
    874, 
    875, 
    876, 
    877, 
    878, 
    879, 
    880, 
    884, 
    885, 
    886, 
    887, 
    888, 
    889, 
    890, 
    891, 
    892, 
    893, 
    894, 
    895, 
    896, 
    900, 
    901, 
    902, 
    903, 
    904, 
    905, 
    906, 
    907, 
    908, 
    909, 
    910, 
    911, 
    912, 
    916, 
    917, 
    918, 
    919, 
    920, 
    921, 
    922, 
    923, 
    924, 
    925, 
    926, 
    927, 
    928, 
    932, 
    933, 
    934, 
    935, 
    936, 
    937, 
    938, 
    939, 
    940, 
    941, 
    942, 
    943, 
    944, 
    948, 
    949, 
    950, 
    951, 
    952, 
    953, 
    954, 
    955, 
    956, 
    957, 
    958, 
    959, 
    960, 
    964, 
    965, 
    966, 
    967, 
    968, 
    969, 
    970, 
    971, 
    972, 
    973, 
    974, 
    975, 
    976, 
    980, 
    981, 
    982, 
    983, 
    984, 
    985, 
    986, 
    987, 
    988, 
    989, 
    990, 
    991, 
    992, 
    996, 
    997, 
    998, 
    999, 
    1000, 
    1001, 
    1002, 
    1003, 
    1004, 
    1005, 
    1006, 
    1007, 
    1008, 
    1012, 
    1013, 
    1014, 
    1015, 
    1016, 
    1017, 
    1018, 
    1019, 
    1020, 
    1021, 
    1022, 
    1023, 
    1024, 
    1028, 
    1029, 
    1030, 
    1031, 
    1032, 
    1033, 
    1034, 
    1035, 
    1036, 
    1037, 
    1038, 
    1039, 
    1040, 
    1044, 
    1045, 
    1046, 
    1047, 
    1048, 
    1049, 
    1050, 
    1051, 
    1052, 
    1053, 
    1054, 
    1055, 
    1056, 
    1060, 
    1061, 
    1062, 
    1063, 
    1064, 
    1065, 
    1066, 
    1067, 
    1068, 
    1069, 
    1070, 
    1071, 
    1072, 
    1076, 
    1077, 
    1078, 
    1079, 
    1080, 
    1081, 
    1082, 
    1083, 
    1084, 
    1085, 
    1086, 
    1087, 
    1088, 
    1092, 
    1093, 
    1094, 
    1095, 
    1096, 
    1097, 
    1098, 
    1099, 
    1100, 
    1101, 
    1102, 
    1103, 
    1104, 
    1108, 
    1109, 
    1110, 
    1111, 
    1112, 
    1113, 
    1114, 
    1115, 
    1116, 
    1117, 
    1118, 
    1119, 
    1120, 
    1124, 
    1125, 
    1126, 
    1127, 
    1128, 
    1129, 
    1130, 
    1131, 
    1132, 
    1133, 
    1134, 
    1135, 
    1136, 
    1140, 
    1141, 
    1142, 
    1143, 
    1144, 
    1145, 
    1146, 
    1147, 
    1148, 
    1149, 
    1150, 
    1151, 
    1152, 
    1156, 
    1157, 
    1158, 
    1159, 
    1160, 
    1161, 
    1162, 
    1163, 
    1164, 
    1165, 
    1166, 
    1167, 
    1168, 
    1172, 
    1173, 
    1174, 
    1175, 
    1176, 
    1177, 
    1178, 
    1179, 
    1180, 
    1181, 
    1182, 
    1183, 
    1184, 
    1188, 
    1189, 
    1190, 
    1191, 
    1192, 
    1193, 
    1194, 
    1195, 
    1196, 
    1197, 
    1198, 
    1199, 
    1200, 
    1204, 
    1205, 
    1206, 
    1207, 
    1208, 
    1209, 
    1210, 
    1211, 
    1212, 
    1213, 
    1214, 
    1215, 
    1216, 
    1220, 
    1221, 
    1222, 
    1223, 
    1224, 
    1225, 
    1226, 
    1227, 
    1228, 
    1229, 
    1230, 
    1231, 
    1232, 
    1236, 
    1237, 
    1238, 
    1239, 
    1240, 
    1241, 
    1242, 
    1243, 
    1244, 
    1245, 
    1246, 
    1247, 
    1248, 
    1252, 
    1253, 
    1254, 
    1255, 
    1256, 
    1257, 
    1258, 
    1259, 
    1260, 
    1261, 
    1262, 
    1263, 
    1264, 
    1268, 
    1269, 
    1270, 
    1271, 
    1272, 
    1273, 
    1274, 
    1275, 
    1276, 
    1277, 
    1278, 
    1279, 
    1280, 
    1284, 
    1285, 
    1286, 
    1287, 
    1288, 
    1289, 
    1290, 
    1291, 
    1292, 
    1293, 
    1294, 
    1295, 
    1296, 
    1300, 
    1301, 
    1302, 
    1303, 
    1304, 
    1305, 
    1306, 
    1307, 
    1308, 
    1309, 
    1310, 
    1311, 
    1312, 
    1316, 
    1317, 
    1318, 
    1319, 
    1320, 
    1321, 
    1322, 
    1323, 
    1324, 
    1325, 
    1326, 
    1327, 
    1328, 
    1332, 
    1333, 
    1334, 
    1335, 
    1336, 
    1337, 
    1338, 
    1339, 
    1340, 
    1341, 
    1342, 
    1343, 
    1344, 
    1348, 
    1349, 
    1350, 
    1351, 
    1352, 
    1353, 
    1354, 
    1355, 
    1356, 
    1357, 
    1358, 
    1359, 
    1360, 
    1364, 
    1365, 
    1366, 
    1367, 
    1368, 
    1369, 
    1370, 
    1371, 
    1372, 
    1373, 
    1374, 
    1375, 
    1376, 
    1380, 
    1381, 
    1382, 
    1383, 
    1384, 
    1385, 
    1386, 
    1387, 
    1388, 
    1389, 
    1390, 
    1391, 
    1392, 
    1396, 
    1397, 
    1398, 
    1399, 
    1400, 
    1401, 
    1402, 
    1403, 
    1404, 
    1405, 
    1406, 
    1407, 
    1408, 
    1412, 
    1413, 
    1414, 
    1415, 
    1416, 
    1417, 
    1418, 
    1419, 
    1420, 
    1421, 
    1422, 
    1423, 
    1424, 
    1428, 
    1429, 
    1430, 
    1431, 
    1432, 
    1433, 
    1434, 
    1435, 
    1436, 
    1437, 
    1438, 
    1439, 
    1440, 
    1444, 
    1445, 
    1446, 
    1447, 
    1448, 
    1449, 
    1450, 
    1451, 
    1452, 
    1453, 
    1454, 
    1455, 
    1456, 
    1460, 
    1461, 
    1462, 
    1463, 
    1464, 
    1465, 
    1466, 
    1467, 
    1468, 
    1469, 
    1470, 
    1471, 
    1472, 
    1476, 
    1477, 
    1478, 
    1479, 
    1480, 
    1481, 
    1482, 
    1483, 
    1484, 
    1485, 
    1486, 
    1487, 
    1488, 
    1492, 
    1493, 
    1494, 
    1495, 
    1496, 
    1497, 
    1498, 
    1499, 
    1500, 
    1501, 
    1502, 
    1503, 
    1504, 
    1508, 
    1509, 
    1510, 
    1511, 
    1512, 
    1513, 
    1514, 
    1515, 
    1516, 
    1517, 
    1518, 
    1519, 
    1520, 
    1524, 
    1525, 
    1526, 
    1527, 
    1528, 
    1529, 
    1530, 
    1531, 
    1532, 
    1533, 
    1534, 
    1535, 
    1536, 
    1540, 
    1541, 
    1542, 
    1543, 
    1544, 
    1545, 
    1546, 
    1547, 
    1548, 
    1549, 
    1550, 
    1551, 
    1552, 
    1556, 
    1557, 
    1558, 
    1559, 
    1560, 
    1561, 
    1562, 
    1563, 
    1564, 
    1565, 
    1566, 
    1567, 
    1568, 
    1572, 
    1573, 
    1574, 
    1575, 
    1576, 
    1577, 
    1578, 
    1579, 
    1580, 
    1581, 
    1582, 
    1583, 
    1584, 
    1588, 
    1589, 
    1590, 
    1591, 
    1592, 
    1593, 
    1594, 
    1595, 
    1596, 
    1597, 
    1598, 
    1599, 
    1600, 
    1604, 
    1605, 
    1606, 
    1607, 
    1608, 
    1609, 
    1610, 
    1611, 
    1612, 
    1613, 
    1614, 
    1615, 
    1616, 
    1620, 
    1621, 
    1622, 
    1623, 
    1624, 
    1625, 
    1626, 
    1627, 
    1628, 
    1629, 
    1630, 
    1631, 
    1632, 
    1636, 
    1637, 
    1638, 
    1639, 
    1640, 
    1641, 
    1642, 
    1643, 
    1644, 
    1645, 
    1646, 
    1647, 
    1648, 
    1652, 
    1653, 
    1654, 
    1655, 
    1656, 
    1657, 
    1658, 
    1659, 
    1660, 
    1661, 
    1662, 
    1663, 
    1664, 
    1668, 
    1669, 
    1670, 
    1671, 
    1672, 
    1673, 
    1674, 
    1675, 
    1676, 
    1677, 
    1678, 
    1679, 
    1680, 
    1684, 
    1685, 
    1686, 
    1687, 
    1688, 
    1689, 
    1690, 
    1691, 
    1692, 
    1693, 
    1694, 
    1695, 
    1696, 
    1700, 
    1701, 
    1702, 
    1703, 
    1704, 
    1705, 
    1706, 
    1707, 
    1708, 
    1709, 
    1710, 
    1711, 
    1712, 
    1716, 
    1717, 
    1718, 
    1719, 
    1720, 
    1721, 
    1722, 
    1723, 
    1724, 
    1725, 
    1726, 
    1727, 
    1728, 
    1732, 
    1733, 
    1734, 
    1735, 
    1736, 
    1737, 
    1738, 
    1739, 
    1740, 
    1741, 
    1742, 
    1743, 
    1744, 
    1748, 
    1749, 
    1750, 
    1751, 
    1752, 
    1753, 
    1754, 
    1755, 
    1756, 
    1757, 
    1758, 
    1759, 
    1760, 
    1764, 
    1765, 
    1766, 
    1767, 
    1768, 
    1769, 
    1770, 
    1771, 
    1772, 
    1773, 
    1774, 
    1775, 
    1776, 
    1780, 
    1781, 
    1782, 
    1783, 
    1784, 
    1785, 
    1786, 
    1787, 
    1788, 
    1789, 
    1790, 
    1791, 
    1792, 
    1796, 
    1797, 
    1798, 
    1799, 
    1800, 
    1801, 
    1802, 
    1803, 
    1804, 
    1805, 
    1806, 
    1807, 
    1808, 
    1812, 
    1813, 
    1814, 
    1815, 
    1816, 
    1817, 
    1818, 
    1819, 
    1820, 
    1821, 
    1822, 
    1823, 
    1824, 
    1828, 
    1829, 
    1830, 
    1831, 
    1832, 
    1833, 
    1834, 
    1835, 
    1836, 
    1837, 
    1838, 
    1839, 
    1840, 
    1844, 
    1845, 
    1846, 
    1847, 
    1848, 
    1849, 
    1850, 
    1851, 
    1852, 
    1853, 
    1854, 
    1855, 
    1856, 
    1860, 
    1861, 
    1862, 
    1863, 
    1864, 
    1865, 
    1866, 
    1867, 
    1868, 
    1869, 
    1870, 
    1871, 
    1872, 
    1876, 
    1877, 
    1878, 
    1879, 
    1880, 
    1881, 
    1882, 
    1883, 
    1884, 
    1885, 
    1886, 
    1887, 
    1888, 
    1892, 
    1893, 
    1894, 
    1895, 
    1896, 
    1897, 
    1898, 
    1899, 
    1900, 
    1901, 
    1902, 
    1903, 
    1904, 
    1908, 
    1909, 
    1910, 
    1911, 
    1912, 
    1913, 
    1914, 
    1915, 
    1916, 
    1917, 
    1918, 
    1919, 
    1920, 
    1924, 
    1925, 
    1926, 
    1927, 
    1928, 
    1929, 
    1930, 
    1931, 
    1932, 
    1933, 
    1934, 
    1935, 
    1936, 
    1940, 
    1941, 
    1942, 
    1943, 
    1944, 
    1945, 
    1946, 
    1947, 
    1948, 
    1949, 
    1950, 
    1951, 
    1952, 
    1956, 
    1957, 
    1958, 
    1959, 
    1960, 
    1961, 
    1962, 
    1963, 
    1964, 
    1965, 
    1966, 
    1967, 
    1968, 
    1972, 
    1973, 
    1974, 
    1975, 
    1976, 
    1977, 
    1978, 
    1979, 
    1980, 
    1981, 
    1982, 
    1983, 
    1984, 
    1988, 
    1989, 
    1990, 
    1991, 
    1992, 
    1993, 
    1994, 
    1995, 
    1996, 
    1997, 
    1998, 
    1999, 
    2000, 
    2004, 
    2005, 
    2006, 
    2007, 
    2008, 
    2009, 
    2010, 
    2011, 
    2012, 
    2013, 
    2014, 
    2015, 
    2016, 
    2020, 
    2021, 
    2022, 
    2023, 
    2024, 
    2025, 
    2026, 
    2027, 
    2028, 
    2029, 
    2030, 
    2031, 
    2032, 
    2036, 
    2037, 
    2038, 
    2039, 
    2040, 
    2041, 
    2042, 
    2043, 
    2044, 
    2045, 
    2046, 
    2047, 
    2048, 
    2052, 
    2053, 
    2054, 
    2055, 
    2056, 
    2057, 
    2058, 
    2059, 
    2060, 
    2061, 
    2062, 
    2063, 
    2064, 
    2068, 
    2069, 
    2070, 
    2071, 
    2072, 
    2073, 
    2074, 
    2075, 
    2076, 
    2077, 
    2078, 
    2079, 
    2080, 
    2084, 
    2085, 
    2086, 
    2087, 
    2088, 
    2089, 
    2090, 
    2091, 
    2092, 
    2093, 
    2094, 
    2095, 
    2096, 
    2100, 
    2101, 
    2102, 
    2103, 
    2104, 
    2105, 
    2106, 
    2107, 
    2108, 
    2109, 
    2110, 
    2111, 
    2112, 
    2116, 
    2117, 
    2118, 
    2119, 
    2120, 
    2121, 
    2122, 
    2123, 
    2124, 
    2125, 
    2126, 
    2127, 
    2128, 
    2132, 
    2133, 
    2134, 
    2135, 
    2136, 
    2137, 
    2138, 
    2139, 
    2140, 
    2141, 
    2142, 
    2143, 
    2144, 
    2148, 
    2149, 
    2150, 
    2151, 
    2152, 
    2153, 
    2154, 
    2155, 
    2156, 
    2157, 
    2158, 
    2159, 
    2160, 
    2164, 
    2165, 
    2166, 
    2167, 
    2168, 
    2169, 
    2170, 
    2171, 
    2172, 
    2173, 
    2174, 
    2175, 
    2176, 
    2180, 
    2181, 
    2182, 
    2183, 
    2184, 
    2185, 
    2186, 
    2187, 
    2188, 
    2189, 
    2190, 
    2191, 
    2192, 
    2196, 
    2197, 
    2198, 
    2199, 
    2200, 
    2201, 
    2202, 
    2203, 
    2204, 
    2205, 
    2206, 
    2207, 
    2208, 
    2212, 
    2213, 
    2214, 
    2215, 
    2216, 
    2217, 
    2218, 
    2219, 
    2220, 
    2221, 
    2222, 
    2223, 
    2224, 
    2228, 
    2229, 
    2230, 
    2231, 
    2232, 
    2233, 
    2234, 
    2235, 
    2236, 
    2237, 
    2238, 
    2239, 
    2240, 
    2244, 
    2245, 
    2246, 
    2247, 
    2248, 
    2249, 
    2250, 
    2251, 
    2252, 
    2253, 
    2254, 
    2255, 
    2256, 
    2260, 
    2261, 
    2262, 
    2263, 
    2264, 
    2265, 
    2266, 
    2267, 
    2268, 
    2269, 
    2270, 
    2271, 
    2272, 
    2276, 
    2277, 
    2278, 
    2279, 
    2280, 
    2281, 
    2282, 
    2283, 
    2284, 
    2285, 
    2286, 
    2287, 
    2288, 
    2292, 
    2293, 
    2294, 
    2295, 
    2296, 
    2297, 
    2298, 
    2299, 
    2300, 
    2301, 
    2302, 
    2303, 
    2304, 
    2308, 
    2309, 
    2310, 
    2311, 
    2312, 
    2313, 
    2314, 
    2315, 
    2316, 
    2317, 
    2318, 
    2319, 
    2320, 
    2324, 
    2325, 
    2326, 
    2327, 
    2328, 
    2329, 
    2330, 
    2331, 
    2332, 
    2333, 
    2334, 
    2335, 
    2336, 
    2340, 
    2341, 
    2342, 
    2343, 
    2344, 
    2345, 
    2346, 
    2347, 
    2348, 
    2349, 
    2350, 
    2351, 
    2352, 
    2356, 
    2357, 
    2358, 
    2359, 
    2360, 
    2361, 
    2362, 
    2363, 
    2364, 
    2365, 
    2366, 
    2367, 
    2368, 
    2372, 
    2373, 
    2374, 
    2375, 
    2376, 
    2377, 
    2378, 
    2379, 
    2380, 
    2381, 
    2382, 
    2383, 
    2384, 
    2388, 
    2389, 
    2390, 
    2391, 
    2392, 
    2393, 
    2394, 
    2395, 
    2396, 
    2397, 
    2398, 
    2399, 
    2400, 
    2404, 
    2405, 
    2406, 
    2407, 
    2408, 
    2409, 
    2410, 
    2411, 
    2412, 
    2413, 
    2414, 
    2415, 
    2416, 
    2420, 
    2421, 
    2422, 
    2423, 
    2424, 
    2425, 
    2426, 
    2427, 
    2428, 
    2429, 
    2430, 
    2431, 
    2432, 
    2436, 
    2437, 
    2438, 
    2439, 
    2440, 
    2441, 
    2442, 
    2443, 
    2444, 
    2445, 
    2446, 
    2447, 
    2448, 
    2452, 
    2453, 
    2454, 
    2455, 
    2456, 
    2457, 
    2458, 
    2459, 
    2460, 
    2461, 
    2462, 
    2463, 
    2464, 
    2468, 
    2469, 
    2470, 
    2471, 
    2472, 
    2473, 
    2474, 
    2475, 
    2476, 
    2477, 
    2478, 
    2479, 
    2480, 
    2484, 
    2485, 
    2486, 
    2487, 
    2488, 
    2489, 
    2490, 
    2491, 
    2492, 
    2493, 
    2494, 
    2495, 
    2496, 
    2500, 
    2501, 
    2502, 
    2503, 
    2504, 
    2505, 
    2506, 
    2507, 
    2508, 
    2509, 
    2510, 
    2511, 
    2512, 
    2516, 
    2517, 
    2518, 
    2519, 
    2520, 
    2521, 
    2522, 
    2523, 
    2524, 
    2525, 
    2526, 
    2527, 
    2528, 
    2532, 
    2533, 
    2534, 
    2535, 
    2536, 
    2537, 
    2538, 
    2539, 
    2540, 
    2541, 
    2542, 
    2543, 
    2544, 
    2548, 
    2549, 
    2550, 
    2551, 
    2552, 
    2553, 
    2554, 
    2555, 
    2556, 
    2557, 
    2558, 
    2559, 
    2560, 
    2564, 
    2565, 
    2566, 
    2567, 
    2568, 
    2569, 
    2570, 
    2571, 
    2572, 
    2573, 
    2574, 
    2575, 
    2576, 
    2580, 
    2581, 
    2582, 
    2583, 
    2584, 
    2585, 
    2586, 
    2587, 
    2588, 
    2589, 
    2590, 
    2591, 
    2592, 
    2596, 
    2597, 
    2598, 
    2599, 
    2600, 
    2601, 
    2602, 
    2603, 
    2604, 
    2605, 
    2606, 
    2607, 
    2608, 
    2612, 
    2613, 
    2614, 
    2615, 
    2616, 
    2617, 
    2618, 
    2619, 
    2620, 
    2621, 
    2622, 
    2623, 
    2624, 
    2628, 
    2629, 
    2630, 
    2631, 
    2632, 
    2633, 
    2634, 
    2635, 
    2636, 
    2637, 
    2638, 
    2639, 
    2640, 
    2644, 
    2645, 
    2646, 
    2647, 
    2648, 
    2649, 
    2650, 
    2651, 
    2652, 
    2653, 
    2654, 
    2655, 
    2656, 
    2657, 
    2658, 
    2659, 
    2660, 
    2661
  ], 
  "heads": [[2101, 0, 0]], 
  "attrs": {"mxnet_version": ["int", 905]}
}