{
  "nodes": [
    {
      "op": "null", 
      "name": "data", 
      "inputs": []
    }, 
    {
      "op": "SliceChannel", 
      "name": "slicechannel0", 
      "attr": {"num_outputs": "110"}, 
      "inputs": [[0, 0, 0]]
    }, 
    {
      "op": "null", 
      "name": "i2h_weight", 
      "inputs": []
    }, 
    {
      "op": "null", 
      "name": "i2h_bias", 
      "inputs": []
    }, 
    {
      "op": "FullyConnected", 
      "name": "t0_l0_i2h", 
      "attr": {"num_hidden": "512"}, 
      "inputs": [[1, 0, 0], [2, 0, 0], [3, 0, 0]]
    }, 
    {
      "op": "null", 
      "name": "f_init_h", 
      "inputs": []
    }, 
    {
      "op": "null", 
      "name": "h2h_weight", 
      "inputs": []
    }, 
    {
      "op": "null", 
      "name": "h2h_bias", 
      "inputs": []
    }, 
    {
      "op": "FullyConnected", 
      "name": "t0_l0_h2h", 
      "attr": {"num_hidden": "512"}, 
      "inputs": [[5, 0, 0], [6, 0, 0], [7, 0, 0]]
    }, 
    {
      "op": "elemwise_add", 
      "name": "_plus0", 
      "inputs": [[4, 0, 0], [8, 0, 0]]
    }, 
    {
      "op": "SliceChannel", 
      "name": "t0_l0_slice", 
      "attr": {"num_outputs": "4"}, 
      "inputs": [[9, 0, 0]]
    }, 
    {
      "op": "Activation", 
      "name": "activation3", 
      "attr": {"act_type": "sigmoid"}, 
      "inputs": [[10, 3, 0]]
    }, 
    {
      "op": "Activation", 
      "name": "activation2", 
      "attr": {"act_type": "sigmoid"}, 
      "inputs": [[10, 2, 0]]
    }, 
    {
      "op": "null", 
      "name": "f_init_c", 
      "inputs": []
    }, 
    {
      "op": "_mul", 
      "name": "_mul0", 
      "inputs": [[12, 0, 0], [13, 0, 0]]
    }, 
    {
      "op": "Activation", 
      "name": "activation0", 
      "attr": {"act_type": "sigmoid"}, 
      "inputs": [[10, 0, 0]]
    }, 
    {
      "op": "Activation", 
      "name": "activation1", 
      "attr": {"act_type": "tanh"}, 
      "inputs": [[10, 1, 0]]
    }, 
    {
      "op": "_mul", 
      "name": "_mul1", 
      "inputs": [[15, 0, 0], [16, 0, 0]]
    }, 
    {
      "op": "elemwise_add", 
      "name": "_plus1", 
      "inputs": [[14, 0, 0], [17, 0, 0]]
    }, 
    {
      "op": "Activation", 
      "name": "activation4", 
      "attr": {"act_type": "tanh"}, 
      "inputs": [[18, 0, 0]]
    }, 
    {
      "op": "_mul", 
      "name": "_mul2", 
      "inputs": [[11, 0, 0], [19, 0, 0]]
    }, 
    {
      "op": "FullyConnected", 
      "name": "t0_l1_i2h", 
      "attr": {"num_hidden": "512"}, 
      "inputs": [[1, 0, 0], [2, 0, 0], [3, 0, 0]]
    }, 
    {
      "op": "FullyConnected", 
      "name": "t1_l1_i2h", 
      "attr": {"num_hidden": "512"}, 
      "inputs": [[1, 1, 0], [2, 0, 0], [3, 0, 0]]
    }, 
    {
      "op": "FullyConnected", 
      "name": "t2_l1_i2h", 
      "attr": {"num_hidden": "512"}, 
      "inputs": [[1, 2, 0], [2, 0, 0], [3, 0, 0]]
    }, 
    {
      "op": "FullyConnected", 
      "name": "t3_l1_i2h", 
      "attr": {"num_hidden": "512"}, 
      "inputs": [[1, 3, 0], [2, 0, 0], [3, 0, 0]]
    }, 
    {
      "op": "FullyConnected", 
      "name": "t4_l1_i2h", 
      "attr": {"num_hidden": "512"}, 
      "inputs": [[1, 4, 0], [2, 0, 0], [3, 0, 0]]
    }, 
    {
      "op": "FullyConnected", 
      "name": "t5_l1_i2h", 
      "attr": {"num_hidden": "512"}, 
      "inputs": [[1, 5, 0], [2, 0, 0], [3, 0, 0]]
    }, 
    {
      "op": "FullyConnected", 
      "name": "t6_l1_i2h", 
      "attr": {"num_hidden": "512"}, 
      "inputs": [[1, 6, 0], [2, 0, 0], [3, 0, 0]]
    }, 
    {
      "op": "FullyConnected", 
      "name": "t7_l1_i2h", 
      "attr": {"num_hidden": "512"}, 
      "inputs": [[1, 7, 0], [2, 0, 0], [3, 0, 0]]
    }, 
    {
      "op": "FullyConnected", 
      "name": "t8_l1_i2h", 
      "attr": {"num_hidden": "512"}, 
      "inputs": [[1, 8, 0], [2, 0, 0], [3, 0, 0]]
    }, 
    {
      "op": "FullyConnected", 
      "name": "t9_l1_i2h", 
      "attr": {"num_hidden": "512"}, 
      "inputs": [[1, 9, 0], [2, 0, 0], [3, 0, 0]]
    }, 
    {
      "op": "FullyConnected", 
      "name": "t10_l1_i2h", 
      "attr": {"num_hidden": "512"}, 
      "inputs": [[1, 10, 0], [2, 0, 0], [3, 0, 0]]
    }, 
    {
      "op": "FullyConnected", 
      "name": "t11_l1_i2h", 
      "attr": {"num_hidden": "512"}, 
      "inputs": [[1, 11, 0], [2, 0, 0], [3, 0, 0]]
    }, 
    {
      "op": "FullyConnected", 
      "name": "t12_l1_i2h", 
      "attr": {"num_hidden": "512"}, 
      "inputs": [[1, 12, 0], [2, 0, 0], [3, 0, 0]]
    }, 
    {
      "op": "FullyConnected", 
      "name": "t13_l1_i2h", 
      "attr": {"num_hidden": "512"}, 
      "inputs": [[1, 13, 0], [2, 0, 0], [3, 0, 0]]
    }, 
    {
      "op": "FullyConnected", 
      "name": "t14_l1_i2h", 
      "attr": {"num_hidden": "512"}, 
      "inputs": [[1, 14, 0], [2, 0, 0], [3, 0, 0]]
    }, 
    {
      "op": "FullyConnected", 
      "name": "t15_l1_i2h", 
      "attr": {"num_hidden": "512"}, 
      "inputs": [[1, 15, 0], [2, 0, 0], [3, 0, 0]]
    }, 
    {
      "op": "FullyConnected", 
      "name": "t16_l1_i2h", 
      "attr": {"num_hidden": "512"}, 
      "inputs": [[1, 16, 0], [2, 0, 0], [3, 0, 0]]
    }, 
    {
      "op": "FullyConnected", 
      "name": "t17_l1_i2h", 
      "attr": {"num_hidden": "512"}, 
      "inputs": [[1, 17, 0], [2, 0, 0], [3, 0, 0]]
    }, 
    {
      "op": "FullyConnected", 
      "name": "t18_l1_i2h", 
      "attr": {"num_hidden": "512"}, 
      "inputs": [[1, 18, 0], [2, 0, 0], [3, 0, 0]]
    }, 
    {
      "op": "FullyConnected", 
      "name": "t19_l1_i2h", 
      "attr": {"num_hidden": "512"}, 
      "inputs": [[1, 19, 0], [2, 0, 0], [3, 0, 0]]
    }, 
    {
      "op": "FullyConnected", 
      "name": "t20_l1_i2h", 
      "attr": {"num_hidden": "512"}, 
      "inputs": [[1, 20, 0], [2, 0, 0], [3, 0, 0]]
    }, 
    {
      "op": "FullyConnected", 
      "name": "t21_l1_i2h", 
      "attr": {"num_hidden": "512"}, 
      "inputs": [[1, 21, 0], [2, 0, 0], [3, 0, 0]]
    }, 
    {
      "op": "FullyConnected", 
      "name": "t22_l1_i2h", 
      "attr": {"num_hidden": "512"}, 
      "inputs": [[1, 22, 0], [2, 0, 0], [3, 0, 0]]
    }, 
    {
      "op": "FullyConnected", 
      "name": "t23_l1_i2h", 
      "attr": {"num_hidden": "512"}, 
      "inputs": [[1, 23, 0], [2, 0, 0], [3, 0, 0]]
    }, 
    {
      "op": "FullyConnected", 
      "name": "t24_l1_i2h", 
      "attr": {"num_hidden": "512"}, 
      "inputs": [[1, 24, 0], [2, 0, 0], [3, 0, 0]]
    }, 
    {
      "op": "FullyConnected", 
      "name": "t25_l1_i2h", 
      "attr": {"num_hidden": "512"}, 
      "inputs": [[1, 25, 0], [2, 0, 0], [3, 0, 0]]
    }, 
    {
      "op": "FullyConnected", 
      "name": "t26_l1_i2h", 
      "attr": {"num_hidden": "512"}, 
      "inputs": [[1, 26, 0], [2, 0, 0], [3, 0, 0]]
    }, 
    {
      "op": "FullyConnected", 
      "name": "t27_l1_i2h", 
      "attr": {"num_hidden": "512"}, 
      "inputs": [[1, 27, 0], [2, 0, 0], [3, 0, 0]]
    }, 
    {
      "op": "FullyConnected", 
      "name": "t28_l1_i2h", 
      "attr": {"num_hidden": "512"}, 
      "inputs": [[1, 28, 0], [2, 0, 0], [3, 0, 0]]
    }, 
    {
      "op": "FullyConnected", 
      "name": "t29_l1_i2h", 
      "attr": {"num_hidden": "512"}, 
      "inputs": [[1, 29, 0], [2, 0, 0], [3, 0, 0]]
    }, 
    {
      "op": "FullyConnected", 
      "name": "t30_l1_i2h", 
      "attr": {"num_hidden": "512"}, 
      "inputs": [[1, 30, 0], [2, 0, 0], [3, 0, 0]]
    }, 
    {
      "op": "FullyConnected", 
      "name": "t31_l1_i2h", 
      "attr": {"num_hidden": "512"}, 
      "inputs": [[1, 31, 0], [2, 0, 0], [3, 0, 0]]
    }, 
    {
      "op": "FullyConnected", 
      "name": "t32_l1_i2h", 
      "attr": {"num_hidden": "512"}, 
      "inputs": [[1, 32, 0], [2, 0, 0], [3, 0, 0]]
    }, 
    {
      "op": "FullyConnected", 
      "name": "t33_l1_i2h", 
      "attr": {"num_hidden": "512"}, 
      "inputs": [[1, 33, 0], [2, 0, 0], [3, 0, 0]]
    }, 
    {
      "op": "FullyConnected", 
      "name": "t34_l1_i2h", 
      "attr": {"num_hidden": "512"}, 
      "inputs": [[1, 34, 0], [2, 0, 0], [3, 0, 0]]
    }, 
    {
      "op": "FullyConnected", 
      "name": "t35_l1_i2h", 
      "attr": {"num_hidden": "512"}, 
      "inputs": [[1, 35, 0], [2, 0, 0], [3, 0, 0]]
    }, 
    {
      "op": "FullyConnected", 
      "name": "t36_l1_i2h", 
      "attr": {"num_hidden": "512"}, 
      "inputs": [[1, 36, 0], [2, 0, 0], [3, 0, 0]]
    }, 
    {
      "op": "FullyConnected", 
      "name": "t37_l1_i2h", 
      "attr": {"num_hidden": "512"}, 
      "inputs": [[1, 37, 0], [2, 0, 0], [3, 0, 0]]
    }, 
    {
      "op": "FullyConnected", 
      "name": "t38_l1_i2h", 
      "attr": {"num_hidden": "512"}, 
      "inputs": [[1, 38, 0], [2, 0, 0], [3, 0, 0]]
    }, 
    {
      "op": "FullyConnected", 
      "name": "t39_l1_i2h", 
      "attr": {"num_hidden": "512"}, 
      "inputs": [[1, 39, 0], [2, 0, 0], [3, 0, 0]]
    }, 
    {
      "op": "FullyConnected", 
      "name": "t40_l1_i2h", 
      "attr": {"num_hidden": "512"}, 
      "inputs": [[1, 40, 0], [2, 0, 0], [3, 0, 0]]
    }, 
    {
      "op": "FullyConnected", 
      "name": "t41_l1_i2h", 
      "attr": {"num_hidden": "512"}, 
      "inputs": [[1, 41, 0], [2, 0, 0], [3, 0, 0]]
    }, 
    {
      "op": "FullyConnected", 
      "name": "t42_l1_i2h", 
      "attr": {"num_hidden": "512"}, 
      "inputs": [[1, 42, 0], [2, 0, 0], [3, 0, 0]]
    }, 
    {
      "op": "FullyConnected", 
      "name": "t43_l1_i2h", 
      "attr": {"num_hidden": "512"}, 
      "inputs": [[1, 43, 0], [2, 0, 0], [3, 0, 0]]
    }, 
    {
      "op": "FullyConnected", 
      "name": "t44_l1_i2h", 
      "attr": {"num_hidden": "512"}, 
      "inputs": [[1, 44, 0], [2, 0, 0], [3, 0, 0]]
    }, 
    {
      "op": "FullyConnected", 
      "name": "t45_l1_i2h", 
      "attr": {"num_hidden": "512"}, 
      "inputs": [[1, 45, 0], [2, 0, 0], [3, 0, 0]]
    }, 
    {
      "op": "FullyConnected", 
      "name": "t46_l1_i2h", 
      "attr": {"num_hidden": "512"}, 
      "inputs": [[1, 46, 0], [2, 0, 0], [3, 0, 0]]
    }, 
    {
      "op": "FullyConnected", 
      "name": "t47_l1_i2h", 
      "attr": {"num_hidden": "512"}, 
      "inputs": [[1, 47, 0], [2, 0, 0], [3, 0, 0]]
    }, 
    {
      "op": "FullyConnected", 
      "name": "t48_l1_i2h", 
      "attr": {"num_hidden": "512"}, 
      "inputs": [[1, 48, 0], [2, 0, 0], [3, 0, 0]]
    }, 
    {
      "op": "FullyConnected", 
      "name": "t49_l1_i2h", 
      "attr": {"num_hidden": "512"}, 
      "inputs": [[1, 49, 0], [2, 0, 0], [3, 0, 0]]
    }, 
    {
      "op": "FullyConnected", 
      "name": "t50_l1_i2h", 
      "attr": {"num_hidden": "512"}, 
      "inputs": [[1, 50, 0], [2, 0, 0], [3, 0, 0]]
    }, 
    {
      "op": "FullyConnected", 
      "name": "t51_l1_i2h", 
      "attr": {"num_hidden": "512"}, 
      "inputs": [[1, 51, 0], [2, 0, 0], [3, 0, 0]]
    }, 
    {
      "op": "FullyConnected", 
      "name": "t52_l1_i2h", 
      "attr": {"num_hidden": "512"}, 
      "inputs": [[1, 52, 0], [2, 0, 0], [3, 0, 0]]
    }, 
    {
      "op": "FullyConnected", 
      "name": "t53_l1_i2h", 
      "attr": {"num_hidden": "512"}, 
      "inputs": [[1, 53, 0], [2, 0, 0], [3, 0, 0]]
    }, 
    {
      "op": "FullyConnected", 
      "name": "t54_l1_i2h", 
      "attr": {"num_hidden": "512"}, 
      "inputs": [[1, 54, 0], [2, 0, 0], [3, 0, 0]]
    }, 
    {
      "op": "FullyConnected", 
      "name": "t55_l1_i2h", 
      "attr": {"num_hidden": "512"}, 
      "inputs": [[1, 55, 0], [2, 0, 0], [3, 0, 0]]
    }, 
    {
      "op": "FullyConnected", 
      "name": "t56_l1_i2h", 
      "attr": {"num_hidden": "512"}, 
      "inputs": [[1, 56, 0], [2, 0, 0], [3, 0, 0]]
    }, 
    {
      "op": "FullyConnected", 
      "name": "t57_l1_i2h", 
      "attr": {"num_hidden": "512"}, 
      "inputs": [[1, 57, 0], [2, 0, 0], [3, 0, 0]]
    }, 
    {
      "op": "FullyConnected", 
      "name": "t58_l1_i2h", 
      "attr": {"num_hidden": "512"}, 
      "inputs": [[1, 58, 0], [2, 0, 0], [3, 0, 0]]
    }, 
    {
      "op": "FullyConnected", 
      "name": "t59_l1_i2h", 
      "attr": {"num_hidden": "512"}, 
      "inputs": [[1, 59, 0], [2, 0, 0], [3, 0, 0]]
    }, 
    {
      "op": "FullyConnected", 
      "name": "t60_l1_i2h", 
      "attr": {"num_hidden": "512"}, 
      "inputs": [[1, 60, 0], [2, 0, 0], [3, 0, 0]]
    }, 
    {
      "op": "FullyConnected", 
      "name": "t61_l1_i2h", 
      "attr": {"num_hidden": "512"}, 
      "inputs": [[1, 61, 0], [2, 0, 0], [3, 0, 0]]
    }, 
    {
      "op": "FullyConnected", 
      "name": "t62_l1_i2h", 
      "attr": {"num_hidden": "512"}, 
      "inputs": [[1, 62, 0], [2, 0, 0], [3, 0, 0]]
    }, 
    {
      "op": "FullyConnected", 
      "name": "t63_l1_i2h", 
      "attr": {"num_hidden": "512"}, 
      "inputs": [[1, 63, 0], [2, 0, 0], [3, 0, 0]]
    }, 
    {
      "op": "FullyConnected", 
      "name": "t64_l1_i2h", 
      "attr": {"num_hidden": "512"}, 
      "inputs": [[1, 64, 0], [2, 0, 0], [3, 0, 0]]
    }, 
    {
      "op": "FullyConnected", 
      "name": "t65_l1_i2h", 
      "attr": {"num_hidden": "512"}, 
      "inputs": [[1, 65, 0], [2, 0, 0], [3, 0, 0]]
    }, 
    {
      "op": "FullyConnected", 
      "name": "t66_l1_i2h", 
      "attr": {"num_hidden": "512"}, 
      "inputs": [[1, 66, 0], [2, 0, 0], [3, 0, 0]]
    }, 
    {
      "op": "FullyConnected", 
      "name": "t67_l1_i2h", 
      "attr": {"num_hidden": "512"}, 
      "inputs": [[1, 67, 0], [2, 0, 0], [3, 0, 0]]
    }, 
    {
      "op": "FullyConnected", 
      "name": "t68_l1_i2h", 
      "attr": {"num_hidden": "512"}, 
      "inputs": [[1, 68, 0], [2, 0, 0], [3, 0, 0]]
    }, 
    {
      "op": "FullyConnected", 
      "name": "t69_l1_i2h", 
      "attr": {"num_hidden": "512"}, 
      "inputs": [[1, 69, 0], [2, 0, 0], [3, 0, 0]]
    }, 
    {
      "op": "FullyConnected", 
      "name": "t70_l1_i2h", 
      "attr": {"num_hidden": "512"}, 
      "inputs": [[1, 70, 0], [2, 0, 0], [3, 0, 0]]
    }, 
    {
      "op": "FullyConnected", 
      "name": "t71_l1_i2h", 
      "attr": {"num_hidden": "512"}, 
      "inputs": [[1, 71, 0], [2, 0, 0], [3, 0, 0]]
    }, 
    {
      "op": "FullyConnected", 
      "name": "t72_l1_i2h", 
      "attr": {"num_hidden": "512"}, 
      "inputs": [[1, 72, 0], [2, 0, 0], [3, 0, 0]]
    }, 
    {
      "op": "FullyConnected", 
      "name": "t73_l1_i2h", 
      "attr": {"num_hidden": "512"}, 
      "inputs": [[1, 73, 0], [2, 0, 0], [3, 0, 0]]
    }, 
    {
      "op": "FullyConnected", 
      "name": "t74_l1_i2h", 
      "attr": {"num_hidden": "512"}, 
      "inputs": [[1, 74, 0], [2, 0, 0], [3, 0, 0]]
    }, 
    {
      "op": "FullyConnected", 
      "name": "t75_l1_i2h", 
      "attr": {"num_hidden": "512"}, 
      "inputs": [[1, 75, 0], [2, 0, 0], [3, 0, 0]]
    }, 
    {
      "op": "FullyConnected", 
      "name": "t76_l1_i2h", 
      "attr": {"num_hidden": "512"}, 
      "inputs": [[1, 76, 0], [2, 0, 0], [3, 0, 0]]
    }, 
    {
      "op": "FullyConnected", 
      "name": "t77_l1_i2h", 
      "attr": {"num_hidden": "512"}, 
      "inputs": [[1, 77, 0], [2, 0, 0], [3, 0, 0]]
    }, 
    {
      "op": "FullyConnected", 
      "name": "t78_l1_i2h", 
      "attr": {"num_hidden": "512"}, 
      "inputs": [[1, 78, 0], [2, 0, 0], [3, 0, 0]]
    }, 
    {
      "op": "FullyConnected", 
      "name": "t79_l1_i2h", 
      "attr": {"num_hidden": "512"}, 
      "inputs": [[1, 79, 0], [2, 0, 0], [3, 0, 0]]
    }, 
    {
      "op": "FullyConnected", 
      "name": "t80_l1_i2h", 
      "attr": {"num_hidden": "512"}, 
      "inputs": [[1, 80, 0], [2, 0, 0], [3, 0, 0]]
    }, 
    {
      "op": "FullyConnected", 
      "name": "t81_l1_i2h", 
      "attr": {"num_hidden": "512"}, 
      "inputs": [[1, 81, 0], [2, 0, 0], [3, 0, 0]]
    }, 
    {
      "op": "FullyConnected", 
      "name": "t82_l1_i2h", 
      "attr": {"num_hidden": "512"}, 
      "inputs": [[1, 82, 0], [2, 0, 0], [3, 0, 0]]
    }, 
    {
      "op": "FullyConnected", 
      "name": "t83_l1_i2h", 
      "attr": {"num_hidden": "512"}, 
      "inputs": [[1, 83, 0], [2, 0, 0], [3, 0, 0]]
    }, 
    {
      "op": "FullyConnected", 
      "name": "t84_l1_i2h", 
      "attr": {"num_hidden": "512"}, 
      "inputs": [[1, 84, 0], [2, 0, 0], [3, 0, 0]]
    }, 
    {
      "op": "FullyConnected", 
      "name": "t85_l1_i2h", 
      "attr": {"num_hidden": "512"}, 
      "inputs": [[1, 85, 0], [2, 0, 0], [3, 0, 0]]
    }, 
    {
      "op": "FullyConnected", 
      "name": "t86_l1_i2h", 
      "attr": {"num_hidden": "512"}, 
      "inputs": [[1, 86, 0], [2, 0, 0], [3, 0, 0]]
    }, 
    {
      "op": "FullyConnected", 
      "name": "t87_l1_i2h", 
      "attr": {"num_hidden": "512"}, 
      "inputs": [[1, 87, 0], [2, 0, 0], [3, 0, 0]]
    }, 
    {
      "op": "FullyConnected", 
      "name": "t88_l1_i2h", 
      "attr": {"num_hidden": "512"}, 
      "inputs": [[1, 88, 0], [2, 0, 0], [3, 0, 0]]
    }, 
    {
      "op": "FullyConnected", 
      "name": "t89_l1_i2h", 
      "attr": {"num_hidden": "512"}, 
      "inputs": [[1, 89, 0], [2, 0, 0], [3, 0, 0]]
    }, 
    {
      "op": "FullyConnected", 
      "name": "t90_l1_i2h", 
      "attr": {"num_hidden": "512"}, 
      "inputs": [[1, 90, 0], [2, 0, 0], [3, 0, 0]]
    }, 
    {
      "op": "FullyConnected", 
      "name": "t91_l1_i2h", 
      "attr": {"num_hidden": "512"}, 
      "inputs": [[1, 91, 0], [2, 0, 0], [3, 0, 0]]
    }, 
    {
      "op": "FullyConnected", 
      "name": "t92_l1_i2h", 
      "attr": {"num_hidden": "512"}, 
      "inputs": [[1, 92, 0], [2, 0, 0], [3, 0, 0]]
    }, 
    {
      "op": "FullyConnected", 
      "name": "t93_l1_i2h", 
      "attr": {"num_hidden": "512"}, 
      "inputs": [[1, 93, 0], [2, 0, 0], [3, 0, 0]]
    }, 
    {
      "op": "FullyConnected", 
      "name": "t94_l1_i2h", 
      "attr": {"num_hidden": "512"}, 
      "inputs": [[1, 94, 0], [2, 0, 0], [3, 0, 0]]
    }, 
    {
      "op": "FullyConnected", 
      "name": "t95_l1_i2h", 
      "attr": {"num_hidden": "512"}, 
      "inputs": [[1, 95, 0], [2, 0, 0], [3, 0, 0]]
    }, 
    {
      "op": "FullyConnected", 
      "name": "t96_l1_i2h", 
      "attr": {"num_hidden": "512"}, 
      "inputs": [[1, 96, 0], [2, 0, 0], [3, 0, 0]]
    }, 
    {
      "op": "FullyConnected", 
      "name": "t97_l1_i2h", 
      "attr": {"num_hidden": "512"}, 
      "inputs": [[1, 97, 0], [2, 0, 0], [3, 0, 0]]
    }, 
    {
      "op": "FullyConnected", 
      "name": "t98_l1_i2h", 
      "attr": {"num_hidden": "512"}, 
      "inputs": [[1, 98, 0], [2, 0, 0], [3, 0, 0]]
    }, 
    {
      "op": "FullyConnected", 
      "name": "t99_l1_i2h", 
      "attr": {"num_hidden": "512"}, 
      "inputs": [[1, 99, 0], [2, 0, 0], [3, 0, 0]]
    }, 
    {
      "op": "FullyConnected", 
      "name": "t100_l1_i2h", 
      "attr": {"num_hidden": "512"}, 
      "inputs": [[1, 100, 0], [2, 0, 0], [3, 0, 0]]
    }, 
    {
      "op": "FullyConnected", 
      "name": "t101_l1_i2h", 
      "attr": {"num_hidden": "512"}, 
      "inputs": [[1, 101, 0], [2, 0, 0], [3, 0, 0]]
    }, 
    {
      "op": "FullyConnected", 
      "name": "t102_l1_i2h", 
      "attr": {"num_hidden": "512"}, 
      "inputs": [[1, 102, 0], [2, 0, 0], [3, 0, 0]]
    }, 
    {
      "op": "FullyConnected", 
      "name": "t103_l1_i2h", 
      "attr": {"num_hidden": "512"}, 
      "inputs": [[1, 103, 0], [2, 0, 0], [3, 0, 0]]
    }, 
    {
      "op": "FullyConnected", 
      "name": "t104_l1_i2h", 
      "attr": {"num_hidden": "512"}, 
      "inputs": [[1, 104, 0], [2, 0, 0], [3, 0, 0]]
    }, 
    {
      "op": "FullyConnected", 
      "name": "t105_l1_i2h", 
      "attr": {"num_hidden": "512"}, 
      "inputs": [[1, 105, 0], [2, 0, 0], [3, 0, 0]]
    }, 
    {
      "op": "FullyConnected", 
      "name": "t106_l1_i2h", 
      "attr": {"num_hidden": "512"}, 
      "inputs": [[1, 106, 0], [2, 0, 0], [3, 0, 0]]
    }, 
    {
      "op": "FullyConnected", 
      "name": "t107_l1_i2h", 
      "attr": {"num_hidden": "512"}, 
      "inputs": [[1, 107, 0], [2, 0, 0], [3, 0, 0]]
    }, 
    {
      "op": "FullyConnected", 
      "name": "t108_l1_i2h", 
      "attr": {"num_hidden": "512"}, 
      "inputs": [[1, 108, 0], [2, 0, 0], [3, 0, 0]]
    }, 
    {
      "op": "FullyConnected", 
      "name": "t109_l1_i2h", 
      "attr": {"num_hidden": "512"}, 
      "inputs": [[1, 109, 0], [2, 0, 0], [3, 0, 0]]
    }, 
    {
      "op": "null", 
      "name": "b_init_h", 
      "inputs": []
    }, 
    {
      "op": "FullyConnected", 
      "name": "t109_l1_h2h", 
      "attr": {"num_hidden": "512"}, 
      "inputs": [[131, 0, 0], [6, 0, 0], [7, 0, 0]]
    }, 
    {
      "op": "elemwise_add", 
      "name": "_plus220", 
      "inputs": [[130, 0, 0], [132, 0, 0]]
    }, 
    {
      "op": "SliceChannel", 
      "name": "t109_l1_slice", 
      "attr": {"num_outputs": "4"}, 
      "inputs": [[133, 0, 0]]
    }, 
    {
      "op": "Activation", 
      "name": "activation553", 
      "attr": {"act_type": "sigmoid"}, 
      "inputs": [[134, 3, 0]]
    }, 
    {
      "op": "Activation", 
      "name": "activation552", 
      "attr": {"act_type": "sigmoid"}, 
      "inputs": [[134, 2, 0]]
    }, 
    {
      "op": "null", 
      "name": "b_init_c", 
      "inputs": []
    }, 
    {
      "op": "_mul", 
      "name": "_mul330", 
      "inputs": [[136, 0, 0], [137, 0, 0]]
    }, 
    {
      "op": "Activation", 
      "name": "activation550", 
      "attr": {"act_type": "sigmoid"}, 
      "inputs": [[134, 0, 0]]
    }, 
    {
      "op": "Activation", 
      "name": "activation551", 
      "attr": {"act_type": "tanh"}, 
      "inputs": [[134, 1, 0]]
    }, 
    {
      "op": "_mul", 
      "name": "_mul331", 
      "inputs": [[139, 0, 0], [140, 0, 0]]
    }, 
    {
      "op": "elemwise_add", 
      "name": "_plus221", 
      "inputs": [[138, 0, 0], [141, 0, 0]]
    }, 
    {
      "op": "Activation", 
      "name": "activation554", 
      "attr": {"act_type": "tanh"}, 
      "inputs": [[142, 0, 0]]
    }, 
    {
      "op": "_mul", 
      "name": "_mul332", 
      "inputs": [[135, 0, 0], [143, 0, 0]]
    }, 
    {
      "op": "FullyConnected", 
      "name": "t108_l1_h2h", 
      "attr": {"num_hidden": "512"}, 
      "inputs": [[144, 0, 0], [6, 0, 0], [7, 0, 0]]
    }, 
    {
      "op": "elemwise_add", 
      "name": "_plus222", 
      "inputs": [[129, 0, 0], [145, 0, 0]]
    }, 
    {
      "op": "SliceChannel", 
      "name": "t108_l1_slice", 
      "attr": {"num_outputs": "4"}, 
      "inputs": [[146, 0, 0]]
    }, 
    {
      "op": "Activation", 
      "name": "activation558", 
      "attr": {"act_type": "sigmoid"}, 
      "inputs": [[147, 3, 0]]
    }, 
    {
      "op": "Activation", 
      "name": "activation557", 
      "attr": {"act_type": "sigmoid"}, 
      "inputs": [[147, 2, 0]]
    }, 
    {
      "op": "_mul", 
      "name": "_mul333", 
      "inputs": [[149, 0, 0], [142, 0, 0]]
    }, 
    {
      "op": "Activation", 
      "name": "activation555", 
      "attr": {"act_type": "sigmoid"}, 
      "inputs": [[147, 0, 0]]
    }, 
    {
      "op": "Activation", 
      "name": "activation556", 
      "attr": {"act_type": "tanh"}, 
      "inputs": [[147, 1, 0]]
    }, 
    {
      "op": "_mul", 
      "name": "_mul334", 
      "inputs": [[151, 0, 0], [152, 0, 0]]
    }, 
    {
      "op": "elemwise_add", 
      "name": "_plus223", 
      "inputs": [[150, 0, 0], [153, 0, 0]]
    }, 
    {
      "op": "Activation", 
      "name": "activation559", 
      "attr": {"act_type": "tanh"}, 
      "inputs": [[154, 0, 0]]
    }, 
    {
      "op": "_mul", 
      "name": "_mul335", 
      "inputs": [[148, 0, 0], [155, 0, 0]]
    }, 
    {
      "op": "FullyConnected", 
      "name": "t107_l1_h2h", 
      "attr": {"num_hidden": "512"}, 
      "inputs": [[156, 0, 0], [6, 0, 0], [7, 0, 0]]
    }, 
    {
      "op": "elemwise_add", 
      "name": "_plus224", 
      "inputs": [[128, 0, 0], [157, 0, 0]]
    }, 
    {
      "op": "SliceChannel", 
      "name": "t107_l1_slice", 
      "attr": {"num_outputs": "4"}, 
      "inputs": [[158, 0, 0]]
    }, 
    {
      "op": "Activation", 
      "name": "activation563", 
      "attr": {"act_type": "sigmoid"}, 
      "inputs": [[159, 3, 0]]
    }, 
    {
      "op": "Activation", 
      "name": "activation562", 
      "attr": {"act_type": "sigmoid"}, 
      "inputs": [[159, 2, 0]]
    }, 
    {
      "op": "_mul", 
      "name": "_mul336", 
      "inputs": [[161, 0, 0], [154, 0, 0]]
    }, 
    {
      "op": "Activation", 
      "name": "activation560", 
      "attr": {"act_type": "sigmoid"}, 
      "inputs": [[159, 0, 0]]
    }, 
    {
      "op": "Activation", 
      "name": "activation561", 
      "attr": {"act_type": "tanh"}, 
      "inputs": [[159, 1, 0]]
    }, 
    {
      "op": "_mul", 
      "name": "_mul337", 
      "inputs": [[163, 0, 0], [164, 0, 0]]
    }, 
    {
      "op": "elemwise_add", 
      "name": "_plus225", 
      "inputs": [[162, 0, 0], [165, 0, 0]]
    }, 
    {
      "op": "Activation", 
      "name": "activation564", 
      "attr": {"act_type": "tanh"}, 
      "inputs": [[166, 0, 0]]
    }, 
    {
      "op": "_mul", 
      "name": "_mul338", 
      "inputs": [[160, 0, 0], [167, 0, 0]]
    }, 
    {
      "op": "FullyConnected", 
      "name": "t106_l1_h2h", 
      "attr": {"num_hidden": "512"}, 
      "inputs": [[168, 0, 0], [6, 0, 0], [7, 0, 0]]
    }, 
    {
      "op": "elemwise_add", 
      "name": "_plus226", 
      "inputs": [[127, 0, 0], [169, 0, 0]]
    }, 
    {
      "op": "SliceChannel", 
      "name": "t106_l1_slice", 
      "attr": {"num_outputs": "4"}, 
      "inputs": [[170, 0, 0]]
    }, 
    {
      "op": "Activation", 
      "name": "activation568", 
      "attr": {"act_type": "sigmoid"}, 
      "inputs": [[171, 3, 0]]
    }, 
    {
      "op": "Activation", 
      "name": "activation567", 
      "attr": {"act_type": "sigmoid"}, 
      "inputs": [[171, 2, 0]]
    }, 
    {
      "op": "_mul", 
      "name": "_mul339", 
      "inputs": [[173, 0, 0], [166, 0, 0]]
    }, 
    {
      "op": "Activation", 
      "name": "activation565", 
      "attr": {"act_type": "sigmoid"}, 
      "inputs": [[171, 0, 0]]
    }, 
    {
      "op": "Activation", 
      "name": "activation566", 
      "attr": {"act_type": "tanh"}, 
      "inputs": [[171, 1, 0]]
    }, 
    {
      "op": "_mul", 
      "name": "_mul340", 
      "inputs": [[175, 0, 0], [176, 0, 0]]
    }, 
    {
      "op": "elemwise_add", 
      "name": "_plus227", 
      "inputs": [[174, 0, 0], [177, 0, 0]]
    }, 
    {
      "op": "Activation", 
      "name": "activation569", 
      "attr": {"act_type": "tanh"}, 
      "inputs": [[178, 0, 0]]
    }, 
    {
      "op": "_mul", 
      "name": "_mul341", 
      "inputs": [[172, 0, 0], [179, 0, 0]]
    }, 
    {
      "op": "FullyConnected", 
      "name": "t105_l1_h2h", 
      "attr": {"num_hidden": "512"}, 
      "inputs": [[180, 0, 0], [6, 0, 0], [7, 0, 0]]
    }, 
    {
      "op": "elemwise_add", 
      "name": "_plus228", 
      "inputs": [[126, 0, 0], [181, 0, 0]]
    }, 
    {
      "op": "SliceChannel", 
      "name": "t105_l1_slice", 
      "attr": {"num_outputs": "4"}, 
      "inputs": [[182, 0, 0]]
    }, 
    {
      "op": "Activation", 
      "name": "activation573", 
      "attr": {"act_type": "sigmoid"}, 
      "inputs": [[183, 3, 0]]
    }, 
    {
      "op": "Activation", 
      "name": "activation572", 
      "attr": {"act_type": "sigmoid"}, 
      "inputs": [[183, 2, 0]]
    }, 
    {
      "op": "_mul", 
      "name": "_mul342", 
      "inputs": [[185, 0, 0], [178, 0, 0]]
    }, 
    {
      "op": "Activation", 
      "name": "activation570", 
      "attr": {"act_type": "sigmoid"}, 
      "inputs": [[183, 0, 0]]
    }, 
    {
      "op": "Activation", 
      "name": "activation571", 
      "attr": {"act_type": "tanh"}, 
      "inputs": [[183, 1, 0]]
    }, 
    {
      "op": "_mul", 
      "name": "_mul343", 
      "inputs": [[187, 0, 0], [188, 0, 0]]
    }, 
    {
      "op": "elemwise_add", 
      "name": "_plus229", 
      "inputs": [[186, 0, 0], [189, 0, 0]]
    }, 
    {
      "op": "Activation", 
      "name": "activation574", 
      "attr": {"act_type": "tanh"}, 
      "inputs": [[190, 0, 0]]
    }, 
    {
      "op": "_mul", 
      "name": "_mul344", 
      "inputs": [[184, 0, 0], [191, 0, 0]]
    }, 
    {
      "op": "FullyConnected", 
      "name": "t104_l1_h2h", 
      "attr": {"num_hidden": "512"}, 
      "inputs": [[192, 0, 0], [6, 0, 0], [7, 0, 0]]
    }, 
    {
      "op": "elemwise_add", 
      "name": "_plus230", 
      "inputs": [[125, 0, 0], [193, 0, 0]]
    }, 
    {
      "op": "SliceChannel", 
      "name": "t104_l1_slice", 
      "attr": {"num_outputs": "4"}, 
      "inputs": [[194, 0, 0]]
    }, 
    {
      "op": "Activation", 
      "name": "activation578", 
      "attr": {"act_type": "sigmoid"}, 
      "inputs": [[195, 3, 0]]
    }, 
    {
      "op": "Activation", 
      "name": "activation577", 
      "attr": {"act_type": "sigmoid"}, 
      "inputs": [[195, 2, 0]]
    }, 
    {
      "op": "_mul", 
      "name": "_mul345", 
      "inputs": [[197, 0, 0], [190, 0, 0]]
    }, 
    {
      "op": "Activation", 
      "name": "activation575", 
      "attr": {"act_type": "sigmoid"}, 
      "inputs": [[195, 0, 0]]
    }, 
    {
      "op": "Activation", 
      "name": "activation576", 
      "attr": {"act_type": "tanh"}, 
      "inputs": [[195, 1, 0]]
    }, 
    {
      "op": "_mul", 
      "name": "_mul346", 
      "inputs": [[199, 0, 0], [200, 0, 0]]
    }, 
    {
      "op": "elemwise_add", 
      "name": "_plus231", 
      "inputs": [[198, 0, 0], [201, 0, 0]]
    }, 
    {
      "op": "Activation", 
      "name": "activation579", 
      "attr": {"act_type": "tanh"}, 
      "inputs": [[202, 0, 0]]
    }, 
    {
      "op": "_mul", 
      "name": "_mul347", 
      "inputs": [[196, 0, 0], [203, 0, 0]]
    }, 
    {
      "op": "FullyConnected", 
      "name": "t103_l1_h2h", 
      "attr": {"num_hidden": "512"}, 
      "inputs": [[204, 0, 0], [6, 0, 0], [7, 0, 0]]
    }, 
    {
      "op": "elemwise_add", 
      "name": "_plus232", 
      "inputs": [[124, 0, 0], [205, 0, 0]]
    }, 
    {
      "op": "SliceChannel", 
      "name": "t103_l1_slice", 
      "attr": {"num_outputs": "4"}, 
      "inputs": [[206, 0, 0]]
    }, 
    {
      "op": "Activation", 
      "name": "activation583", 
      "attr": {"act_type": "sigmoid"}, 
      "inputs": [[207, 3, 0]]
    }, 
    {
      "op": "Activation", 
      "name": "activation582", 
      "attr": {"act_type": "sigmoid"}, 
      "inputs": [[207, 2, 0]]
    }, 
    {
      "op": "_mul", 
      "name": "_mul348", 
      "inputs": [[209, 0, 0], [202, 0, 0]]
    }, 
    {
      "op": "Activation", 
      "name": "activation580", 
      "attr": {"act_type": "sigmoid"}, 
      "inputs": [[207, 0, 0]]
    }, 
    {
      "op": "Activation", 
      "name": "activation581", 
      "attr": {"act_type": "tanh"}, 
      "inputs": [[207, 1, 0]]
    }, 
    {
      "op": "_mul", 
      "name": "_mul349", 
      "inputs": [[211, 0, 0], [212, 0, 0]]
    }, 
    {
      "op": "elemwise_add", 
      "name": "_plus233", 
      "inputs": [[210, 0, 0], [213, 0, 0]]
    }, 
    {
      "op": "Activation", 
      "name": "activation584", 
      "attr": {"act_type": "tanh"}, 
      "inputs": [[214, 0, 0]]
    }, 
    {
      "op": "_mul", 
      "name": "_mul350", 
      "inputs": [[208, 0, 0], [215, 0, 0]]
    }, 
    {
      "op": "FullyConnected", 
      "name": "t102_l1_h2h", 
      "attr": {"num_hidden": "512"}, 
      "inputs": [[216, 0, 0], [6, 0, 0], [7, 0, 0]]
    }, 
    {
      "op": "elemwise_add", 
      "name": "_plus234", 
      "inputs": [[123, 0, 0], [217, 0, 0]]
    }, 
    {
      "op": "SliceChannel", 
      "name": "t102_l1_slice", 
      "attr": {"num_outputs": "4"}, 
      "inputs": [[218, 0, 0]]
    }, 
    {
      "op": "Activation", 
      "name": "activation588", 
      "attr": {"act_type": "sigmoid"}, 
      "inputs": [[219, 3, 0]]
    }, 
    {
      "op": "Activation", 
      "name": "activation587", 
      "attr": {"act_type": "sigmoid"}, 
      "inputs": [[219, 2, 0]]
    }, 
    {
      "op": "_mul", 
      "name": "_mul351", 
      "inputs": [[221, 0, 0], [214, 0, 0]]
    }, 
    {
      "op": "Activation", 
      "name": "activation585", 
      "attr": {"act_type": "sigmoid"}, 
      "inputs": [[219, 0, 0]]
    }, 
    {
      "op": "Activation", 
      "name": "activation586", 
      "attr": {"act_type": "tanh"}, 
      "inputs": [[219, 1, 0]]
    }, 
    {
      "op": "_mul", 
      "name": "_mul352", 
      "inputs": [[223, 0, 0], [224, 0, 0]]
    }, 
    {
      "op": "elemwise_add", 
      "name": "_plus235", 
      "inputs": [[222, 0, 0], [225, 0, 0]]
    }, 
    {
      "op": "Activation", 
      "name": "activation589", 
      "attr": {"act_type": "tanh"}, 
      "inputs": [[226, 0, 0]]
    }, 
    {
      "op": "_mul", 
      "name": "_mul353", 
      "inputs": [[220, 0, 0], [227, 0, 0]]
    }, 
    {
      "op": "FullyConnected", 
      "name": "t101_l1_h2h", 
      "attr": {"num_hidden": "512"}, 
      "inputs": [[228, 0, 0], [6, 0, 0], [7, 0, 0]]
    }, 
    {
      "op": "elemwise_add", 
      "name": "_plus236", 
      "inputs": [[122, 0, 0], [229, 0, 0]]
    }, 
    {
      "op": "SliceChannel", 
      "name": "t101_l1_slice", 
      "attr": {"num_outputs": "4"}, 
      "inputs": [[230, 0, 0]]
    }, 
    {
      "op": "Activation", 
      "name": "activation593", 
      "attr": {"act_type": "sigmoid"}, 
      "inputs": [[231, 3, 0]]
    }, 
    {
      "op": "Activation", 
      "name": "activation592", 
      "attr": {"act_type": "sigmoid"}, 
      "inputs": [[231, 2, 0]]
    }, 
    {
      "op": "_mul", 
      "name": "_mul354", 
      "inputs": [[233, 0, 0], [226, 0, 0]]
    }, 
    {
      "op": "Activation", 
      "name": "activation590", 
      "attr": {"act_type": "sigmoid"}, 
      "inputs": [[231, 0, 0]]
    }, 
    {
      "op": "Activation", 
      "name": "activation591", 
      "attr": {"act_type": "tanh"}, 
      "inputs": [[231, 1, 0]]
    }, 
    {
      "op": "_mul", 
      "name": "_mul355", 
      "inputs": [[235, 0, 0], [236, 0, 0]]
    }, 
    {
      "op": "elemwise_add", 
      "name": "_plus237", 
      "inputs": [[234, 0, 0], [237, 0, 0]]
    }, 
    {
      "op": "Activation", 
      "name": "activation594", 
      "attr": {"act_type": "tanh"}, 
      "inputs": [[238, 0, 0]]
    }, 
    {
      "op": "_mul", 
      "name": "_mul356", 
      "inputs": [[232, 0, 0], [239, 0, 0]]
    }, 
    {
      "op": "FullyConnected", 
      "name": "t100_l1_h2h", 
      "attr": {"num_hidden": "512"}, 
      "inputs": [[240, 0, 0], [6, 0, 0], [7, 0, 0]]
    }, 
    {
      "op": "elemwise_add", 
      "name": "_plus238", 
      "inputs": [[121, 0, 0], [241, 0, 0]]
    }, 
    {
      "op": "SliceChannel", 
      "name": "t100_l1_slice", 
      "attr": {"num_outputs": "4"}, 
      "inputs": [[242, 0, 0]]
    }, 
    {
      "op": "Activation", 
      "name": "activation598", 
      "attr": {"act_type": "sigmoid"}, 
      "inputs": [[243, 3, 0]]
    }, 
    {
      "op": "Activation", 
      "name": "activation597", 
      "attr": {"act_type": "sigmoid"}, 
      "inputs": [[243, 2, 0]]
    }, 
    {
      "op": "_mul", 
      "name": "_mul357", 
      "inputs": [[245, 0, 0], [238, 0, 0]]
    }, 
    {
      "op": "Activation", 
      "name": "activation595", 
      "attr": {"act_type": "sigmoid"}, 
      "inputs": [[243, 0, 0]]
    }, 
    {
      "op": "Activation", 
      "name": "activation596", 
      "attr": {"act_type": "tanh"}, 
      "inputs": [[243, 1, 0]]
    }, 
    {
      "op": "_mul", 
      "name": "_mul358", 
      "inputs": [[247, 0, 0], [248, 0, 0]]
    }, 
    {
      "op": "elemwise_add", 
      "name": "_plus239", 
      "inputs": [[246, 0, 0], [249, 0, 0]]
    }, 
    {
      "op": "Activation", 
      "name": "activation599", 
      "attr": {"act_type": "tanh"}, 
      "inputs": [[250, 0, 0]]
    }, 
    {
      "op": "_mul", 
      "name": "_mul359", 
      "inputs": [[244, 0, 0], [251, 0, 0]]
    }, 
    {
      "op": "FullyConnected", 
      "name": "t99_l1_h2h", 
      "attr": {"num_hidden": "512"}, 
      "inputs": [[252, 0, 0], [6, 0, 0], [7, 0, 0]]
    }, 
    {
      "op": "elemwise_add", 
      "name": "_plus240", 
      "inputs": [[120, 0, 0], [253, 0, 0]]
    }, 
    {
      "op": "SliceChannel", 
      "name": "t99_l1_slice", 
      "attr": {"num_outputs": "4"}, 
      "inputs": [[254, 0, 0]]
    }, 
    {
      "op": "Activation", 
      "name": "activation603", 
      "attr": {"act_type": "sigmoid"}, 
      "inputs": [[255, 3, 0]]
    }, 
    {
      "op": "Activation", 
      "name": "activation602", 
      "attr": {"act_type": "sigmoid"}, 
      "inputs": [[255, 2, 0]]
    }, 
    {
      "op": "_mul", 
      "name": "_mul360", 
      "inputs": [[257, 0, 0], [250, 0, 0]]
    }, 
    {
      "op": "Activation", 
      "name": "activation600", 
      "attr": {"act_type": "sigmoid"}, 
      "inputs": [[255, 0, 0]]
    }, 
    {
      "op": "Activation", 
      "name": "activation601", 
      "attr": {"act_type": "tanh"}, 
      "inputs": [[255, 1, 0]]
    }, 
    {
      "op": "_mul", 
      "name": "_mul361", 
      "inputs": [[259, 0, 0], [260, 0, 0]]
    }, 
    {
      "op": "elemwise_add", 
      "name": "_plus241", 
      "inputs": [[258, 0, 0], [261, 0, 0]]
    }, 
    {
      "op": "Activation", 
      "name": "activation604", 
      "attr": {"act_type": "tanh"}, 
      "inputs": [[262, 0, 0]]
    }, 
    {
      "op": "_mul", 
      "name": "_mul362", 
      "inputs": [[256, 0, 0], [263, 0, 0]]
    }, 
    {
      "op": "FullyConnected", 
      "name": "t98_l1_h2h", 
      "attr": {"num_hidden": "512"}, 
      "inputs": [[264, 0, 0], [6, 0, 0], [7, 0, 0]]
    }, 
    {
      "op": "elemwise_add", 
      "name": "_plus242", 
      "inputs": [[119, 0, 0], [265, 0, 0]]
    }, 
    {
      "op": "SliceChannel", 
      "name": "t98_l1_slice", 
      "attr": {"num_outputs": "4"}, 
      "inputs": [[266, 0, 0]]
    }, 
    {
      "op": "Activation", 
      "name": "activation608", 
      "attr": {"act_type": "sigmoid"}, 
      "inputs": [[267, 3, 0]]
    }, 
    {
      "op": "Activation", 
      "name": "activation607", 
      "attr": {"act_type": "sigmoid"}, 
      "inputs": [[267, 2, 0]]
    }, 
    {
      "op": "_mul", 
      "name": "_mul363", 
      "inputs": [[269, 0, 0], [262, 0, 0]]
    }, 
    {
      "op": "Activation", 
      "name": "activation605", 
      "attr": {"act_type": "sigmoid"}, 
      "inputs": [[267, 0, 0]]
    }, 
    {
      "op": "Activation", 
      "name": "activation606", 
      "attr": {"act_type": "tanh"}, 
      "inputs": [[267, 1, 0]]
    }, 
    {
      "op": "_mul", 
      "name": "_mul364", 
      "inputs": [[271, 0, 0], [272, 0, 0]]
    }, 
    {
      "op": "elemwise_add", 
      "name": "_plus243", 
      "inputs": [[270, 0, 0], [273, 0, 0]]
    }, 
    {
      "op": "Activation", 
      "name": "activation609", 
      "attr": {"act_type": "tanh"}, 
      "inputs": [[274, 0, 0]]
    }, 
    {
      "op": "_mul", 
      "name": "_mul365", 
      "inputs": [[268, 0, 0], [275, 0, 0]]
    }, 
    {
      "op": "FullyConnected", 
      "name": "t97_l1_h2h", 
      "attr": {"num_hidden": "512"}, 
      "inputs": [[276, 0, 0], [6, 0, 0], [7, 0, 0]]
    }, 
    {
      "op": "elemwise_add", 
      "name": "_plus244", 
      "inputs": [[118, 0, 0], [277, 0, 0]]
    }, 
    {
      "op": "SliceChannel", 
      "name": "t97_l1_slice", 
      "attr": {"num_outputs": "4"}, 
      "inputs": [[278, 0, 0]]
    }, 
    {
      "op": "Activation", 
      "name": "activation613", 
      "attr": {"act_type": "sigmoid"}, 
      "inputs": [[279, 3, 0]]
    }, 
    {
      "op": "Activation", 
      "name": "activation612", 
      "attr": {"act_type": "sigmoid"}, 
      "inputs": [[279, 2, 0]]
    }, 
    {
      "op": "_mul", 
      "name": "_mul366", 
      "inputs": [[281, 0, 0], [274, 0, 0]]
    }, 
    {
      "op": "Activation", 
      "name": "activation610", 
      "attr": {"act_type": "sigmoid"}, 
      "inputs": [[279, 0, 0]]
    }, 
    {
      "op": "Activation", 
      "name": "activation611", 
      "attr": {"act_type": "tanh"}, 
      "inputs": [[279, 1, 0]]
    }, 
    {
      "op": "_mul", 
      "name": "_mul367", 
      "inputs": [[283, 0, 0], [284, 0, 0]]
    }, 
    {
      "op": "elemwise_add", 
      "name": "_plus245", 
      "inputs": [[282, 0, 0], [285, 0, 0]]
    }, 
    {
      "op": "Activation", 
      "name": "activation614", 
      "attr": {"act_type": "tanh"}, 
      "inputs": [[286, 0, 0]]
    }, 
    {
      "op": "_mul", 
      "name": "_mul368", 
      "inputs": [[280, 0, 0], [287, 0, 0]]
    }, 
    {
      "op": "FullyConnected", 
      "name": "t96_l1_h2h", 
      "attr": {"num_hidden": "512"}, 
      "inputs": [[288, 0, 0], [6, 0, 0], [7, 0, 0]]
    }, 
    {
      "op": "elemwise_add", 
      "name": "_plus246", 
      "inputs": [[117, 0, 0], [289, 0, 0]]
    }, 
    {
      "op": "SliceChannel", 
      "name": "t96_l1_slice", 
      "attr": {"num_outputs": "4"}, 
      "inputs": [[290, 0, 0]]
    }, 
    {
      "op": "Activation", 
      "name": "activation618", 
      "attr": {"act_type": "sigmoid"}, 
      "inputs": [[291, 3, 0]]
    }, 
    {
      "op": "Activation", 
      "name": "activation617", 
      "attr": {"act_type": "sigmoid"}, 
      "inputs": [[291, 2, 0]]
    }, 
    {
      "op": "_mul", 
      "name": "_mul369", 
      "inputs": [[293, 0, 0], [286, 0, 0]]
    }, 
    {
      "op": "Activation", 
      "name": "activation615", 
      "attr": {"act_type": "sigmoid"}, 
      "inputs": [[291, 0, 0]]
    }, 
    {
      "op": "Activation", 
      "name": "activation616", 
      "attr": {"act_type": "tanh"}, 
      "inputs": [[291, 1, 0]]
    }, 
    {
      "op": "_mul", 
      "name": "_mul370", 
      "inputs": [[295, 0, 0], [296, 0, 0]]
    }, 
    {
      "op": "elemwise_add", 
      "name": "_plus247", 
      "inputs": [[294, 0, 0], [297, 0, 0]]
    }, 
    {
      "op": "Activation", 
      "name": "activation619", 
      "attr": {"act_type": "tanh"}, 
      "inputs": [[298, 0, 0]]
    }, 
    {
      "op": "_mul", 
      "name": "_mul371", 
      "inputs": [[292, 0, 0], [299, 0, 0]]
    }, 
    {
      "op": "FullyConnected", 
      "name": "t95_l1_h2h", 
      "attr": {"num_hidden": "512"}, 
      "inputs": [[300, 0, 0], [6, 0, 0], [7, 0, 0]]
    }, 
    {
      "op": "elemwise_add", 
      "name": "_plus248", 
      "inputs": [[116, 0, 0], [301, 0, 0]]
    }, 
    {
      "op": "SliceChannel", 
      "name": "t95_l1_slice", 
      "attr": {"num_outputs": "4"}, 
      "inputs": [[302, 0, 0]]
    }, 
    {
      "op": "Activation", 
      "name": "activation623", 
      "attr": {"act_type": "sigmoid"}, 
      "inputs": [[303, 3, 0]]
    }, 
    {
      "op": "Activation", 
      "name": "activation622", 
      "attr": {"act_type": "sigmoid"}, 
      "inputs": [[303, 2, 0]]
    }, 
    {
      "op": "_mul", 
      "name": "_mul372", 
      "inputs": [[305, 0, 0], [298, 0, 0]]
    }, 
    {
      "op": "Activation", 
      "name": "activation620", 
      "attr": {"act_type": "sigmoid"}, 
      "inputs": [[303, 0, 0]]
    }, 
    {
      "op": "Activation", 
      "name": "activation621", 
      "attr": {"act_type": "tanh"}, 
      "inputs": [[303, 1, 0]]
    }, 
    {
      "op": "_mul", 
      "name": "_mul373", 
      "inputs": [[307, 0, 0], [308, 0, 0]]
    }, 
    {
      "op": "elemwise_add", 
      "name": "_plus249", 
      "inputs": [[306, 0, 0], [309, 0, 0]]
    }, 
    {
      "op": "Activation", 
      "name": "activation624", 
      "attr": {"act_type": "tanh"}, 
      "inputs": [[310, 0, 0]]
    }, 
    {
      "op": "_mul", 
      "name": "_mul374", 
      "inputs": [[304, 0, 0], [311, 0, 0]]
    }, 
    {
      "op": "FullyConnected", 
      "name": "t94_l1_h2h", 
      "attr": {"num_hidden": "512"}, 
      "inputs": [[312, 0, 0], [6, 0, 0], [7, 0, 0]]
    }, 
    {
      "op": "elemwise_add", 
      "name": "_plus250", 
      "inputs": [[115, 0, 0], [313, 0, 0]]
    }, 
    {
      "op": "SliceChannel", 
      "name": "t94_l1_slice", 
      "attr": {"num_outputs": "4"}, 
      "inputs": [[314, 0, 0]]
    }, 
    {
      "op": "Activation", 
      "name": "activation628", 
      "attr": {"act_type": "sigmoid"}, 
      "inputs": [[315, 3, 0]]
    }, 
    {
      "op": "Activation", 
      "name": "activation627", 
      "attr": {"act_type": "sigmoid"}, 
      "inputs": [[315, 2, 0]]
    }, 
    {
      "op": "_mul", 
      "name": "_mul375", 
      "inputs": [[317, 0, 0], [310, 0, 0]]
    }, 
    {
      "op": "Activation", 
      "name": "activation625", 
      "attr": {"act_type": "sigmoid"}, 
      "inputs": [[315, 0, 0]]
    }, 
    {
      "op": "Activation", 
      "name": "activation626", 
      "attr": {"act_type": "tanh"}, 
      "inputs": [[315, 1, 0]]
    }, 
    {
      "op": "_mul", 
      "name": "_mul376", 
      "inputs": [[319, 0, 0], [320, 0, 0]]
    }, 
    {
      "op": "elemwise_add", 
      "name": "_plus251", 
      "inputs": [[318, 0, 0], [321, 0, 0]]
    }, 
    {
      "op": "Activation", 
      "name": "activation629", 
      "attr": {"act_type": "tanh"}, 
      "inputs": [[322, 0, 0]]
    }, 
    {
      "op": "_mul", 
      "name": "_mul377", 
      "inputs": [[316, 0, 0], [323, 0, 0]]
    }, 
    {
      "op": "FullyConnected", 
      "name": "t93_l1_h2h", 
      "attr": {"num_hidden": "512"}, 
      "inputs": [[324, 0, 0], [6, 0, 0], [7, 0, 0]]
    }, 
    {
      "op": "elemwise_add", 
      "name": "_plus252", 
      "inputs": [[114, 0, 0], [325, 0, 0]]
    }, 
    {
      "op": "SliceChannel", 
      "name": "t93_l1_slice", 
      "attr": {"num_outputs": "4"}, 
      "inputs": [[326, 0, 0]]
    }, 
    {
      "op": "Activation", 
      "name": "activation633", 
      "attr": {"act_type": "sigmoid"}, 
      "inputs": [[327, 3, 0]]
    }, 
    {
      "op": "Activation", 
      "name": "activation632", 
      "attr": {"act_type": "sigmoid"}, 
      "inputs": [[327, 2, 0]]
    }, 
    {
      "op": "_mul", 
      "name": "_mul378", 
      "inputs": [[329, 0, 0], [322, 0, 0]]
    }, 
    {
      "op": "Activation", 
      "name": "activation630", 
      "attr": {"act_type": "sigmoid"}, 
      "inputs": [[327, 0, 0]]
    }, 
    {
      "op": "Activation", 
      "name": "activation631", 
      "attr": {"act_type": "tanh"}, 
      "inputs": [[327, 1, 0]]
    }, 
    {
      "op": "_mul", 
      "name": "_mul379", 
      "inputs": [[331, 0, 0], [332, 0, 0]]
    }, 
    {
      "op": "elemwise_add", 
      "name": "_plus253", 
      "inputs": [[330, 0, 0], [333, 0, 0]]
    }, 
    {
      "op": "Activation", 
      "name": "activation634", 
      "attr": {"act_type": "tanh"}, 
      "inputs": [[334, 0, 0]]
    }, 
    {
      "op": "_mul", 
      "name": "_mul380", 
      "inputs": [[328, 0, 0], [335, 0, 0]]
    }, 
    {
      "op": "FullyConnected", 
      "name": "t92_l1_h2h", 
      "attr": {"num_hidden": "512"}, 
      "inputs": [[336, 0, 0], [6, 0, 0], [7, 0, 0]]
    }, 
    {
      "op": "elemwise_add", 
      "name": "_plus254", 
      "inputs": [[113, 0, 0], [337, 0, 0]]
    }, 
    {
      "op": "SliceChannel", 
      "name": "t92_l1_slice", 
      "attr": {"num_outputs": "4"}, 
      "inputs": [[338, 0, 0]]
    }, 
    {
      "op": "Activation", 
      "name": "activation638", 
      "attr": {"act_type": "sigmoid"}, 
      "inputs": [[339, 3, 0]]
    }, 
    {
      "op": "Activation", 
      "name": "activation637", 
      "attr": {"act_type": "sigmoid"}, 
      "inputs": [[339, 2, 0]]
    }, 
    {
      "op": "_mul", 
      "name": "_mul381", 
      "inputs": [[341, 0, 0], [334, 0, 0]]
    }, 
    {
      "op": "Activation", 
      "name": "activation635", 
      "attr": {"act_type": "sigmoid"}, 
      "inputs": [[339, 0, 0]]
    }, 
    {
      "op": "Activation", 
      "name": "activation636", 
      "attr": {"act_type": "tanh"}, 
      "inputs": [[339, 1, 0]]
    }, 
    {
      "op": "_mul", 
      "name": "_mul382", 
      "inputs": [[343, 0, 0], [344, 0, 0]]
    }, 
    {
      "op": "elemwise_add", 
      "name": "_plus255", 
      "inputs": [[342, 0, 0], [345, 0, 0]]
    }, 
    {
      "op": "Activation", 
      "name": "activation639", 
      "attr": {"act_type": "tanh"}, 
      "inputs": [[346, 0, 0]]
    }, 
    {
      "op": "_mul", 
      "name": "_mul383", 
      "inputs": [[340, 0, 0], [347, 0, 0]]
    }, 
    {
      "op": "FullyConnected", 
      "name": "t91_l1_h2h", 
      "attr": {"num_hidden": "512"}, 
      "inputs": [[348, 0, 0], [6, 0, 0], [7, 0, 0]]
    }, 
    {
      "op": "elemwise_add", 
      "name": "_plus256", 
      "inputs": [[112, 0, 0], [349, 0, 0]]
    }, 
    {
      "op": "SliceChannel", 
      "name": "t91_l1_slice", 
      "attr": {"num_outputs": "4"}, 
      "inputs": [[350, 0, 0]]
    }, 
    {
      "op": "Activation", 
      "name": "activation643", 
      "attr": {"act_type": "sigmoid"}, 
      "inputs": [[351, 3, 0]]
    }, 
    {
      "op": "Activation", 
      "name": "activation642", 
      "attr": {"act_type": "sigmoid"}, 
      "inputs": [[351, 2, 0]]
    }, 
    {
      "op": "_mul", 
      "name": "_mul384", 
      "inputs": [[353, 0, 0], [346, 0, 0]]
    }, 
    {
      "op": "Activation", 
      "name": "activation640", 
      "attr": {"act_type": "sigmoid"}, 
      "inputs": [[351, 0, 0]]
    }, 
    {
      "op": "Activation", 
      "name": "activation641", 
      "attr": {"act_type": "tanh"}, 
      "inputs": [[351, 1, 0]]
    }, 
    {
      "op": "_mul", 
      "name": "_mul385", 
      "inputs": [[355, 0, 0], [356, 0, 0]]
    }, 
    {
      "op": "elemwise_add", 
      "name": "_plus257", 
      "inputs": [[354, 0, 0], [357, 0, 0]]
    }, 
    {
      "op": "Activation", 
      "name": "activation644", 
      "attr": {"act_type": "tanh"}, 
      "inputs": [[358, 0, 0]]
    }, 
    {
      "op": "_mul", 
      "name": "_mul386", 
      "inputs": [[352, 0, 0], [359, 0, 0]]
    }, 
    {
      "op": "FullyConnected", 
      "name": "t90_l1_h2h", 
      "attr": {"num_hidden": "512"}, 
      "inputs": [[360, 0, 0], [6, 0, 0], [7, 0, 0]]
    }, 
    {
      "op": "elemwise_add", 
      "name": "_plus258", 
      "inputs": [[111, 0, 0], [361, 0, 0]]
    }, 
    {
      "op": "SliceChannel", 
      "name": "t90_l1_slice", 
      "attr": {"num_outputs": "4"}, 
      "inputs": [[362, 0, 0]]
    }, 
    {
      "op": "Activation", 
      "name": "activation648", 
      "attr": {"act_type": "sigmoid"}, 
      "inputs": [[363, 3, 0]]
    }, 
    {
      "op": "Activation", 
      "name": "activation647", 
      "attr": {"act_type": "sigmoid"}, 
      "inputs": [[363, 2, 0]]
    }, 
    {
      "op": "_mul", 
      "name": "_mul387", 
      "inputs": [[365, 0, 0], [358, 0, 0]]
    }, 
    {
      "op": "Activation", 
      "name": "activation645", 
      "attr": {"act_type": "sigmoid"}, 
      "inputs": [[363, 0, 0]]
    }, 
    {
      "op": "Activation", 
      "name": "activation646", 
      "attr": {"act_type": "tanh"}, 
      "inputs": [[363, 1, 0]]
    }, 
    {
      "op": "_mul", 
      "name": "_mul388", 
      "inputs": [[367, 0, 0], [368, 0, 0]]
    }, 
    {
      "op": "elemwise_add", 
      "name": "_plus259", 
      "inputs": [[366, 0, 0], [369, 0, 0]]
    }, 
    {
      "op": "Activation", 
      "name": "activation649", 
      "attr": {"act_type": "tanh"}, 
      "inputs": [[370, 0, 0]]
    }, 
    {
      "op": "_mul", 
      "name": "_mul389", 
      "inputs": [[364, 0, 0], [371, 0, 0]]
    }, 
    {
      "op": "FullyConnected", 
      "name": "t89_l1_h2h", 
      "attr": {"num_hidden": "512"}, 
      "inputs": [[372, 0, 0], [6, 0, 0], [7, 0, 0]]
    }, 
    {
      "op": "elemwise_add", 
      "name": "_plus260", 
      "inputs": [[110, 0, 0], [373, 0, 0]]
    }, 
    {
      "op": "SliceChannel", 
      "name": "t89_l1_slice", 
      "attr": {"num_outputs": "4"}, 
      "inputs": [[374, 0, 0]]
    }, 
    {
      "op": "Activation", 
      "name": "activation653", 
      "attr": {"act_type": "sigmoid"}, 
      "inputs": [[375, 3, 0]]
    }, 
    {
      "op": "Activation", 
      "name": "activation652", 
      "attr": {"act_type": "sigmoid"}, 
      "inputs": [[375, 2, 0]]
    }, 
    {
      "op": "_mul", 
      "name": "_mul390", 
      "inputs": [[377, 0, 0], [370, 0, 0]]
    }, 
    {
      "op": "Activation", 
      "name": "activation650", 
      "attr": {"act_type": "sigmoid"}, 
      "inputs": [[375, 0, 0]]
    }, 
    {
      "op": "Activation", 
      "name": "activation651", 
      "attr": {"act_type": "tanh"}, 
      "inputs": [[375, 1, 0]]
    }, 
    {
      "op": "_mul", 
      "name": "_mul391", 
      "inputs": [[379, 0, 0], [380, 0, 0]]
    }, 
    {
      "op": "elemwise_add", 
      "name": "_plus261", 
      "inputs": [[378, 0, 0], [381, 0, 0]]
    }, 
    {
      "op": "Activation", 
      "name": "activation654", 
      "attr": {"act_type": "tanh"}, 
      "inputs": [[382, 0, 0]]
    }, 
    {
      "op": "_mul", 
      "name": "_mul392", 
      "inputs": [[376, 0, 0], [383, 0, 0]]
    }, 
    {
      "op": "FullyConnected", 
      "name": "t88_l1_h2h", 
      "attr": {"num_hidden": "512"}, 
      "inputs": [[384, 0, 0], [6, 0, 0], [7, 0, 0]]
    }, 
    {
      "op": "elemwise_add", 
      "name": "_plus262", 
      "inputs": [[109, 0, 0], [385, 0, 0]]
    }, 
    {
      "op": "SliceChannel", 
      "name": "t88_l1_slice", 
      "attr": {"num_outputs": "4"}, 
      "inputs": [[386, 0, 0]]
    }, 
    {
      "op": "Activation", 
      "name": "activation658", 
      "attr": {"act_type": "sigmoid"}, 
      "inputs": [[387, 3, 0]]
    }, 
    {
      "op": "Activation", 
      "name": "activation657", 
      "attr": {"act_type": "sigmoid"}, 
      "inputs": [[387, 2, 0]]
    }, 
    {
      "op": "_mul", 
      "name": "_mul393", 
      "inputs": [[389, 0, 0], [382, 0, 0]]
    }, 
    {
      "op": "Activation", 
      "name": "activation655", 
      "attr": {"act_type": "sigmoid"}, 
      "inputs": [[387, 0, 0]]
    }, 
    {
      "op": "Activation", 
      "name": "activation656", 
      "attr": {"act_type": "tanh"}, 
      "inputs": [[387, 1, 0]]
    }, 
    {
      "op": "_mul", 
      "name": "_mul394", 
      "inputs": [[391, 0, 0], [392, 0, 0]]
    }, 
    {
      "op": "elemwise_add", 
      "name": "_plus263", 
      "inputs": [[390, 0, 0], [393, 0, 0]]
    }, 
    {
      "op": "Activation", 
      "name": "activation659", 
      "attr": {"act_type": "tanh"}, 
      "inputs": [[394, 0, 0]]
    }, 
    {
      "op": "_mul", 
      "name": "_mul395", 
      "inputs": [[388, 0, 0], [395, 0, 0]]
    }, 
    {
      "op": "FullyConnected", 
      "name": "t87_l1_h2h", 
      "attr": {"num_hidden": "512"}, 
      "inputs": [[396, 0, 0], [6, 0, 0], [7, 0, 0]]
    }, 
    {
      "op": "elemwise_add", 
      "name": "_plus264", 
      "inputs": [[108, 0, 0], [397, 0, 0]]
    }, 
    {
      "op": "SliceChannel", 
      "name": "t87_l1_slice", 
      "attr": {"num_outputs": "4"}, 
      "inputs": [[398, 0, 0]]
    }, 
    {
      "op": "Activation", 
      "name": "activation663", 
      "attr": {"act_type": "sigmoid"}, 
      "inputs": [[399, 3, 0]]
    }, 
    {
      "op": "Activation", 
      "name": "activation662", 
      "attr": {"act_type": "sigmoid"}, 
      "inputs": [[399, 2, 0]]
    }, 
    {
      "op": "_mul", 
      "name": "_mul396", 
      "inputs": [[401, 0, 0], [394, 0, 0]]
    }, 
    {
      "op": "Activation", 
      "name": "activation660", 
      "attr": {"act_type": "sigmoid"}, 
      "inputs": [[399, 0, 0]]
    }, 
    {
      "op": "Activation", 
      "name": "activation661", 
      "attr": {"act_type": "tanh"}, 
      "inputs": [[399, 1, 0]]
    }, 
    {
      "op": "_mul", 
      "name": "_mul397", 
      "inputs": [[403, 0, 0], [404, 0, 0]]
    }, 
    {
      "op": "elemwise_add", 
      "name": "_plus265", 
      "inputs": [[402, 0, 0], [405, 0, 0]]
    }, 
    {
      "op": "Activation", 
      "name": "activation664", 
      "attr": {"act_type": "tanh"}, 
      "inputs": [[406, 0, 0]]
    }, 
    {
      "op": "_mul", 
      "name": "_mul398", 
      "inputs": [[400, 0, 0], [407, 0, 0]]
    }, 
    {
      "op": "FullyConnected", 
      "name": "t86_l1_h2h", 
      "attr": {"num_hidden": "512"}, 
      "inputs": [[408, 0, 0], [6, 0, 0], [7, 0, 0]]
    }, 
    {
      "op": "elemwise_add", 
      "name": "_plus266", 
      "inputs": [[107, 0, 0], [409, 0, 0]]
    }, 
    {
      "op": "SliceChannel", 
      "name": "t86_l1_slice", 
      "attr": {"num_outputs": "4"}, 
      "inputs": [[410, 0, 0]]
    }, 
    {
      "op": "Activation", 
      "name": "activation668", 
      "attr": {"act_type": "sigmoid"}, 
      "inputs": [[411, 3, 0]]
    }, 
    {
      "op": "Activation", 
      "name": "activation667", 
      "attr": {"act_type": "sigmoid"}, 
      "inputs": [[411, 2, 0]]
    }, 
    {
      "op": "_mul", 
      "name": "_mul399", 
      "inputs": [[413, 0, 0], [406, 0, 0]]
    }, 
    {
      "op": "Activation", 
      "name": "activation665", 
      "attr": {"act_type": "sigmoid"}, 
      "inputs": [[411, 0, 0]]
    }, 
    {
      "op": "Activation", 
      "name": "activation666", 
      "attr": {"act_type": "tanh"}, 
      "inputs": [[411, 1, 0]]
    }, 
    {
      "op": "_mul", 
      "name": "_mul400", 
      "inputs": [[415, 0, 0], [416, 0, 0]]
    }, 
    {
      "op": "elemwise_add", 
      "name": "_plus267", 
      "inputs": [[414, 0, 0], [417, 0, 0]]
    }, 
    {
      "op": "Activation", 
      "name": "activation669", 
      "attr": {"act_type": "tanh"}, 
      "inputs": [[418, 0, 0]]
    }, 
    {
      "op": "_mul", 
      "name": "_mul401", 
      "inputs": [[412, 0, 0], [419, 0, 0]]
    }, 
    {
      "op": "FullyConnected", 
      "name": "t85_l1_h2h", 
      "attr": {"num_hidden": "512"}, 
      "inputs": [[420, 0, 0], [6, 0, 0], [7, 0, 0]]
    }, 
    {
      "op": "elemwise_add", 
      "name": "_plus268", 
      "inputs": [[106, 0, 0], [421, 0, 0]]
    }, 
    {
      "op": "SliceChannel", 
      "name": "t85_l1_slice", 
      "attr": {"num_outputs": "4"}, 
      "inputs": [[422, 0, 0]]
    }, 
    {
      "op": "Activation", 
      "name": "activation673", 
      "attr": {"act_type": "sigmoid"}, 
      "inputs": [[423, 3, 0]]
    }, 
    {
      "op": "Activation", 
      "name": "activation672", 
      "attr": {"act_type": "sigmoid"}, 
      "inputs": [[423, 2, 0]]
    }, 
    {
      "op": "_mul", 
      "name": "_mul402", 
      "inputs": [[425, 0, 0], [418, 0, 0]]
    }, 
    {
      "op": "Activation", 
      "name": "activation670", 
      "attr": {"act_type": "sigmoid"}, 
      "inputs": [[423, 0, 0]]
    }, 
    {
      "op": "Activation", 
      "name": "activation671", 
      "attr": {"act_type": "tanh"}, 
      "inputs": [[423, 1, 0]]
    }, 
    {
      "op": "_mul", 
      "name": "_mul403", 
      "inputs": [[427, 0, 0], [428, 0, 0]]
    }, 
    {
      "op": "elemwise_add", 
      "name": "_plus269", 
      "inputs": [[426, 0, 0], [429, 0, 0]]
    }, 
    {
      "op": "Activation", 
      "name": "activation674", 
      "attr": {"act_type": "tanh"}, 
      "inputs": [[430, 0, 0]]
    }, 
    {
      "op": "_mul", 
      "name": "_mul404", 
      "inputs": [[424, 0, 0], [431, 0, 0]]
    }, 
    {
      "op": "FullyConnected", 
      "name": "t84_l1_h2h", 
      "attr": {"num_hidden": "512"}, 
      "inputs": [[432, 0, 0], [6, 0, 0], [7, 0, 0]]
    }, 
    {
      "op": "elemwise_add", 
      "name": "_plus270", 
      "inputs": [[105, 0, 0], [433, 0, 0]]
    }, 
    {
      "op": "SliceChannel", 
      "name": "t84_l1_slice", 
      "attr": {"num_outputs": "4"}, 
      "inputs": [[434, 0, 0]]
    }, 
    {
      "op": "Activation", 
      "name": "activation678", 
      "attr": {"act_type": "sigmoid"}, 
      "inputs": [[435, 3, 0]]
    }, 
    {
      "op": "Activation", 
      "name": "activation677", 
      "attr": {"act_type": "sigmoid"}, 
      "inputs": [[435, 2, 0]]
    }, 
    {
      "op": "_mul", 
      "name": "_mul405", 
      "inputs": [[437, 0, 0], [430, 0, 0]]
    }, 
    {
      "op": "Activation", 
      "name": "activation675", 
      "attr": {"act_type": "sigmoid"}, 
      "inputs": [[435, 0, 0]]
    }, 
    {
      "op": "Activation", 
      "name": "activation676", 
      "attr": {"act_type": "tanh"}, 
      "inputs": [[435, 1, 0]]
    }, 
    {
      "op": "_mul", 
      "name": "_mul406", 
      "inputs": [[439, 0, 0], [440, 0, 0]]
    }, 
    {
      "op": "elemwise_add", 
      "name": "_plus271", 
      "inputs": [[438, 0, 0], [441, 0, 0]]
    }, 
    {
      "op": "Activation", 
      "name": "activation679", 
      "attr": {"act_type": "tanh"}, 
      "inputs": [[442, 0, 0]]
    }, 
    {
      "op": "_mul", 
      "name": "_mul407", 
      "inputs": [[436, 0, 0], [443, 0, 0]]
    }, 
    {
      "op": "FullyConnected", 
      "name": "t83_l1_h2h", 
      "attr": {"num_hidden": "512"}, 
      "inputs": [[444, 0, 0], [6, 0, 0], [7, 0, 0]]
    }, 
    {
      "op": "elemwise_add", 
      "name": "_plus272", 
      "inputs": [[104, 0, 0], [445, 0, 0]]
    }, 
    {
      "op": "SliceChannel", 
      "name": "t83_l1_slice", 
      "attr": {"num_outputs": "4"}, 
      "inputs": [[446, 0, 0]]
    }, 
    {
      "op": "Activation", 
      "name": "activation683", 
      "attr": {"act_type": "sigmoid"}, 
      "inputs": [[447, 3, 0]]
    }, 
    {
      "op": "Activation", 
      "name": "activation682", 
      "attr": {"act_type": "sigmoid"}, 
      "inputs": [[447, 2, 0]]
    }, 
    {
      "op": "_mul", 
      "name": "_mul408", 
      "inputs": [[449, 0, 0], [442, 0, 0]]
    }, 
    {
      "op": "Activation", 
      "name": "activation680", 
      "attr": {"act_type": "sigmoid"}, 
      "inputs": [[447, 0, 0]]
    }, 
    {
      "op": "Activation", 
      "name": "activation681", 
      "attr": {"act_type": "tanh"}, 
      "inputs": [[447, 1, 0]]
    }, 
    {
      "op": "_mul", 
      "name": "_mul409", 
      "inputs": [[451, 0, 0], [452, 0, 0]]
    }, 
    {
      "op": "elemwise_add", 
      "name": "_plus273", 
      "inputs": [[450, 0, 0], [453, 0, 0]]
    }, 
    {
      "op": "Activation", 
      "name": "activation684", 
      "attr": {"act_type": "tanh"}, 
      "inputs": [[454, 0, 0]]
    }, 
    {
      "op": "_mul", 
      "name": "_mul410", 
      "inputs": [[448, 0, 0], [455, 0, 0]]
    }, 
    {
      "op": "FullyConnected", 
      "name": "t82_l1_h2h", 
      "attr": {"num_hidden": "512"}, 
      "inputs": [[456, 0, 0], [6, 0, 0], [7, 0, 0]]
    }, 
    {
      "op": "elemwise_add", 
      "name": "_plus274", 
      "inputs": [[103, 0, 0], [457, 0, 0]]
    }, 
    {
      "op": "SliceChannel", 
      "name": "t82_l1_slice", 
      "attr": {"num_outputs": "4"}, 
      "inputs": [[458, 0, 0]]
    }, 
    {
      "op": "Activation", 
      "name": "activation688", 
      "attr": {"act_type": "sigmoid"}, 
      "inputs": [[459, 3, 0]]
    }, 
    {
      "op": "Activation", 
      "name": "activation687", 
      "attr": {"act_type": "sigmoid"}, 
      "inputs": [[459, 2, 0]]
    }, 
    {
      "op": "_mul", 
      "name": "_mul411", 
      "inputs": [[461, 0, 0], [454, 0, 0]]
    }, 
    {
      "op": "Activation", 
      "name": "activation685", 
      "attr": {"act_type": "sigmoid"}, 
      "inputs": [[459, 0, 0]]
    }, 
    {
      "op": "Activation", 
      "name": "activation686", 
      "attr": {"act_type": "tanh"}, 
      "inputs": [[459, 1, 0]]
    }, 
    {
      "op": "_mul", 
      "name": "_mul412", 
      "inputs": [[463, 0, 0], [464, 0, 0]]
    }, 
    {
      "op": "elemwise_add", 
      "name": "_plus275", 
      "inputs": [[462, 0, 0], [465, 0, 0]]
    }, 
    {
      "op": "Activation", 
      "name": "activation689", 
      "attr": {"act_type": "tanh"}, 
      "inputs": [[466, 0, 0]]
    }, 
    {
      "op": "_mul", 
      "name": "_mul413", 
      "inputs": [[460, 0, 0], [467, 0, 0]]
    }, 
    {
      "op": "FullyConnected", 
      "name": "t81_l1_h2h", 
      "attr": {"num_hidden": "512"}, 
      "inputs": [[468, 0, 0], [6, 0, 0], [7, 0, 0]]
    }, 
    {
      "op": "elemwise_add", 
      "name": "_plus276", 
      "inputs": [[102, 0, 0], [469, 0, 0]]
    }, 
    {
      "op": "SliceChannel", 
      "name": "t81_l1_slice", 
      "attr": {"num_outputs": "4"}, 
      "inputs": [[470, 0, 0]]
    }, 
    {
      "op": "Activation", 
      "name": "activation693", 
      "attr": {"act_type": "sigmoid"}, 
      "inputs": [[471, 3, 0]]
    }, 
    {
      "op": "Activation", 
      "name": "activation692", 
      "attr": {"act_type": "sigmoid"}, 
      "inputs": [[471, 2, 0]]
    }, 
    {
      "op": "_mul", 
      "name": "_mul414", 
      "inputs": [[473, 0, 0], [466, 0, 0]]
    }, 
    {
      "op": "Activation", 
      "name": "activation690", 
      "attr": {"act_type": "sigmoid"}, 
      "inputs": [[471, 0, 0]]
    }, 
    {
      "op": "Activation", 
      "name": "activation691", 
      "attr": {"act_type": "tanh"}, 
      "inputs": [[471, 1, 0]]
    }, 
    {
      "op": "_mul", 
      "name": "_mul415", 
      "inputs": [[475, 0, 0], [476, 0, 0]]
    }, 
    {
      "op": "elemwise_add", 
      "name": "_plus277", 
      "inputs": [[474, 0, 0], [477, 0, 0]]
    }, 
    {
      "op": "Activation", 
      "name": "activation694", 
      "attr": {"act_type": "tanh"}, 
      "inputs": [[478, 0, 0]]
    }, 
    {
      "op": "_mul", 
      "name": "_mul416", 
      "inputs": [[472, 0, 0], [479, 0, 0]]
    }, 
    {
      "op": "FullyConnected", 
      "name": "t80_l1_h2h", 
      "attr": {"num_hidden": "512"}, 
      "inputs": [[480, 0, 0], [6, 0, 0], [7, 0, 0]]
    }, 
    {
      "op": "elemwise_add", 
      "name": "_plus278", 
      "inputs": [[101, 0, 0], [481, 0, 0]]
    }, 
    {
      "op": "SliceChannel", 
      "name": "t80_l1_slice", 
      "attr": {"num_outputs": "4"}, 
      "inputs": [[482, 0, 0]]
    }, 
    {
      "op": "Activation", 
      "name": "activation698", 
      "attr": {"act_type": "sigmoid"}, 
      "inputs": [[483, 3, 0]]
    }, 
    {
      "op": "Activation", 
      "name": "activation697", 
      "attr": {"act_type": "sigmoid"}, 
      "inputs": [[483, 2, 0]]
    }, 
    {
      "op": "_mul", 
      "name": "_mul417", 
      "inputs": [[485, 0, 0], [478, 0, 0]]
    }, 
    {
      "op": "Activation", 
      "name": "activation695", 
      "attr": {"act_type": "sigmoid"}, 
      "inputs": [[483, 0, 0]]
    }, 
    {
      "op": "Activation", 
      "name": "activation696", 
      "attr": {"act_type": "tanh"}, 
      "inputs": [[483, 1, 0]]
    }, 
    {
      "op": "_mul", 
      "name": "_mul418", 
      "inputs": [[487, 0, 0], [488, 0, 0]]
    }, 
    {
      "op": "elemwise_add", 
      "name": "_plus279", 
      "inputs": [[486, 0, 0], [489, 0, 0]]
    }, 
    {
      "op": "Activation", 
      "name": "activation699", 
      "attr": {"act_type": "tanh"}, 
      "inputs": [[490, 0, 0]]
    }, 
    {
      "op": "_mul", 
      "name": "_mul419", 
      "inputs": [[484, 0, 0], [491, 0, 0]]
    }, 
    {
      "op": "FullyConnected", 
      "name": "t79_l1_h2h", 
      "attr": {"num_hidden": "512"}, 
      "inputs": [[492, 0, 0], [6, 0, 0], [7, 0, 0]]
    }, 
    {
      "op": "elemwise_add", 
      "name": "_plus280", 
      "inputs": [[100, 0, 0], [493, 0, 0]]
    }, 
    {
      "op": "SliceChannel", 
      "name": "t79_l1_slice", 
      "attr": {"num_outputs": "4"}, 
      "inputs": [[494, 0, 0]]
    }, 
    {
      "op": "Activation", 
      "name": "activation703", 
      "attr": {"act_type": "sigmoid"}, 
      "inputs": [[495, 3, 0]]
    }, 
    {
      "op": "Activation", 
      "name": "activation702", 
      "attr": {"act_type": "sigmoid"}, 
      "inputs": [[495, 2, 0]]
    }, 
    {
      "op": "_mul", 
      "name": "_mul420", 
      "inputs": [[497, 0, 0], [490, 0, 0]]
    }, 
    {
      "op": "Activation", 
      "name": "activation700", 
      "attr": {"act_type": "sigmoid"}, 
      "inputs": [[495, 0, 0]]
    }, 
    {
      "op": "Activation", 
      "name": "activation701", 
      "attr": {"act_type": "tanh"}, 
      "inputs": [[495, 1, 0]]
    }, 
    {
      "op": "_mul", 
      "name": "_mul421", 
      "inputs": [[499, 0, 0], [500, 0, 0]]
    }, 
    {
      "op": "elemwise_add", 
      "name": "_plus281", 
      "inputs": [[498, 0, 0], [501, 0, 0]]
    }, 
    {
      "op": "Activation", 
      "name": "activation704", 
      "attr": {"act_type": "tanh"}, 
      "inputs": [[502, 0, 0]]
    }, 
    {
      "op": "_mul", 
      "name": "_mul422", 
      "inputs": [[496, 0, 0], [503, 0, 0]]
    }, 
    {
      "op": "FullyConnected", 
      "name": "t78_l1_h2h", 
      "attr": {"num_hidden": "512"}, 
      "inputs": [[504, 0, 0], [6, 0, 0], [7, 0, 0]]
    }, 
    {
      "op": "elemwise_add", 
      "name": "_plus282", 
      "inputs": [[99, 0, 0], [505, 0, 0]]
    }, 
    {
      "op": "SliceChannel", 
      "name": "t78_l1_slice", 
      "attr": {"num_outputs": "4"}, 
      "inputs": [[506, 0, 0]]
    }, 
    {
      "op": "Activation", 
      "name": "activation708", 
      "attr": {"act_type": "sigmoid"}, 
      "inputs": [[507, 3, 0]]
    }, 
    {
      "op": "Activation", 
      "name": "activation707", 
      "attr": {"act_type": "sigmoid"}, 
      "inputs": [[507, 2, 0]]
    }, 
    {
      "op": "_mul", 
      "name": "_mul423", 
      "inputs": [[509, 0, 0], [502, 0, 0]]
    }, 
    {
      "op": "Activation", 
      "name": "activation705", 
      "attr": {"act_type": "sigmoid"}, 
      "inputs": [[507, 0, 0]]
    }, 
    {
      "op": "Activation", 
      "name": "activation706", 
      "attr": {"act_type": "tanh"}, 
      "inputs": [[507, 1, 0]]
    }, 
    {
      "op": "_mul", 
      "name": "_mul424", 
      "inputs": [[511, 0, 0], [512, 0, 0]]
    }, 
    {
      "op": "elemwise_add", 
      "name": "_plus283", 
      "inputs": [[510, 0, 0], [513, 0, 0]]
    }, 
    {
      "op": "Activation", 
      "name": "activation709", 
      "attr": {"act_type": "tanh"}, 
      "inputs": [[514, 0, 0]]
    }, 
    {
      "op": "_mul", 
      "name": "_mul425", 
      "inputs": [[508, 0, 0], [515, 0, 0]]
    }, 
    {
      "op": "FullyConnected", 
      "name": "t77_l1_h2h", 
      "attr": {"num_hidden": "512"}, 
      "inputs": [[516, 0, 0], [6, 0, 0], [7, 0, 0]]
    }, 
    {
      "op": "elemwise_add", 
      "name": "_plus284", 
      "inputs": [[98, 0, 0], [517, 0, 0]]
    }, 
    {
      "op": "SliceChannel", 
      "name": "t77_l1_slice", 
      "attr": {"num_outputs": "4"}, 
      "inputs": [[518, 0, 0]]
    }, 
    {
      "op": "Activation", 
      "name": "activation713", 
      "attr": {"act_type": "sigmoid"}, 
      "inputs": [[519, 3, 0]]
    }, 
    {
      "op": "Activation", 
      "name": "activation712", 
      "attr": {"act_type": "sigmoid"}, 
      "inputs": [[519, 2, 0]]
    }, 
    {
      "op": "_mul", 
      "name": "_mul426", 
      "inputs": [[521, 0, 0], [514, 0, 0]]
    }, 
    {
      "op": "Activation", 
      "name": "activation710", 
      "attr": {"act_type": "sigmoid"}, 
      "inputs": [[519, 0, 0]]
    }, 
    {
      "op": "Activation", 
      "name": "activation711", 
      "attr": {"act_type": "tanh"}, 
      "inputs": [[519, 1, 0]]
    }, 
    {
      "op": "_mul", 
      "name": "_mul427", 
      "inputs": [[523, 0, 0], [524, 0, 0]]
    }, 
    {
      "op": "elemwise_add", 
      "name": "_plus285", 
      "inputs": [[522, 0, 0], [525, 0, 0]]
    }, 
    {
      "op": "Activation", 
      "name": "activation714", 
      "attr": {"act_type": "tanh"}, 
      "inputs": [[526, 0, 0]]
    }, 
    {
      "op": "_mul", 
      "name": "_mul428", 
      "inputs": [[520, 0, 0], [527, 0, 0]]
    }, 
    {
      "op": "FullyConnected", 
      "name": "t76_l1_h2h", 
      "attr": {"num_hidden": "512"}, 
      "inputs": [[528, 0, 0], [6, 0, 0], [7, 0, 0]]
    }, 
    {
      "op": "elemwise_add", 
      "name": "_plus286", 
      "inputs": [[97, 0, 0], [529, 0, 0]]
    }, 
    {
      "op": "SliceChannel", 
      "name": "t76_l1_slice", 
      "attr": {"num_outputs": "4"}, 
      "inputs": [[530, 0, 0]]
    }, 
    {
      "op": "Activation", 
      "name": "activation718", 
      "attr": {"act_type": "sigmoid"}, 
      "inputs": [[531, 3, 0]]
    }, 
    {
      "op": "Activation", 
      "name": "activation717", 
      "attr": {"act_type": "sigmoid"}, 
      "inputs": [[531, 2, 0]]
    }, 
    {
      "op": "_mul", 
      "name": "_mul429", 
      "inputs": [[533, 0, 0], [526, 0, 0]]
    }, 
    {
      "op": "Activation", 
      "name": "activation715", 
      "attr": {"act_type": "sigmoid"}, 
      "inputs": [[531, 0, 0]]
    }, 
    {
      "op": "Activation", 
      "name": "activation716", 
      "attr": {"act_type": "tanh"}, 
      "inputs": [[531, 1, 0]]
    }, 
    {
      "op": "_mul", 
      "name": "_mul430", 
      "inputs": [[535, 0, 0], [536, 0, 0]]
    }, 
    {
      "op": "elemwise_add", 
      "name": "_plus287", 
      "inputs": [[534, 0, 0], [537, 0, 0]]
    }, 
    {
      "op": "Activation", 
      "name": "activation719", 
      "attr": {"act_type": "tanh"}, 
      "inputs": [[538, 0, 0]]
    }, 
    {
      "op": "_mul", 
      "name": "_mul431", 
      "inputs": [[532, 0, 0], [539, 0, 0]]
    }, 
    {
      "op": "FullyConnected", 
      "name": "t75_l1_h2h", 
      "attr": {"num_hidden": "512"}, 
      "inputs": [[540, 0, 0], [6, 0, 0], [7, 0, 0]]
    }, 
    {
      "op": "elemwise_add", 
      "name": "_plus288", 
      "inputs": [[96, 0, 0], [541, 0, 0]]
    }, 
    {
      "op": "SliceChannel", 
      "name": "t75_l1_slice", 
      "attr": {"num_outputs": "4"}, 
      "inputs": [[542, 0, 0]]
    }, 
    {
      "op": "Activation", 
      "name": "activation723", 
      "attr": {"act_type": "sigmoid"}, 
      "inputs": [[543, 3, 0]]
    }, 
    {
      "op": "Activation", 
      "name": "activation722", 
      "attr": {"act_type": "sigmoid"}, 
      "inputs": [[543, 2, 0]]
    }, 
    {
      "op": "_mul", 
      "name": "_mul432", 
      "inputs": [[545, 0, 0], [538, 0, 0]]
    }, 
    {
      "op": "Activation", 
      "name": "activation720", 
      "attr": {"act_type": "sigmoid"}, 
      "inputs": [[543, 0, 0]]
    }, 
    {
      "op": "Activation", 
      "name": "activation721", 
      "attr": {"act_type": "tanh"}, 
      "inputs": [[543, 1, 0]]
    }, 
    {
      "op": "_mul", 
      "name": "_mul433", 
      "inputs": [[547, 0, 0], [548, 0, 0]]
    }, 
    {
      "op": "elemwise_add", 
      "name": "_plus289", 
      "inputs": [[546, 0, 0], [549, 0, 0]]
    }, 
    {
      "op": "Activation", 
      "name": "activation724", 
      "attr": {"act_type": "tanh"}, 
      "inputs": [[550, 0, 0]]
    }, 
    {
      "op": "_mul", 
      "name": "_mul434", 
      "inputs": [[544, 0, 0], [551, 0, 0]]
    }, 
    {
      "op": "FullyConnected", 
      "name": "t74_l1_h2h", 
      "attr": {"num_hidden": "512"}, 
      "inputs": [[552, 0, 0], [6, 0, 0], [7, 0, 0]]
    }, 
    {
      "op": "elemwise_add", 
      "name": "_plus290", 
      "inputs": [[95, 0, 0], [553, 0, 0]]
    }, 
    {
      "op": "SliceChannel", 
      "name": "t74_l1_slice", 
      "attr": {"num_outputs": "4"}, 
      "inputs": [[554, 0, 0]]
    }, 
    {
      "op": "Activation", 
      "name": "activation728", 
      "attr": {"act_type": "sigmoid"}, 
      "inputs": [[555, 3, 0]]
    }, 
    {
      "op": "Activation", 
      "name": "activation727", 
      "attr": {"act_type": "sigmoid"}, 
      "inputs": [[555, 2, 0]]
    }, 
    {
      "op": "_mul", 
      "name": "_mul435", 
      "inputs": [[557, 0, 0], [550, 0, 0]]
    }, 
    {
      "op": "Activation", 
      "name": "activation725", 
      "attr": {"act_type": "sigmoid"}, 
      "inputs": [[555, 0, 0]]
    }, 
    {
      "op": "Activation", 
      "name": "activation726", 
      "attr": {"act_type": "tanh"}, 
      "inputs": [[555, 1, 0]]
    }, 
    {
      "op": "_mul", 
      "name": "_mul436", 
      "inputs": [[559, 0, 0], [560, 0, 0]]
    }, 
    {
      "op": "elemwise_add", 
      "name": "_plus291", 
      "inputs": [[558, 0, 0], [561, 0, 0]]
    }, 
    {
      "op": "Activation", 
      "name": "activation729", 
      "attr": {"act_type": "tanh"}, 
      "inputs": [[562, 0, 0]]
    }, 
    {
      "op": "_mul", 
      "name": "_mul437", 
      "inputs": [[556, 0, 0], [563, 0, 0]]
    }, 
    {
      "op": "FullyConnected", 
      "name": "t73_l1_h2h", 
      "attr": {"num_hidden": "512"}, 
      "inputs": [[564, 0, 0], [6, 0, 0], [7, 0, 0]]
    }, 
    {
      "op": "elemwise_add", 
      "name": "_plus292", 
      "inputs": [[94, 0, 0], [565, 0, 0]]
    }, 
    {
      "op": "SliceChannel", 
      "name": "t73_l1_slice", 
      "attr": {"num_outputs": "4"}, 
      "inputs": [[566, 0, 0]]
    }, 
    {
      "op": "Activation", 
      "name": "activation733", 
      "attr": {"act_type": "sigmoid"}, 
      "inputs": [[567, 3, 0]]
    }, 
    {
      "op": "Activation", 
      "name": "activation732", 
      "attr": {"act_type": "sigmoid"}, 
      "inputs": [[567, 2, 0]]
    }, 
    {
      "op": "_mul", 
      "name": "_mul438", 
      "inputs": [[569, 0, 0], [562, 0, 0]]
    }, 
    {
      "op": "Activation", 
      "name": "activation730", 
      "attr": {"act_type": "sigmoid"}, 
      "inputs": [[567, 0, 0]]
    }, 
    {
      "op": "Activation", 
      "name": "activation731", 
      "attr": {"act_type": "tanh"}, 
      "inputs": [[567, 1, 0]]
    }, 
    {
      "op": "_mul", 
      "name": "_mul439", 
      "inputs": [[571, 0, 0], [572, 0, 0]]
    }, 
    {
      "op": "elemwise_add", 
      "name": "_plus293", 
      "inputs": [[570, 0, 0], [573, 0, 0]]
    }, 
    {
      "op": "Activation", 
      "name": "activation734", 
      "attr": {"act_type": "tanh"}, 
      "inputs": [[574, 0, 0]]
    }, 
    {
      "op": "_mul", 
      "name": "_mul440", 
      "inputs": [[568, 0, 0], [575, 0, 0]]
    }, 
    {
      "op": "FullyConnected", 
      "name": "t72_l1_h2h", 
      "attr": {"num_hidden": "512"}, 
      "inputs": [[576, 0, 0], [6, 0, 0], [7, 0, 0]]
    }, 
    {
      "op": "elemwise_add", 
      "name": "_plus294", 
      "inputs": [[93, 0, 0], [577, 0, 0]]
    }, 
    {
      "op": "SliceChannel", 
      "name": "t72_l1_slice", 
      "attr": {"num_outputs": "4"}, 
      "inputs": [[578, 0, 0]]
    }, 
    {
      "op": "Activation", 
      "name": "activation738", 
      "attr": {"act_type": "sigmoid"}, 
      "inputs": [[579, 3, 0]]
    }, 
    {
      "op": "Activation", 
      "name": "activation737", 
      "attr": {"act_type": "sigmoid"}, 
      "inputs": [[579, 2, 0]]
    }, 
    {
      "op": "_mul", 
      "name": "_mul441", 
      "inputs": [[581, 0, 0], [574, 0, 0]]
    }, 
    {
      "op": "Activation", 
      "name": "activation735", 
      "attr": {"act_type": "sigmoid"}, 
      "inputs": [[579, 0, 0]]
    }, 
    {
      "op": "Activation", 
      "name": "activation736", 
      "attr": {"act_type": "tanh"}, 
      "inputs": [[579, 1, 0]]
    }, 
    {
      "op": "_mul", 
      "name": "_mul442", 
      "inputs": [[583, 0, 0], [584, 0, 0]]
    }, 
    {
      "op": "elemwise_add", 
      "name": "_plus295", 
      "inputs": [[582, 0, 0], [585, 0, 0]]
    }, 
    {
      "op": "Activation", 
      "name": "activation739", 
      "attr": {"act_type": "tanh"}, 
      "inputs": [[586, 0, 0]]
    }, 
    {
      "op": "_mul", 
      "name": "_mul443", 
      "inputs": [[580, 0, 0], [587, 0, 0]]
    }, 
    {
      "op": "FullyConnected", 
      "name": "t71_l1_h2h", 
      "attr": {"num_hidden": "512"}, 
      "inputs": [[588, 0, 0], [6, 0, 0], [7, 0, 0]]
    }, 
    {
      "op": "elemwise_add", 
      "name": "_plus296", 
      "inputs": [[92, 0, 0], [589, 0, 0]]
    }, 
    {
      "op": "SliceChannel", 
      "name": "t71_l1_slice", 
      "attr": {"num_outputs": "4"}, 
      "inputs": [[590, 0, 0]]
    }, 
    {
      "op": "Activation", 
      "name": "activation743", 
      "attr": {"act_type": "sigmoid"}, 
      "inputs": [[591, 3, 0]]
    }, 
    {
      "op": "Activation", 
      "name": "activation742", 
      "attr": {"act_type": "sigmoid"}, 
      "inputs": [[591, 2, 0]]
    }, 
    {
      "op": "_mul", 
      "name": "_mul444", 
      "inputs": [[593, 0, 0], [586, 0, 0]]
    }, 
    {
      "op": "Activation", 
      "name": "activation740", 
      "attr": {"act_type": "sigmoid"}, 
      "inputs": [[591, 0, 0]]
    }, 
    {
      "op": "Activation", 
      "name": "activation741", 
      "attr": {"act_type": "tanh"}, 
      "inputs": [[591, 1, 0]]
    }, 
    {
      "op": "_mul", 
      "name": "_mul445", 
      "inputs": [[595, 0, 0], [596, 0, 0]]
    }, 
    {
      "op": "elemwise_add", 
      "name": "_plus297", 
      "inputs": [[594, 0, 0], [597, 0, 0]]
    }, 
    {
      "op": "Activation", 
      "name": "activation744", 
      "attr": {"act_type": "tanh"}, 
      "inputs": [[598, 0, 0]]
    }, 
    {
      "op": "_mul", 
      "name": "_mul446", 
      "inputs": [[592, 0, 0], [599, 0, 0]]
    }, 
    {
      "op": "FullyConnected", 
      "name": "t70_l1_h2h", 
      "attr": {"num_hidden": "512"}, 
      "inputs": [[600, 0, 0], [6, 0, 0], [7, 0, 0]]
    }, 
    {
      "op": "elemwise_add", 
      "name": "_plus298", 
      "inputs": [[91, 0, 0], [601, 0, 0]]
    }, 
    {
      "op": "SliceChannel", 
      "name": "t70_l1_slice", 
      "attr": {"num_outputs": "4"}, 
      "inputs": [[602, 0, 0]]
    }, 
    {
      "op": "Activation", 
      "name": "activation748", 
      "attr": {"act_type": "sigmoid"}, 
      "inputs": [[603, 3, 0]]
    }, 
    {
      "op": "Activation", 
      "name": "activation747", 
      "attr": {"act_type": "sigmoid"}, 
      "inputs": [[603, 2, 0]]
    }, 
    {
      "op": "_mul", 
      "name": "_mul447", 
      "inputs": [[605, 0, 0], [598, 0, 0]]
    }, 
    {
      "op": "Activation", 
      "name": "activation745", 
      "attr": {"act_type": "sigmoid"}, 
      "inputs": [[603, 0, 0]]
    }, 
    {
      "op": "Activation", 
      "name": "activation746", 
      "attr": {"act_type": "tanh"}, 
      "inputs": [[603, 1, 0]]
    }, 
    {
      "op": "_mul", 
      "name": "_mul448", 
      "inputs": [[607, 0, 0], [608, 0, 0]]
    }, 
    {
      "op": "elemwise_add", 
      "name": "_plus299", 
      "inputs": [[606, 0, 0], [609, 0, 0]]
    }, 
    {
      "op": "Activation", 
      "name": "activation749", 
      "attr": {"act_type": "tanh"}, 
      "inputs": [[610, 0, 0]]
    }, 
    {
      "op": "_mul", 
      "name": "_mul449", 
      "inputs": [[604, 0, 0], [611, 0, 0]]
    }, 
    {
      "op": "FullyConnected", 
      "name": "t69_l1_h2h", 
      "attr": {"num_hidden": "512"}, 
      "inputs": [[612, 0, 0], [6, 0, 0], [7, 0, 0]]
    }, 
    {
      "op": "elemwise_add", 
      "name": "_plus300", 
      "inputs": [[90, 0, 0], [613, 0, 0]]
    }, 
    {
      "op": "SliceChannel", 
      "name": "t69_l1_slice", 
      "attr": {"num_outputs": "4"}, 
      "inputs": [[614, 0, 0]]
    }, 
    {
      "op": "Activation", 
      "name": "activation753", 
      "attr": {"act_type": "sigmoid"}, 
      "inputs": [[615, 3, 0]]
    }, 
    {
      "op": "Activation", 
      "name": "activation752", 
      "attr": {"act_type": "sigmoid"}, 
      "inputs": [[615, 2, 0]]
    }, 
    {
      "op": "_mul", 
      "name": "_mul450", 
      "inputs": [[617, 0, 0], [610, 0, 0]]
    }, 
    {
      "op": "Activation", 
      "name": "activation750", 
      "attr": {"act_type": "sigmoid"}, 
      "inputs": [[615, 0, 0]]
    }, 
    {
      "op": "Activation", 
      "name": "activation751", 
      "attr": {"act_type": "tanh"}, 
      "inputs": [[615, 1, 0]]
    }, 
    {
      "op": "_mul", 
      "name": "_mul451", 
      "inputs": [[619, 0, 0], [620, 0, 0]]
    }, 
    {
      "op": "elemwise_add", 
      "name": "_plus301", 
      "inputs": [[618, 0, 0], [621, 0, 0]]
    }, 
    {
      "op": "Activation", 
      "name": "activation754", 
      "attr": {"act_type": "tanh"}, 
      "inputs": [[622, 0, 0]]
    }, 
    {
      "op": "_mul", 
      "name": "_mul452", 
      "inputs": [[616, 0, 0], [623, 0, 0]]
    }, 
    {
      "op": "FullyConnected", 
      "name": "t68_l1_h2h", 
      "attr": {"num_hidden": "512"}, 
      "inputs": [[624, 0, 0], [6, 0, 0], [7, 0, 0]]
    }, 
    {
      "op": "elemwise_add", 
      "name": "_plus302", 
      "inputs": [[89, 0, 0], [625, 0, 0]]
    }, 
    {
      "op": "SliceChannel", 
      "name": "t68_l1_slice", 
      "attr": {"num_outputs": "4"}, 
      "inputs": [[626, 0, 0]]
    }, 
    {
      "op": "Activation", 
      "name": "activation758", 
      "attr": {"act_type": "sigmoid"}, 
      "inputs": [[627, 3, 0]]
    }, 
    {
      "op": "Activation", 
      "name": "activation757", 
      "attr": {"act_type": "sigmoid"}, 
      "inputs": [[627, 2, 0]]
    }, 
    {
      "op": "_mul", 
      "name": "_mul453", 
      "inputs": [[629, 0, 0], [622, 0, 0]]
    }, 
    {
      "op": "Activation", 
      "name": "activation755", 
      "attr": {"act_type": "sigmoid"}, 
      "inputs": [[627, 0, 0]]
    }, 
    {
      "op": "Activation", 
      "name": "activation756", 
      "attr": {"act_type": "tanh"}, 
      "inputs": [[627, 1, 0]]
    }, 
    {
      "op": "_mul", 
      "name": "_mul454", 
      "inputs": [[631, 0, 0], [632, 0, 0]]
    }, 
    {
      "op": "elemwise_add", 
      "name": "_plus303", 
      "inputs": [[630, 0, 0], [633, 0, 0]]
    }, 
    {
      "op": "Activation", 
      "name": "activation759", 
      "attr": {"act_type": "tanh"}, 
      "inputs": [[634, 0, 0]]
    }, 
    {
      "op": "_mul", 
      "name": "_mul455", 
      "inputs": [[628, 0, 0], [635, 0, 0]]
    }, 
    {
      "op": "FullyConnected", 
      "name": "t67_l1_h2h", 
      "attr": {"num_hidden": "512"}, 
      "inputs": [[636, 0, 0], [6, 0, 0], [7, 0, 0]]
    }, 
    {
      "op": "elemwise_add", 
      "name": "_plus304", 
      "inputs": [[88, 0, 0], [637, 0, 0]]
    }, 
    {
      "op": "SliceChannel", 
      "name": "t67_l1_slice", 
      "attr": {"num_outputs": "4"}, 
      "inputs": [[638, 0, 0]]
    }, 
    {
      "op": "Activation", 
      "name": "activation763", 
      "attr": {"act_type": "sigmoid"}, 
      "inputs": [[639, 3, 0]]
    }, 
    {
      "op": "Activation", 
      "name": "activation762", 
      "attr": {"act_type": "sigmoid"}, 
      "inputs": [[639, 2, 0]]
    }, 
    {
      "op": "_mul", 
      "name": "_mul456", 
      "inputs": [[641, 0, 0], [634, 0, 0]]
    }, 
    {
      "op": "Activation", 
      "name": "activation760", 
      "attr": {"act_type": "sigmoid"}, 
      "inputs": [[639, 0, 0]]
    }, 
    {
      "op": "Activation", 
      "name": "activation761", 
      "attr": {"act_type": "tanh"}, 
      "inputs": [[639, 1, 0]]
    }, 
    {
      "op": "_mul", 
      "name": "_mul457", 
      "inputs": [[643, 0, 0], [644, 0, 0]]
    }, 
    {
      "op": "elemwise_add", 
      "name": "_plus305", 
      "inputs": [[642, 0, 0], [645, 0, 0]]
    }, 
    {
      "op": "Activation", 
      "name": "activation764", 
      "attr": {"act_type": "tanh"}, 
      "inputs": [[646, 0, 0]]
    }, 
    {
      "op": "_mul", 
      "name": "_mul458", 
      "inputs": [[640, 0, 0], [647, 0, 0]]
    }, 
    {
      "op": "FullyConnected", 
      "name": "t66_l1_h2h", 
      "attr": {"num_hidden": "512"}, 
      "inputs": [[648, 0, 0], [6, 0, 0], [7, 0, 0]]
    }, 
    {
      "op": "elemwise_add", 
      "name": "_plus306", 
      "inputs": [[87, 0, 0], [649, 0, 0]]
    }, 
    {
      "op": "SliceChannel", 
      "name": "t66_l1_slice", 
      "attr": {"num_outputs": "4"}, 
      "inputs": [[650, 0, 0]]
    }, 
    {
      "op": "Activation", 
      "name": "activation768", 
      "attr": {"act_type": "sigmoid"}, 
      "inputs": [[651, 3, 0]]
    }, 
    {
      "op": "Activation", 
      "name": "activation767", 
      "attr": {"act_type": "sigmoid"}, 
      "inputs": [[651, 2, 0]]
    }, 
    {
      "op": "_mul", 
      "name": "_mul459", 
      "inputs": [[653, 0, 0], [646, 0, 0]]
    }, 
    {
      "op": "Activation", 
      "name": "activation765", 
      "attr": {"act_type": "sigmoid"}, 
      "inputs": [[651, 0, 0]]
    }, 
    {
      "op": "Activation", 
      "name": "activation766", 
      "attr": {"act_type": "tanh"}, 
      "inputs": [[651, 1, 0]]
    }, 
    {
      "op": "_mul", 
      "name": "_mul460", 
      "inputs": [[655, 0, 0], [656, 0, 0]]
    }, 
    {
      "op": "elemwise_add", 
      "name": "_plus307", 
      "inputs": [[654, 0, 0], [657, 0, 0]]
    }, 
    {
      "op": "Activation", 
      "name": "activation769", 
      "attr": {"act_type": "tanh"}, 
      "inputs": [[658, 0, 0]]
    }, 
    {
      "op": "_mul", 
      "name": "_mul461", 
      "inputs": [[652, 0, 0], [659, 0, 0]]
    }, 
    {
      "op": "FullyConnected", 
      "name": "t65_l1_h2h", 
      "attr": {"num_hidden": "512"}, 
      "inputs": [[660, 0, 0], [6, 0, 0], [7, 0, 0]]
    }, 
    {
      "op": "elemwise_add", 
      "name": "_plus308", 
      "inputs": [[86, 0, 0], [661, 0, 0]]
    }, 
    {
      "op": "SliceChannel", 
      "name": "t65_l1_slice", 
      "attr": {"num_outputs": "4"}, 
      "inputs": [[662, 0, 0]]
    }, 
    {
      "op": "Activation", 
      "name": "activation773", 
      "attr": {"act_type": "sigmoid"}, 
      "inputs": [[663, 3, 0]]
    }, 
    {
      "op": "Activation", 
      "name": "activation772", 
      "attr": {"act_type": "sigmoid"}, 
      "inputs": [[663, 2, 0]]
    }, 
    {
      "op": "_mul", 
      "name": "_mul462", 
      "inputs": [[665, 0, 0], [658, 0, 0]]
    }, 
    {
      "op": "Activation", 
      "name": "activation770", 
      "attr": {"act_type": "sigmoid"}, 
      "inputs": [[663, 0, 0]]
    }, 
    {
      "op": "Activation", 
      "name": "activation771", 
      "attr": {"act_type": "tanh"}, 
      "inputs": [[663, 1, 0]]
    }, 
    {
      "op": "_mul", 
      "name": "_mul463", 
      "inputs": [[667, 0, 0], [668, 0, 0]]
    }, 
    {
      "op": "elemwise_add", 
      "name": "_plus309", 
      "inputs": [[666, 0, 0], [669, 0, 0]]
    }, 
    {
      "op": "Activation", 
      "name": "activation774", 
      "attr": {"act_type": "tanh"}, 
      "inputs": [[670, 0, 0]]
    }, 
    {
      "op": "_mul", 
      "name": "_mul464", 
      "inputs": [[664, 0, 0], [671, 0, 0]]
    }, 
    {
      "op": "FullyConnected", 
      "name": "t64_l1_h2h", 
      "attr": {"num_hidden": "512"}, 
      "inputs": [[672, 0, 0], [6, 0, 0], [7, 0, 0]]
    }, 
    {
      "op": "elemwise_add", 
      "name": "_plus310", 
      "inputs": [[85, 0, 0], [673, 0, 0]]
    }, 
    {
      "op": "SliceChannel", 
      "name": "t64_l1_slice", 
      "attr": {"num_outputs": "4"}, 
      "inputs": [[674, 0, 0]]
    }, 
    {
      "op": "Activation", 
      "name": "activation778", 
      "attr": {"act_type": "sigmoid"}, 
      "inputs": [[675, 3, 0]]
    }, 
    {
      "op": "Activation", 
      "name": "activation777", 
      "attr": {"act_type": "sigmoid"}, 
      "inputs": [[675, 2, 0]]
    }, 
    {
      "op": "_mul", 
      "name": "_mul465", 
      "inputs": [[677, 0, 0], [670, 0, 0]]
    }, 
    {
      "op": "Activation", 
      "name": "activation775", 
      "attr": {"act_type": "sigmoid"}, 
      "inputs": [[675, 0, 0]]
    }, 
    {
      "op": "Activation", 
      "name": "activation776", 
      "attr": {"act_type": "tanh"}, 
      "inputs": [[675, 1, 0]]
    }, 
    {
      "op": "_mul", 
      "name": "_mul466", 
      "inputs": [[679, 0, 0], [680, 0, 0]]
    }, 
    {
      "op": "elemwise_add", 
      "name": "_plus311", 
      "inputs": [[678, 0, 0], [681, 0, 0]]
    }, 
    {
      "op": "Activation", 
      "name": "activation779", 
      "attr": {"act_type": "tanh"}, 
      "inputs": [[682, 0, 0]]
    }, 
    {
      "op": "_mul", 
      "name": "_mul467", 
      "inputs": [[676, 0, 0], [683, 0, 0]]
    }, 
    {
      "op": "FullyConnected", 
      "name": "t63_l1_h2h", 
      "attr": {"num_hidden": "512"}, 
      "inputs": [[684, 0, 0], [6, 0, 0], [7, 0, 0]]
    }, 
    {
      "op": "elemwise_add", 
      "name": "_plus312", 
      "inputs": [[84, 0, 0], [685, 0, 0]]
    }, 
    {
      "op": "SliceChannel", 
      "name": "t63_l1_slice", 
      "attr": {"num_outputs": "4"}, 
      "inputs": [[686, 0, 0]]
    }, 
    {
      "op": "Activation", 
      "name": "activation783", 
      "attr": {"act_type": "sigmoid"}, 
      "inputs": [[687, 3, 0]]
    }, 
    {
      "op": "Activation", 
      "name": "activation782", 
      "attr": {"act_type": "sigmoid"}, 
      "inputs": [[687, 2, 0]]
    }, 
    {
      "op": "_mul", 
      "name": "_mul468", 
      "inputs": [[689, 0, 0], [682, 0, 0]]
    }, 
    {
      "op": "Activation", 
      "name": "activation780", 
      "attr": {"act_type": "sigmoid"}, 
      "inputs": [[687, 0, 0]]
    }, 
    {
      "op": "Activation", 
      "name": "activation781", 
      "attr": {"act_type": "tanh"}, 
      "inputs": [[687, 1, 0]]
    }, 
    {
      "op": "_mul", 
      "name": "_mul469", 
      "inputs": [[691, 0, 0], [692, 0, 0]]
    }, 
    {
      "op": "elemwise_add", 
      "name": "_plus313", 
      "inputs": [[690, 0, 0], [693, 0, 0]]
    }, 
    {
      "op": "Activation", 
      "name": "activation784", 
      "attr": {"act_type": "tanh"}, 
      "inputs": [[694, 0, 0]]
    }, 
    {
      "op": "_mul", 
      "name": "_mul470", 
      "inputs": [[688, 0, 0], [695, 0, 0]]
    }, 
    {
      "op": "FullyConnected", 
      "name": "t62_l1_h2h", 
      "attr": {"num_hidden": "512"}, 
      "inputs": [[696, 0, 0], [6, 0, 0], [7, 0, 0]]
    }, 
    {
      "op": "elemwise_add", 
      "name": "_plus314", 
      "inputs": [[83, 0, 0], [697, 0, 0]]
    }, 
    {
      "op": "SliceChannel", 
      "name": "t62_l1_slice", 
      "attr": {"num_outputs": "4"}, 
      "inputs": [[698, 0, 0]]
    }, 
    {
      "op": "Activation", 
      "name": "activation788", 
      "attr": {"act_type": "sigmoid"}, 
      "inputs": [[699, 3, 0]]
    }, 
    {
      "op": "Activation", 
      "name": "activation787", 
      "attr": {"act_type": "sigmoid"}, 
      "inputs": [[699, 2, 0]]
    }, 
    {
      "op": "_mul", 
      "name": "_mul471", 
      "inputs": [[701, 0, 0], [694, 0, 0]]
    }, 
    {
      "op": "Activation", 
      "name": "activation785", 
      "attr": {"act_type": "sigmoid"}, 
      "inputs": [[699, 0, 0]]
    }, 
    {
      "op": "Activation", 
      "name": "activation786", 
      "attr": {"act_type": "tanh"}, 
      "inputs": [[699, 1, 0]]
    }, 
    {
      "op": "_mul", 
      "name": "_mul472", 
      "inputs": [[703, 0, 0], [704, 0, 0]]
    }, 
    {
      "op": "elemwise_add", 
      "name": "_plus315", 
      "inputs": [[702, 0, 0], [705, 0, 0]]
    }, 
    {
      "op": "Activation", 
      "name": "activation789", 
      "attr": {"act_type": "tanh"}, 
      "inputs": [[706, 0, 0]]
    }, 
    {
      "op": "_mul", 
      "name": "_mul473", 
      "inputs": [[700, 0, 0], [707, 0, 0]]
    }, 
    {
      "op": "FullyConnected", 
      "name": "t61_l1_h2h", 
      "attr": {"num_hidden": "512"}, 
      "inputs": [[708, 0, 0], [6, 0, 0], [7, 0, 0]]
    }, 
    {
      "op": "elemwise_add", 
      "name": "_plus316", 
      "inputs": [[82, 0, 0], [709, 0, 0]]
    }, 
    {
      "op": "SliceChannel", 
      "name": "t61_l1_slice", 
      "attr": {"num_outputs": "4"}, 
      "inputs": [[710, 0, 0]]
    }, 
    {
      "op": "Activation", 
      "name": "activation793", 
      "attr": {"act_type": "sigmoid"}, 
      "inputs": [[711, 3, 0]]
    }, 
    {
      "op": "Activation", 
      "name": "activation792", 
      "attr": {"act_type": "sigmoid"}, 
      "inputs": [[711, 2, 0]]
    }, 
    {
      "op": "_mul", 
      "name": "_mul474", 
      "inputs": [[713, 0, 0], [706, 0, 0]]
    }, 
    {
      "op": "Activation", 
      "name": "activation790", 
      "attr": {"act_type": "sigmoid"}, 
      "inputs": [[711, 0, 0]]
    }, 
    {
      "op": "Activation", 
      "name": "activation791", 
      "attr": {"act_type": "tanh"}, 
      "inputs": [[711, 1, 0]]
    }, 
    {
      "op": "_mul", 
      "name": "_mul475", 
      "inputs": [[715, 0, 0], [716, 0, 0]]
    }, 
    {
      "op": "elemwise_add", 
      "name": "_plus317", 
      "inputs": [[714, 0, 0], [717, 0, 0]]
    }, 
    {
      "op": "Activation", 
      "name": "activation794", 
      "attr": {"act_type": "tanh"}, 
      "inputs": [[718, 0, 0]]
    }, 
    {
      "op": "_mul", 
      "name": "_mul476", 
      "inputs": [[712, 0, 0], [719, 0, 0]]
    }, 
    {
      "op": "FullyConnected", 
      "name": "t60_l1_h2h", 
      "attr": {"num_hidden": "512"}, 
      "inputs": [[720, 0, 0], [6, 0, 0], [7, 0, 0]]
    }, 
    {
      "op": "elemwise_add", 
      "name": "_plus318", 
      "inputs": [[81, 0, 0], [721, 0, 0]]
    }, 
    {
      "op": "SliceChannel", 
      "name": "t60_l1_slice", 
      "attr": {"num_outputs": "4"}, 
      "inputs": [[722, 0, 0]]
    }, 
    {
      "op": "Activation", 
      "name": "activation798", 
      "attr": {"act_type": "sigmoid"}, 
      "inputs": [[723, 3, 0]]
    }, 
    {
      "op": "Activation", 
      "name": "activation797", 
      "attr": {"act_type": "sigmoid"}, 
      "inputs": [[723, 2, 0]]
    }, 
    {
      "op": "_mul", 
      "name": "_mul477", 
      "inputs": [[725, 0, 0], [718, 0, 0]]
    }, 
    {
      "op": "Activation", 
      "name": "activation795", 
      "attr": {"act_type": "sigmoid"}, 
      "inputs": [[723, 0, 0]]
    }, 
    {
      "op": "Activation", 
      "name": "activation796", 
      "attr": {"act_type": "tanh"}, 
      "inputs": [[723, 1, 0]]
    }, 
    {
      "op": "_mul", 
      "name": "_mul478", 
      "inputs": [[727, 0, 0], [728, 0, 0]]
    }, 
    {
      "op": "elemwise_add", 
      "name": "_plus319", 
      "inputs": [[726, 0, 0], [729, 0, 0]]
    }, 
    {
      "op": "Activation", 
      "name": "activation799", 
      "attr": {"act_type": "tanh"}, 
      "inputs": [[730, 0, 0]]
    }, 
    {
      "op": "_mul", 
      "name": "_mul479", 
      "inputs": [[724, 0, 0], [731, 0, 0]]
    }, 
    {
      "op": "FullyConnected", 
      "name": "t59_l1_h2h", 
      "attr": {"num_hidden": "512"}, 
      "inputs": [[732, 0, 0], [6, 0, 0], [7, 0, 0]]
    }, 
    {
      "op": "elemwise_add", 
      "name": "_plus320", 
      "inputs": [[80, 0, 0], [733, 0, 0]]
    }, 
    {
      "op": "SliceChannel", 
      "name": "t59_l1_slice", 
      "attr": {"num_outputs": "4"}, 
      "inputs": [[734, 0, 0]]
    }, 
    {
      "op": "Activation", 
      "name": "activation803", 
      "attr": {"act_type": "sigmoid"}, 
      "inputs": [[735, 3, 0]]
    }, 
    {
      "op": "Activation", 
      "name": "activation802", 
      "attr": {"act_type": "sigmoid"}, 
      "inputs": [[735, 2, 0]]
    }, 
    {
      "op": "_mul", 
      "name": "_mul480", 
      "inputs": [[737, 0, 0], [730, 0, 0]]
    }, 
    {
      "op": "Activation", 
      "name": "activation800", 
      "attr": {"act_type": "sigmoid"}, 
      "inputs": [[735, 0, 0]]
    }, 
    {
      "op": "Activation", 
      "name": "activation801", 
      "attr": {"act_type": "tanh"}, 
      "inputs": [[735, 1, 0]]
    }, 
    {
      "op": "_mul", 
      "name": "_mul481", 
      "inputs": [[739, 0, 0], [740, 0, 0]]
    }, 
    {
      "op": "elemwise_add", 
      "name": "_plus321", 
      "inputs": [[738, 0, 0], [741, 0, 0]]
    }, 
    {
      "op": "Activation", 
      "name": "activation804", 
      "attr": {"act_type": "tanh"}, 
      "inputs": [[742, 0, 0]]
    }, 
    {
      "op": "_mul", 
      "name": "_mul482", 
      "inputs": [[736, 0, 0], [743, 0, 0]]
    }, 
    {
      "op": "FullyConnected", 
      "name": "t58_l1_h2h", 
      "attr": {"num_hidden": "512"}, 
      "inputs": [[744, 0, 0], [6, 0, 0], [7, 0, 0]]
    }, 
    {
      "op": "elemwise_add", 
      "name": "_plus322", 
      "inputs": [[79, 0, 0], [745, 0, 0]]
    }, 
    {
      "op": "SliceChannel", 
      "name": "t58_l1_slice", 
      "attr": {"num_outputs": "4"}, 
      "inputs": [[746, 0, 0]]
    }, 
    {
      "op": "Activation", 
      "name": "activation808", 
      "attr": {"act_type": "sigmoid"}, 
      "inputs": [[747, 3, 0]]
    }, 
    {
      "op": "Activation", 
      "name": "activation807", 
      "attr": {"act_type": "sigmoid"}, 
      "inputs": [[747, 2, 0]]
    }, 
    {
      "op": "_mul", 
      "name": "_mul483", 
      "inputs": [[749, 0, 0], [742, 0, 0]]
    }, 
    {
      "op": "Activation", 
      "name": "activation805", 
      "attr": {"act_type": "sigmoid"}, 
      "inputs": [[747, 0, 0]]
    }, 
    {
      "op": "Activation", 
      "name": "activation806", 
      "attr": {"act_type": "tanh"}, 
      "inputs": [[747, 1, 0]]
    }, 
    {
      "op": "_mul", 
      "name": "_mul484", 
      "inputs": [[751, 0, 0], [752, 0, 0]]
    }, 
    {
      "op": "elemwise_add", 
      "name": "_plus323", 
      "inputs": [[750, 0, 0], [753, 0, 0]]
    }, 
    {
      "op": "Activation", 
      "name": "activation809", 
      "attr": {"act_type": "tanh"}, 
      "inputs": [[754, 0, 0]]
    }, 
    {
      "op": "_mul", 
      "name": "_mul485", 
      "inputs": [[748, 0, 0], [755, 0, 0]]
    }, 
    {
      "op": "FullyConnected", 
      "name": "t57_l1_h2h", 
      "attr": {"num_hidden": "512"}, 
      "inputs": [[756, 0, 0], [6, 0, 0], [7, 0, 0]]
    }, 
    {
      "op": "elemwise_add", 
      "name": "_plus324", 
      "inputs": [[78, 0, 0], [757, 0, 0]]
    }, 
    {
      "op": "SliceChannel", 
      "name": "t57_l1_slice", 
      "attr": {"num_outputs": "4"}, 
      "inputs": [[758, 0, 0]]
    }, 
    {
      "op": "Activation", 
      "name": "activation813", 
      "attr": {"act_type": "sigmoid"}, 
      "inputs": [[759, 3, 0]]
    }, 
    {
      "op": "Activation", 
      "name": "activation812", 
      "attr": {"act_type": "sigmoid"}, 
      "inputs": [[759, 2, 0]]
    }, 
    {
      "op": "_mul", 
      "name": "_mul486", 
      "inputs": [[761, 0, 0], [754, 0, 0]]
    }, 
    {
      "op": "Activation", 
      "name": "activation810", 
      "attr": {"act_type": "sigmoid"}, 
      "inputs": [[759, 0, 0]]
    }, 
    {
      "op": "Activation", 
      "name": "activation811", 
      "attr": {"act_type": "tanh"}, 
      "inputs": [[759, 1, 0]]
    }, 
    {
      "op": "_mul", 
      "name": "_mul487", 
      "inputs": [[763, 0, 0], [764, 0, 0]]
    }, 
    {
      "op": "elemwise_add", 
      "name": "_plus325", 
      "inputs": [[762, 0, 0], [765, 0, 0]]
    }, 
    {
      "op": "Activation", 
      "name": "activation814", 
      "attr": {"act_type": "tanh"}, 
      "inputs": [[766, 0, 0]]
    }, 
    {
      "op": "_mul", 
      "name": "_mul488", 
      "inputs": [[760, 0, 0], [767, 0, 0]]
    }, 
    {
      "op": "FullyConnected", 
      "name": "t56_l1_h2h", 
      "attr": {"num_hidden": "512"}, 
      "inputs": [[768, 0, 0], [6, 0, 0], [7, 0, 0]]
    }, 
    {
      "op": "elemwise_add", 
      "name": "_plus326", 
      "inputs": [[77, 0, 0], [769, 0, 0]]
    }, 
    {
      "op": "SliceChannel", 
      "name": "t56_l1_slice", 
      "attr": {"num_outputs": "4"}, 
      "inputs": [[770, 0, 0]]
    }, 
    {
      "op": "Activation", 
      "name": "activation818", 
      "attr": {"act_type": "sigmoid"}, 
      "inputs": [[771, 3, 0]]
    }, 
    {
      "op": "Activation", 
      "name": "activation817", 
      "attr": {"act_type": "sigmoid"}, 
      "inputs": [[771, 2, 0]]
    }, 
    {
      "op": "_mul", 
      "name": "_mul489", 
      "inputs": [[773, 0, 0], [766, 0, 0]]
    }, 
    {
      "op": "Activation", 
      "name": "activation815", 
      "attr": {"act_type": "sigmoid"}, 
      "inputs": [[771, 0, 0]]
    }, 
    {
      "op": "Activation", 
      "name": "activation816", 
      "attr": {"act_type": "tanh"}, 
      "inputs": [[771, 1, 0]]
    }, 
    {
      "op": "_mul", 
      "name": "_mul490", 
      "inputs": [[775, 0, 0], [776, 0, 0]]
    }, 
    {
      "op": "elemwise_add", 
      "name": "_plus327", 
      "inputs": [[774, 0, 0], [777, 0, 0]]
    }, 
    {
      "op": "Activation", 
      "name": "activation819", 
      "attr": {"act_type": "tanh"}, 
      "inputs": [[778, 0, 0]]
    }, 
    {
      "op": "_mul", 
      "name": "_mul491", 
      "inputs": [[772, 0, 0], [779, 0, 0]]
    }, 
    {
      "op": "FullyConnected", 
      "name": "t55_l1_h2h", 
      "attr": {"num_hidden": "512"}, 
      "inputs": [[780, 0, 0], [6, 0, 0], [7, 0, 0]]
    }, 
    {
      "op": "elemwise_add", 
      "name": "_plus328", 
      "inputs": [[76, 0, 0], [781, 0, 0]]
    }, 
    {
      "op": "SliceChannel", 
      "name": "t55_l1_slice", 
      "attr": {"num_outputs": "4"}, 
      "inputs": [[782, 0, 0]]
    }, 
    {
      "op": "Activation", 
      "name": "activation823", 
      "attr": {"act_type": "sigmoid"}, 
      "inputs": [[783, 3, 0]]
    }, 
    {
      "op": "Activation", 
      "name": "activation822", 
      "attr": {"act_type": "sigmoid"}, 
      "inputs": [[783, 2, 0]]
    }, 
    {
      "op": "_mul", 
      "name": "_mul492", 
      "inputs": [[785, 0, 0], [778, 0, 0]]
    }, 
    {
      "op": "Activation", 
      "name": "activation820", 
      "attr": {"act_type": "sigmoid"}, 
      "inputs": [[783, 0, 0]]
    }, 
    {
      "op": "Activation", 
      "name": "activation821", 
      "attr": {"act_type": "tanh"}, 
      "inputs": [[783, 1, 0]]
    }, 
    {
      "op": "_mul", 
      "name": "_mul493", 
      "inputs": [[787, 0, 0], [788, 0, 0]]
    }, 
    {
      "op": "elemwise_add", 
      "name": "_plus329", 
      "inputs": [[786, 0, 0], [789, 0, 0]]
    }, 
    {
      "op": "Activation", 
      "name": "activation824", 
      "attr": {"act_type": "tanh"}, 
      "inputs": [[790, 0, 0]]
    }, 
    {
      "op": "_mul", 
      "name": "_mul494", 
      "inputs": [[784, 0, 0], [791, 0, 0]]
    }, 
    {
      "op": "FullyConnected", 
      "name": "t54_l1_h2h", 
      "attr": {"num_hidden": "512"}, 
      "inputs": [[792, 0, 0], [6, 0, 0], [7, 0, 0]]
    }, 
    {
      "op": "elemwise_add", 
      "name": "_plus330", 
      "inputs": [[75, 0, 0], [793, 0, 0]]
    }, 
    {
      "op": "SliceChannel", 
      "name": "t54_l1_slice", 
      "attr": {"num_outputs": "4"}, 
      "inputs": [[794, 0, 0]]
    }, 
    {
      "op": "Activation", 
      "name": "activation828", 
      "attr": {"act_type": "sigmoid"}, 
      "inputs": [[795, 3, 0]]
    }, 
    {
      "op": "Activation", 
      "name": "activation827", 
      "attr": {"act_type": "sigmoid"}, 
      "inputs": [[795, 2, 0]]
    }, 
    {
      "op": "_mul", 
      "name": "_mul495", 
      "inputs": [[797, 0, 0], [790, 0, 0]]
    }, 
    {
      "op": "Activation", 
      "name": "activation825", 
      "attr": {"act_type": "sigmoid"}, 
      "inputs": [[795, 0, 0]]
    }, 
    {
      "op": "Activation", 
      "name": "activation826", 
      "attr": {"act_type": "tanh"}, 
      "inputs": [[795, 1, 0]]
    }, 
    {
      "op": "_mul", 
      "name": "_mul496", 
      "inputs": [[799, 0, 0], [800, 0, 0]]
    }, 
    {
      "op": "elemwise_add", 
      "name": "_plus331", 
      "inputs": [[798, 0, 0], [801, 0, 0]]
    }, 
    {
      "op": "Activation", 
      "name": "activation829", 
      "attr": {"act_type": "tanh"}, 
      "inputs": [[802, 0, 0]]
    }, 
    {
      "op": "_mul", 
      "name": "_mul497", 
      "inputs": [[796, 0, 0], [803, 0, 0]]
    }, 
    {
      "op": "FullyConnected", 
      "name": "t53_l1_h2h", 
      "attr": {"num_hidden": "512"}, 
      "inputs": [[804, 0, 0], [6, 0, 0], [7, 0, 0]]
    }, 
    {
      "op": "elemwise_add", 
      "name": "_plus332", 
      "inputs": [[74, 0, 0], [805, 0, 0]]
    }, 
    {
      "op": "SliceChannel", 
      "name": "t53_l1_slice", 
      "attr": {"num_outputs": "4"}, 
      "inputs": [[806, 0, 0]]
    }, 
    {
      "op": "Activation", 
      "name": "activation833", 
      "attr": {"act_type": "sigmoid"}, 
      "inputs": [[807, 3, 0]]
    }, 
    {
      "op": "Activation", 
      "name": "activation832", 
      "attr": {"act_type": "sigmoid"}, 
      "inputs": [[807, 2, 0]]
    }, 
    {
      "op": "_mul", 
      "name": "_mul498", 
      "inputs": [[809, 0, 0], [802, 0, 0]]
    }, 
    {
      "op": "Activation", 
      "name": "activation830", 
      "attr": {"act_type": "sigmoid"}, 
      "inputs": [[807, 0, 0]]
    }, 
    {
      "op": "Activation", 
      "name": "activation831", 
      "attr": {"act_type": "tanh"}, 
      "inputs": [[807, 1, 0]]
    }, 
    {
      "op": "_mul", 
      "name": "_mul499", 
      "inputs": [[811, 0, 0], [812, 0, 0]]
    }, 
    {
      "op": "elemwise_add", 
      "name": "_plus333", 
      "inputs": [[810, 0, 0], [813, 0, 0]]
    }, 
    {
      "op": "Activation", 
      "name": "activation834", 
      "attr": {"act_type": "tanh"}, 
      "inputs": [[814, 0, 0]]
    }, 
    {
      "op": "_mul", 
      "name": "_mul500", 
      "inputs": [[808, 0, 0], [815, 0, 0]]
    }, 
    {
      "op": "FullyConnected", 
      "name": "t52_l1_h2h", 
      "attr": {"num_hidden": "512"}, 
      "inputs": [[816, 0, 0], [6, 0, 0], [7, 0, 0]]
    }, 
    {
      "op": "elemwise_add", 
      "name": "_plus334", 
      "inputs": [[73, 0, 0], [817, 0, 0]]
    }, 
    {
      "op": "SliceChannel", 
      "name": "t52_l1_slice", 
      "attr": {"num_outputs": "4"}, 
      "inputs": [[818, 0, 0]]
    }, 
    {
      "op": "Activation", 
      "name": "activation838", 
      "attr": {"act_type": "sigmoid"}, 
      "inputs": [[819, 3, 0]]
    }, 
    {
      "op": "Activation", 
      "name": "activation837", 
      "attr": {"act_type": "sigmoid"}, 
      "inputs": [[819, 2, 0]]
    }, 
    {
      "op": "_mul", 
      "name": "_mul501", 
      "inputs": [[821, 0, 0], [814, 0, 0]]
    }, 
    {
      "op": "Activation", 
      "name": "activation835", 
      "attr": {"act_type": "sigmoid"}, 
      "inputs": [[819, 0, 0]]
    }, 
    {
      "op": "Activation", 
      "name": "activation836", 
      "attr": {"act_type": "tanh"}, 
      "inputs": [[819, 1, 0]]
    }, 
    {
      "op": "_mul", 
      "name": "_mul502", 
      "inputs": [[823, 0, 0], [824, 0, 0]]
    }, 
    {
      "op": "elemwise_add", 
      "name": "_plus335", 
      "inputs": [[822, 0, 0], [825, 0, 0]]
    }, 
    {
      "op": "Activation", 
      "name": "activation839", 
      "attr": {"act_type": "tanh"}, 
      "inputs": [[826, 0, 0]]
    }, 
    {
      "op": "_mul", 
      "name": "_mul503", 
      "inputs": [[820, 0, 0], [827, 0, 0]]
    }, 
    {
      "op": "FullyConnected", 
      "name": "t51_l1_h2h", 
      "attr": {"num_hidden": "512"}, 
      "inputs": [[828, 0, 0], [6, 0, 0], [7, 0, 0]]
    }, 
    {
      "op": "elemwise_add", 
      "name": "_plus336", 
      "inputs": [[72, 0, 0], [829, 0, 0]]
    }, 
    {
      "op": "SliceChannel", 
      "name": "t51_l1_slice", 
      "attr": {"num_outputs": "4"}, 
      "inputs": [[830, 0, 0]]
    }, 
    {
      "op": "Activation", 
      "name": "activation843", 
      "attr": {"act_type": "sigmoid"}, 
      "inputs": [[831, 3, 0]]
    }, 
    {
      "op": "Activation", 
      "name": "activation842", 
      "attr": {"act_type": "sigmoid"}, 
      "inputs": [[831, 2, 0]]
    }, 
    {
      "op": "_mul", 
      "name": "_mul504", 
      "inputs": [[833, 0, 0], [826, 0, 0]]
    }, 
    {
      "op": "Activation", 
      "name": "activation840", 
      "attr": {"act_type": "sigmoid"}, 
      "inputs": [[831, 0, 0]]
    }, 
    {
      "op": "Activation", 
      "name": "activation841", 
      "attr": {"act_type": "tanh"}, 
      "inputs": [[831, 1, 0]]
    }, 
    {
      "op": "_mul", 
      "name": "_mul505", 
      "inputs": [[835, 0, 0], [836, 0, 0]]
    }, 
    {
      "op": "elemwise_add", 
      "name": "_plus337", 
      "inputs": [[834, 0, 0], [837, 0, 0]]
    }, 
    {
      "op": "Activation", 
      "name": "activation844", 
      "attr": {"act_type": "tanh"}, 
      "inputs": [[838, 0, 0]]
    }, 
    {
      "op": "_mul", 
      "name": "_mul506", 
      "inputs": [[832, 0, 0], [839, 0, 0]]
    }, 
    {
      "op": "FullyConnected", 
      "name": "t50_l1_h2h", 
      "attr": {"num_hidden": "512"}, 
      "inputs": [[840, 0, 0], [6, 0, 0], [7, 0, 0]]
    }, 
    {
      "op": "elemwise_add", 
      "name": "_plus338", 
      "inputs": [[71, 0, 0], [841, 0, 0]]
    }, 
    {
      "op": "SliceChannel", 
      "name": "t50_l1_slice", 
      "attr": {"num_outputs": "4"}, 
      "inputs": [[842, 0, 0]]
    }, 
    {
      "op": "Activation", 
      "name": "activation848", 
      "attr": {"act_type": "sigmoid"}, 
      "inputs": [[843, 3, 0]]
    }, 
    {
      "op": "Activation", 
      "name": "activation847", 
      "attr": {"act_type": "sigmoid"}, 
      "inputs": [[843, 2, 0]]
    }, 
    {
      "op": "_mul", 
      "name": "_mul507", 
      "inputs": [[845, 0, 0], [838, 0, 0]]
    }, 
    {
      "op": "Activation", 
      "name": "activation845", 
      "attr": {"act_type": "sigmoid"}, 
      "inputs": [[843, 0, 0]]
    }, 
    {
      "op": "Activation", 
      "name": "activation846", 
      "attr": {"act_type": "tanh"}, 
      "inputs": [[843, 1, 0]]
    }, 
    {
      "op": "_mul", 
      "name": "_mul508", 
      "inputs": [[847, 0, 0], [848, 0, 0]]
    }, 
    {
      "op": "elemwise_add", 
      "name": "_plus339", 
      "inputs": [[846, 0, 0], [849, 0, 0]]
    }, 
    {
      "op": "Activation", 
      "name": "activation849", 
      "attr": {"act_type": "tanh"}, 
      "inputs": [[850, 0, 0]]
    }, 
    {
      "op": "_mul", 
      "name": "_mul509", 
      "inputs": [[844, 0, 0], [851, 0, 0]]
    }, 
    {
      "op": "FullyConnected", 
      "name": "t49_l1_h2h", 
      "attr": {"num_hidden": "512"}, 
      "inputs": [[852, 0, 0], [6, 0, 0], [7, 0, 0]]
    }, 
    {
      "op": "elemwise_add", 
      "name": "_plus340", 
      "inputs": [[70, 0, 0], [853, 0, 0]]
    }, 
    {
      "op": "SliceChannel", 
      "name": "t49_l1_slice", 
      "attr": {"num_outputs": "4"}, 
      "inputs": [[854, 0, 0]]
    }, 
    {
      "op": "Activation", 
      "name": "activation853", 
      "attr": {"act_type": "sigmoid"}, 
      "inputs": [[855, 3, 0]]
    }, 
    {
      "op": "Activation", 
      "name": "activation852", 
      "attr": {"act_type": "sigmoid"}, 
      "inputs": [[855, 2, 0]]
    }, 
    {
      "op": "_mul", 
      "name": "_mul510", 
      "inputs": [[857, 0, 0], [850, 0, 0]]
    }, 
    {
      "op": "Activation", 
      "name": "activation850", 
      "attr": {"act_type": "sigmoid"}, 
      "inputs": [[855, 0, 0]]
    }, 
    {
      "op": "Activation", 
      "name": "activation851", 
      "attr": {"act_type": "tanh"}, 
      "inputs": [[855, 1, 0]]
    }, 
    {
      "op": "_mul", 
      "name": "_mul511", 
      "inputs": [[859, 0, 0], [860, 0, 0]]
    }, 
    {
      "op": "elemwise_add", 
      "name": "_plus341", 
      "inputs": [[858, 0, 0], [861, 0, 0]]
    }, 
    {
      "op": "Activation", 
      "name": "activation854", 
      "attr": {"act_type": "tanh"}, 
      "inputs": [[862, 0, 0]]
    }, 
    {
      "op": "_mul", 
      "name": "_mul512", 
      "inputs": [[856, 0, 0], [863, 0, 0]]
    }, 
    {
      "op": "FullyConnected", 
      "name": "t48_l1_h2h", 
      "attr": {"num_hidden": "512"}, 
      "inputs": [[864, 0, 0], [6, 0, 0], [7, 0, 0]]
    }, 
    {
      "op": "elemwise_add", 
      "name": "_plus342", 
      "inputs": [[69, 0, 0], [865, 0, 0]]
    }, 
    {
      "op": "SliceChannel", 
      "name": "t48_l1_slice", 
      "attr": {"num_outputs": "4"}, 
      "inputs": [[866, 0, 0]]
    }, 
    {
      "op": "Activation", 
      "name": "activation858", 
      "attr": {"act_type": "sigmoid"}, 
      "inputs": [[867, 3, 0]]
    }, 
    {
      "op": "Activation", 
      "name": "activation857", 
      "attr": {"act_type": "sigmoid"}, 
      "inputs": [[867, 2, 0]]
    }, 
    {
      "op": "_mul", 
      "name": "_mul513", 
      "inputs": [[869, 0, 0], [862, 0, 0]]
    }, 
    {
      "op": "Activation", 
      "name": "activation855", 
      "attr": {"act_type": "sigmoid"}, 
      "inputs": [[867, 0, 0]]
    }, 
    {
      "op": "Activation", 
      "name": "activation856", 
      "attr": {"act_type": "tanh"}, 
      "inputs": [[867, 1, 0]]
    }, 
    {
      "op": "_mul", 
      "name": "_mul514", 
      "inputs": [[871, 0, 0], [872, 0, 0]]
    }, 
    {
      "op": "elemwise_add", 
      "name": "_plus343", 
      "inputs": [[870, 0, 0], [873, 0, 0]]
    }, 
    {
      "op": "Activation", 
      "name": "activation859", 
      "attr": {"act_type": "tanh"}, 
      "inputs": [[874, 0, 0]]
    }, 
    {
      "op": "_mul", 
      "name": "_mul515", 
      "inputs": [[868, 0, 0], [875, 0, 0]]
    }, 
    {
      "op": "FullyConnected", 
      "name": "t47_l1_h2h", 
      "attr": {"num_hidden": "512"}, 
      "inputs": [[876, 0, 0], [6, 0, 0], [7, 0, 0]]
    }, 
    {
      "op": "elemwise_add", 
      "name": "_plus344", 
      "inputs": [[68, 0, 0], [877, 0, 0]]
    }, 
    {
      "op": "SliceChannel", 
      "name": "t47_l1_slice", 
      "attr": {"num_outputs": "4"}, 
      "inputs": [[878, 0, 0]]
    }, 
    {
      "op": "Activation", 
      "name": "activation863", 
      "attr": {"act_type": "sigmoid"}, 
      "inputs": [[879, 3, 0]]
    }, 
    {
      "op": "Activation", 
      "name": "activation862", 
      "attr": {"act_type": "sigmoid"}, 
      "inputs": [[879, 2, 0]]
    }, 
    {
      "op": "_mul", 
      "name": "_mul516", 
      "inputs": [[881, 0, 0], [874, 0, 0]]
    }, 
    {
      "op": "Activation", 
      "name": "activation860", 
      "attr": {"act_type": "sigmoid"}, 
      "inputs": [[879, 0, 0]]
    }, 
    {
      "op": "Activation", 
      "name": "activation861", 
      "attr": {"act_type": "tanh"}, 
      "inputs": [[879, 1, 0]]
    }, 
    {
      "op": "_mul", 
      "name": "_mul517", 
      "inputs": [[883, 0, 0], [884, 0, 0]]
    }, 
    {
      "op": "elemwise_add", 
      "name": "_plus345", 
      "inputs": [[882, 0, 0], [885, 0, 0]]
    }, 
    {
      "op": "Activation", 
      "name": "activation864", 
      "attr": {"act_type": "tanh"}, 
      "inputs": [[886, 0, 0]]
    }, 
    {
      "op": "_mul", 
      "name": "_mul518", 
      "inputs": [[880, 0, 0], [887, 0, 0]]
    }, 
    {
      "op": "FullyConnected", 
      "name": "t46_l1_h2h", 
      "attr": {"num_hidden": "512"}, 
      "inputs": [[888, 0, 0], [6, 0, 0], [7, 0, 0]]
    }, 
    {
      "op": "elemwise_add", 
      "name": "_plus346", 
      "inputs": [[67, 0, 0], [889, 0, 0]]
    }, 
    {
      "op": "SliceChannel", 
      "name": "t46_l1_slice", 
      "attr": {"num_outputs": "4"}, 
      "inputs": [[890, 0, 0]]
    }, 
    {
      "op": "Activation", 
      "name": "activation868", 
      "attr": {"act_type": "sigmoid"}, 
      "inputs": [[891, 3, 0]]
    }, 
    {
      "op": "Activation", 
      "name": "activation867", 
      "attr": {"act_type": "sigmoid"}, 
      "inputs": [[891, 2, 0]]
    }, 
    {
      "op": "_mul", 
      "name": "_mul519", 
      "inputs": [[893, 0, 0], [886, 0, 0]]
    }, 
    {
      "op": "Activation", 
      "name": "activation865", 
      "attr": {"act_type": "sigmoid"}, 
      "inputs": [[891, 0, 0]]
    }, 
    {
      "op": "Activation", 
      "name": "activation866", 
      "attr": {"act_type": "tanh"}, 
      "inputs": [[891, 1, 0]]
    }, 
    {
      "op": "_mul", 
      "name": "_mul520", 
      "inputs": [[895, 0, 0], [896, 0, 0]]
    }, 
    {
      "op": "elemwise_add", 
      "name": "_plus347", 
      "inputs": [[894, 0, 0], [897, 0, 0]]
    }, 
    {
      "op": "Activation", 
      "name": "activation869", 
      "attr": {"act_type": "tanh"}, 
      "inputs": [[898, 0, 0]]
    }, 
    {
      "op": "_mul", 
      "name": "_mul521", 
      "inputs": [[892, 0, 0], [899, 0, 0]]
    }, 
    {
      "op": "FullyConnected", 
      "name": "t45_l1_h2h", 
      "attr": {"num_hidden": "512"}, 
      "inputs": [[900, 0, 0], [6, 0, 0], [7, 0, 0]]
    }, 
    {
      "op": "elemwise_add", 
      "name": "_plus348", 
      "inputs": [[66, 0, 0], [901, 0, 0]]
    }, 
    {
      "op": "SliceChannel", 
      "name": "t45_l1_slice", 
      "attr": {"num_outputs": "4"}, 
      "inputs": [[902, 0, 0]]
    }, 
    {
      "op": "Activation", 
      "name": "activation873", 
      "attr": {"act_type": "sigmoid"}, 
      "inputs": [[903, 3, 0]]
    }, 
    {
      "op": "Activation", 
      "name": "activation872", 
      "attr": {"act_type": "sigmoid"}, 
      "inputs": [[903, 2, 0]]
    }, 
    {
      "op": "_mul", 
      "name": "_mul522", 
      "inputs": [[905, 0, 0], [898, 0, 0]]
    }, 
    {
      "op": "Activation", 
      "name": "activation870", 
      "attr": {"act_type": "sigmoid"}, 
      "inputs": [[903, 0, 0]]
    }, 
    {
      "op": "Activation", 
      "name": "activation871", 
      "attr": {"act_type": "tanh"}, 
      "inputs": [[903, 1, 0]]
    }, 
    {
      "op": "_mul", 
      "name": "_mul523", 
      "inputs": [[907, 0, 0], [908, 0, 0]]
    }, 
    {
      "op": "elemwise_add", 
      "name": "_plus349", 
      "inputs": [[906, 0, 0], [909, 0, 0]]
    }, 
    {
      "op": "Activation", 
      "name": "activation874", 
      "attr": {"act_type": "tanh"}, 
      "inputs": [[910, 0, 0]]
    }, 
    {
      "op": "_mul", 
      "name": "_mul524", 
      "inputs": [[904, 0, 0], [911, 0, 0]]
    }, 
    {
      "op": "FullyConnected", 
      "name": "t44_l1_h2h", 
      "attr": {"num_hidden": "512"}, 
      "inputs": [[912, 0, 0], [6, 0, 0], [7, 0, 0]]
    }, 
    {
      "op": "elemwise_add", 
      "name": "_plus350", 
      "inputs": [[65, 0, 0], [913, 0, 0]]
    }, 
    {
      "op": "SliceChannel", 
      "name": "t44_l1_slice", 
      "attr": {"num_outputs": "4"}, 
      "inputs": [[914, 0, 0]]
    }, 
    {
      "op": "Activation", 
      "name": "activation878", 
      "attr": {"act_type": "sigmoid"}, 
      "inputs": [[915, 3, 0]]
    }, 
    {
      "op": "Activation", 
      "name": "activation877", 
      "attr": {"act_type": "sigmoid"}, 
      "inputs": [[915, 2, 0]]
    }, 
    {
      "op": "_mul", 
      "name": "_mul525", 
      "inputs": [[917, 0, 0], [910, 0, 0]]
    }, 
    {
      "op": "Activation", 
      "name": "activation875", 
      "attr": {"act_type": "sigmoid"}, 
      "inputs": [[915, 0, 0]]
    }, 
    {
      "op": "Activation", 
      "name": "activation876", 
      "attr": {"act_type": "tanh"}, 
      "inputs": [[915, 1, 0]]
    }, 
    {
      "op": "_mul", 
      "name": "_mul526", 
      "inputs": [[919, 0, 0], [920, 0, 0]]
    }, 
    {
      "op": "elemwise_add", 
      "name": "_plus351", 
      "inputs": [[918, 0, 0], [921, 0, 0]]
    }, 
    {
      "op": "Activation", 
      "name": "activation879", 
      "attr": {"act_type": "tanh"}, 
      "inputs": [[922, 0, 0]]
    }, 
    {
      "op": "_mul", 
      "name": "_mul527", 
      "inputs": [[916, 0, 0], [923, 0, 0]]
    }, 
    {
      "op": "FullyConnected", 
      "name": "t43_l1_h2h", 
      "attr": {"num_hidden": "512"}, 
      "inputs": [[924, 0, 0], [6, 0, 0], [7, 0, 0]]
    }, 
    {
      "op": "elemwise_add", 
      "name": "_plus352", 
      "inputs": [[64, 0, 0], [925, 0, 0]]
    }, 
    {
      "op": "SliceChannel", 
      "name": "t43_l1_slice", 
      "attr": {"num_outputs": "4"}, 
      "inputs": [[926, 0, 0]]
    }, 
    {
      "op": "Activation", 
      "name": "activation883", 
      "attr": {"act_type": "sigmoid"}, 
      "inputs": [[927, 3, 0]]
    }, 
    {
      "op": "Activation", 
      "name": "activation882", 
      "attr": {"act_type": "sigmoid"}, 
      "inputs": [[927, 2, 0]]
    }, 
    {
      "op": "_mul", 
      "name": "_mul528", 
      "inputs": [[929, 0, 0], [922, 0, 0]]
    }, 
    {
      "op": "Activation", 
      "name": "activation880", 
      "attr": {"act_type": "sigmoid"}, 
      "inputs": [[927, 0, 0]]
    }, 
    {
      "op": "Activation", 
      "name": "activation881", 
      "attr": {"act_type": "tanh"}, 
      "inputs": [[927, 1, 0]]
    }, 
    {
      "op": "_mul", 
      "name": "_mul529", 
      "inputs": [[931, 0, 0], [932, 0, 0]]
    }, 
    {
      "op": "elemwise_add", 
      "name": "_plus353", 
      "inputs": [[930, 0, 0], [933, 0, 0]]
    }, 
    {
      "op": "Activation", 
      "name": "activation884", 
      "attr": {"act_type": "tanh"}, 
      "inputs": [[934, 0, 0]]
    }, 
    {
      "op": "_mul", 
      "name": "_mul530", 
      "inputs": [[928, 0, 0], [935, 0, 0]]
    }, 
    {
      "op": "FullyConnected", 
      "name": "t42_l1_h2h", 
      "attr": {"num_hidden": "512"}, 
      "inputs": [[936, 0, 0], [6, 0, 0], [7, 0, 0]]
    }, 
    {
      "op": "elemwise_add", 
      "name": "_plus354", 
      "inputs": [[63, 0, 0], [937, 0, 0]]
    }, 
    {
      "op": "SliceChannel", 
      "name": "t42_l1_slice", 
      "attr": {"num_outputs": "4"}, 
      "inputs": [[938, 0, 0]]
    }, 
    {
      "op": "Activation", 
      "name": "activation888", 
      "attr": {"act_type": "sigmoid"}, 
      "inputs": [[939, 3, 0]]
    }, 
    {
      "op": "Activation", 
      "name": "activation887", 
      "attr": {"act_type": "sigmoid"}, 
      "inputs": [[939, 2, 0]]
    }, 
    {
      "op": "_mul", 
      "name": "_mul531", 
      "inputs": [[941, 0, 0], [934, 0, 0]]
    }, 
    {
      "op": "Activation", 
      "name": "activation885", 
      "attr": {"act_type": "sigmoid"}, 
      "inputs": [[939, 0, 0]]
    }, 
    {
      "op": "Activation", 
      "name": "activation886", 
      "attr": {"act_type": "tanh"}, 
      "inputs": [[939, 1, 0]]
    }, 
    {
      "op": "_mul", 
      "name": "_mul532", 
      "inputs": [[943, 0, 0], [944, 0, 0]]
    }, 
    {
      "op": "elemwise_add", 
      "name": "_plus355", 
      "inputs": [[942, 0, 0], [945, 0, 0]]
    }, 
    {
      "op": "Activation", 
      "name": "activation889", 
      "attr": {"act_type": "tanh"}, 
      "inputs": [[946, 0, 0]]
    }, 
    {
      "op": "_mul", 
      "name": "_mul533", 
      "inputs": [[940, 0, 0], [947, 0, 0]]
    }, 
    {
      "op": "FullyConnected", 
      "name": "t41_l1_h2h", 
      "attr": {"num_hidden": "512"}, 
      "inputs": [[948, 0, 0], [6, 0, 0], [7, 0, 0]]
    }, 
    {
      "op": "elemwise_add", 
      "name": "_plus356", 
      "inputs": [[62, 0, 0], [949, 0, 0]]
    }, 
    {
      "op": "SliceChannel", 
      "name": "t41_l1_slice", 
      "attr": {"num_outputs": "4"}, 
      "inputs": [[950, 0, 0]]
    }, 
    {
      "op": "Activation", 
      "name": "activation893", 
      "attr": {"act_type": "sigmoid"}, 
      "inputs": [[951, 3, 0]]
    }, 
    {
      "op": "Activation", 
      "name": "activation892", 
      "attr": {"act_type": "sigmoid"}, 
      "inputs": [[951, 2, 0]]
    }, 
    {
      "op": "_mul", 
      "name": "_mul534", 
      "inputs": [[953, 0, 0], [946, 0, 0]]
    }, 
    {
      "op": "Activation", 
      "name": "activation890", 
      "attr": {"act_type": "sigmoid"}, 
      "inputs": [[951, 0, 0]]
    }, 
    {
      "op": "Activation", 
      "name": "activation891", 
      "attr": {"act_type": "tanh"}, 
      "inputs": [[951, 1, 0]]
    }, 
    {
      "op": "_mul", 
      "name": "_mul535", 
      "inputs": [[955, 0, 0], [956, 0, 0]]
    }, 
    {
      "op": "elemwise_add", 
      "name": "_plus357", 
      "inputs": [[954, 0, 0], [957, 0, 0]]
    }, 
    {
      "op": "Activation", 
      "name": "activation894", 
      "attr": {"act_type": "tanh"}, 
      "inputs": [[958, 0, 0]]
    }, 
    {
      "op": "_mul", 
      "name": "_mul536", 
      "inputs": [[952, 0, 0], [959, 0, 0]]
    }, 
    {
      "op": "FullyConnected", 
      "name": "t40_l1_h2h", 
      "attr": {"num_hidden": "512"}, 
      "inputs": [[960, 0, 0], [6, 0, 0], [7, 0, 0]]
    }, 
    {
      "op": "elemwise_add", 
      "name": "_plus358", 
      "inputs": [[61, 0, 0], [961, 0, 0]]
    }, 
    {
      "op": "SliceChannel", 
      "name": "t40_l1_slice", 
      "attr": {"num_outputs": "4"}, 
      "inputs": [[962, 0, 0]]
    }, 
    {
      "op": "Activation", 
      "name": "activation898", 
      "attr": {"act_type": "sigmoid"}, 
      "inputs": [[963, 3, 0]]
    }, 
    {
      "op": "Activation", 
      "name": "activation897", 
      "attr": {"act_type": "sigmoid"}, 
      "inputs": [[963, 2, 0]]
    }, 
    {
      "op": "_mul", 
      "name": "_mul537", 
      "inputs": [[965, 0, 0], [958, 0, 0]]
    }, 
    {
      "op": "Activation", 
      "name": "activation895", 
      "attr": {"act_type": "sigmoid"}, 
      "inputs": [[963, 0, 0]]
    }, 
    {
      "op": "Activation", 
      "name": "activation896", 
      "attr": {"act_type": "tanh"}, 
      "inputs": [[963, 1, 0]]
    }, 
    {
      "op": "_mul", 
      "name": "_mul538", 
      "inputs": [[967, 0, 0], [968, 0, 0]]
    }, 
    {
      "op": "elemwise_add", 
      "name": "_plus359", 
      "inputs": [[966, 0, 0], [969, 0, 0]]
    }, 
    {
      "op": "Activation", 
      "name": "activation899", 
      "attr": {"act_type": "tanh"}, 
      "inputs": [[970, 0, 0]]
    }, 
    {
      "op": "_mul", 
      "name": "_mul539", 
      "inputs": [[964, 0, 0], [971, 0, 0]]
    }, 
    {
      "op": "FullyConnected", 
      "name": "t39_l1_h2h", 
      "attr": {"num_hidden": "512"}, 
      "inputs": [[972, 0, 0], [6, 0, 0], [7, 0, 0]]
    }, 
    {
      "op": "elemwise_add", 
      "name": "_plus360", 
      "inputs": [[60, 0, 0], [973, 0, 0]]
    }, 
    {
      "op": "SliceChannel", 
      "name": "t39_l1_slice", 
      "attr": {"num_outputs": "4"}, 
      "inputs": [[974, 0, 0]]
    }, 
    {
      "op": "Activation", 
      "name": "activation903", 
      "attr": {"act_type": "sigmoid"}, 
      "inputs": [[975, 3, 0]]
    }, 
    {
      "op": "Activation", 
      "name": "activation902", 
      "attr": {"act_type": "sigmoid"}, 
      "inputs": [[975, 2, 0]]
    }, 
    {
      "op": "_mul", 
      "name": "_mul540", 
      "inputs": [[977, 0, 0], [970, 0, 0]]
    }, 
    {
      "op": "Activation", 
      "name": "activation900", 
      "attr": {"act_type": "sigmoid"}, 
      "inputs": [[975, 0, 0]]
    }, 
    {
      "op": "Activation", 
      "name": "activation901", 
      "attr": {"act_type": "tanh"}, 
      "inputs": [[975, 1, 0]]
    }, 
    {
      "op": "_mul", 
      "name": "_mul541", 
      "inputs": [[979, 0, 0], [980, 0, 0]]
    }, 
    {
      "op": "elemwise_add", 
      "name": "_plus361", 
      "inputs": [[978, 0, 0], [981, 0, 0]]
    }, 
    {
      "op": "Activation", 
      "name": "activation904", 
      "attr": {"act_type": "tanh"}, 
      "inputs": [[982, 0, 0]]
    }, 
    {
      "op": "_mul", 
      "name": "_mul542", 
      "inputs": [[976, 0, 0], [983, 0, 0]]
    }, 
    {
      "op": "FullyConnected", 
      "name": "t38_l1_h2h", 
      "attr": {"num_hidden": "512"}, 
      "inputs": [[984, 0, 0], [6, 0, 0], [7, 0, 0]]
    }, 
    {
      "op": "elemwise_add", 
      "name": "_plus362", 
      "inputs": [[59, 0, 0], [985, 0, 0]]
    }, 
    {
      "op": "SliceChannel", 
      "name": "t38_l1_slice", 
      "attr": {"num_outputs": "4"}, 
      "inputs": [[986, 0, 0]]
    }, 
    {
      "op": "Activation", 
      "name": "activation908", 
      "attr": {"act_type": "sigmoid"}, 
      "inputs": [[987, 3, 0]]
    }, 
    {
      "op": "Activation", 
      "name": "activation907", 
      "attr": {"act_type": "sigmoid"}, 
      "inputs": [[987, 2, 0]]
    }, 
    {
      "op": "_mul", 
      "name": "_mul543", 
      "inputs": [[989, 0, 0], [982, 0, 0]]
    }, 
    {
      "op": "Activation", 
      "name": "activation905", 
      "attr": {"act_type": "sigmoid"}, 
      "inputs": [[987, 0, 0]]
    }, 
    {
      "op": "Activation", 
      "name": "activation906", 
      "attr": {"act_type": "tanh"}, 
      "inputs": [[987, 1, 0]]
    }, 
    {
      "op": "_mul", 
      "name": "_mul544", 
      "inputs": [[991, 0, 0], [992, 0, 0]]
    }, 
    {
      "op": "elemwise_add", 
      "name": "_plus363", 
      "inputs": [[990, 0, 0], [993, 0, 0]]
    }, 
    {
      "op": "Activation", 
      "name": "activation909", 
      "attr": {"act_type": "tanh"}, 
      "inputs": [[994, 0, 0]]
    }, 
    {
      "op": "_mul", 
      "name": "_mul545", 
      "inputs": [[988, 0, 0], [995, 0, 0]]
    }, 
    {
      "op": "FullyConnected", 
      "name": "t37_l1_h2h", 
      "attr": {"num_hidden": "512"}, 
      "inputs": [[996, 0, 0], [6, 0, 0], [7, 0, 0]]
    }, 
    {
      "op": "elemwise_add", 
      "name": "_plus364", 
      "inputs": [[58, 0, 0], [997, 0, 0]]
    }, 
    {
      "op": "SliceChannel", 
      "name": "t37_l1_slice", 
      "attr": {"num_outputs": "4"}, 
      "inputs": [[998, 0, 0]]
    }, 
    {
      "op": "Activation", 
      "name": "activation913", 
      "attr": {"act_type": "sigmoid"}, 
      "inputs": [[999, 3, 0]]
    }, 
    {
      "op": "Activation", 
      "name": "activation912", 
      "attr": {"act_type": "sigmoid"}, 
      "inputs": [[999, 2, 0]]
    }, 
    {
      "op": "_mul", 
      "name": "_mul546", 
      "inputs": [[1001, 0, 0], [994, 0, 0]]
    }, 
    {
      "op": "Activation", 
      "name": "activation910", 
      "attr": {"act_type": "sigmoid"}, 
      "inputs": [[999, 0, 0]]
    }, 
    {
      "op": "Activation", 
      "name": "activation911", 
      "attr": {"act_type": "tanh"}, 
      "inputs": [[999, 1, 0]]
    }, 
    {
      "op": "_mul", 
      "name": "_mul547", 
      "inputs": [[1003, 0, 0], [1004, 0, 0]]
    }, 
    {
      "op": "elemwise_add", 
      "name": "_plus365", 
      "inputs": [[1002, 0, 0], [1005, 0, 0]]
    }, 
    {
      "op": "Activation", 
      "name": "activation914", 
      "attr": {"act_type": "tanh"}, 
      "inputs": [[1006, 0, 0]]
    }, 
    {
      "op": "_mul", 
      "name": "_mul548", 
      "inputs": [[1000, 0, 0], [1007, 0, 0]]
    }, 
    {
      "op": "FullyConnected", 
      "name": "t36_l1_h2h", 
      "attr": {"num_hidden": "512"}, 
      "inputs": [[1008, 0, 0], [6, 0, 0], [7, 0, 0]]
    }, 
    {
      "op": "elemwise_add", 
      "name": "_plus366", 
      "inputs": [[57, 0, 0], [1009, 0, 0]]
    }, 
    {
      "op": "SliceChannel", 
      "name": "t36_l1_slice", 
      "attr": {"num_outputs": "4"}, 
      "inputs": [[1010, 0, 0]]
    }, 
    {
      "op": "Activation", 
      "name": "activation918", 
      "attr": {"act_type": "sigmoid"}, 
      "inputs": [[1011, 3, 0]]
    }, 
    {
      "op": "Activation", 
      "name": "activation917", 
      "attr": {"act_type": "sigmoid"}, 
      "inputs": [[1011, 2, 0]]
    }, 
    {
      "op": "_mul", 
      "name": "_mul549", 
      "inputs": [[1013, 0, 0], [1006, 0, 0]]
    }, 
    {
      "op": "Activation", 
      "name": "activation915", 
      "attr": {"act_type": "sigmoid"}, 
      "inputs": [[1011, 0, 0]]
    }, 
    {
      "op": "Activation", 
      "name": "activation916", 
      "attr": {"act_type": "tanh"}, 
      "inputs": [[1011, 1, 0]]
    }, 
    {
      "op": "_mul", 
      "name": "_mul550", 
      "inputs": [[1015, 0, 0], [1016, 0, 0]]
    }, 
    {
      "op": "elemwise_add", 
      "name": "_plus367", 
      "inputs": [[1014, 0, 0], [1017, 0, 0]]
    }, 
    {
      "op": "Activation", 
      "name": "activation919", 
      "attr": {"act_type": "tanh"}, 
      "inputs": [[1018, 0, 0]]
    }, 
    {
      "op": "_mul", 
      "name": "_mul551", 
      "inputs": [[1012, 0, 0], [1019, 0, 0]]
    }, 
    {
      "op": "FullyConnected", 
      "name": "t35_l1_h2h", 
      "attr": {"num_hidden": "512"}, 
      "inputs": [[1020, 0, 0], [6, 0, 0], [7, 0, 0]]
    }, 
    {
      "op": "elemwise_add", 
      "name": "_plus368", 
      "inputs": [[56, 0, 0], [1021, 0, 0]]
    }, 
    {
      "op": "SliceChannel", 
      "name": "t35_l1_slice", 
      "attr": {"num_outputs": "4"}, 
      "inputs": [[1022, 0, 0]]
    }, 
    {
      "op": "Activation", 
      "name": "activation923", 
      "attr": {"act_type": "sigmoid"}, 
      "inputs": [[1023, 3, 0]]
    }, 
    {
      "op": "Activation", 
      "name": "activation922", 
      "attr": {"act_type": "sigmoid"}, 
      "inputs": [[1023, 2, 0]]
    }, 
    {
      "op": "_mul", 
      "name": "_mul552", 
      "inputs": [[1025, 0, 0], [1018, 0, 0]]
    }, 
    {
      "op": "Activation", 
      "name": "activation920", 
      "attr": {"act_type": "sigmoid"}, 
      "inputs": [[1023, 0, 0]]
    }, 
    {
      "op": "Activation", 
      "name": "activation921", 
      "attr": {"act_type": "tanh"}, 
      "inputs": [[1023, 1, 0]]
    }, 
    {
      "op": "_mul", 
      "name": "_mul553", 
      "inputs": [[1027, 0, 0], [1028, 0, 0]]
    }, 
    {
      "op": "elemwise_add", 
      "name": "_plus369", 
      "inputs": [[1026, 0, 0], [1029, 0, 0]]
    }, 
    {
      "op": "Activation", 
      "name": "activation924", 
      "attr": {"act_type": "tanh"}, 
      "inputs": [[1030, 0, 0]]
    }, 
    {
      "op": "_mul", 
      "name": "_mul554", 
      "inputs": [[1024, 0, 0], [1031, 0, 0]]
    }, 
    {
      "op": "FullyConnected", 
      "name": "t34_l1_h2h", 
      "attr": {"num_hidden": "512"}, 
      "inputs": [[1032, 0, 0], [6, 0, 0], [7, 0, 0]]
    }, 
    {
      "op": "elemwise_add", 
      "name": "_plus370", 
      "inputs": [[55, 0, 0], [1033, 0, 0]]
    }, 
    {
      "op": "SliceChannel", 
      "name": "t34_l1_slice", 
      "attr": {"num_outputs": "4"}, 
      "inputs": [[1034, 0, 0]]
    }, 
    {
      "op": "Activation", 
      "name": "activation928", 
      "attr": {"act_type": "sigmoid"}, 
      "inputs": [[1035, 3, 0]]
    }, 
    {
      "op": "Activation", 
      "name": "activation927", 
      "attr": {"act_type": "sigmoid"}, 
      "inputs": [[1035, 2, 0]]
    }, 
    {
      "op": "_mul", 
      "name": "_mul555", 
      "inputs": [[1037, 0, 0], [1030, 0, 0]]
    }, 
    {
      "op": "Activation", 
      "name": "activation925", 
      "attr": {"act_type": "sigmoid"}, 
      "inputs": [[1035, 0, 0]]
    }, 
    {
      "op": "Activation", 
      "name": "activation926", 
      "attr": {"act_type": "tanh"}, 
      "inputs": [[1035, 1, 0]]
    }, 
    {
      "op": "_mul", 
      "name": "_mul556", 
      "inputs": [[1039, 0, 0], [1040, 0, 0]]
    }, 
    {
      "op": "elemwise_add", 
      "name": "_plus371", 
      "inputs": [[1038, 0, 0], [1041, 0, 0]]
    }, 
    {
      "op": "Activation", 
      "name": "activation929", 
      "attr": {"act_type": "tanh"}, 
      "inputs": [[1042, 0, 0]]
    }, 
    {
      "op": "_mul", 
      "name": "_mul557", 
      "inputs": [[1036, 0, 0], [1043, 0, 0]]
    }, 
    {
      "op": "FullyConnected", 
      "name": "t33_l1_h2h", 
      "attr": {"num_hidden": "512"}, 
      "inputs": [[1044, 0, 0], [6, 0, 0], [7, 0, 0]]
    }, 
    {
      "op": "elemwise_add", 
      "name": "_plus372", 
      "inputs": [[54, 0, 0], [1045, 0, 0]]
    }, 
    {
      "op": "SliceChannel", 
      "name": "t33_l1_slice", 
      "attr": {"num_outputs": "4"}, 
      "inputs": [[1046, 0, 0]]
    }, 
    {
      "op": "Activation", 
      "name": "activation933", 
      "attr": {"act_type": "sigmoid"}, 
      "inputs": [[1047, 3, 0]]
    }, 
    {
      "op": "Activation", 
      "name": "activation932", 
      "attr": {"act_type": "sigmoid"}, 
      "inputs": [[1047, 2, 0]]
    }, 
    {
      "op": "_mul", 
      "name": "_mul558", 
      "inputs": [[1049, 0, 0], [1042, 0, 0]]
    }, 
    {
      "op": "Activation", 
      "name": "activation930", 
      "attr": {"act_type": "sigmoid"}, 
      "inputs": [[1047, 0, 0]]
    }, 
    {
      "op": "Activation", 
      "name": "activation931", 
      "attr": {"act_type": "tanh"}, 
      "inputs": [[1047, 1, 0]]
    }, 
    {
      "op": "_mul", 
      "name": "_mul559", 
      "inputs": [[1051, 0, 0], [1052, 0, 0]]
    }, 
    {
      "op": "elemwise_add", 
      "name": "_plus373", 
      "inputs": [[1050, 0, 0], [1053, 0, 0]]
    }, 
    {
      "op": "Activation", 
      "name": "activation934", 
      "attr": {"act_type": "tanh"}, 
      "inputs": [[1054, 0, 0]]
    }, 
    {
      "op": "_mul", 
      "name": "_mul560", 
      "inputs": [[1048, 0, 0], [1055, 0, 0]]
    }, 
    {
      "op": "FullyConnected", 
      "name": "t32_l1_h2h", 
      "attr": {"num_hidden": "512"}, 
      "inputs": [[1056, 0, 0], [6, 0, 0], [7, 0, 0]]
    }, 
    {
      "op": "elemwise_add", 
      "name": "_plus374", 
      "inputs": [[53, 0, 0], [1057, 0, 0]]
    }, 
    {
      "op": "SliceChannel", 
      "name": "t32_l1_slice", 
      "attr": {"num_outputs": "4"}, 
      "inputs": [[1058, 0, 0]]
    }, 
    {
      "op": "Activation", 
      "name": "activation938", 
      "attr": {"act_type": "sigmoid"}, 
      "inputs": [[1059, 3, 0]]
    }, 
    {
      "op": "Activation", 
      "name": "activation937", 
      "attr": {"act_type": "sigmoid"}, 
      "inputs": [[1059, 2, 0]]
    }, 
    {
      "op": "_mul", 
      "name": "_mul561", 
      "inputs": [[1061, 0, 0], [1054, 0, 0]]
    }, 
    {
      "op": "Activation", 
      "name": "activation935", 
      "attr": {"act_type": "sigmoid"}, 
      "inputs": [[1059, 0, 0]]
    }, 
    {
      "op": "Activation", 
      "name": "activation936", 
      "attr": {"act_type": "tanh"}, 
      "inputs": [[1059, 1, 0]]
    }, 
    {
      "op": "_mul", 
      "name": "_mul562", 
      "inputs": [[1063, 0, 0], [1064, 0, 0]]
    }, 
    {
      "op": "elemwise_add", 
      "name": "_plus375", 
      "inputs": [[1062, 0, 0], [1065, 0, 0]]
    }, 
    {
      "op": "Activation", 
      "name": "activation939", 
      "attr": {"act_type": "tanh"}, 
      "inputs": [[1066, 0, 0]]
    }, 
    {
      "op": "_mul", 
      "name": "_mul563", 
      "inputs": [[1060, 0, 0], [1067, 0, 0]]
    }, 
    {
      "op": "FullyConnected", 
      "name": "t31_l1_h2h", 
      "attr": {"num_hidden": "512"}, 
      "inputs": [[1068, 0, 0], [6, 0, 0], [7, 0, 0]]
    }, 
    {
      "op": "elemwise_add", 
      "name": "_plus376", 
      "inputs": [[52, 0, 0], [1069, 0, 0]]
    }, 
    {
      "op": "SliceChannel", 
      "name": "t31_l1_slice", 
      "attr": {"num_outputs": "4"}, 
      "inputs": [[1070, 0, 0]]
    }, 
    {
      "op": "Activation", 
      "name": "activation943", 
      "attr": {"act_type": "sigmoid"}, 
      "inputs": [[1071, 3, 0]]
    }, 
    {
      "op": "Activation", 
      "name": "activation942", 
      "attr": {"act_type": "sigmoid"}, 
      "inputs": [[1071, 2, 0]]
    }, 
    {
      "op": "_mul", 
      "name": "_mul564", 
      "inputs": [[1073, 0, 0], [1066, 0, 0]]
    }, 
    {
      "op": "Activation", 
      "name": "activation940", 
      "attr": {"act_type": "sigmoid"}, 
      "inputs": [[1071, 0, 0]]
    }, 
    {
      "op": "Activation", 
      "name": "activation941", 
      "attr": {"act_type": "tanh"}, 
      "inputs": [[1071, 1, 0]]
    }, 
    {
      "op": "_mul", 
      "name": "_mul565", 
      "inputs": [[1075, 0, 0], [1076, 0, 0]]
    }, 
    {
      "op": "elemwise_add", 
      "name": "_plus377", 
      "inputs": [[1074, 0, 0], [1077, 0, 0]]
    }, 
    {
      "op": "Activation", 
      "name": "activation944", 
      "attr": {"act_type": "tanh"}, 
      "inputs": [[1078, 0, 0]]
    }, 
    {
      "op": "_mul", 
      "name": "_mul566", 
      "inputs": [[1072, 0, 0], [1079, 0, 0]]
    }, 
    {
      "op": "FullyConnected", 
      "name": "t30_l1_h2h", 
      "attr": {"num_hidden": "512"}, 
      "inputs": [[1080, 0, 0], [6, 0, 0], [7, 0, 0]]
    }, 
    {
      "op": "elemwise_add", 
      "name": "_plus378", 
      "inputs": [[51, 0, 0], [1081, 0, 0]]
    }, 
    {
      "op": "SliceChannel", 
      "name": "t30_l1_slice", 
      "attr": {"num_outputs": "4"}, 
      "inputs": [[1082, 0, 0]]
    }, 
    {
      "op": "Activation", 
      "name": "activation948", 
      "attr": {"act_type": "sigmoid"}, 
      "inputs": [[1083, 3, 0]]
    }, 
    {
      "op": "Activation", 
      "name": "activation947", 
      "attr": {"act_type": "sigmoid"}, 
      "inputs": [[1083, 2, 0]]
    }, 
    {
      "op": "_mul", 
      "name": "_mul567", 
      "inputs": [[1085, 0, 0], [1078, 0, 0]]
    }, 
    {
      "op": "Activation", 
      "name": "activation945", 
      "attr": {"act_type": "sigmoid"}, 
      "inputs": [[1083, 0, 0]]
    }, 
    {
      "op": "Activation", 
      "name": "activation946", 
      "attr": {"act_type": "tanh"}, 
      "inputs": [[1083, 1, 0]]
    }, 
    {
      "op": "_mul", 
      "name": "_mul568", 
      "inputs": [[1087, 0, 0], [1088, 0, 0]]
    }, 
    {
      "op": "elemwise_add", 
      "name": "_plus379", 
      "inputs": [[1086, 0, 0], [1089, 0, 0]]
    }, 
    {
      "op": "Activation", 
      "name": "activation949", 
      "attr": {"act_type": "tanh"}, 
      "inputs": [[1090, 0, 0]]
    }, 
    {
      "op": "_mul", 
      "name": "_mul569", 
      "inputs": [[1084, 0, 0], [1091, 0, 0]]
    }, 
    {
      "op": "FullyConnected", 
      "name": "t29_l1_h2h", 
      "attr": {"num_hidden": "512"}, 
      "inputs": [[1092, 0, 0], [6, 0, 0], [7, 0, 0]]
    }, 
    {
      "op": "elemwise_add", 
      "name": "_plus380", 
      "inputs": [[50, 0, 0], [1093, 0, 0]]
    }, 
    {
      "op": "SliceChannel", 
      "name": "t29_l1_slice", 
      "attr": {"num_outputs": "4"}, 
      "inputs": [[1094, 0, 0]]
    }, 
    {
      "op": "Activation", 
      "name": "activation953", 
      "attr": {"act_type": "sigmoid"}, 
      "inputs": [[1095, 3, 0]]
    }, 
    {
      "op": "Activation", 
      "name": "activation952", 
      "attr": {"act_type": "sigmoid"}, 
      "inputs": [[1095, 2, 0]]
    }, 
    {
      "op": "_mul", 
      "name": "_mul570", 
      "inputs": [[1097, 0, 0], [1090, 0, 0]]
    }, 
    {
      "op": "Activation", 
      "name": "activation950", 
      "attr": {"act_type": "sigmoid"}, 
      "inputs": [[1095, 0, 0]]
    }, 
    {
      "op": "Activation", 
      "name": "activation951", 
      "attr": {"act_type": "tanh"}, 
      "inputs": [[1095, 1, 0]]
    }, 
    {
      "op": "_mul", 
      "name": "_mul571", 
      "inputs": [[1099, 0, 0], [1100, 0, 0]]
    }, 
    {
      "op": "elemwise_add", 
      "name": "_plus381", 
      "inputs": [[1098, 0, 0], [1101, 0, 0]]
    }, 
    {
      "op": "Activation", 
      "name": "activation954", 
      "attr": {"act_type": "tanh"}, 
      "inputs": [[1102, 0, 0]]
    }, 
    {
      "op": "_mul", 
      "name": "_mul572", 
      "inputs": [[1096, 0, 0], [1103, 0, 0]]
    }, 
    {
      "op": "FullyConnected", 
      "name": "t28_l1_h2h", 
      "attr": {"num_hidden": "512"}, 
      "inputs": [[1104, 0, 0], [6, 0, 0], [7, 0, 0]]
    }, 
    {
      "op": "elemwise_add", 
      "name": "_plus382", 
      "inputs": [[49, 0, 0], [1105, 0, 0]]
    }, 
    {
      "op": "SliceChannel", 
      "name": "t28_l1_slice", 
      "attr": {"num_outputs": "4"}, 
      "inputs": [[1106, 0, 0]]
    }, 
    {
      "op": "Activation", 
      "name": "activation958", 
      "attr": {"act_type": "sigmoid"}, 
      "inputs": [[1107, 3, 0]]
    }, 
    {
      "op": "Activation", 
      "name": "activation957", 
      "attr": {"act_type": "sigmoid"}, 
      "inputs": [[1107, 2, 0]]
    }, 
    {
      "op": "_mul", 
      "name": "_mul573", 
      "inputs": [[1109, 0, 0], [1102, 0, 0]]
    }, 
    {
      "op": "Activation", 
      "name": "activation955", 
      "attr": {"act_type": "sigmoid"}, 
      "inputs": [[1107, 0, 0]]
    }, 
    {
      "op": "Activation", 
      "name": "activation956", 
      "attr": {"act_type": "tanh"}, 
      "inputs": [[1107, 1, 0]]
    }, 
    {
      "op": "_mul", 
      "name": "_mul574", 
      "inputs": [[1111, 0, 0], [1112, 0, 0]]
    }, 
    {
      "op": "elemwise_add", 
      "name": "_plus383", 
      "inputs": [[1110, 0, 0], [1113, 0, 0]]
    }, 
    {
      "op": "Activation", 
      "name": "activation959", 
      "attr": {"act_type": "tanh"}, 
      "inputs": [[1114, 0, 0]]
    }, 
    {
      "op": "_mul", 
      "name": "_mul575", 
      "inputs": [[1108, 0, 0], [1115, 0, 0]]
    }, 
    {
      "op": "FullyConnected", 
      "name": "t27_l1_h2h", 
      "attr": {"num_hidden": "512"}, 
      "inputs": [[1116, 0, 0], [6, 0, 0], [7, 0, 0]]
    }, 
    {
      "op": "elemwise_add", 
      "name": "_plus384", 
      "inputs": [[48, 0, 0], [1117, 0, 0]]
    }, 
    {
      "op": "SliceChannel", 
      "name": "t27_l1_slice", 
      "attr": {"num_outputs": "4"}, 
      "inputs": [[1118, 0, 0]]
    }, 
    {
      "op": "Activation", 
      "name": "activation963", 
      "attr": {"act_type": "sigmoid"}, 
      "inputs": [[1119, 3, 0]]
    }, 
    {
      "op": "Activation", 
      "name": "activation962", 
      "attr": {"act_type": "sigmoid"}, 
      "inputs": [[1119, 2, 0]]
    }, 
    {
      "op": "_mul", 
      "name": "_mul576", 
      "inputs": [[1121, 0, 0], [1114, 0, 0]]
    }, 
    {
      "op": "Activation", 
      "name": "activation960", 
      "attr": {"act_type": "sigmoid"}, 
      "inputs": [[1119, 0, 0]]
    }, 
    {
      "op": "Activation", 
      "name": "activation961", 
      "attr": {"act_type": "tanh"}, 
      "inputs": [[1119, 1, 0]]
    }, 
    {
      "op": "_mul", 
      "name": "_mul577", 
      "inputs": [[1123, 0, 0], [1124, 0, 0]]
    }, 
    {
      "op": "elemwise_add", 
      "name": "_plus385", 
      "inputs": [[1122, 0, 0], [1125, 0, 0]]
    }, 
    {
      "op": "Activation", 
      "name": "activation964", 
      "attr": {"act_type": "tanh"}, 
      "inputs": [[1126, 0, 0]]
    }, 
    {
      "op": "_mul", 
      "name": "_mul578", 
      "inputs": [[1120, 0, 0], [1127, 0, 0]]
    }, 
    {
      "op": "FullyConnected", 
      "name": "t26_l1_h2h", 
      "attr": {"num_hidden": "512"}, 
      "inputs": [[1128, 0, 0], [6, 0, 0], [7, 0, 0]]
    }, 
    {
      "op": "elemwise_add", 
      "name": "_plus386", 
      "inputs": [[47, 0, 0], [1129, 0, 0]]
    }, 
    {
      "op": "SliceChannel", 
      "name": "t26_l1_slice", 
      "attr": {"num_outputs": "4"}, 
      "inputs": [[1130, 0, 0]]
    }, 
    {
      "op": "Activation", 
      "name": "activation968", 
      "attr": {"act_type": "sigmoid"}, 
      "inputs": [[1131, 3, 0]]
…
      "attr": {"act_type": "sigmoid"}, 
      "inputs": [[2871, 0, 0]]
    }, 
    {
      "op": "Activation", 
      "name": "activation511", 
      "attr": {"act_type": "tanh"}, 
      "inputs": [[2871, 1, 0]]
    }, 
    {
      "op": "_mul", 
      "name": "_mul307", 
      "inputs": [[2875, 0, 0], [2876, 0, 0]]
    }, 
    {
      "op": "elemwise_add", 
      "name": "_plus205", 
      "inputs": [[2874, 0, 0], [2877, 0, 0]]
    }, 
    {
      "op": "Activation", 
      "name": "activation514", 
      "attr": {"act_type": "tanh"}, 
      "inputs": [[2878, 0, 0]]
    }, 
    {
      "op": "_mul", 
      "name": "_mul308", 
      "inputs": [[2872, 0, 0], [2879, 0, 0]]
    }, 
    {
      "op": "Concat", 
      "name": "concat102", 
      "attr": {"num_args": "2"}, 
      "inputs": [[2880, 0, 0], [228, 0, 0]]
    }, 
    {
      "op": "FullyConnected", 
      "name": "t103_l0_i2h", 
      "attr": {"num_hidden": "512"}, 
      "inputs": [[1, 103, 0], [2, 0, 0], [3, 0, 0]]
    }, 
    {
      "op": "FullyConnected", 
      "name": "t103_l0_h2h", 
      "attr": {"num_hidden": "512"}, 
      "inputs": [[2880, 0, 0], [6, 0, 0], [7, 0, 0]]
    }, 
    {
      "op": "elemwise_add", 
      "name": "_plus206", 
      "inputs": [[2882, 0, 0], [2883, 0, 0]]
    }, 
    {
      "op": "SliceChannel", 
      "name": "t103_l0_slice", 
      "attr": {"num_outputs": "4"}, 
      "inputs": [[2884, 0, 0]]
    }, 
    {
      "op": "Activation", 
      "name": "activation518", 
      "attr": {"act_type": "sigmoid"}, 
      "inputs": [[2885, 3, 0]]
    }, 
    {
      "op": "Activation", 
      "name": "activation517", 
      "attr": {"act_type": "sigmoid"}, 
      "inputs": [[2885, 2, 0]]
    }, 
    {
      "op": "_mul", 
      "name": "_mul309", 
      "inputs": [[2887, 0, 0], [2878, 0, 0]]
    }, 
    {
      "op": "Activation", 
      "name": "activation515", 
      "attr": {"act_type": "sigmoid"}, 
      "inputs": [[2885, 0, 0]]
    }, 
    {
      "op": "Activation", 
      "name": "activation516", 
      "attr": {"act_type": "tanh"}, 
      "inputs": [[2885, 1, 0]]
    }, 
    {
      "op": "_mul", 
      "name": "_mul310", 
      "inputs": [[2889, 0, 0], [2890, 0, 0]]
    }, 
    {
      "op": "elemwise_add", 
      "name": "_plus207", 
      "inputs": [[2888, 0, 0], [2891, 0, 0]]
    }, 
    {
      "op": "Activation", 
      "name": "activation519", 
      "attr": {"act_type": "tanh"}, 
      "inputs": [[2892, 0, 0]]
    }, 
    {
      "op": "_mul", 
      "name": "_mul311", 
      "inputs": [[2886, 0, 0], [2893, 0, 0]]
    }, 
    {
      "op": "Concat", 
      "name": "concat103", 
      "attr": {"num_args": "2"}, 
      "inputs": [[2894, 0, 0], [216, 0, 0]]
    }, 
    {
      "op": "FullyConnected", 
      "name": "t104_l0_i2h", 
      "attr": {"num_hidden": "512"}, 
      "inputs": [[1, 104, 0], [2, 0, 0], [3, 0, 0]]
    }, 
    {
      "op": "FullyConnected", 
      "name": "t104_l0_h2h", 
      "attr": {"num_hidden": "512"}, 
      "inputs": [[2894, 0, 0], [6, 0, 0], [7, 0, 0]]
    }, 
    {
      "op": "elemwise_add", 
      "name": "_plus208", 
      "inputs": [[2896, 0, 0], [2897, 0, 0]]
    }, 
    {
      "op": "SliceChannel", 
      "name": "t104_l0_slice", 
      "attr": {"num_outputs": "4"}, 
      "inputs": [[2898, 0, 0]]
    }, 
    {
      "op": "Activation", 
      "name": "activation523", 
      "attr": {"act_type": "sigmoid"}, 
      "inputs": [[2899, 3, 0]]
    }, 
    {
      "op": "Activation", 
      "name": "activation522", 
      "attr": {"act_type": "sigmoid"}, 
      "inputs": [[2899, 2, 0]]
    }, 
    {
      "op": "_mul", 
      "name": "_mul312", 
      "inputs": [[2901, 0, 0], [2892, 0, 0]]
    }, 
    {
      "op": "Activation", 
      "name": "activation520", 
      "attr": {"act_type": "sigmoid"}, 
      "inputs": [[2899, 0, 0]]
    }, 
    {
      "op": "Activation", 
      "name": "activation521", 
      "attr": {"act_type": "tanh"}, 
      "inputs": [[2899, 1, 0]]
    }, 
    {
      "op": "_mul", 
      "name": "_mul313", 
      "inputs": [[2903, 0, 0], [2904, 0, 0]]
    }, 
    {
      "op": "elemwise_add", 
      "name": "_plus209", 
      "inputs": [[2902, 0, 0], [2905, 0, 0]]
    }, 
    {
      "op": "Activation", 
      "name": "activation524", 
      "attr": {"act_type": "tanh"}, 
      "inputs": [[2906, 0, 0]]
    }, 
    {
      "op": "_mul", 
      "name": "_mul314", 
      "inputs": [[2900, 0, 0], [2907, 0, 0]]
    }, 
    {
      "op": "Concat", 
      "name": "concat104", 
      "attr": {"num_args": "2"}, 
      "inputs": [[2908, 0, 0], [204, 0, 0]]
    }, 
    {
      "op": "FullyConnected", 
      "name": "t105_l0_i2h", 
      "attr": {"num_hidden": "512"}, 
      "inputs": [[1, 105, 0], [2, 0, 0], [3, 0, 0]]
    }, 
    {
      "op": "FullyConnected", 
      "name": "t105_l0_h2h", 
      "attr": {"num_hidden": "512"}, 
      "inputs": [[2908, 0, 0], [6, 0, 0], [7, 0, 0]]
    }, 
    {
      "op": "elemwise_add", 
      "name": "_plus210", 
      "inputs": [[2910, 0, 0], [2911, 0, 0]]
    }, 
    {
      "op": "SliceChannel", 
      "name": "t105_l0_slice", 
      "attr": {"num_outputs": "4"}, 
      "inputs": [[2912, 0, 0]]
    }, 
    {
      "op": "Activation", 
      "name": "activation528", 
      "attr": {"act_type": "sigmoid"}, 
      "inputs": [[2913, 3, 0]]
    }, 
    {
      "op": "Activation", 
      "name": "activation527", 
      "attr": {"act_type": "sigmoid"}, 
      "inputs": [[2913, 2, 0]]
    }, 
    {
      "op": "_mul", 
      "name": "_mul315", 
      "inputs": [[2915, 0, 0], [2906, 0, 0]]
    }, 
    {
      "op": "Activation", 
      "name": "activation525", 
      "attr": {"act_type": "sigmoid"}, 
      "inputs": [[2913, 0, 0]]
    }, 
    {
      "op": "Activation", 
      "name": "activation526", 
      "attr": {"act_type": "tanh"}, 
      "inputs": [[2913, 1, 0]]
    }, 
    {
      "op": "_mul", 
      "name": "_mul316", 
      "inputs": [[2917, 0, 0], [2918, 0, 0]]
    }, 
    {
      "op": "elemwise_add", 
      "name": "_plus211", 
      "inputs": [[2916, 0, 0], [2919, 0, 0]]
    }, 
    {
      "op": "Activation", 
      "name": "activation529", 
      "attr": {"act_type": "tanh"}, 
      "inputs": [[2920, 0, 0]]
    }, 
    {
      "op": "_mul", 
      "name": "_mul317", 
      "inputs": [[2914, 0, 0], [2921, 0, 0]]
    }, 
    {
      "op": "Concat", 
      "name": "concat105", 
      "attr": {"num_args": "2"}, 
      "inputs": [[2922, 0, 0], [192, 0, 0]]
    }, 
    {
      "op": "FullyConnected", 
      "name": "t106_l0_i2h", 
      "attr": {"num_hidden": "512"}, 
      "inputs": [[1, 106, 0], [2, 0, 0], [3, 0, 0]]
    }, 
    {
      "op": "FullyConnected", 
      "name": "t106_l0_h2h", 
      "attr": {"num_hidden": "512"}, 
      "inputs": [[2922, 0, 0], [6, 0, 0], [7, 0, 0]]
    }, 
    {
      "op": "elemwise_add", 
      "name": "_plus212", 
      "inputs": [[2924, 0, 0], [2925, 0, 0]]
    }, 
    {
      "op": "SliceChannel", 
      "name": "t106_l0_slice", 
      "attr": {"num_outputs": "4"}, 
      "inputs": [[2926, 0, 0]]
    }, 
    {
      "op": "Activation", 
      "name": "activation533", 
      "attr": {"act_type": "sigmoid"}, 
      "inputs": [[2927, 3, 0]]
    }, 
    {
      "op": "Activation", 
      "name": "activation532", 
      "attr": {"act_type": "sigmoid"}, 
      "inputs": [[2927, 2, 0]]
    }, 
    {
      "op": "_mul", 
      "name": "_mul318", 
      "inputs": [[2929, 0, 0], [2920, 0, 0]]
    }, 
    {
      "op": "Activation", 
      "name": "activation530", 
      "attr": {"act_type": "sigmoid"}, 
      "inputs": [[2927, 0, 0]]
    }, 
    {
      "op": "Activation", 
      "name": "activation531", 
      "attr": {"act_type": "tanh"}, 
      "inputs": [[2927, 1, 0]]
    }, 
    {
      "op": "_mul", 
      "name": "_mul319", 
      "inputs": [[2931, 0, 0], [2932, 0, 0]]
    }, 
    {
      "op": "elemwise_add", 
      "name": "_plus213", 
      "inputs": [[2930, 0, 0], [2933, 0, 0]]
    }, 
    {
      "op": "Activation", 
      "name": "activation534", 
      "attr": {"act_type": "tanh"}, 
      "inputs": [[2934, 0, 0]]
    }, 
    {
      "op": "_mul", 
      "name": "_mul320", 
      "inputs": [[2928, 0, 0], [2935, 0, 0]]
    }, 
    {
      "op": "Concat", 
      "name": "concat106", 
      "attr": {"num_args": "2"}, 
      "inputs": [[2936, 0, 0], [180, 0, 0]]
    }, 
    {
      "op": "FullyConnected", 
      "name": "t107_l0_i2h", 
      "attr": {"num_hidden": "512"}, 
      "inputs": [[1, 107, 0], [2, 0, 0], [3, 0, 0]]
    }, 
    {
      "op": "FullyConnected", 
      "name": "t107_l0_h2h", 
      "attr": {"num_hidden": "512"}, 
      "inputs": [[2936, 0, 0], [6, 0, 0], [7, 0, 0]]
    }, 
    {
      "op": "elemwise_add", 
      "name": "_plus214", 
      "inputs": [[2938, 0, 0], [2939, 0, 0]]
    }, 
    {
      "op": "SliceChannel", 
      "name": "t107_l0_slice", 
      "attr": {"num_outputs": "4"}, 
      "inputs": [[2940, 0, 0]]
    }, 
    {
      "op": "Activation", 
      "name": "activation538", 
      "attr": {"act_type": "sigmoid"}, 
      "inputs": [[2941, 3, 0]]
    }, 
    {
      "op": "Activation", 
      "name": "activation537", 
      "attr": {"act_type": "sigmoid"}, 
      "inputs": [[2941, 2, 0]]
    }, 
    {
      "op": "_mul", 
      "name": "_mul321", 
      "inputs": [[2943, 0, 0], [2934, 0, 0]]
    }, 
    {
      "op": "Activation", 
      "name": "activation535", 
      "attr": {"act_type": "sigmoid"}, 
      "inputs": [[2941, 0, 0]]
    }, 
    {
      "op": "Activation", 
      "name": "activation536", 
      "attr": {"act_type": "tanh"}, 
      "inputs": [[2941, 1, 0]]
    }, 
    {
      "op": "_mul", 
      "name": "_mul322", 
      "inputs": [[2945, 0, 0], [2946, 0, 0]]
    }, 
    {
      "op": "elemwise_add", 
      "name": "_plus215", 
      "inputs": [[2944, 0, 0], [2947, 0, 0]]
    }, 
    {
      "op": "Activation", 
      "name": "activation539", 
      "attr": {"act_type": "tanh"}, 
      "inputs": [[2948, 0, 0]]
    }, 
    {
      "op": "_mul", 
      "name": "_mul323", 
      "inputs": [[2942, 0, 0], [2949, 0, 0]]
    }, 
    {
      "op": "Concat", 
      "name": "concat107", 
      "attr": {"num_args": "2"}, 
      "inputs": [[2950, 0, 0], [168, 0, 0]]
    }, 
    {
      "op": "FullyConnected", 
      "name": "t108_l0_i2h", 
      "attr": {"num_hidden": "512"}, 
      "inputs": [[1, 108, 0], [2, 0, 0], [3, 0, 0]]
    }, 
    {
      "op": "FullyConnected", 
      "name": "t108_l0_h2h", 
      "attr": {"num_hidden": "512"}, 
      "inputs": [[2950, 0, 0], [6, 0, 0], [7, 0, 0]]
    }, 
    {
      "op": "elemwise_add", 
      "name": "_plus216", 
      "inputs": [[2952, 0, 0], [2953, 0, 0]]
    }, 
    {
      "op": "SliceChannel", 
      "name": "t108_l0_slice", 
      "attr": {"num_outputs": "4"}, 
      "inputs": [[2954, 0, 0]]
    }, 
    {
      "op": "Activation", 
      "name": "activation543", 
      "attr": {"act_type": "sigmoid"}, 
      "inputs": [[2955, 3, 0]]
    }, 
    {
      "op": "Activation", 
      "name": "activation542", 
      "attr": {"act_type": "sigmoid"}, 
      "inputs": [[2955, 2, 0]]
    }, 
    {
      "op": "_mul", 
      "name": "_mul324", 
      "inputs": [[2957, 0, 0], [2948, 0, 0]]
    }, 
    {
      "op": "Activation", 
      "name": "activation540", 
      "attr": {"act_type": "sigmoid"}, 
      "inputs": [[2955, 0, 0]]
    }, 
    {
      "op": "Activation", 
      "name": "activation541", 
      "attr": {"act_type": "tanh"}, 
      "inputs": [[2955, 1, 0]]
    }, 
    {
      "op": "_mul", 
      "name": "_mul325", 
      "inputs": [[2959, 0, 0], [2960, 0, 0]]
    }, 
    {
      "op": "elemwise_add", 
      "name": "_plus217", 
      "inputs": [[2958, 0, 0], [2961, 0, 0]]
    }, 
    {
      "op": "Activation", 
      "name": "activation544", 
      "attr": {"act_type": "tanh"}, 
      "inputs": [[2962, 0, 0]]
    }, 
    {
      "op": "_mul", 
      "name": "_mul326", 
      "inputs": [[2956, 0, 0], [2963, 0, 0]]
    }, 
    {
      "op": "Concat", 
      "name": "concat108", 
      "attr": {"num_args": "2"}, 
      "inputs": [[2964, 0, 0], [156, 0, 0]]
    }, 
    {
      "op": "FullyConnected", 
      "name": "t109_l0_i2h", 
      "attr": {"num_hidden": "512"}, 
      "inputs": [[1, 109, 0], [2, 0, 0], [3, 0, 0]]
    }, 
    {
      "op": "FullyConnected", 
      "name": "t109_l0_h2h", 
      "attr": {"num_hidden": "512"}, 
      "inputs": [[2964, 0, 0], [6, 0, 0], [7, 0, 0]]
    }, 
    {
      "op": "elemwise_add", 
      "name": "_plus218", 
      "inputs": [[2966, 0, 0], [2967, 0, 0]]
    }, 
    {
      "op": "SliceChannel", 
      "name": "t109_l0_slice", 
      "attr": {"num_outputs": "4"}, 
      "inputs": [[2968, 0, 0]]
    }, 
    {
      "op": "Activation", 
      "name": "activation548", 
      "attr": {"act_type": "sigmoid"}, 
      "inputs": [[2969, 3, 0]]
    }, 
    {
      "op": "Activation", 
      "name": "activation547", 
      "attr": {"act_type": "sigmoid"}, 
      "inputs": [[2969, 2, 0]]
    }, 
    {
      "op": "_mul", 
      "name": "_mul327", 
      "inputs": [[2971, 0, 0], [2962, 0, 0]]
    }, 
    {
      "op": "Activation", 
      "name": "activation545", 
      "attr": {"act_type": "sigmoid"}, 
      "inputs": [[2969, 0, 0]]
    }, 
    {
      "op": "Activation", 
      "name": "activation546", 
      "attr": {"act_type": "tanh"}, 
      "inputs": [[2969, 1, 0]]
    }, 
    {
      "op": "_mul", 
      "name": "_mul328", 
      "inputs": [[2973, 0, 0], [2974, 0, 0]]
    }, 
    {
      "op": "elemwise_add", 
      "name": "_plus219", 
      "inputs": [[2972, 0, 0], [2975, 0, 0]]
    }, 
    {
      "op": "Activation", 
      "name": "activation549", 
      "attr": {"act_type": "tanh"}, 
      "inputs": [[2976, 0, 0]]
    }, 
    {
      "op": "_mul", 
      "name": "_mul329", 
      "inputs": [[2970, 0, 0], [2977, 0, 0]]
    }, 
    {
      "op": "Concat", 
      "name": "concat109", 
      "attr": {"num_args": "2"}, 
      "inputs": [[2978, 0, 0], [144, 0, 0]]
    }, 
    {
      "op": "Concat", 
      "name": "concat110", 
      "attr": {
        "dim": "0", 
        "num_args": "110"
      }, 
      "inputs": [
        [1453, 0, 0], 
        [1467, 0, 0], 
        [1481, 0, 0], 
        [1495, 0, 0], 
        [1509, 0, 0], 
        [1523, 0, 0], 
        [1537, 0, 0], 
        [1551, 0, 0], 
        [1565, 0, 0], 
        [1579, 0, 0], 
        [1593, 0, 0], 
        [1607, 0, 0], 
        [1621, 0, 0], 
        [1635, 0, 0], 
        [1649, 0, 0], 
        [1663, 0, 0], 
        [1677, 0, 0], 
        [1691, 0, 0], 
        [1705, 0, 0], 
        [1719, 0, 0], 
        [1733, 0, 0], 
        [1747, 0, 0], 
        [1761, 0, 0], 
        [1775, 0, 0], 
        [1789, 0, 0], 
        [1803, 0, 0], 
        [1817, 0, 0], 
        [1831, 0, 0], 
        [1845, 0, 0], 
        [1859, 0, 0], 
        [1873, 0, 0], 
        [1887, 0, 0], 
        [1901, 0, 0], 
        [1915, 0, 0], 
        [1929, 0, 0], 
        [1943, 0, 0], 
        [1957, 0, 0], 
        [1971, 0, 0], 
        [1985, 0, 0], 
        [1999, 0, 0], 
        [2013, 0, 0], 
        [2027, 0, 0], 
        [2041, 0, 0], 
        [2055, 0, 0], 
        [2069, 0, 0], 
        [2083, 0, 0], 
        [2097, 0, 0], 
        [2111, 0, 0], 
        [2125, 0, 0], 
        [2139, 0, 0], 
        [2153, 0, 0], 
        [2167, 0, 0], 
        [2181, 0, 0], 
        [2195, 0, 0], 
        [2209, 0, 0], 
        [2223, 0, 0], 
        [2237, 0, 0], 
        [2251, 0, 0], 
        [2265, 0, 0], 
        [2279, 0, 0], 
        [2293, 0, 0], 
        [2307, 0, 0], 
        [2321, 0, 0], 
        [2335, 0, 0], 
        [2349, 0, 0], 
        [2363, 0, 0], 
        [2377, 0, 0], 
        [2391, 0, 0], 
        [2405, 0, 0], 
        [2419, 0, 0], 
        [2433, 0, 0], 
        [2447, 0, 0], 
        [2461, 0, 0], 
        [2475, 0, 0], 
        [2489, 0, 0], 
        [2503, 0, 0], 
        [2517, 0, 0], 
        [2531, 0, 0], 
        [2545, 0, 0], 
        [2559, 0, 0], 
        [2573, 0, 0], 
        [2587, 0, 0], 
        [2601, 0, 0], 
        [2615, 0, 0], 
        [2629, 0, 0], 
        [2643, 0, 0], 
        [2657, 0, 0], 
        [2671, 0, 0], 
        [2685, 0, 0], 
        [2699, 0, 0], 
        [2713, 0, 0], 
        [2727, 0, 0], 
        [2741, 0, 0], 
        [2755, 0, 0], 
        [2769, 0, 0], 
        [2783, 0, 0], 
        [2797, 0, 0], 
        [2811, 0, 0], 
        [2825, 0, 0], 
        [2839, 0, 0], 
        [2853, 0, 0], 
        [2867, 0, 0], 
        [2881, 0, 0], 
        [2895, 0, 0], 
        [2909, 0, 0], 
        [2923, 0, 0], 
        [2937, 0, 0], 
        [2951, 0, 0], 
        [2965, 0, 0], 
        [2979, 0, 0]
      ]
    }, 
    {
      "op": "null", 
      "name": "fullyconnected0_weight", 
      "attr": {"num_hidden": "66"}, 
      "inputs": []
    }, 
    {
      "op": "null", 
      "name": "fullyconnected0_bias", 
      "attr": {"num_hidden": "66"}, 
      "inputs": []
    }, 
    {
      "op": "FullyConnected", 
      "name": "fullyconnected0", 
      "attr": {"num_hidden": "66"}, 
      "inputs": [[2980, 0, 0], [2981, 0, 0], [2982, 0, 0]]
    }, 
    {
      "op": "null", 
      "name": "label", 
      "inputs": []
    }, 
    {
      "op": "Reshape", 
      "name": "reshape0", 
      "attr": {"shape": "(-1,)"}, 
      "inputs": [[2984, 0, 0]]
    }, 
    {
      "op": "Cast", 
      "name": "cast0", 
      "attr": {"dtype": "int32"}, 
      "inputs": [[2985, 0, 0]]
    }, 
    {
      "op": "WarpCTC", 
      "name": "warpctc0", 
      "attr": {
        "input_length": "110", 
        "label_length": "7"
      }, 
      "inputs": [[2983, 0, 0], [2986, 0, 0]]
    }
  ], 
  "arg_nodes": [
    0, 
    2, 
    3, 
    5, 
    6, 
    7, 
    13, 
    131, 
    137, 
    2981, 
    2982, 
    2984
  ], 
  "node_row_ptr": [
    0, 
    1, 
    111, 
    112, 
    113, 
    114, 
    115, 
    116, 
    117, 
    118, 
    119, 
    123, 
    124, 
    125, 
    126, 
    127, 
    128, 
    129, 
    130, 
    131, 
    132, 
    133, 
    134, 
    135, 
    136, 
    137, 
    138, 
    139, 
    140, 
    141, 
    142, 
    143, 
    144, 
    145, 
    146, 
    147, 
    148, 
    149, 
    150, 
    151, 
    152, 
    153, 
    154, 
    155, 
    156, 
    157, 
    158, 
    159, 
    160, 
    161, 
    162, 
    163, 
    164, 
    165, 
    166, 
    167, 
    168, 
    169, 
    170, 
    171, 
    172, 
    173, 
    174, 
    175, 
    176, 
    177, 
    178, 
    179, 
    180, 
    181, 
    182, 
    183, 
    184, 
    185, 
    186, 
    187, 
    188, 
    189, 
    190, 
    191, 
    192, 
    193, 
    194, 
    195, 
    196, 
    197, 
    198, 
    199, 
    200, 
    201, 
    202, 
    203, 
    204, 
    205, 
    206, 
    207, 
    208, 
    209, 
    210, 
    211, 
    212, 
    213, 
    214, 
    215, 
    216, 
    217, 
    218, 
    219, 
    220, 
    221, 
    222, 
    223, 
    224, 
    225, 
    226, 
    227, 
    228, 
    229, 
    230, 
    231, 
    232, 
    233, 
    234, 
    235, 
    236, 
    237, 
    238, 
    239, 
    240, 
    241, 
    242, 
    243, 
    244, 
    245, 
    246, 
    250, 
    251, 
    252, 
    253, 
    254, 
    255, 
    256, 
    257, 
    258, 
    259, 
    260, 
    261, 
    262, 
    266, 
    267, 
    268, 
    269, 
    270, 
    271, 
    272, 
    273, 
    274, 
    275, 
    276, 
    277, 
    281, 
    282, 
    283, 
    284, 
    285, 
    286, 
    287, 
    288, 
    289, 
    290, 
    291, 
    292, 
    296, 
    297, 
    298, 
    299, 
    300, 
    301, 
    302, 
    303, 
    304, 
    305, 
    306, 
    307, 
    311, 
    312, 
    313, 
    314, 
    315, 
    316, 
    317, 
    318, 
    319, 
    320, 
    321, 
    322, 
    326, 
    327, 
    328, 
    329, 
    330, 
    331, 
    332, 
    333, 
    334, 
    335, 
    336, 
    337, 
    341, 
    342, 
    343, 
    344, 
    345, 
    346, 
    347, 
    348, 
    349, 
    350, 
    351, 
    352, 
    356, 
    357, 
    358, 
    359, 
    360, 
    361, 
    362, 
    363, 
    364, 
    365, 
    366, 
    367, 
    371, 
    372, 
    373, 
    374, 
    375, 
    376, 
    377, 
    378, 
    379, 
    380, 
    381, 
    382, 
    386, 
    387, 
    388, 
    389, 
    390, 
    391, 
    392, 
    393, 
    394, 
    395, 
    396, 
    397, 
    401, 
    402, 
    403, 
    404, 
    405, 
    406, 
    407, 
    408, 
    409, 
    410, 
    411, 
    412, 
    416, 
    417, 
    418, 
    419, 
    420, 
    421, 
    422, 
    423, 
    424, 
    425, 
    426, 
    427, 
    431, 
    432, 
    433, 
    434, 
    435, 
    436, 
    437, 
    438, 
    439, 
    440, 
    441, 
    442, 
    446, 
    447, 
    448, 
    449, 
    450, 
    451, 
    452, 
    453, 
    454, 
    455, 
    456, 
    457, 
    461, 
    462, 
    463, 
    464, 
    465, 
    466, 
    467, 
    468, 
    469, 
    470, 
    471, 
    472, 
    476, 
    477, 
    478, 
    479, 
    480, 
    481, 
    482, 
    483, 
    484, 
    485, 
    486, 
    487, 
    491, 
    492, 
    493, 
    494, 
    495, 
    496, 
    497, 
    498, 
    499, 
    500, 
    501, 
    502, 
    506, 
    507, 
    508, 
    509, 
    510, 
    511, 
    512, 
    513, 
    514, 
    515, 
    516, 
    517, 
    521, 
    522, 
    523, 
    524, 
    525, 
    526, 
    527, 
    528, 
    529, 
    530, 
    531, 
    532, 
    536, 
    537, 
    538, 
    539, 
    540, 
    541, 
    542, 
    543, 
    544, 
    545, 
    546, 
    547, 
    551, 
    552, 
    553, 
    554, 
    555, 
    556, 
    557, 
    558, 
    559, 
    560, 
    561, 
    562, 
    566, 
    567, 
    568, 
    569, 
    570, 
    571, 
    572, 
    573, 
    574, 
    575, 
    576, 
    577, 
    581, 
    582, 
    583, 
    584, 
    585, 
    586, 
    587, 
    588, 
    589, 
    590, 
    591, 
    592, 
    596, 
    597, 
    598, 
    599, 
    600, 
    601, 
    602, 
    603, 
    604, 
    605, 
    606, 
    607, 
    611, 
    612, 
    613, 
    614, 
    615, 
    616, 
    617, 
    618, 
    619, 
    620, 
    621, 
    622, 
    626, 
    627, 
    628, 
    629, 
    630, 
    631, 
    632, 
    633, 
    634, 
    635, 
    636, 
    637, 
    641, 
    642, 
    643, 
    644, 
    645, 
    646, 
    647, 
    648, 
    649, 
    650, 
    651, 
    652, 
    656, 
    657, 
    658, 
    659, 
    660, 
    661, 
    662, 
    663, 
    664, 
    665, 
    666, 
    667, 
    671, 
    672, 
    673, 
    674, 
    675, 
    676, 
    677, 
    678, 
    679, 
    680, 
    681, 
    682, 
    686, 
    687, 
    688, 
    689, 
    690, 
    691, 
    692, 
    693, 
    694, 
    695, 
    696, 
    697, 
    701, 
    702, 
    703, 
    704, 
    705, 
    706, 
    707, 
    708, 
    709, 
    710, 
    711, 
    712, 
    716, 
    717, 
    718, 
    719, 
    720, 
    721, 
    722, 
    723, 
    724, 
    725, 
    726, 
    727, 
    731, 
    732, 
    733, 
    734, 
    735, 
    736, 
    737, 
    738, 
    739, 
    740, 
    741, 
    742, 
    746, 
    747, 
    748, 
    749, 
    750, 
    751, 
    752, 
    753, 
    754, 
    755, 
    756, 
    757, 
    761, 
    762, 
    763, 
    764, 
    765, 
    766, 
    767, 
    768, 
    769, 
    770, 
    771, 
    772, 
    776, 
    777, 
    778, 
    779, 
    780, 
    781, 
    782, 
    783, 
    784, 
    785, 
    786, 
    787, 
    791, 
    792, 
    793, 
    794, 
    795, 
    796, 
    797, 
    798, 
    799, 
    800, 
    801, 
    802, 
    806, 
    807, 
    808, 
    809, 
    810, 
    811, 
    812, 
    813, 
    814, 
    815, 
    816, 
    817, 
    821, 
    822, 
    823, 
    824, 
    825, 
    826, 
    827, 
    828, 
    829, 
    830, 
    831, 
    832, 
    836, 
    837, 
    838, 
    839, 
    840, 
    841, 
    842, 
    843, 
    844, 
    845, 
    846, 
    847, 
    851, 
    852, 
    853, 
    854, 
    855, 
    856, 
    857, 
    858, 
    859, 
    860, 
    861, 
    862, 
    866, 
    867, 
    868, 
    869, 
    870, 
    871, 
    872, 
    873, 
    874, 
    875, 
    876, 
    877, 
    881, 
    882, 
    883, 
    884, 
    885, 
    886, 
    887, 
    888, 
    889, 
    890, 
    891, 
    892, 
    896, 
    897, 
    898, 
    899, 
    900, 
    901, 
    902, 
    903, 
    904, 
    905, 
    906, 
    907, 
    911, 
    912, 
    913, 
    914, 
    915, 
    916, 
    917, 
    918, 
    919, 
    920, 
    921, 
    922, 
    926, 
    927, 
    928, 
    929, 
    930, 
    931, 
    932, 
    933, 
    934, 
    935, 
    936, 
    937, 
    941, 
    942, 
    943, 
    944, 
    945, 
    946, 
    947, 
    948, 
    949, 
    950, 
    951, 
    952, 
    956, 
    957, 
    958, 
    959, 
    960, 
    961, 
    962, 
    963, 
    964, 
    965, 
    966, 
    967, 
    971, 
    972, 
    973, 
    974, 
    975, 
    976, 
    977, 
    978, 
    979, 
    980, 
    981, 
    982, 
    986, 
    987, 
    988, 
    989, 
    990, 
    991, 
    992, 
    993, 
    994, 
    995, 
    996, 
    997, 
    1001, 
    1002, 
    1003, 
    1004, 
    1005, 
    1006, 
    1007, 
    1008, 
    1009, 
    1010, 
    1011, 
    1012, 
    1016, 
    1017, 
    1018, 
    1019, 
    1020, 
    1021, 
    1022, 
    1023, 
    1024, 
    1025, 
    1026, 
    1027, 
    1031, 
    1032, 
    1033, 
    1034, 
    1035, 
    1036, 
    1037, 
    1038, 
    1039, 
    1040, 
    1041, 
    1042, 
    1046, 
    1047, 
    1048, 
    1049, 
    1050, 
    1051, 
    1052, 
    1053, 
    1054, 
    1055, 
    1056, 
    1057, 
    1061, 
    1062, 
    1063, 
    1064, 
    1065, 
    1066, 
    1067, 
    1068, 
    1069, 
    1070, 
    1071, 
    1072, 
    1076, 
    1077, 
    1078, 
    1079, 
    1080, 
    1081, 
    1082, 
    1083, 
    1084, 
    1085, 
    1086, 
    1087, 
    1091, 
    1092, 
    1093, 
    1094, 
    1095, 
    1096, 
    1097, 
    1098, 
    1099, 
    1100, 
    1101, 
    1102, 
    1106, 
    1107, 
    1108, 
    1109, 
    1110, 
    1111, 
    1112, 
    1113, 
    1114, 
    1115, 
    1116, 
    1117, 
    1121, 
    1122, 
    1123, 
    1124, 
    1125, 
    1126, 
    1127, 
    1128, 
    1129, 
    1130, 
    1131, 
    1132, 
    1136, 
    1137, 
    1138, 
    1139, 
    1140, 
    1141, 
    1142, 
    1143, 
    1144, 
    1145, 
    1146, 
    1147, 
    1151, 
    1152, 
    1153, 
    1154, 
    1155, 
    1156, 
    1157, 
    1158, 
    1159, 
    1160, 
    1161, 
    1162, 
    1166, 
    1167, 
    1168, 
    1169, 
    1170, 
    1171, 
    1172, 
    1173, 
    1174, 
    1175, 
    1176, 
    1177, 
    1181, 
    1182, 
    1183, 
    1184, 
    1185, 
    1186, 
    1187, 
    1188, 
    1189, 
    1190, 
    1191, 
    1192, 
    1196, 
    1197, 
    1198, 
    1199, 
    1200, 
    1201, 
    1202, 
    1203, 
    1204, 
    1205, 
    1206, 
    1207, 
    1211, 
    1212, 
    1213, 
    1214, 
    1215, 
    1216, 
    1217, 
    1218, 
    1219, 
    1220, 
    1221, 
    1222, 
    1226, 
    1227, 
    1228, 
    1229, 
    1230, 
    1231, 
    1232, 
    1233, 
    1234, 
    1235, 
    1236, 
    1237, 
    1241, 
    1242, 
    1243, 
    1244, 
    1245, 
    1246, 
    1247, 
    1248, 
    1249, 
    1250, 
    1251, 
    1252, 
    1256, 
    1257, 
    1258, 
    1259, 
    1260, 
    1261, 
    1262, 
    1263, 
    1264, 
    1265, 
    1266, 
    1267, 
    1271, 
    1272, 
    1273, 
    1274, 
    1275, 
    1276, 
    1277, 
    1278, 
    1279, 
    1280, 
    1281, 
    1282, 
    1286, 
    1287, 
    1288, 
    1289, 
    1290, 
    1291, 
    1292, 
    1293, 
    1294, 
    1295, 
    1296, 
    1297, 
    1301, 
    1302, 
    1303, 
    1304, 
    1305, 
    1306, 
    1307, 
    1308, 
    1309, 
    1310, 
    1311, 
    1312, 
    1316, 
    1317, 
    1318, 
    1319, 
    1320, 
    1321, 
    1322, 
    1323, 
    1324, 
    1325, 
    1326, 
    1327, 
    1331, 
    1332, 
    1333, 
    1334, 
    1335, 
    1336, 
    1337, 
    1338, 
    1339, 
    1340, 
    1341, 
    1342, 
    1346, 
    1347, 
    1348, 
    1349, 
    1350, 
    1351, 
    1352, 
    1353, 
    1354, 
    1355, 
    1356, 
    1357, 
    1361, 
    1362, 
    1363, 
    1364, 
    1365, 
    1366, 
    1367, 
    1368, 
    1369, 
    1370, 
    1371, 
    1372, 
    1376, 
    1377, 
    1378, 
    1379, 
    1380, 
    1381, 
    1382, 
    1383, 
    1384, 
    1385, 
    1386, 
    1387, 
    1391, 
    1392, 
    1393, 
    1394, 
    1395, 
    1396, 
    1397, 
    1398, 
    1399, 
    1400, 
    1401, 
    1402, 
    1406, 
    1407, 
    1408, 
    1409, 
    1410, 
    1411, 
    1412, 
    1413, 
    1414, 
    1415, 
    1416, 
    1417, 
    1421, 
    1422, 
    1423, 
    1424, 
    1425, 
    1426, 
    1427, 
    1428, 
    1429, 
    1430, 
    1431, 
    1432, 
    1436, 
    1437, 
    1438, 
    1439, 
    1440, 
    1441, 
    1442, 
    1443, 
    1444, 
    1445, 
    1446, 
    1447, 
    1451, 
    1452, 
    1453, 
    1454, 
    1455, 
    1456, 
    1457, 
    1458, 
    1459, 
    1460, 
    1461, 
    1462, 
    1466, 
    1467, 
    1468, 
    1469, 
    1470, 
    1471, 
    1472, 
    1473, 
    1474, 
    1475, 
    1476, 
    1477, 
    1481, 
    1482, 
    1483, 
    1484, 
    1485, 
    1486, 
    1487, 
    1488, 
    1489, 
    1490, 
    1491, 
    1492, 
    1496, 
    1497, 
    1498, 
    1499, 
    1500, 
    1501, 
    1502, 
    1503, 
    1504, 
    1505, 
    1506, 
    1507, 
    1511, 
    1512, 
    1513, 
    1514, 
    1515, 
    1516, 
    1517, 
    1518, 
    1519, 
    1520, 
    1521, 
    1522, 
    1526, 
    1527, 
    1528, 
    1529, 
    1530, 
    1531, 
    1532, 
    1533, 
    1534, 
    1535, 
    1536, 
    1537, 
    1541, 
    1542, 
    1543, 
    1544, 
    1545, 
    1546, 
    1547, 
    1548, 
    1549, 
    1550, 
    1551, 
    1552, 
    1556, 
    1557, 
    1558, 
    1559, 
    1560, 
    1561, 
    1562, 
    1563, 
    1564, 
    1565, 
    1566, 
    1567, 
    1571, 
    1572, 
    1573, 
    1574, 
    1575, 
    1576, 
    1577, 
    1578, 
    1579, 
    1580, 
    1581, 
    1582, 
    1586, 
    1587, 
    1588, 
    1589, 
    1590, 
    1591, 
    1592, 
    1593, 
    1594, 
    1595, 
    1596, 
    1597, 
    1601, 
    1602, 
    1603, 
    1604, 
    1605, 
    1606, 
    1607, 
    1608, 
    1609, 
    1610, 
    1611, 
    1612, 
    1616, 
    1617, 
    1618, 
    1619, 
    1620, 
    1621, 
    1622, 
    1623, 
    1624, 
    1625, 
    1626, 
    1627, 
    1631, 
    1632, 
    1633, 
    1634, 
    1635, 
    1636, 
    1637, 
    1638, 
    1639, 
    1640, 
    1641, 
    1642, 
    1646, 
    1647, 
    1648, 
    1649, 
    1650, 
    1651, 
    1652, 
    1653, 
    1654, 
    1655, 
    1656, 
    1657, 
    1661, 
    1662, 
    1663, 
    1664, 
    1665, 
    1666, 
    1667, 
    1668, 
    1669, 
    1670, 
    1671, 
    1672, 
    1676, 
    1677, 
    1678, 
    1679, 
    1680, 
    1681, 
    1682, 
    1683, 
    1684, 
    1685, 
    1686, 
    1687, 
    1691, 
    1692, 
    1693, 
    1694, 
    1695, 
    1696, 
    1697, 
    1698, 
    1699, 
    1700, 
    1701, 
    1702, 
    1706, 
    1707, 
    1708, 
    1709, 
    1710, 
    1711, 
    1712, 
    1713, 
    1714, 
    1715, 
    1716, 
    1717, 
    1721, 
    1722, 
    1723, 
    1724, 
    1725, 
    1726, 
    1727, 
    1728, 
    1729, 
    1730, 
    1731, 
    1732, 
    1736, 
    1737, 
    1738, 
    1739, 
    1740, 
    1741, 
    1742, 
    1743, 
    1744, 
    1745, 
    1746, 
    1747, 
    1751, 
    1752, 
    1753, 
    1754, 
    1755, 
    1756, 
    1757, 
    1758, 
    1759, 
    1760, 
    1761, 
    1762, 
    1766, 
    1767, 
    1768, 
    1769, 
    1770, 
    1771, 
    1772, 
    1773, 
    1774, 
    1775, 
    1776, 
    1777, 
    1781, 
    1782, 
    1783, 
    1784, 
    1785, 
    1786, 
    1787, 
    1788, 
    1789, 
    1790, 
    1791, 
    1792, 
    1796, 
    1797, 
    1798, 
    1799, 
    1800, 
    1801, 
    1802, 
    1803, 
    1804, 
    1805, 
    1806, 
    1807, 
    1811, 
    1812, 
    1813, 
    1814, 
    1815, 
    1816, 
    1817, 
    1818, 
    1819, 
    1820, 
    1821, 
    1822, 
    1826, 
    1827, 
    1828, 
    1829, 
    1830, 
    1831, 
    1832, 
    1833, 
    1834, 
    1835, 
    1836, 
    1837, 
    1841, 
    1842, 
    1843, 
    1844, 
    1845, 
    1846, 
    1847, 
    1848, 
    1849, 
    1850, 
    1851, 
    1852, 
    1856, 
    1857, 
    1858, 
    1859, 
    1860, 
    1861, 
    1862, 
    1863, 
    1864, 
    1865, 
    1866, 
    1867, 
    1871, 
    1872, 
    1873, 
    1874, 
    1875, 
    1876, 
    1877, 
    1878, 
    1879, 
    1880, 
    1881, 
    1882, 
    1886, 
    1887, 
    1888, 
    1889, 
    1890, 
    1891, 
    1892, 
    1893, 
    1894, 
    1895, 
    1896, 
    1897, 
    1898, 
    1899, 
    1903, 
    1904, 
    1905, 
    1906, 
    1907, 
    1908, 
    1909, 
    1910, 
    1911, 
    1912, 
    1913, 
    1914, 
    1915, 
    1916, 
    1920, 
    1921, 
    1922, 
    1923, 
    1924, 
    1925, 
    1926, 
    1927, 
    1928, 
    1929, 
    1930, 
    1931, 
    1932, 
    1933, 
    1937, 
    1938, 
    1939, 
    1940, 
    1941, 
    1942, 
    1943, 
    1944, 
    1945, 
    1946, 
    1947, 
    1948, 
    1949, 
    1950, 
    1954, 
    1955, 
    1956, 
    1957, 
    1958, 
    1959, 
    1960, 
    1961, 
    1962, 
    1963, 
    1964, 
    1965, 
    1966, 
    1967, 
    1971, 
    1972, 
    1973, 
    1974, 
    1975, 
    1976, 
    1977, 
    1978, 
    1979, 
    1980, 
    1981, 
    1982, 
    1983, 
    1984, 
    1988, 
    1989, 
    1990, 
    1991, 
    1992, 
    1993, 
    1994, 
    1995, 
    1996, 
    1997, 
    1998, 
    1999, 
    2000, 
    2001, 
    2005, 
    2006, 
    2007, 
    2008, 
    2009, 
    2010, 
    2011, 
    2012, 
    2013, 
    2014, 
    2015, 
    2016, 
    2017, 
    2018, 
    2022, 
    2023, 
    2024, 
    2025, 
    2026, 
    2027, 
    2028, 
    2029, 
    2030, 
    2031, 
    2032, 
    2033, 
    2034, 
    2035, 
    2039, 
    2040, 
    2041, 
    2042, 
    2043, 
    2044, 
    2045, 
    2046, 
    2047, 
    2048, 
    2049, 
    2050, 
    2051, 
    2052, 
    2056, 
    2057, 
    2058, 
    2059, 
    2060, 
    2061, 
    2062, 
    2063, 
    2064, 
    2065, 
    2066, 
    2067, 
    2068, 
    2069, 
    2073, 
    2074, 
    2075, 
    2076, 
    2077, 
    2078, 
    2079, 
    2080, 
    2081, 
    2082, 
    2083, 
    2084, 
    2085, 
    2086, 
    2090, 
    2091, 
    2092, 
    2093, 
    2094, 
    2095, 
    2096, 
    2097, 
    2098, 
    2099, 
    2100, 
    2101, 
    2102, 
    2103, 
    2107, 
    2108, 
    2109, 
    2110, 
    2111, 
    2112, 
    2113, 
    2114, 
    2115, 
    2116, 
    2117, 
    2118, 
    2119, 
    2120, 
    2124, 
    2125, 
    2126, 
    2127, 
    2128, 
    2129, 
    2130, 
    2131, 
    2132, 
    2133, 
    2134, 
    2135, 
    2136, 
    2137, 
    2141, 
    2142, 
    2143, 
    2144, 
    2145, 
    2146, 
    2147, 
    2148, 
    2149, 
    2150, 
    2151, 
    2152, 
    2153, 
    2154, 
    2158, 
    2159, 
    2160, 
    2161, 
    2162, 
    2163, 
    2164, 
    2165, 
    2166, 
    2167, 
    2168, 
    2169, 
    2170, 
    2171, 
    2175, 
    2176, 
    2177, 
    2178, 
    2179, 
    2180, 
    2181, 
    2182, 
    2183, 
    2184, 
    2185, 
    2186, 
    2187, 
    2188, 
    2192, 
    2193, 
    2194, 
    2195, 
    2196, 
    2197, 
    2198, 
    2199, 
    2200, 
    2201, 
    2202, 
    2203, 
    2204, 
    2205, 
    2209, 
    2210, 
    2211, 
    2212, 
    2213, 
    2214, 
    2215, 
    2216, 
    2217, 
    2218, 
    2219, 
    2220, 
    2221, 
    2222, 
    2226, 
    2227, 
    2228, 
    2229, 
    2230, 
    2231, 
    2232, 
    2233, 
    2234, 
    2235, 
    2236, 
    2237, 
    2238, 
    2239, 
    2243, 
    2244, 
    2245, 
    2246, 
    2247, 
    2248, 
    2249, 
    2250, 
    2251, 
    2252, 
    2253, 
    2254, 
    2255, 
    2256, 
    2260, 
    2261, 
    2262, 
    2263, 
    2264, 
    2265, 
    2266, 
    2267, 
    2268, 
    2269, 
    2270, 
    2271, 
    2272, 
    2273, 
    2277, 
    2278, 
    2279, 
    2280, 
    2281, 
    2282, 
    2283, 
    2284, 
    2285, 
    2286, 
    2287, 
    2288, 
    2289, 
    2290, 
    2294, 
    2295, 
    2296, 
    2297, 
    2298, 
    2299, 
    2300, 
    2301, 
    2302, 
    2303, 
    2304, 
    2305, 
    2306, 
    2307, 
    2311, 
    2312, 
    2313, 
    2314, 
    2315, 
    2316, 
    2317, 
    2318, 
    2319, 
    2320, 
    2321, 
    2322, 
    2323, 
    2324, 
    2328, 
    2329, 
    2330, 
    2331, 
    2332, 
    2333, 
    2334, 
    2335, 
    2336, 
    2337, 
    2338, 
    2339, 
    2340, 
    2341, 
    2345, 
    2346, 
    2347, 
    2348, 
    2349, 
    2350, 
    2351, 
    2352, 
    2353, 
    2354, 
    2355, 
    2356, 
    2357, 
    2358, 
    2362, 
    2363, 
    2364, 
    2365, 
    2366, 
    2367, 
    2368, 
    2369, 
    2370, 
    2371, 
    2372, 
    2373, 
    2374, 
    2375, 
    2379, 
    2380, 
    2381, 
    2382, 
    2383, 
    2384, 
    2385, 
    2386, 
    2387, 
    2388, 
    2389, 
    2390, 
    2391, 
    2392, 
    2396, 
    2397, 
    2398, 
    2399, 
    2400, 
    2401, 
    2402, 
    2403, 
    2404, 
    2405, 
    2406, 
    2407, 
    2408, 
    2409, 
    2413, 
    2414, 
    2415, 
    2416, 
    2417, 
    2418, 
    2419, 
    2420, 
    2421, 
    2422, 
    2423, 
    2424, 
    2425, 
    2426, 
    2430, 
    2431, 
    2432, 
    2433, 
    2434, 
    2435, 
    2436, 
    2437, 
    2438, 
    2439, 
    2440, 
    2441, 
    2442, 
    2443, 
    2447, 
    2448, 
    2449, 
    2450, 
    2451, 
    2452, 
    2453, 
    2454, 
    2455, 
    2456, 
    2457, 
    2458, 
    2459, 
    2460, 
    2464, 
    2465, 
    2466, 
    2467, 
    2468, 
    2469, 
    2470, 
    2471, 
    2472, 
    2473, 
    2474, 
    2475, 
    2476, 
    2477, 
    2481, 
    2482, 
    2483, 
    2484, 
    2485, 
    2486, 
    2487, 
    2488, 
    2489, 
    2490, 
    2491, 
    2492, 
    2493, 
    2494, 
    2498, 
    2499, 
    2500, 
    2501, 
    2502, 
    2503, 
    2504, 
    2505, 
    2506, 
    2507, 
    2508, 
    2509, 
    2510, 
    2511, 
    2515, 
    2516, 
    2517, 
    2518, 
    2519, 
    2520, 
    2521, 
    2522, 
    2523, 
    2524, 
    2525, 
    2526, 
    2527, 
    2528, 
    2532, 
    2533, 
    2534, 
    2535, 
    2536, 
    2537, 
    2538, 
    2539, 
    2540, 
    2541, 
    2542, 
    2543, 
    2544, 
    2545, 
    2549, 
    2550, 
    2551, 
    2552, 
    2553, 
    2554, 
    2555, 
    2556, 
    2557, 
    2558, 
    2559, 
    2560, 
    2561, 
    2562, 
    2566, 
    2567, 
    2568, 
    2569, 
    2570, 
    2571, 
    2572, 
    2573, 
    2574, 
    2575, 
    2576, 
    2577, 
    2578, 
    2579, 
    2583, 
    2584, 
    2585, 
    2586, 
    2587, 
    2588, 
    2589, 
    2590, 
    2591, 
    2592, 
    2593, 
    2594, 
    2595, 
    2596, 
    2600, 
    2601, 
    2602, 
    2603, 
    2604, 
    2605, 
    2606, 
    2607, 
    2608, 
    2609, 
    2610, 
    2611, 
    2612, 
    2613, 
    2617, 
    2618, 
    2619, 
    2620, 
    2621, 
    2622, 
    2623, 
    2624, 
    2625, 
    2626, 
    2627, 
    2628, 
    2629, 
    2630, 
    2634, 
    2635, 
    2636, 
    2637, 
    2638, 
    2639, 
    2640, 
    2641, 
    2642, 
    2643, 
    2644, 
    2645, 
    2646, 
    2647, 
    2651, 
    2652, 
    2653, 
    2654, 
    2655, 
    2656, 
    2657, 
    2658, 
    2659, 
    2660, 
    2661, 
    2662, 
    2663, 
    2664, 
    2668, 
    2669, 
    2670, 
    2671, 
    2672, 
    2673, 
    2674, 
    2675, 
    2676, 
    2677, 
    2678, 
    2679, 
    2680, 
    2681, 
    2685, 
    2686, 
    2687, 
    2688, 
    2689, 
    2690, 
    2691, 
    2692, 
    2693, 
    2694, 
    2695, 
    2696, 
    2697, 
    2698, 
    2702, 
    2703, 
    2704, 
    2705, 
    2706, 
    2707, 
    2708, 
    2709, 
    2710, 
    2711, 
    2712, 
    2713, 
    2714, 
    2715, 
    2719, 
    2720, 
    2721, 
    2722, 
    2723, 
    2724, 
    2725, 
    2726, 
    2727, 
    2728, 
    2729, 
    2730, 
    2731, 
    2732, 
    2736, 
    2737, 
    2738, 
    2739, 
    2740, 
    2741, 
    2742, 
    2743, 
    2744, 
    2745, 
    2746, 
    2747, 
    2748, 
    2749, 
    2753, 
    2754, 
    2755, 
    2756, 
    2757, 
    2758, 
    2759, 
    2760, 
    2761, 
    2762, 
    2763, 
    2764, 
    2765, 
    2766, 
    2770, 
    2771, 
    2772, 
    2773, 
    2774, 
    2775, 
    2776, 
    2777, 
    2778, 
    2779, 
    2780, 
    2781, 
    2782, 
    2783, 
    2787, 
    2788, 
    2789, 
    2790, 
    2791, 
    2792, 
    2793, 
    2794, 
    2795, 
    2796, 
    2797, 
    2798, 
    2799, 
    2800, 
    2804, 
    2805, 
    2806, 
    2807, 
    2808, 
    2809, 
    2810, 
    2811, 
    2812, 
    2813, 
    2814, 
    2815, 
    2816, 
    2817, 
    2821, 
    2822, 
    2823, 
    2824, 
    2825, 
    2826, 
    2827, 
    2828, 
    2829, 
    2830, 
    2831, 
    2832, 
    2833, 
    2834, 
    2838, 
    2839, 
    2840, 
    2841, 
    2842, 
    2843, 
    2844, 
    2845, 
    2846, 
    2847, 
    2848, 
    2849, 
    2850, 
    2851, 
    2855, 
    2856, 
    2857, 
    2858, 
    2859, 
    2860, 
    2861, 
    2862, 
    2863, 
    2864, 
    2865, 
    2866, 
    2867, 
    2868, 
    2872, 
    2873, 
    2874, 
    2875, 
    2876, 
    2877, 
    2878, 
    2879, 
    2880, 
    2881, 
    2882, 
    2883, 
    2884, 
    2885, 
    2889, 
    2890, 
    2891, 
    2892, 
    2893, 
    2894, 
    2895, 
    2896, 
    2897, 
    2898, 
    2899, 
    2900, 
    2901, 
    2902, 
    2906, 
    2907, 
    2908, 
    2909, 
    2910, 
    2911, 
    2912, 
    2913, 
    2914, 
    2915, 
    2916, 
    2917, 
    2918, 
    2919, 
    2923, 
    2924, 
    2925, 
    2926, 
    2927, 
    2928, 
    2929, 
    2930, 
    2931, 
    2932, 
    2933, 
    2934, 
    2935, 
    2936, 
    2940, 
    2941, 
    2942, 
    2943, 
    2944, 
    2945, 
    2946, 
    2947, 
    2948, 
    2949, 
    2950, 
    2951, 
    2952, 
    2953, 
    2957, 
    2958, 
    2959, 
    2960, 
    2961, 
    2962, 
    2963, 
    2964, 
    2965, 
    2966, 
    2967, 
    2968, 
    2969, 
    2970, 
    2974, 
    2975, 
    2976, 
    2977, 
    2978, 
    2979, 
    2980, 
    2981, 
    2982, 
    2983, 
    2984, 
    2985, 
    2986, 
    2987, 
    2991, 
    2992, 
    2993, 
    2994, 
    2995, 
    2996, 
    2997, 
    2998, 
    2999, 
    3000, 
    3001, 
    3002, 
    3003, 
    3004, 
    3008, 
    3009, 
    3010, 
    3011, 
    3012, 
    3013, 
    3014, 
    3015, 
    3016, 
    3017, 
    3018, 
    3019, 
    3020, 
    3021, 
    3025, 
    3026, 
    3027, 
    3028, 
    3029, 
    3030, 
    3031, 
    3032, 
    3033, 
    3034, 
    3035, 
    3036, 
    3037, 
    3038, 
    3042, 
    3043, 
    3044, 
    3045, 
    3046, 
    3047, 
    3048, 
    3049, 
    3050, 
    3051, 
    3052, 
    3053, 
    3054, 
    3055, 
    3059, 
    3060, 
    3061, 
    3062, 
    3063, 
    3064, 
    3065, 
    3066, 
    3067, 
    3068, 
    3069, 
    3070, 
    3071, 
    3072, 
    3076, 
    3077, 
    3078, 
    3079, 
    3080, 
    3081, 
    3082, 
    3083, 
    3084, 
    3085, 
    3086, 
    3087, 
    3088, 
    3089, 
    3093, 
    3094, 
    3095, 
    3096, 
    3097, 
    3098, 
    3099, 
    3100, 
    3101, 
    3102, 
    3103, 
    3104, 
    3105, 
    3106, 
    3110, 
    3111, 
    3112, 
    3113, 
    3114, 
    3115, 
    3116, 
    3117, 
    3118, 
    3119, 
    3120, 
    3121, 
    3122, 
    3123, 
    3127, 
    3128, 
    3129, 
    3130, 
    3131, 
    3132, 
    3133, 
    3134, 
    3135, 
    3136, 
    3137, 
    3138, 
    3139, 
    3140, 
    3144, 
    3145, 
    3146, 
    3147, 
    3148, 
    3149, 
    3150, 
    3151, 
    3152, 
    3153, 
    3154, 
    3155, 
    3156, 
    3157, 
    3161, 
    3162, 
    3163, 
    3164, 
    3165, 
    3166, 
    3167, 
    3168, 
    3169, 
    3170, 
    3171, 
    3172, 
    3173, 
    3174, 
    3178, 
    3179, 
    3180, 
    3181, 
    3182, 
    3183, 
    3184, 
    3185, 
    3186, 
    3187, 
    3188, 
    3189, 
    3190, 
    3191, 
    3195, 
    3196, 
    3197, 
    3198, 
    3199, 
    3200, 
    3201, 
    3202, 
    3203, 
    3204, 
    3205, 
    3206, 
    3207, 
    3208, 
    3212, 
    3213, 
    3214, 
    3215, 
    3216, 
    3217, 
    3218, 
    3219, 
    3220, 
    3221, 
    3222, 
    3223, 
    3224, 
    3225, 
    3229, 
    3230, 
    3231, 
    3232, 
    3233, 
    3234, 
    3235, 
    3236, 
    3237, 
    3238, 
    3239, 
    3240, 
    3241, 
    3242, 
    3246, 
    3247, 
    3248, 
    3249, 
    3250, 
    3251, 
    3252, 
    3253, 
    3254, 
    3255, 
    3256, 
    3257, 
    3258, 
    3259, 
    3263, 
    3264, 
    3265, 
    3266, 
    3267, 
    3268, 
    3269, 
    3270, 
    3271, 
    3272, 
    3273, 
    3274, 
    3275, 
    3276, 
    3280, 
    3281, 
    3282, 
    3283, 
    3284, 
    3285, 
    3286, 
    3287, 
    3288, 
    3289, 
    3290, 
    3291, 
    3292, 
    3293, 
    3297, 
    3298, 
    3299, 
    3300, 
    3301, 
    3302, 
    3303, 
    3304, 
    3305, 
    3306, 
    3307, 
    3308, 
    3309, 
    3310, 
    3314, 
    3315, 
    3316, 
    3317, 
    3318, 
    3319, 
    3320, 
    3321, 
    3322, 
    3323, 
    3324, 
    3325, 
    3326, 
    3327, 
    3331, 
    3332, 
    3333, 
    3334, 
    3335, 
    3336, 
    3337, 
    3338, 
    3339, 
    3340, 
    3341, 
    3342, 
    3343, 
    3344, 
    3348, 
    3349, 
    3350, 
    3351, 
    3352, 
    3353, 
    3354, 
    3355, 
    3356, 
    3357, 
    3358, 
    3359, 
    3360, 
    3361, 
    3365, 
    3366, 
    3367, 
    3368, 
    3369, 
    3370, 
    3371, 
    3372, 
    3373, 
    3374, 
    3375, 
    3376, 
    3377, 
    3378, 
    3382, 
    3383, 
    3384, 
    3385, 
    3386, 
    3387, 
    3388, 
    3389, 
    3390, 
    3391, 
    3392, 
    3393, 
    3394, 
    3395, 
    3399, 
    3400, 
    3401, 
    3402, 
    3403, 
    3404, 
    3405, 
    3406, 
    3407, 
    3408, 
    3409, 
    3410, 
    3411, 
    3412, 
    3416, 
    3417, 
    3418, 
    3419, 
    3420, 
    3421, 
    3422, 
    3423, 
    3424, 
    3425, 
    3426, 
    3427, 
    3428, 
    3429, 
    3433, 
    3434, 
    3435, 
    3436, 
    3437, 
    3438, 
    3439, 
    3440, 
    3441, 
    3442, 
    3443, 
    3444, 
    3445, 
    3446, 
    3450, 
    3451, 
    3452, 
    3453, 
    3454, 
    3455, 
    3456, 
    3457, 
    3458, 
    3459, 
    3460, 
    3461, 
    3462, 
    3463, 
    3467, 
    3468, 
    3469, 
    3470, 
    3471, 
    3472, 
    3473, 
    3474, 
    3475, 
    3476, 
    3477, 
    3478, 
    3479, 
    3480, 
    3484, 
    3485, 
    3486, 
    3487, 
    3488, 
    3489, 
    3490, 
    3491, 
    3492, 
    3493, 
    3494, 
    3495, 
    3496, 
    3497, 
    3501, 
    3502, 
    3503, 
    3504, 
    3505, 
    3506, 
    3507, 
    3508, 
    3509, 
    3510, 
    3511, 
    3512, 
    3513, 
    3514, 
    3518, 
    3519, 
    3520, 
    3521, 
    3522, 
    3523, 
    3524, 
    3525, 
    3526, 
    3527, 
    3528, 
    3529, 
    3530, 
    3531, 
    3535, 
    3536, 
    3537, 
    3538, 
    3539, 
    3540, 
    3541, 
    3542, 
    3543, 
    3544, 
    3545, 
    3546, 
    3547, 
    3548, 
    3552, 
    3553, 
    3554, 
    3555, 
    3556, 
    3557, 
    3558, 
    3559, 
    3560, 
    3561, 
    3562, 
    3563, 
    3564, 
    3565, 
    3569, 
    3570, 
    3571, 
    3572, 
    3573, 
    3574, 
    3575, 
    3576, 
    3577, 
    3578, 
    3579, 
    3580, 
    3581, 
    3582, 
    3586, 
    3587, 
    3588, 
    3589, 
    3590, 
    3591, 
    3592, 
    3593, 
    3594, 
    3595, 
    3596, 
    3597, 
    3598, 
    3599, 
    3603, 
    3604, 
    3605, 
    3606, 
    3607, 
    3608, 
    3609, 
    3610, 
    3611, 
    3612, 
    3613, 
    3614, 
    3615, 
    3616, 
    3620, 
    3621, 
    3622, 
    3623, 
    3624, 
    3625, 
    3626, 
    3627, 
    3628, 
    3629, 
    3630, 
    3631, 
    3632, 
    3633, 
    3637, 
    3638, 
    3639, 
    3640, 
    3641, 
    3642, 
    3643, 
    3644, 
    3645, 
    3646, 
    3647, 
    3648, 
    3649, 
    3650, 
    3654, 
    3655, 
    3656, 
    3657, 
    3658, 
    3659, 
    3660, 
    3661, 
    3662, 
    3663, 
    3664, 
    3665, 
    3666, 
    3667, 
    3671, 
    3672, 
    3673, 
    3674, 
    3675, 
    3676, 
    3677, 
    3678, 
    3679, 
    3680, 
    3681, 
    3682, 
    3683, 
    3684, 
    3688, 
    3689, 
    3690, 
    3691, 
    3692, 
    3693, 
    3694, 
    3695, 
    3696, 
    3697, 
    3698, 
    3699, 
    3700, 
    3701, 
    3705, 
    3706, 
    3707, 
    3708, 
    3709, 
    3710, 
    3711, 
    3712, 
    3713, 
    3714, 
    3715, 
    3716, 
    3717, 
    3718, 
    3722, 
    3723, 
    3724, 
    3725, 
    3726, 
    3727, 
    3728, 
    3729, 
    3730, 
    3731, 
    3732, 
    3733, 
    3734, 
    3735, 
    3739, 
    3740, 
    3741, 
    3742, 
    3743, 
    3744, 
    3745, 
    3746, 
    3747, 
    3748, 
    3749, 
    3750, 
    3751, 
    3752, 
    3753, 
    3754, 
    3755, 
    3756, 
    3757
  ], 
  "heads": [[2987, 0, 0]], 
  "attrs": {"mxnet_version": ["int", 905]}
}