{
  "nodes": [
    {
      "op": "null", 
      "param": {}, 
      "name": "data", 
      "inputs": [], 
      "backward_source_id": -1
    }, 
    {
      "op": "SliceChannel", 
      "param": {
        "axis": "1", 
        "num_outputs": "80", 
        "squeeze_axis": "True"
      }, 
      "name": "slicechannel0", 
      "inputs": [[0, 0]], 
      "backward_source_id": -1
    }, 
    {
      "op": "null", 
      "param": {}, 
      "name": "l0_i2h_weight", 
      "inputs": [], 
      "backward_source_id": -1
    }, 
    {
      "op": "null", 
      "param": {}, 
      "name": "l0_i2h_bias", 
      "inputs": [], 
      "backward_source_id": -1
    }, 
    {
      "op": "FullyConnected", 
      "param": {
        "no_bias": "False", 
        "num_hidden": "400"
      }, 
      "name": "t0_l0_i2h", 
      "inputs": [[1, 0], [2, 0], [3, 0]], 
      "backward_source_id": -1
    }, 
    {
      "op": "null", 
      "param": {}, 
      "name": "l0_init_h", 
      "inputs": [], 
      "backward_source_id": -1
    }, 
    {
      "op": "null", 
      "param": {}, 
      "name": "l0_h2h_weight", 
      "inputs": [], 
      "backward_source_id": -1
    }, 
    {
      "op": "null", 
      "param": {}, 
      "name": "l0_h2h_bias", 
      "inputs": [], 
      "backward_source_id": -1
    }, 
    {
      "op": "FullyConnected", 
      "param": {
        "no_bias": "False", 
        "num_hidden": "400"
      }, 
      "name": "t0_l0_h2h", 
      "inputs": [[5, 0], [6, 0], [7, 0]], 
      "backward_source_id": -1
    }, 
    {
      "op": "_Plus", 
      "param": {}, 
      "name": "_plus0", 
      "inputs": [[4, 0], [8, 0]], 
      "backward_source_id": -1
    }, 
    {
      "op": "SliceChannel", 
      "param": {
        "axis": "1", 
        "num_outputs": "4", 
        "squeeze_axis": "False"
      }, 
      "name": "t0_l0_slice", 
      "inputs": [[9, 0]], 
      "backward_source_id": -1
    }, 
    {
      "op": "Activation", 
      "param": {"act_type": "sigmoid"}, 
      "name": "activation3", 
      "inputs": [[10, 3]], 
      "backward_source_id": -1
    }, 
    {
      "op": "Activation", 
      "param": {"act_type": "sigmoid"}, 
      "name": "activation2", 
      "inputs": [[10, 2]], 
      "backward_source_id": -1
    }, 
    {
      "op": "null", 
      "param": {}, 
      "name": "l0_init_c", 
      "inputs": [], 
      "backward_source_id": -1
    }, 
    {
      "op": "_Mul", 
      "param": {}, 
      "name": "_mul0", 
      "inputs": [[12, 0], [13, 0]], 
      "backward_source_id": -1
    }, 
    {
      "op": "Activation", 
      "param": {"act_type": "sigmoid"}, 
      "name": "activation0", 
      "inputs": [[10, 0]], 
      "backward_source_id": -1
    }, 
    {
      "op": "Activation", 
      "param": {"act_type": "tanh"}, 
      "name": "activation1", 
      "inputs": [[10, 1]], 
      "backward_source_id": -1
    }, 
    {
      "op": "_Mul", 
      "param": {}, 
      "name": "_mul1", 
      "inputs": [[15, 0], [16, 0]], 
      "backward_source_id": -1
    }, 
    {
      "op": "_Plus", 
      "param": {}, 
      "name": "_plus1", 
      "inputs": [[14, 0], [17, 0]], 
      "backward_source_id": -1
    }, 
    {
      "op": "Activation", 
      "param": {"act_type": "tanh"}, 
      "name": "activation4", 
      "inputs": [[18, 0]], 
      "backward_source_id": -1
    }, 
    {
      "op": "_Mul", 
      "param": {}, 
      "name": "_mul2", 
      "inputs": [[11, 0], [19, 0]], 
      "backward_source_id": -1
    }, 
    {
      "op": "null", 
      "param": {}, 
      "name": "l1_i2h_weight", 
      "inputs": [], 
      "backward_source_id": -1
    }, 
    {
      "op": "null", 
      "param": {}, 
      "name": "l1_i2h_bias", 
      "inputs": [], 
      "backward_source_id": -1
    }, 
    {
      "op": "FullyConnected", 
      "param": {
        "no_bias": "False", 
        "num_hidden": "400"
      }, 
      "name": "t0_l1_i2h", 
      "inputs": [[20, 0], [21, 0], [22, 0]], 
      "backward_source_id": -1
    }, 
    {
      "op": "null", 
      "param": {}, 
      "name": "l1_init_h", 
      "inputs": [], 
      "backward_source_id": -1
    }, 
    {
      "op": "null", 
      "param": {}, 
      "name": "l1_h2h_weight", 
      "inputs": [], 
      "backward_source_id": -1
    }, 
    {
      "op": "null", 
      "param": {}, 
      "name": "l1_h2h_bias", 
      "inputs": [], 
      "backward_source_id": -1
    }, 
    {
      "op": "FullyConnected", 
      "param": {
        "no_bias": "False", 
        "num_hidden": "400"
      }, 
      "name": "t0_l1_h2h", 
      "inputs": [[24, 0], [25, 0], [26, 0]], 
      "backward_source_id": -1
    }, 
    {
      "op": "_Plus", 
      "param": {}, 
      "name": "_plus2", 
      "inputs": [[23, 0], [27, 0]], 
      "backward_source_id": -1
    }, 
    {
      "op": "SliceChannel", 
      "param": {
        "axis": "1", 
        "num_outputs": "4", 
        "squeeze_axis": "False"
      }, 
      "name": "t0_l1_slice", 
      "inputs": [[28, 0]], 
      "backward_source_id": -1
    }, 
    {
      "op": "Activation", 
      "param": {"act_type": "sigmoid"}, 
      "name": "activation8", 
      "inputs": [[29, 3]], 
      "backward_source_id": -1
    }, 
    {
      "op": "Activation", 
      "param": {"act_type": "sigmoid"}, 
      "name": "activation7", 
      "inputs": [[29, 2]], 
      "backward_source_id": -1
    }, 
    {
      "op": "null", 
      "param": {}, 
      "name": "l1_init_c", 
      "inputs": [], 
      "backward_source_id": -1
    }, 
    {
      "op": "_Mul", 
      "param": {}, 
      "name": "_mul3", 
      "inputs": [[31, 0], [32, 0]], 
      "backward_source_id": -1
    }, 
    {
      "op": "Activation", 
      "param": {"act_type": "sigmoid"}, 
      "name": "activation5", 
      "inputs": [[29, 0]], 
      "backward_source_id": -1
    }, 
    {
      "op": "Activation", 
      "param": {"act_type": "tanh"}, 
      "name": "activation6", 
      "inputs": [[29, 1]], 
      "backward_source_id": -1
    }, 
    {
      "op": "_Mul", 
      "param": {}, 
      "name": "_mul4", 
      "inputs": [[34, 0], [35, 0]], 
      "backward_source_id": -1
    }, 
    {
      "op": "_Plus", 
      "param": {}, 
      "name": "_plus3", 
      "inputs": [[33, 0], [36, 0]], 
      "backward_source_id": -1
    }, 
    {
      "op": "Activation", 
      "param": {"act_type": "tanh"}, 
      "name": "activation9", 
      "inputs": [[37, 0]], 
      "backward_source_id": -1
    }, 
    {
      "op": "_Mul", 
      "param": {}, 
      "name": "_mul5", 
      "inputs": [[30, 0], [38, 0]], 
      "backward_source_id": -1
    }, 
    {
      "op": "FullyConnected", 
      "param": {
        "no_bias": "False", 
        "num_hidden": "400"
      }, 
      "name": "t1_l0_i2h", 
      "inputs": [[1, 1], [2, 0], [3, 0]], 
      "backward_source_id": -1
    }, 
    {
      "op": "FullyConnected", 
      "param": {
        "no_bias": "False", 
        "num_hidden": "400"
      }, 
      "name": "t1_l0_h2h", 
      "inputs": [[20, 0], [6, 0], [7, 0]], 
      "backward_source_id": -1
    }, 
    {
      "op": "_Plus", 
      "param": {}, 
      "name": "_plus4", 
      "inputs": [[40, 0], [41, 0]], 
      "backward_source_id": -1
    }, 
    {
      "op": "SliceChannel", 
      "param": {
        "axis": "1", 
        "num_outputs": "4", 
        "squeeze_axis": "False"
      }, 
      "name": "t1_l0_slice", 
      "inputs": [[42, 0]], 
      "backward_source_id": -1
    }, 
    {
      "op": "Activation", 
      "param": {"act_type": "sigmoid"}, 
      "name": "activation13", 
      "inputs": [[43, 3]], 
      "backward_source_id": -1
    }, 
    {
      "op": "Activation", 
      "param": {"act_type": "sigmoid"}, 
      "name": "activation12", 
      "inputs": [[43, 2]], 
      "backward_source_id": -1
    }, 
    {
      "op": "_Mul", 
      "param": {}, 
      "name": "_mul6", 
      "inputs": [[45, 0], [18, 0]], 
      "backward_source_id": -1
    }, 
    {
      "op": "Activation", 
      "param": {"act_type": "sigmoid"}, 
      "name": "activation10", 
      "inputs": [[43, 0]], 
      "backward_source_id": -1
    }, 
    {
      "op": "Activation", 
      "param": {"act_type": "tanh"}, 
      "name": "activation11", 
      "inputs": [[43, 1]], 
      "backward_source_id": -1
    }, 
    {
      "op": "_Mul", 
      "param": {}, 
      "name": "_mul7", 
      "inputs": [[47, 0], [48, 0]], 
      "backward_source_id": -1
    }, 
    {
      "op": "_Plus", 
      "param": {}, 
      "name": "_plus5", 
      "inputs": [[46, 0], [49, 0]], 
      "backward_source_id": -1
    }, 
    {
      "op": "Activation", 
      "param": {"act_type": "tanh"}, 
      "name": "activation14", 
      "inputs": [[50, 0]], 
      "backward_source_id": -1
    }, 
    {
      "op": "_Mul", 
      "param": {}, 
      "name": "_mul8", 
      "inputs": [[44, 0], [51, 0]], 
      "backward_source_id": -1
    }, 
    {
      "op": "FullyConnected", 
      "param": {
        "no_bias": "False", 
        "num_hidden": "400"
      }, 
      "name": "t1_l1_i2h", 
      "inputs": [[52, 0], [21, 0], [22, 0]], 
      "backward_source_id": -1
    }, 
    {
      "op": "FullyConnected", 
      "param": {
        "no_bias": "False", 
        "num_hidden": "400"
      }, 
      "name": "t1_l1_h2h", 
      "inputs": [[39, 0], [25, 0], [26, 0]], 
      "backward_source_id": -1
    }, 
    {
      "op": "_Plus", 
      "param": {}, 
      "name": "_plus6", 
      "inputs": [[53, 0], [54, 0]], 
      "backward_source_id": -1
    }, 
    {
      "op": "SliceChannel", 
      "param": {
        "axis": "1", 
        "num_outputs": "4", 
        "squeeze_axis": "False"
      }, 
      "name": "t1_l1_slice", 
      "inputs": [[55, 0]], 
      "backward_source_id": -1
    }, 
    {
      "op": "Activation", 
      "param": {"act_type": "sigmoid"}, 
      "name": "activation18", 
      "inputs": [[56, 3]], 
      "backward_source_id": -1
    }, 
    {
      "op": "Activation", 
      "param": {"act_type": "sigmoid"}, 
      "name": "activation17", 
      "inputs": [[56, 2]], 
      "backward_source_id": -1
    }, 
    {
      "op": "_Mul", 
      "param": {}, 
      "name": "_mul9", 
      "inputs": [[58, 0], [37, 0]], 
      "backward_source_id": -1
    }, 
    {
      "op": "Activation", 
      "param": {"act_type": "sigmoid"}, 
      "name": "activation15", 
      "inputs": [[56, 0]], 
      "backward_source_id": -1
    }, 
    {
      "op": "Activation", 
      "param": {"act_type": "tanh"}, 
      "name": "activation16", 
      "inputs": [[56, 1]], 
      "backward_source_id": -1
    }, 
    {
      "op": "_Mul", 
      "param": {}, 
      "name": "_mul10", 
      "inputs": [[60, 0], [61, 0]], 
      "backward_source_id": -1
    }, 
    {
      "op": "_Plus", 
      "param": {}, 
      "name": "_plus7", 
      "inputs": [[59, 0], [62, 0]], 
      "backward_source_id": -1
    }, 
    {
      "op": "Activation", 
      "param": {"act_type": "tanh"}, 
      "name": "activation19", 
      "inputs": [[63, 0]], 
      "backward_source_id": -1
    }, 
    {
      "op": "_Mul", 
      "param": {}, 
      "name": "_mul11", 
      "inputs": [[57, 0], [64, 0]], 
      "backward_source_id": -1
    }, 
    {
      "op": "FullyConnected", 
      "param": {
        "no_bias": "False", 
        "num_hidden": "400"
      }, 
      "name": "t2_l0_i2h", 
      "inputs": [[1, 2], [2, 0], [3, 0]], 
      "backward_source_id": -1
    }, 
    {
      "op": "FullyConnected", 
      "param": {
        "no_bias": "False", 
        "num_hidden": "400"
      }, 
      "name": "t2_l0_h2h", 
      "inputs": [[52, 0], [6, 0], [7, 0]], 
      "backward_source_id": -1
    }, 
    {
      "op": "_Plus", 
      "param": {}, 
      "name": "_plus8", 
      "inputs": [[66, 0], [67, 0]], 
      "backward_source_id": -1
    }, 
    {
      "op": "SliceChannel", 
      "param": {
        "axis": "1", 
        "num_outputs": "4", 
        "squeeze_axis": "False"
      }, 
      "name": "t2_l0_slice", 
      "inputs": [[68, 0]], 
      "backward_source_id": -1
    }, 
    {
      "op": "Activation", 
      "param": {"act_type": "sigmoid"}, 
      "name": "activation23", 
      "inputs": [[69, 3]], 
      "backward_source_id": -1
    }, 
    {
      "op": "Activation", 
      "param": {"act_type": "sigmoid"}, 
      "name": "activation22", 
      "inputs": [[69, 2]], 
      "backward_source_id": -1
    }, 
    {
      "op": "_Mul", 
      "param": {}, 
      "name": "_mul12", 
      "inputs": [[71, 0], [50, 0]], 
      "backward_source_id": -1
    }, 
    {
      "op": "Activation", 
      "param": {"act_type": "sigmoid"}, 
      "name": "activation20", 
      "inputs": [[69, 0]], 
      "backward_source_id": -1
    }, 
    {
      "op": "Activation", 
      "param": {"act_type": "tanh"}, 
      "name": "activation21", 
      "inputs": [[69, 1]], 
      "backward_source_id": -1
    }, 
    {
      "op": "_Mul", 
      "param": {}, 
      "name": "_mul13", 
      "inputs": [[73, 0], [74, 0]], 
      "backward_source_id": -1
    }, 
    {
      "op": "_Plus", 
      "param": {}, 
      "name": "_plus9", 
      "inputs": [[72, 0], [75, 0]], 
      "backward_source_id": -1
    }, 
    {
      "op": "Activation", 
      "param": {"act_type": "tanh"}, 
      "name": "activation24", 
      "inputs": [[76, 0]], 
      "backward_source_id": -1
    }, 
    {
      "op": "_Mul", 
      "param": {}, 
      "name": "_mul14", 
      "inputs": [[70, 0], [77, 0]], 
      "backward_source_id": -1
    }, 
    {
      "op": "FullyConnected", 
      "param": {
        "no_bias": "False", 
        "num_hidden": "400"
      }, 
      "name": "t2_l1_i2h", 
      "inputs": [[78, 0], [21, 0], [22, 0]], 
      "backward_source_id": -1
    }, 
    {
      "op": "FullyConnected", 
      "param": {
        "no_bias": "False", 
        "num_hidden": "400"
      }, 
      "name": "t2_l1_h2h", 
      "inputs": [[65, 0], [25, 0], [26, 0]], 
      "backward_source_id": -1
    }, 
    {
      "op": "_Plus", 
      "param": {}, 
      "name": "_plus10", 
      "inputs": [[79, 0], [80, 0]], 
      "backward_source_id": -1
    }, 
    {
      "op": "SliceChannel", 
      "param": {
        "axis": "1", 
        "num_outputs": "4", 
        "squeeze_axis": "False"
      }, 
      "name": "t2_l1_slice", 
      "inputs": [[81, 0]], 
      "backward_source_id": -1
    }, 
    {
      "op": "Activation", 
      "param": {"act_type": "sigmoid"}, 
      "name": "activation28", 
      "inputs": [[82, 3]], 
      "backward_source_id": -1
    }, 
    {
      "op": "Activation", 
      "param": {"act_type": "sigmoid"}, 
      "name": "activation27", 
      "inputs": [[82, 2]], 
      "backward_source_id": -1
    }, 
    {
      "op": "_Mul", 
      "param": {}, 
      "name": "_mul15", 
      "inputs": [[84, 0], [63, 0]], 
      "backward_source_id": -1
    }, 
    {
      "op": "Activation", 
      "param": {"act_type": "sigmoid"}, 
      "name": "activation25", 
      "inputs": [[82, 0]], 
      "backward_source_id": -1
    }, 
    {
      "op": "Activation", 
      "param": {"act_type": "tanh"}, 
      "name": "activation26", 
      "inputs": [[82, 1]], 
      "backward_source_id": -1
    }, 
    {
      "op": "_Mul", 
      "param": {}, 
      "name": "_mul16", 
      "inputs": [[86, 0], [87, 0]], 
      "backward_source_id": -1
    }, 
    {
      "op": "_Plus", 
      "param": {}, 
      "name": "_plus11", 
      "inputs": [[85, 0], [88, 0]], 
      "backward_source_id": -1
    }, 
    {
      "op": "Activation", 
      "param": {"act_type": "tanh"}, 
      "name": "activation29", 
      "inputs": [[89, 0]], 
      "backward_source_id": -1
    }, 
    {
      "op": "_Mul", 
      "param": {}, 
      "name": "_mul17", 
      "inputs": [[83, 0], [90, 0]], 
      "backward_source_id": -1
    }, 
    {
      "op": "FullyConnected", 
      "param": {
        "no_bias": "False", 
        "num_hidden": "400"
      }, 
      "name": "t3_l0_i2h", 
      "inputs": [[1, 3], [2, 0], [3, 0]], 
      "backward_source_id": -1
    }, 
    {
      "op": "FullyConnected", 
      "param": {
        "no_bias": "False", 
        "num_hidden": "400"
      }, 
      "name": "t3_l0_h2h", 
      "inputs": [[78, 0], [6, 0], [7, 0]], 
      "backward_source_id": -1
    }, 
    {
      "op": "_Plus", 
      "param": {}, 
      "name": "_plus12", 
      "inputs": [[92, 0], [93, 0]], 
      "backward_source_id": -1
    }, 
    {
      "op": "SliceChannel", 
      "param": {
        "axis": "1", 
        "num_outputs": "4", 
        "squeeze_axis": "False"
      }, 
      "name": "t3_l0_slice", 
      "inputs": [[94, 0]], 
      "backward_source_id": -1
    }, 
    {
      "op": "Activation", 
      "param": {"act_type": "sigmoid"}, 
      "name": "activation33", 
      "inputs": [[95, 3]], 
      "backward_source_id": -1
    }, 
    {
      "op": "Activation", 
      "param": {"act_type": "sigmoid"}, 
      "name": "activation32", 
      "inputs": [[95, 2]], 
      "backward_source_id": -1
    }, 
    {
      "op": "_Mul", 
      "param": {}, 
      "name": "_mul18", 
      "inputs": [[97, 0], [76, 0]], 
      "backward_source_id": -1
    }, 
    {
      "op": "Activation", 
      "param": {"act_type": "sigmoid"}, 
      "name": "activation30", 
      "inputs": [[95, 0]], 
      "backward_source_id": -1
    }, 
    {
      "op": "Activation", 
      "param": {"act_type": "tanh"}, 
      "name": "activation31", 
      "inputs": [[95, 1]], 
      "backward_source_id": -1
    }, 
    {
      "op": "_Mul", 
      "param": {}, 
      "name": "_mul19", 
      "inputs": [[99, 0], [100, 0]], 
      "backward_source_id": -1
    }, 
    {
      "op": "_Plus", 
      "param": {}, 
      "name": "_plus13", 
      "inputs": [[98, 0], [101, 0]], 
      "backward_source_id": -1
    }, 
    {
      "op": "Activation", 
      "param": {"act_type": "tanh"}, 
      "name": "activation34", 
      "inputs": [[102, 0]], 
      "backward_source_id": -1
    }, 
    {
      "op": "_Mul", 
      "param": {}, 
      "name": "_mul20", 
      "inputs": [[96, 0], [103, 0]], 
      "backward_source_id": -1
    }, 
    {
      "op": "FullyConnected", 
      "param": {
        "no_bias": "False", 
        "num_hidden": "400"
      }, 
      "name": "t3_l1_i2h", 
      "inputs": [[104, 0], [21, 0], [22, 0]], 
      "backward_source_id": -1
    }, 
    {
      "op": "FullyConnected", 
      "param": {
        "no_bias": "False", 
        "num_hidden": "400"
      }, 
      "name": "t3_l1_h2h", 
      "inputs": [[91, 0], [25, 0], [26, 0]], 
      "backward_source_id": -1
    }, 
    {
      "op": "_Plus", 
      "param": {}, 
      "name": "_plus14", 
      "inputs": [[105, 0], [106, 0]], 
      "backward_source_id": -1
    }, 
    {
      "op": "SliceChannel", 
      "param": {
        "axis": "1", 
        "num_outputs": "4", 
        "squeeze_axis": "False"
      }, 
      "name": "t3_l1_slice", 
      "inputs": [[107, 0]], 
      "backward_source_id": -1
    }, 
    {
      "op": "Activation", 
      "param": {"act_type": "sigmoid"}, 
      "name": "activation38", 
      "inputs": [[108, 3]], 
      "backward_source_id": -1
    }, 
    {
      "op": "Activation", 
      "param": {"act_type": "sigmoid"}, 
      "name": "activation37", 
      "inputs": [[108, 2]], 
      "backward_source_id": -1
    }, 
    {
      "op": "_Mul", 
      "param": {}, 
      "name": "_mul21", 
      "inputs": [[110, 0], [89, 0]], 
      "backward_source_id": -1
    }, 
    {
      "op": "Activation", 
      "param": {"act_type": "sigmoid"}, 
      "name": "activation35", 
      "inputs": [[108, 0]], 
      "backward_source_id": -1
    }, 
    {
      "op": "Activation", 
      "param": {"act_type": "tanh"}, 
      "name": "activation36", 
      "inputs": [[108, 1]], 
      "backward_source_id": -1
    }, 
    {
      "op": "_Mul", 
      "param": {}, 
      "name": "_mul22", 
      "inputs": [[112, 0], [113, 0]], 
      "backward_source_id": -1
    }, 
    {
      "op": "_Plus", 
      "param": {}, 
      "name": "_plus15", 
      "inputs": [[111, 0], [114, 0]], 
      "backward_source_id": -1
    }, 
    {
      "op": "Activation", 
      "param": {"act_type": "tanh"}, 
      "name": "activation39", 
      "inputs": [[115, 0]], 
      "backward_source_id": -1
    }, 
    {
      "op": "_Mul", 
      "param": {}, 
      "name": "_mul23", 
      "inputs": [[109, 0], [116, 0]], 
      "backward_source_id": -1
    }, 
    {
      "op": "FullyConnected", 
      "param": {
        "no_bias": "False", 
        "num_hidden": "400"
      }, 
      "name": "t4_l0_i2h", 
      "inputs": [[1, 4], [2, 0], [3, 0]], 
      "backward_source_id": -1
    }, 
    {
      "op": "FullyConnected", 
      "param": {
        "no_bias": "False", 
        "num_hidden": "400"
      }, 
      "name": "t4_l0_h2h", 
      "inputs": [[104, 0], [6, 0], [7, 0]], 
      "backward_source_id": -1
    }, 
    {
      "op": "_Plus", 
      "param": {}, 
      "name": "_plus16", 
      "inputs": [[118, 0], [119, 0]], 
      "backward_source_id": -1
    }, 
    {
      "op": "SliceChannel", 
      "param": {
        "axis": "1", 
        "num_outputs": "4", 
        "squeeze_axis": "False"
      }, 
      "name": "t4_l0_slice", 
      "inputs": [[120, 0]], 
      "backward_source_id": -1
    }, 
    {
      "op": "Activation", 
      "param": {"act_type": "sigmoid"}, 
      "name": "activation43", 
      "inputs": [[121, 3]], 
      "backward_source_id": -1
    }, 
    {
      "op": "Activation", 
      "param": {"act_type": "sigmoid"}, 
      "name": "activation42", 
      "inputs": [[121, 2]], 
      "backward_source_id": -1
    }, 
    {
      "op": "_Mul", 
      "param": {}, 
      "name": "_mul24", 
      "inputs": [[123, 0], [102, 0]], 
      "backward_source_id": -1
    }, 
    {
      "op": "Activation", 
      "param": {"act_type": "sigmoid"}, 
      "name": "activation40", 
      "inputs": [[121, 0]], 
      "backward_source_id": -1
    }, 
    {
      "op": "Activation", 
      "param": {"act_type": "tanh"}, 
      "name": "activation41", 
      "inputs": [[121, 1]], 
      "backward_source_id": -1
    }, 
    {
      "op": "_Mul", 
      "param": {}, 
      "name": "_mul25", 
      "inputs": [[125, 0], [126, 0]], 
      "backward_source_id": -1
    }, 
    {
      "op": "_Plus", 
      "param": {}, 
      "name": "_plus17", 
      "inputs": [[124, 0], [127, 0]], 
      "backward_source_id": -1
    }, 
    {
      "op": "Activation", 
      "param": {"act_type": "tanh"}, 
      "name": "activation44", 
      "inputs": [[128, 0]], 
      "backward_source_id": -1
    }, 
    {
      "op": "_Mul", 
      "param": {}, 
      "name": "_mul26", 
      "inputs": [[122, 0], [129, 0]], 
      "backward_source_id": -1
    }, 
    {
      "op": "FullyConnected", 
      "param": {
        "no_bias": "False", 
        "num_hidden": "400"
      }, 
      "name": "t4_l1_i2h", 
      "inputs": [[130, 0], [21, 0], [22, 0]], 
      "backward_source_id": -1
    }, 
    {
      "op": "FullyConnected", 
      "param": {
        "no_bias": "False", 
        "num_hidden": "400"
      }, 
      "name": "t4_l1_h2h", 
      "inputs": [[117, 0], [25, 0], [26, 0]], 
      "backward_source_id": -1
    }, 
    {
      "op": "_Plus", 
      "param": {}, 
      "name": "_plus18", 
      "inputs": [[131, 0], [132, 0]], 
      "backward_source_id": -1
    }, 
    {
      "op": "SliceChannel", 
      "param": {
        "axis": "1", 
        "num_outputs": "4", 
        "squeeze_axis": "False"
      }, 
      "name": "t4_l1_slice", 
      "inputs": [[133, 0]], 
      "backward_source_id": -1
    }, 
    {
      "op": "Activation", 
      "param": {"act_type": "sigmoid"}, 
      "name": "activation48", 
      "inputs": [[134, 3]], 
      "backward_source_id": -1
    }, 
    {
      "op": "Activation", 
      "param": {"act_type": "sigmoid"}, 
      "name": "activation47", 
      "inputs": [[134, 2]], 
      "backward_source_id": -1
    }, 
    {
      "op": "_Mul", 
      "param": {}, 
      "name": "_mul27", 
      "inputs": [[136, 0], [115, 0]], 
      "backward_source_id": -1
    }, 
    {
      "op": "Activation", 
      "param": {"act_type": "sigmoid"}, 
      "name": "activation45", 
      "inputs": [[134, 0]], 
      "backward_source_id": -1
    }, 
    {
      "op": "Activation", 
      "param": {"act_type": "tanh"}, 
      "name": "activation46", 
      "inputs": [[134, 1]], 
      "backward_source_id": -1
    }, 
    {
      "op": "_Mul", 
      "param": {}, 
      "name": "_mul28", 
      "inputs": [[138, 0], [139, 0]], 
      "backward_source_id": -1
    }, 
    {
      "op": "_Plus", 
      "param": {}, 
      "name": "_plus19", 
      "inputs": [[137, 0], [140, 0]], 
      "backward_source_id": -1
    }, 
    {
      "op": "Activation", 
      "param": {"act_type": "tanh"}, 
      "name": "activation49", 
      "inputs": [[141, 0]], 
      "backward_source_id": -1
    }, 
    {
      "op": "_Mul", 
      "param": {}, 
      "name": "_mul29", 
      "inputs": [[135, 0], [142, 0]], 
      "backward_source_id": -1
    }, 
    {
      "op": "FullyConnected", 
      "param": {
        "no_bias": "False", 
        "num_hidden": "400"
      }, 
      "name": "t5_l0_i2h", 
      "inputs": [[1, 5], [2, 0], [3, 0]], 
      "backward_source_id": -1
    }, 
    {
      "op": "FullyConnected", 
      "param": {
        "no_bias": "False", 
        "num_hidden": "400"
      }, 
      "name": "t5_l0_h2h", 
      "inputs": [[130, 0], [6, 0], [7, 0]], 
      "backward_source_id": -1
    }, 
    {
      "op": "_Plus", 
      "param": {}, 
      "name": "_plus20", 
      "inputs": [[144, 0], [145, 0]], 
      "backward_source_id": -1
    }, 
    {
      "op": "SliceChannel", 
      "param": {
        "axis": "1", 
        "num_outputs": "4", 
        "squeeze_axis": "False"
      }, 
      "name": "t5_l0_slice", 
      "inputs": [[146, 0]], 
      "backward_source_id": -1
    }, 
    {
      "op": "Activation", 
      "param": {"act_type": "sigmoid"}, 
      "name": "activation53", 
      "inputs": [[147, 3]], 
      "backward_source_id": -1
    }, 
    {
      "op": "Activation", 
      "param": {"act_type": "sigmoid"}, 
      "name": "activation52", 
      "inputs": [[147, 2]], 
      "backward_source_id": -1
    }, 
    {
      "op": "_Mul", 
      "param": {}, 
      "name": "_mul30", 
      "inputs": [[149, 0], [128, 0]], 
      "backward_source_id": -1
    }, 
    {
      "op": "Activation", 
      "param": {"act_type": "sigmoid"}, 
      "name": "activation50", 
      "inputs": [[147, 0]], 
      "backward_source_id": -1
    }, 
    {
      "op": "Activation", 
      "param": {"act_type": "tanh"}, 
      "name": "activation51", 
      "inputs": [[147, 1]], 
      "backward_source_id": -1
    }, 
    {
      "op": "_Mul", 
      "param": {}, 
      "name": "_mul31", 
      "inputs": [[151, 0], [152, 0]], 
      "backward_source_id": -1
    }, 
    {
      "op": "_Plus", 
      "param": {}, 
      "name": "_plus21", 
      "inputs": [[150, 0], [153, 0]], 
      "backward_source_id": -1
    }, 
    {
      "op": "Activation", 
      "param": {"act_type": "tanh"}, 
      "name": "activation54", 
      "inputs": [[154, 0]], 
      "backward_source_id": -1
    }, 
    {
      "op": "_Mul", 
      "param": {}, 
      "name": "_mul32", 
      "inputs": [[148, 0], [155, 0]], 
      "backward_source_id": -1
    }, 
    {
      "op": "FullyConnected", 
      "param": {
        "no_bias": "False", 
        "num_hidden": "400"
      }, 
      "name": "t5_l1_i2h", 
      "inputs": [[156, 0], [21, 0], [22, 0]], 
      "backward_source_id": -1
    }, 
    {
      "op": "FullyConnected", 
      "param": {
        "no_bias": "False", 
        "num_hidden": "400"
      }, 
      "name": "t5_l1_h2h", 
      "inputs": [[143, 0], [25, 0], [26, 0]], 
      "backward_source_id": -1
    }, 
    {
      "op": "_Plus", 
      "param": {}, 
      "name": "_plus22", 
      "inputs": [[157, 0], [158, 0]], 
      "backward_source_id": -1
    }, 
    {
      "op": "SliceChannel", 
      "param": {
        "axis": "1", 
        "num_outputs": "4", 
        "squeeze_axis": "False"
      }, 
      "name": "t5_l1_slice", 
      "inputs": [[159, 0]], 
      "backward_source_id": -1
    }, 
    {
      "op": "Activation", 
      "param": {"act_type": "sigmoid"}, 
      "name": "activation58", 
      "inputs": [[160, 3]], 
      "backward_source_id": -1
    }, 
    {
      "op": "Activation", 
      "param": {"act_type": "sigmoid"}, 
      "name": "activation57", 
      "inputs": [[160, 2]], 
      "backward_source_id": -1
    }, 
    {
      "op": "_Mul", 
      "param": {}, 
      "name": "_mul33", 
      "inputs": [[162, 0], [141, 0]], 
      "backward_source_id": -1
    }, 
    {
      "op": "Activation", 
      "param": {"act_type": "sigmoid"}, 
      "name": "activation55", 
      "inputs": [[160, 0]], 
      "backward_source_id": -1
    }, 
    {
      "op": "Activation", 
      "param": {"act_type": "tanh"}, 
      "name": "activation56", 
      "inputs": [[160, 1]], 
      "backward_source_id": -1
    }, 
    {
      "op": "_Mul", 
      "param": {}, 
      "name": "_mul34", 
      "inputs": [[164, 0], [165, 0]], 
      "backward_source_id": -1
    }, 
    {
      "op": "_Plus", 
      "param": {}, 
      "name": "_plus23", 
      "inputs": [[163, 0], [166, 0]], 
      "backward_source_id": -1
    }, 
    {
      "op": "Activation", 
      "param": {"act_type": "tanh"}, 
      "name": "activation59", 
      "inputs": [[167, 0]], 
      "backward_source_id": -1
    }, 
    {
      "op": "_Mul", 
      "param": {}, 
      "name": "_mul35", 
      "inputs": [[161, 0], [168, 0]], 
      "backward_source_id": -1
    }, 
    {
      "op": "FullyConnected", 
      "param": {
        "no_bias": "False", 
        "num_hidden": "400"
      }, 
      "name": "t6_l0_i2h", 
      "inputs": [[1, 6], [2, 0], [3, 0]], 
      "backward_source_id": -1
    }, 
    {
      "op": "FullyConnected", 
      "param": {
        "no_bias": "False", 
        "num_hidden": "400"
      }, 
      "name": "t6_l0_h2h", 
      "inputs": [[156, 0], [6, 0], [7, 0]], 
      "backward_source_id": -1
    }, 
    {
      "op": "_Plus", 
      "param": {}, 
      "name": "_plus24", 
      "inputs": [[170, 0], [171, 0]], 
      "backward_source_id": -1
    }, 
    {
      "op": "SliceChannel", 
      "param": {
        "axis": "1", 
        "num_outputs": "4", 
        "squeeze_axis": "False"
      }, 
      "name": "t6_l0_slice", 
      "inputs": [[172, 0]], 
      "backward_source_id": -1
    }, 
    {
      "op": "Activation", 
      "param": {"act_type": "sigmoid"}, 
      "name": "activation63", 
      "inputs": [[173, 3]], 
      "backward_source_id": -1
    }, 
    {
      "op": "Activation", 
      "param": {"act_type": "sigmoid"}, 
      "name": "activation62", 
      "inputs": [[173, 2]], 
      "backward_source_id": -1
    }, 
    {
      "op": "_Mul", 
      "param": {}, 
      "name": "_mul36", 
      "inputs": [[175, 0], [154, 0]], 
      "backward_source_id": -1
    }, 
    {
      "op": "Activation", 
      "param": {"act_type": "sigmoid"}, 
      "name": "activation60", 
      "inputs": [[173, 0]], 
      "backward_source_id": -1
    }, 
    {
      "op": "Activation", 
      "param": {"act_type": "tanh"}, 
      "name": "activation61", 
      "inputs": [[173, 1]], 
      "backward_source_id": -1
    }, 
    {
      "op": "_Mul", 
      "param": {}, 
      "name": "_mul37", 
      "inputs": [[177, 0], [178, 0]], 
      "backward_source_id": -1
    }, 
    {
      "op": "_Plus", 
      "param": {}, 
      "name": "_plus25", 
      "inputs": [[176, 0], [179, 0]], 
      "backward_source_id": -1
    }, 
    {
      "op": "Activation", 
      "param": {"act_type": "tanh"}, 
      "name": "activation64", 
      "inputs": [[180, 0]], 
      "backward_source_id": -1
    }, 
    {
      "op": "_Mul", 
      "param": {}, 
      "name": "_mul38", 
      "inputs": [[174, 0], [181, 0]], 
      "backward_source_id": -1
    }, 
    {
      "op": "FullyConnected", 
      "param": {
        "no_bias": "False", 
        "num_hidden": "400"
      }, 
      "name": "t6_l1_i2h", 
      "inputs": [[182, 0], [21, 0], [22, 0]], 
      "backward_source_id": -1
    }, 
    {
      "op": "FullyConnected", 
      "param": {
        "no_bias": "False", 
        "num_hidden": "400"
      }, 
      "name": "t6_l1_h2h", 
      "inputs": [[169, 0], [25, 0], [26, 0]], 
      "backward_source_id": -1
    }, 
    {
      "op": "_Plus", 
      "param": {}, 
      "name": "_plus26", 
      "inputs": [[183, 0], [184, 0]], 
      "backward_source_id": -1
    }, 
    {
      "op": "SliceChannel", 
      "param": {
        "axis": "1", 
        "num_outputs": "4", 
        "squeeze_axis": "False"
      }, 
      "name": "t6_l1_slice", 
      "inputs": [[185, 0]], 
      "backward_source_id": -1
    }, 
    {
      "op": "Activation", 
      "param": {"act_type": "sigmoid"}, 
      "name": "activation68", 
      "inputs": [[186, 3]], 
      "backward_source_id": -1
    }, 
    {
      "op": "Activation", 
      "param": {"act_type": "sigmoid"}, 
      "name": "activation67", 
      "inputs": [[186, 2]], 
      "backward_source_id": -1
    }, 
    {
      "op": "_Mul", 
      "param": {}, 
      "name": "_mul39", 
      "inputs": [[188, 0], [167, 0]], 
      "backward_source_id": -1
    }, 
    {
      "op": "Activation", 
      "param": {"act_type": "sigmoid"}, 
      "name": "activation65", 
      "inputs": [[186, 0]], 
      "backward_source_id": -1
    }, 
    {
      "op": "Activation", 
      "param": {"act_type": "tanh"}, 
      "name": "activation66", 
      "inputs": [[186, 1]], 
      "backward_source_id": -1
    }, 
    {
      "op": "_Mul", 
      "param": {}, 
      "name": "_mul40", 
      "inputs": [[190, 0], [191, 0]], 
      "backward_source_id": -1
    }, 
    {
      "op": "_Plus", 
      "param": {}, 
      "name": "_plus27", 
      "inputs": [[189, 0], [192, 0]], 
      "backward_source_id": -1
    }, 
    {
      "op": "Activation", 
      "param": {"act_type": "tanh"}, 
      "name": "activation69", 
      "inputs": [[193, 0]], 
      "backward_source_id": -1
    }, 
    {
      "op": "_Mul", 
      "param": {}, 
      "name": "_mul41", 
      "inputs": [[187, 0], [194, 0]], 
      "backward_source_id": -1
    }, 
    {
      "op": "FullyConnected", 
      "param": {
        "no_bias": "False", 
        "num_hidden": "400"
      }, 
      "name": "t7_l0_i2h", 
      "inputs": [[1, 7], [2, 0], [3, 0]], 
      "backward_source_id": -1
    }, 
    {
      "op": "FullyConnected", 
      "param": {
        "no_bias": "False", 
        "num_hidden": "400"
      }, 
      "name": "t7_l0_h2h", 
      "inputs": [[182, 0], [6, 0], [7, 0]], 
      "backward_source_id": -1
    }, 
    {
      "op": "_Plus", 
      "param": {}, 
      "name": "_plus28", 
      "inputs": [[196, 0], [197, 0]], 
      "backward_source_id": -1
    }, 
    {
      "op": "SliceChannel", 
      "param": {
        "axis": "1", 
        "num_outputs": "4", 
        "squeeze_axis": "False"
      }, 
      "name": "t7_l0_slice", 
      "inputs": [[198, 0]], 
      "backward_source_id": -1
    }, 
    {
      "op": "Activation", 
      "param": {"act_type": "sigmoid"}, 
      "name": "activation73", 
      "inputs": [[199, 3]], 
      "backward_source_id": -1
    }, 
    {
      "op": "Activation", 
      "param": {"act_type": "sigmoid"}, 
      "name": "activation72", 
      "inputs": [[199, 2]], 
      "backward_source_id": -1
    }, 
    {
      "op": "_Mul", 
      "param": {}, 
      "name": "_mul42", 
      "inputs": [[201, 0], [180, 0]], 
      "backward_source_id": -1
    }, 
    {
      "op": "Activation", 
      "param": {"act_type": "sigmoid"}, 
      "name": "activation70", 
      "inputs": [[199, 0]], 
      "backward_source_id": -1
    }, 
    {
      "op": "Activation", 
      "param": {"act_type": "tanh"}, 
      "name": "activation71", 
      "inputs": [[199, 1]], 
      "backward_source_id": -1
    }, 
    {
      "op": "_Mul", 
      "param": {}, 
      "name": "_mul43", 
      "inputs": [[203, 0], [204, 0]], 
      "backward_source_id": -1
    }, 
    {
      "op": "_Plus", 
      "param": {}, 
      "name": "_plus29", 
      "inputs": [[202, 0], [205, 0]], 
      "backward_source_id": -1
    }, 
    {
      "op": "Activation", 
      "param": {"act_type": "tanh"}, 
      "name": "activation74", 
      "inputs": [[206, 0]], 
      "backward_source_id": -1
    }, 
    {
      "op": "_Mul", 
      "param": {}, 
      "name": "_mul44", 
      "inputs": [[200, 0], [207, 0]], 
      "backward_source_id": -1
    }, 
    {
      "op": "FullyConnected", 
      "param": {
        "no_bias": "False", 
        "num_hidden": "400"
      }, 
      "name": "t7_l1_i2h", 
      "inputs": [[208, 0], [21, 0], [22, 0]], 
      "backward_source_id": -1
    }, 
    {
      "op": "FullyConnected", 
      "param": {
        "no_bias": "False", 
        "num_hidden": "400"
      }, 
      "name": "t7_l1_h2h", 
      "inputs": [[195, 0], [25, 0], [26, 0]], 
      "backward_source_id": -1
    }, 
    {
      "op": "_Plus", 
      "param": {}, 
      "name": "_plus30", 
      "inputs": [[209, 0], [210, 0]], 
      "backward_source_id": -1
    }, 
    {
      "op": "SliceChannel", 
      "param": {
        "axis": "1", 
        "num_outputs": "4", 
        "squeeze_axis": "False"
      }, 
      "name": "t7_l1_slice", 
      "inputs": [[211, 0]], 
      "backward_source_id": -1
    }, 
    {
      "op": "Activation", 
      "param": {"act_type": "sigmoid"}, 
      "name": "activation78", 
      "inputs": [[212, 3]], 
      "backward_source_id": -1
    }, 
    {
      "op": "Activation", 
      "param": {"act_type": "sigmoid"}, 
      "name": "activation77", 
      "inputs": [[212, 2]], 
      "backward_source_id": -1
    }, 
    {
      "op": "_Mul", 
      "param": {}, 
      "name": "_mul45", 
      "inputs": [[214, 0], [193, 0]], 
      "backward_source_id": -1
    }, 
    {
      "op": "Activation", 
      "param": {"act_type": "sigmoid"}, 
      "name": "activation75", 
      "inputs": [[212, 0]], 
      "backward_source_id": -1
    }, 
    {
      "op": "Activation", 
      "param": {"act_type": "tanh"}, 
      "name": "activation76", 
      "inputs": [[212, 1]], 
      "backward_source_id": -1
    }, 
    {
      "op": "_Mul", 
      "param": {}, 
      "name": "_mul46", 
      "inputs": [[216, 0], [217, 0]], 
      "backward_source_id": -1
    }, 
    {
      "op": "_Plus", 
      "param": {}, 
      "name": "_plus31", 
      "inputs": [[215, 0], [218, 0]], 
      "backward_source_id": -1
    }, 
    {
      "op": "Activation", 
      "param": {"act_type": "tanh"}, 
      "name": "activation79", 
      "inputs": [[219, 0]], 
      "backward_source_id": -1
    }, 
    {
      "op": "_Mul", 
      "param": {}, 
      "name": "_mul47", 
      "inputs": [[213, 0], [220, 0]], 
      "backward_source_id": -1
    }, 
    {
      "op": "FullyConnected", 
      "param": {
        "no_bias": "False", 
        "num_hidden": "400"
      }, 
      "name": "t8_l0_i2h", 
      "inputs": [[1, 8], [2, 0], [3, 0]], 
      "backward_source_id": -1
    }, 
    {
      "op": "FullyConnected", 
      "param": {
        "no_bias": "False", 
        "num_hidden": "400"
      }, 
      "name": "t8_l0_h2h", 
      "inputs": [[208, 0], [6, 0], [7, 0]], 
      "backward_source_id": -1
    }, 
    {
      "op": "_Plus", 
      "param": {}, 
      "name": "_plus32", 
      "inputs": [[222, 0], [223, 0]], 
      "backward_source_id": -1
    }, 
    {
      "op": "SliceChannel", 
      "param": {
        "axis": "1", 
        "num_outputs": "4", 
        "squeeze_axis": "False"
      }, 
      "name": "t8_l0_slice", 
      "inputs": [[224, 0]], 
      "backward_source_id": -1
    }, 
    {
      "op": "Activation", 
      "param": {"act_type": "sigmoid"}, 
      "name": "activation83", 
      "inputs": [[225, 3]], 
      "backward_source_id": -1
    }, 
    {
      "op": "Activation", 
      "param": {"act_type": "sigmoid"}, 
      "name": "activation82", 
      "inputs": [[225, 2]], 
      "backward_source_id": -1
    }, 
    {
      "op": "_Mul", 
      "param": {}, 
      "name": "_mul48", 
      "inputs": [[227, 0], [206, 0]], 
      "backward_source_id": -1
    }, 
    {
      "op": "Activation", 
      "param": {"act_type": "sigmoid"}, 
      "name": "activation80", 
      "inputs": [[225, 0]], 
      "backward_source_id": -1
    }, 
    {
      "op": "Activation", 
      "param": {"act_type": "tanh"}, 
      "name": "activation81", 
      "inputs": [[225, 1]], 
      "backward_source_id": -1
    }, 
    {
      "op": "_Mul", 
      "param": {}, 
      "name": "_mul49", 
      "inputs": [[229, 0], [230, 0]], 
      "backward_source_id": -1
    }, 
    {
      "op": "_Plus", 
      "param": {}, 
      "name": "_plus33", 
      "inputs": [[228, 0], [231, 0]], 
      "backward_source_id": -1
    }, 
    {
      "op": "Activation", 
      "param": {"act_type": "tanh"}, 
      "name": "activation84", 
      "inputs": [[232, 0]], 
      "backward_source_id": -1
    }, 
    {
      "op": "_Mul", 
      "param": {}, 
      "name": "_mul50", 
      "inputs": [[226, 0], [233, 0]], 
      "backward_source_id": -1
    }, 
    {
      "op": "FullyConnected", 
      "param": {
        "no_bias": "False", 
        "num_hidden": "400"
      }, 
      "name": "t8_l1_i2h", 
      "inputs": [[234, 0], [21, 0], [22, 0]], 
      "backward_source_id": -1
    }, 
    {
      "op": "FullyConnected", 
      "param": {
        "no_bias": "False", 
        "num_hidden": "400"
      }, 
      "name": "t8_l1_h2h", 
      "inputs": [[221, 0], [25, 0], [26, 0]], 
      "backward_source_id": -1
    }, 
    {
      "op": "_Plus", 
      "param": {}, 
      "name": "_plus34", 
      "inputs": [[235, 0], [236, 0]], 
      "backward_source_id": -1
    }, 
    {
      "op": "SliceChannel", 
      "param": {
        "axis": "1", 
        "num_outputs": "4", 
        "squeeze_axis": "False"
      }, 
      "name": "t8_l1_slice", 
      "inputs": [[237, 0]], 
      "backward_source_id": -1
    }, 
    {
      "op": "Activation", 
      "param": {"act_type": "sigmoid"}, 
      "name": "activation88", 
      "inputs": [[238, 3]], 
      "backward_source_id": -1
    }, 
    {
      "op": "Activation", 
      "param": {"act_type": "sigmoid"}, 
      "name": "activation87", 
      "inputs": [[238, 2]], 
      "backward_source_id": -1
    }, 
    {
      "op": "_Mul", 
      "param": {}, 
      "name": "_mul51", 
      "inputs": [[240, 0], [219, 0]], 
      "backward_source_id": -1
    }, 
    {
      "op": "Activation", 
      "param": {"act_type": "sigmoid"}, 
      "name": "activation85", 
      "inputs": [[238, 0]], 
      "backward_source_id": -1
    }, 
    {
      "op": "Activation", 
      "param": {"act_type": "tanh"}, 
      "name": "activation86", 
      "inputs": [[238, 1]], 
      "backward_source_id": -1
    }, 
    {
      "op": "_Mul", 
      "param": {}, 
      "name": "_mul52", 
      "inputs": [[242, 0], [243, 0]], 
      "backward_source_id": -1
    }, 
    {
      "op": "_Plus", 
      "param": {}, 
      "name": "_plus35", 
      "inputs": [[241, 0], [244, 0]], 
      "backward_source_id": -1
    }, 
    {
      "op": "Activation", 
      "param": {"act_type": "tanh"}, 
      "name": "activation89", 
      "inputs": [[245, 0]], 
      "backward_source_id": -1
    }, 
    {
      "op": "_Mul", 
      "param": {}, 
      "name": "_mul53", 
      "inputs": [[239, 0], [246, 0]], 
      "backward_source_id": -1
    }, 
    {
      "op": "FullyConnected", 
      "param": {
        "no_bias": "False", 
        "num_hidden": "400"
      }, 
      "name": "t9_l0_i2h", 
      "inputs": [[1, 9], [2, 0], [3, 0]], 
      "backward_source_id": -1
    }, 
    {
      "op": "FullyConnected", 
      "param": {
        "no_bias": "False", 
        "num_hidden": "400"
      }, 
      "name": "t9_l0_h2h", 
      "inputs": [[234, 0], [6, 0], [7, 0]], 
      "backward_source_id": -1
    }, 
    {
      "op": "_Plus", 
      "param": {}, 
      "name": "_plus36", 
      "inputs": [[248, 0], [249, 0]], 
      "backward_source_id": -1
    }, 
    {
      "op": "SliceChannel", 
      "param": {
        "axis": "1", 
        "num_outputs": "4", 
        "squeeze_axis": "False"
      }, 
      "name": "t9_l0_slice", 
      "inputs": [[250, 0]], 
      "backward_source_id": -1
    }, 
    {
      "op": "Activation", 
      "param": {"act_type": "sigmoid"}, 
      "name": "activation93", 
      "inputs": [[251, 3]], 
      "backward_source_id": -1
    }, 
    {
      "op": "Activation", 
      "param": {"act_type": "sigmoid"}, 
      "name": "activation92", 
      "inputs": [[251, 2]], 
      "backward_source_id": -1
    }, 
    {
      "op": "_Mul", 
      "param": {}, 
      "name": "_mul54", 
      "inputs": [[253, 0], [232, 0]], 
      "backward_source_id": -1
    }, 
    {
      "op": "Activation", 
      "param": {"act_type": "sigmoid"}, 
      "name": "activation90", 
      "inputs": [[251, 0]], 
      "backward_source_id": -1
    }, 
    {
      "op": "Activation", 
      "param": {"act_type": "tanh"}, 
      "name": "activation91", 
      "inputs": [[251, 1]], 
      "backward_source_id": -1
    }, 
    {
      "op": "_Mul", 
      "param": {}, 
      "name": "_mul55", 
      "inputs": [[255, 0], [256, 0]], 
      "backward_source_id": -1
    }, 
    {
      "op": "_Plus", 
      "param": {}, 
      "name": "_plus37", 
      "inputs": [[254, 0], [257, 0]], 
      "backward_source_id": -1
    }, 
    {
      "op": "Activation", 
      "param": {"act_type": "tanh"}, 
      "name": "activation94", 
      "inputs": [[258, 0]], 
      "backward_source_id": -1
    }, 
    {
      "op": "_Mul", 
      "param": {}, 
      "name": "_mul56", 
      "inputs": [[252, 0], [259, 0]], 
      "backward_source_id": -1
    }, 
    {
      "op": "FullyConnected", 
      "param": {
        "no_bias": "False", 
        "num_hidden": "400"
      }, 
      "name": "t9_l1_i2h", 
      "inputs": [[260, 0], [21, 0], [22, 0]], 
      "backward_source_id": -1
    }, 
    {
      "op": "FullyConnected", 
      "param": {
        "no_bias": "False", 
        "num_hidden": "400"
      }, 
      "name": "t9_l1_h2h", 
      "inputs": [[247, 0], [25, 0], [26, 0]], 
      "backward_source_id": -1
    }, 
    {
      "op": "_Plus", 
      "param": {}, 
      "name": "_plus38", 
      "inputs": [[261, 0], [262, 0]], 
      "backward_source_id": -1
    }, 
    {
      "op": "SliceChannel", 
      "param": {
        "axis": "1", 
        "num_outputs": "4", 
        "squeeze_axis": "False"
      }, 
      "name": "t9_l1_slice", 
      "inputs": [[263, 0]], 
      "backward_source_id": -1
    }, 
    {
      "op": "Activation", 
      "param": {"act_type": "sigmoid"}, 
      "name": "activation98", 
      "inputs": [[264, 3]], 
      "backward_source_id": -1
    }, 
    {
      "op": "Activation", 
      "param": {"act_type": "sigmoid"}, 
      "name": "activation97", 
      "inputs": [[264, 2]], 
      "backward_source_id": -1
    }, 
    {
      "op": "_Mul", 
      "param": {}, 
      "name": "_mul57", 
      "inputs": [[266, 0], [245, 0]], 
      "backward_source_id": -1
    }, 
    {
      "op": "Activation", 
      "param": {"act_type": "sigmoid"}, 
      "name": "activation95", 
      "inputs": [[264, 0]], 
      "backward_source_id": -1
    }, 
    {
      "op": "Activation", 
      "param": {"act_type": "tanh"}, 
      "name": "activation96", 
      "inputs": [[264, 1]], 
      "backward_source_id": -1
    }, 
    {
      "op": "_Mul", 
      "param": {}, 
      "name": "_mul58", 
      "inputs": [[268, 0], [269, 0]], 
      "backward_source_id": -1
    }, 
    {
      "op": "_Plus", 
      "param": {}, 
      "name": "_plus39", 
      "inputs": [[267, 0], [270, 0]], 
      "backward_source_id": -1
    }, 
    {
      "op": "Activation", 
      "param": {"act_type": "tanh"}, 
      "name": "activation99", 
      "inputs": [[271, 0]], 
      "backward_source_id": -1
    }, 
    {
      "op": "_Mul", 
      "param": {}, 
      "name": "_mul59", 
      "inputs": [[265, 0], [272, 0]], 
      "backward_source_id": -1
    }, 
    {
      "op": "FullyConnected", 
      "param": {
        "no_bias": "False", 
        "num_hidden": "400"
      }, 
      "name": "t10_l0_i2h", 
      "inputs": [[1, 10], [2, 0], [3, 0]], 
      "backward_source_id": -1
    }, 
    {
      "op": "FullyConnected", 
      "param": {
        "no_bias": "False", 
        "num_hidden": "400"
      }, 
      "name": "t10_l0_h2h", 
      "inputs": [[260, 0], [6, 0], [7, 0]], 
      "backward_source_id": -1
    }, 
    {
      "op": "_Plus", 
      "param": {}, 
      "name": "_plus40", 
      "inputs": [[274, 0], [275, 0]], 
      "backward_source_id": -1
    }, 
    {
      "op": "SliceChannel", 
      "param": {
        "axis": "1", 
        "num_outputs": "4", 
        "squeeze_axis": "False"
      }, 
      "name": "t10_l0_slice", 
      "inputs": [[276, 0]], 
      "backward_source_id": -1
    }, 
    {
      "op": "Activation", 
      "param": {"act_type": "sigmoid"}, 
      "name": "activation103", 
      "inputs": [[277, 3]], 
      "backward_source_id": -1
    }, 
    {
      "op": "Activation", 
      "param": {"act_type": "sigmoid"}, 
      "name": "activation102", 
      "inputs": [[277, 2]], 
      "backward_source_id": -1
    }, 
    {
      "op": "_Mul", 
      "param": {}, 
      "name": "_mul60", 
      "inputs": [[279, 0], [258, 0]], 
      "backward_source_id": -1
    }, 
    {
      "op": "Activation", 
      "param": {"act_type": "sigmoid"}, 
      "name": "activation100", 
      "inputs": [[277, 0]], 
      "backward_source_id": -1
    }, 
    {
      "op": "Activation", 
      "param": {"act_type": "tanh"}, 
      "name": "activation101", 
      "inputs": [[277, 1]], 
      "backward_source_id": -1
    }, 
    {
      "op": "_Mul", 
      "param": {}, 
      "name": "_mul61", 
      "inputs": [[281, 0], [282, 0]], 
      "backward_source_id": -1
    }, 
    {
      "op": "_Plus", 
      "param": {}, 
      "name": "_plus41", 
      "inputs": [[280, 0], [283, 0]], 
      "backward_source_id": -1
    }, 
    {
      "op": "Activation", 
      "param": {"act_type": "tanh"}, 
      "name": "activation104", 
      "inputs": [[284, 0]], 
      "backward_source_id": -1
    }, 
    {
      "op": "_Mul", 
      "param": {}, 
      "name": "_mul62", 
      "inputs": [[278, 0], [285, 0]], 
      "backward_source_id": -1
    }, 
    {
      "op": "FullyConnected", 
      "param": {
        "no_bias": "False", 
        "num_hidden": "400"
      }, 
      "name": "t10_l1_i2h", 
      "inputs": [[286, 0], [21, 0], [22, 0]], 
      "backward_source_id": -1
    }, 
    {
      "op": "FullyConnected", 
      "param": {
        "no_bias": "False", 
        "num_hidden": "400"
      }, 
      "name": "t10_l1_h2h", 
      "inputs": [[273, 0], [25, 0], [26, 0]], 
      "backward_source_id": -1
    }, 
    {
      "op": "_Plus", 
      "param": {}, 
      "name": "_plus42", 
      "inputs": [[287, 0], [288, 0]], 
      "backward_source_id": -1
    }, 
    {
      "op": "SliceChannel", 
      "param": {
        "axis": "1", 
        "num_outputs": "4", 
        "squeeze_axis": "False"
      }, 
      "name": "t10_l1_slice", 
      "inputs": [[289, 0]], 
      "backward_source_id": -1
    }, 
    {
      "op": "Activation", 
      "param": {"act_type": "sigmoid"}, 
      "name": "activation108", 
      "inputs": [[290, 3]], 
      "backward_source_id": -1
    }, 
    {
      "op": "Activation", 
      "param": {"act_type": "sigmoid"}, 
      "name": "activation107", 
      "inputs": [[290, 2]], 
      "backward_source_id": -1
    }, 
    {
      "op": "_Mul", 
      "param": {}, 
      "name": "_mul63", 
      "inputs": [[292, 0], [271, 0]], 
      "backward_source_id": -1
    }, 
    {
      "op": "Activation", 
      "param": {"act_type": "sigmoid"}, 
      "name": "activation105", 
      "inputs": [[290, 0]], 
      "backward_source_id": -1
    }, 
    {
      "op": "Activation", 
      "param": {"act_type": "tanh"}, 
      "name": "activation106", 
      "inputs": [[290, 1]], 
      "backward_source_id": -1
    }, 
    {
      "op": "_Mul", 
      "param": {}, 
      "name": "_mul64", 
      "inputs": [[294, 0], [295, 0]], 
      "backward_source_id": -1
    }, 
    {
      "op": "_Plus", 
      "param": {}, 
      "name": "_plus43", 
      "inputs": [[293, 0], [296, 0]], 
      "backward_source_id": -1
    }, 
    {
      "op": "Activation", 
      "param": {"act_type": "tanh"}, 
      "name": "activation109", 
      "inputs": [[297, 0]], 
      "backward_source_id": -1
    }, 
    {
      "op": "_Mul", 
      "param": {}, 
      "name": "_mul65", 
      "inputs": [[291, 0], [298, 0]], 
      "backward_source_id": -1
    }, 
    {
      "op": "FullyConnected", 
      "param": {
        "no_bias": "False", 
        "num_hidden": "400"
      }, 
      "name": "t11_l0_i2h", 
      "inputs": [[1, 11], [2, 0], [3, 0]], 
      "backward_source_id": -1
    }, 
    {
      "op": "FullyConnected", 
      "param": {
        "no_bias": "False", 
        "num_hidden": "400"
      }, 
      "name": "t11_l0_h2h", 
      "inputs": [[286, 0], [6, 0], [7, 0]], 
      "backward_source_id": -1
    }, 
    {
      "op": "_Plus", 
      "param": {}, 
      "name": "_plus44", 
      "inputs": [[300, 0], [301, 0]], 
      "backward_source_id": -1
    }, 
    {
      "op": "SliceChannel", 
      "param": {
        "axis": "1", 
        "num_outputs": "4", 
        "squeeze_axis": "False"
      }, 
      "name": "t11_l0_slice", 
      "inputs": [[302, 0]], 
      "backward_source_id": -1
    }, 
    {
      "op": "Activation", 
      "param": {"act_type": "sigmoid"}, 
      "name": "activation113", 
      "inputs": [[303, 3]], 
      "backward_source_id": -1
    }, 
    {
      "op": "Activation", 
      "param": {"act_type": "sigmoid"}, 
      "name": "activation112", 
      "inputs": [[303, 2]], 
      "backward_source_id": -1
    }, 
    {
      "op": "_Mul", 
      "param": {}, 
      "name": "_mul66", 
      "inputs": [[305, 0], [284, 0]], 
      "backward_source_id": -1
    }, 
    {
      "op": "Activation", 
      "param": {"act_type": "sigmoid"}, 
      "name": "activation110", 
      "inputs": [[303, 0]], 
      "backward_source_id": -1
    }, 
    {
      "op": "Activation", 
      "param": {"act_type": "tanh"}, 
      "name": "activation111", 
      "inputs": [[303, 1]], 
      "backward_source_id": -1
    }, 
    {
      "op": "_Mul", 
      "param": {}, 
      "name": "_mul67", 
      "inputs": [[307, 0], [308, 0]], 
      "backward_source_id": -1
    }, 
    {
      "op": "_Plus", 
      "param": {}, 
      "name": "_plus45", 
      "inputs": [[306, 0], [309, 0]], 
      "backward_source_id": -1
    }, 
    {
      "op": "Activation", 
      "param": {"act_type": "tanh"}, 
      "name": "activation114", 
      "inputs": [[310, 0]], 
      "backward_source_id": -1
    }, 
    {
      "op": "_Mul", 
      "param": {}, 
      "name": "_mul68", 
      "inputs": [[304, 0], [311, 0]], 
      "backward_source_id": -1
    }, 
    {
      "op": "FullyConnected", 
      "param": {
        "no_bias": "False", 
        "num_hidden": "400"
      }, 
      "name": "t11_l1_i2h", 
      "inputs": [[312, 0], [21, 0], [22, 0]], 
      "backward_source_id": -1
    }, 
    {
      "op": "FullyConnected", 
      "param": {
        "no_bias": "False", 
        "num_hidden": "400"
      }, 
      "name": "t11_l1_h2h", 
      "inputs": [[299, 0], [25, 0], [26, 0]], 
      "backward_source_id": -1
    }, 
    {
      "op": "_Plus", 
      "param": {}, 
      "name": "_plus46", 
      "inputs": [[313, 0], [314, 0]], 
      "backward_source_id": -1
    }, 
    {
      "op": "SliceChannel", 
      "param": {
        "axis": "1", 
        "num_outputs": "4", 
        "squeeze_axis": "False"
      }, 
      "name": "t11_l1_slice", 
      "inputs": [[315, 0]], 
      "backward_source_id": -1
    }, 
    {
      "op": "Activation", 
      "param": {"act_type": "sigmoid"}, 
      "name": "activation118", 
      "inputs": [[316, 3]], 
      "backward_source_id": -1
    }, 
    {
      "op": "Activation", 
      "param": {"act_type": "sigmoid"}, 
      "name": "activation117", 
      "inputs": [[316, 2]], 
      "backward_source_id": -1
    }, 
    {
      "op": "_Mul", 
      "param": {}, 
      "name": "_mul69", 
      "inputs": [[318, 0], [297, 0]], 
      "backward_source_id": -1
    }, 
    {
      "op": "Activation", 
      "param": {"act_type": "sigmoid"}, 
      "name": "activation115", 
      "inputs": [[316, 0]], 
      "backward_source_id": -1
    }, 
    {
      "op": "Activation", 
      "param": {"act_type": "tanh"}, 
      "name": "activation116", 
      "inputs": [[316, 1]], 
      "backward_source_id": -1
    }, 
    {
      "op": "_Mul", 
      "param": {}, 
      "name": "_mul70", 
      "inputs": [[320, 0], [321, 0]], 
      "backward_source_id": -1
    }, 
    {
      "op": "_Plus", 
      "param": {}, 
      "name": "_plus47", 
      "inputs": [[319, 0], [322, 0]], 
      "backward_source_id": -1
    }, 
    {
      "op": "Activation", 
      "param": {"act_type": "tanh"}, 
      "name": "activation119", 
      "inputs": [[323, 0]], 
      "backward_source_id": -1
    }, 
    {
      "op": "_Mul", 
      "param": {}, 
      "name": "_mul71", 
      "inputs": [[317, 0], [324, 0]], 
      "backward_source_id": -1
    }, 
    {
      "op": "FullyConnected", 
      "param": {
        "no_bias": "False", 
        "num_hidden": "400"
      }, 
      "name": "t12_l0_i2h", 
      "inputs": [[1, 12], [2, 0], [3, 0]], 
      "backward_source_id": -1
    }, 
    {
      "op": "FullyConnected", 
      "param": {
        "no_bias": "False", 
        "num_hidden": "400"
      }, 
      "name": "t12_l0_h2h", 
      "inputs": [[312, 0], [6, 0], [7, 0]], 
      "backward_source_id": -1
    }, 
    {
      "op": "_Plus", 
      "param": {}, 
      "name": "_plus48", 
      "inputs": [[326, 0], [327, 0]], 
      "backward_source_id": -1
    }, 
    {
      "op": "SliceChannel", 
      "param": {
        "axis": "1", 
        "num_outputs": "4", 
        "squeeze_axis": "False"
      }, 
      "name": "t12_l0_slice", 
      "inputs": [[328, 0]], 
      "backward_source_id": -1
    }, 
    {
      "op": "Activation", 
      "param": {"act_type": "sigmoid"}, 
      "name": "activation123", 
      "inputs": [[329, 3]], 
      "backward_source_id": -1
    }, 
    {
      "op": "Activation", 
      "param": {"act_type": "sigmoid"}, 
      "name": "activation122", 
      "inputs": [[329, 2]], 
      "backward_source_id": -1
    }, 
    {
      "op": "_Mul", 
      "param": {}, 
      "name": "_mul72", 
      "inputs": [[331, 0], [310, 0]], 
      "backward_source_id": -1
    }, 
    {
      "op": "Activation", 
      "param": {"act_type": "sigmoid"}, 
      "name": "activation120", 
      "inputs": [[329, 0]], 
      "backward_source_id": -1
    }, 
    {
      "op": "Activation", 
      "param": {"act_type": "tanh"}, 
      "name": "activation121", 
      "inputs": [[329, 1]], 
      "backward_source_id": -1
    }, 
    {
      "op": "_Mul", 
      "param": {}, 
      "name": "_mul73", 
      "inputs": [[333, 0], [334, 0]], 
      "backward_source_id": -1
    }, 
    {
      "op": "_Plus", 
      "param": {}, 
      "name": "_plus49", 
      "inputs": [[332, 0], [335, 0]], 
      "backward_source_id": -1
    }, 
    {
      "op": "Activation", 
      "param": {"act_type": "tanh"}, 
      "name": "activation124", 
      "inputs": [[336, 0]], 
      "backward_source_id": -1
    }, 
    {
      "op": "_Mul", 
      "param": {}, 
      "name": "_mul74", 
      "inputs": [[330, 0], [337, 0]], 
      "backward_source_id": -1
    }, 
    {
      "op": "FullyConnected", 
      "param": {
        "no_bias": "False", 
        "num_hidden": "400"
      }, 
      "name": "t12_l1_i2h", 
      "inputs": [[338, 0], [21, 0], [22, 0]], 
      "backward_source_id": -1
    }, 
    {
      "op": "FullyConnected", 
      "param": {
        "no_bias": "False", 
        "num_hidden": "400"
      }, 
      "name": "t12_l1_h2h", 
      "inputs": [[325, 0], [25, 0], [26, 0]], 
      "backward_source_id": -1
    }, 
    {
      "op": "_Plus", 
      "param": {}, 
      "name": "_plus50", 
      "inputs": [[339, 0], [340, 0]], 
      "backward_source_id": -1
    }, 
    {
      "op": "SliceChannel", 
      "param": {
        "axis": "1", 
        "num_outputs": "4", 
        "squeeze_axis": "False"
      }, 
      "name": "t12_l1_slice", 
      "inputs": [[341, 0]], 
      "backward_source_id": -1
    }, 
    {
      "op": "Activation", 
      "param": {"act_type": "sigmoid"}, 
      "name": "activation128", 
      "inputs": [[342, 3]], 
      "backward_source_id": -1
    }, 
    {
      "op": "Activation", 
      "param": {"act_type": "sigmoid"}, 
      "name": "activation127", 
      "inputs": [[342, 2]], 
      "backward_source_id": -1
    }, 
    {
      "op": "_Mul", 
      "param": {}, 
      "name": "_mul75", 
      "inputs": [[344, 0], [323, 0]], 
      "backward_source_id": -1
    }, 
    {
      "op": "Activation", 
      "param": {"act_type": "sigmoid"}, 
      "name": "activation125", 
      "inputs": [[342, 0]], 
      "backward_source_id": -1
    }, 
    {
      "op": "Activation", 
      "param": {"act_type": "tanh"}, 
      "name": "activation126", 
      "inputs": [[342, 1]], 
      "backward_source_id": -1
    }, 
    {
      "op": "_Mul", 
      "param": {}, 
      "name": "_mul76", 
      "inputs": [[346, 0], [347, 0]], 
      "backward_source_id": -1
    }, 
    {
      "op": "_Plus", 
      "param": {}, 
      "name": "_plus51", 
      "inputs": [[345, 0], [348, 0]], 
      "backward_source_id": -1
    }, 
    {
      "op": "Activation", 
      "param": {"act_type": "tanh"}, 
      "name": "activation129", 
      "inputs": [[349, 0]], 
      "backward_source_id": -1
    }, 
    {
      "op": "_Mul", 
      "param": {}, 
      "name": "_mul77", 
      "inputs": [[343, 0], [350, 0]], 
      "backward_source_id": -1
    }, 
    {
      "op": "FullyConnected", 
      "param": {
        "no_bias": "False", 
        "num_hidden": "400"
      }, 
      "name": "t13_l0_i2h", 
      "inputs": [[1, 13], [2, 0], [3, 0]], 
      "backward_source_id": -1
    }, 
    {
      "op": "FullyConnected", 
      "param": {
        "no_bias": "False", 
        "num_hidden": "400"
      }, 
      "name": "t13_l0_h2h", 
      "inputs": [[338, 0], [6, 0], [7, 0]], 
      "backward_source_id": -1
    }, 
    {
      "op": "_Plus", 
      "param": {}, 
      "name": "_plus52", 
      "inputs": [[352, 0], [353, 0]], 
      "backward_source_id": -1
    }, 
    {
      "op": "SliceChannel", 
      "param": {
        "axis": "1", 
        "num_outputs": "4", 
        "squeeze_axis": "False"
      }, 
      "name": "t13_l0_slice", 
      "inputs": [[354, 0]], 
      "backward_source_id": -1
    }, 
    {
      "op": "Activation", 
      "param": {"act_type": "sigmoid"}, 
      "name": "activation133", 
      "inputs": [[355, 3]], 
      "backward_source_id": -1
    }, 
    {
      "op": "Activation", 
      "param": {"act_type": "sigmoid"}, 
      "name": "activation132", 
      "inputs": [[355, 2]], 
      "backward_source_id": -1
    }, 
    {
      "op": "_Mul", 
      "param": {}, 
      "name": "_mul78", 
      "inputs": [[357, 0], [336, 0]], 
      "backward_source_id": -1
    }, 
    {
      "op": "Activation", 
      "param": {"act_type": "sigmoid"}, 
      "name": "activation130", 
      "inputs": [[355, 0]], 
      "backward_source_id": -1
    }, 
    {
      "op": "Activation", 
      "param": {"act_type": "tanh"}, 
      "name": "activation131", 
      "inputs": [[355, 1]], 
      "backward_source_id": -1
    }, 
    {
      "op": "_Mul", 
      "param": {}, 
      "name": "_mul79", 
      "inputs": [[359, 0], [360, 0]], 
      "backward_source_id": -1
    }, 
    {
      "op": "_Plus", 
      "param": {}, 
      "name": "_plus53", 
      "inputs": [[358, 0], [361, 0]], 
      "backward_source_id": -1
    }, 
    {
      "op": "Activation", 
      "param": {"act_type": "tanh"}, 
      "name": "activation134", 
      "inputs": [[362, 0]], 
      "backward_source_id": -1
    }, 
    {
      "op": "_Mul", 
      "param": {}, 
      "name": "_mul80", 
      "inputs": [[356, 0], [363, 0]], 
      "backward_source_id": -1
    }, 
    {
      "op": "FullyConnected", 
      "param": {
        "no_bias": "False", 
        "num_hidden": "400"
      }, 
      "name": "t13_l1_i2h", 
      "inputs": [[364, 0], [21, 0], [22, 0]], 
      "backward_source_id": -1
    }, 
    {
      "op": "FullyConnected", 
      "param": {
        "no_bias": "False", 
        "num_hidden": "400"
      }, 
      "name": "t13_l1_h2h", 
      "inputs": [[351, 0], [25, 0], [26, 0]], 
      "backward_source_id": -1
    }, 
    {
      "op": "_Plus", 
      "param": {}, 
      "name": "_plus54", 
      "inputs": [[365, 0], [366, 0]], 
      "backward_source_id": -1
    }, 
    {
      "op": "SliceChannel", 
      "param": {
        "axis": "1", 
        "num_outputs": "4", 
        "squeeze_axis": "False"
      }, 
      "name": "t13_l1_slice", 
      "inputs": [[367, 0]], 
      "backward_source_id": -1
    }, 
    {
      "op": "Activation", 
      "param": {"act_type": "sigmoid"}, 
      "name": "activation138", 
      "inputs": [[368, 3]], 
      "backward_source_id": -1
    }, 
    {
      "op": "Activation", 
      "param": {"act_type": "sigmoid"}, 
      "name": "activation137", 
      "inputs": [[368, 2]], 
      "backward_source_id": -1
    }, 
    {
      "op": "_Mul", 
      "param": {}, 
      "name": "_mul81", 
      "inputs": [[370, 0], [349, 0]], 
      "backward_source_id": -1
    }, 
    {
      "op": "Activation", 
      "param": {"act_type": "sigmoid"}, 
      "name": "activation135", 
      "inputs": [[368, 0]], 
      "backward_source_id": -1
    }, 
    {
      "op": "Activation", 
      "param": {"act_type": "tanh"}, 
      "name": "activation136", 
      "inputs": [[368, 1]], 
      "backward_source_id": -1
    }, 
    {
      "op": "_Mul", 
      "param": {}, 
      "name": "_mul82", 
      "inputs": [[372, 0], [373, 0]], 
      "backward_source_id": -1
    }, 
    {
      "op": "_Plus", 
      "param": {}, 
      "name": "_plus55", 
      "inputs": [[371, 0], [374, 0]], 
      "backward_source_id": -1
    }, 
    {
      "op": "Activation", 
      "param": {"act_type": "tanh"}, 
      "name": "activation139", 
      "inputs": [[375, 0]], 
      "backward_source_id": -1
    }, 
    {
      "op": "_Mul", 
      "param": {}, 
      "name": "_mul83", 
      "inputs": [[369, 0], [376, 0]], 
      "backward_source_id": -1
    }, 
    {
      "op": "FullyConnected", 
      "param": {
        "no_bias": "False", 
        "num_hidden": "400"
      }, 
      "name": "t14_l0_i2h", 
      "inputs": [[1, 14], [2, 0], [3, 0]], 
      "backward_source_id": -1
    }, 
    {
      "op": "FullyConnected", 
      "param": {
        "no_bias": "False", 
        "num_hidden": "400"
      }, 
      "name": "t14_l0_h2h", 
      "inputs": [[364, 0], [6, 0], [7, 0]], 
      "backward_source_id": -1
    }, 
    {
      "op": "_Plus", 
      "param": {}, 
      "name": "_plus56", 
      "inputs": [[378, 0], [379, 0]], 
      "backward_source_id": -1
    }, 
    {
      "op": "SliceChannel", 
      "param": {
        "axis": "1", 
        "num_outputs": "4", 
        "squeeze_axis": "False"
      }, 
      "name": "t14_l0_slice", 
      "inputs": [[380, 0]], 
      "backward_source_id": -1
    }, 
    {
      "op": "Activation", 
      "param": {"act_type": "sigmoid"}, 
      "name": "activation143", 
      "inputs": [[381, 3]], 
      "backward_source_id": -1
    }, 
    {
      "op": "Activation", 
      "param": {"act_type": "sigmoid"}, 
      "name": "activation142", 
      "inputs": [[381, 2]], 
      "backward_source_id": -1
    }, 
    {
      "op": "_Mul", 
      "param": {}, 
      "name": "_mul84", 
      "inputs": [[383, 0], [362, 0]], 
      "backward_source_id": -1
    }, 
    {
      "op": "Activation", 
      "param": {"act_type": "sigmoid"}, 
      "name": "activation140", 
      "inputs": [[381, 0]], 
      "backward_source_id": -1
    }, 
    {
      "op": "Activation", 
      "param": {"act_type": "tanh"}, 
      "name": "activation141", 
      "inputs": [[381, 1]], 
      "backward_source_id": -1
    }, 
    {
      "op": "_Mul", 
      "param": {}, 
      "name": "_mul85", 
      "inputs": [[385, 0], [386, 0]], 
      "backward_source_id": -1
    }, 
    {
      "op": "_Plus", 
      "param": {}, 
      "name": "_plus57", 
      "inputs": [[384, 0], [387, 0]], 
      "backward_source_id": -1
    }, 
    {
      "op": "Activation", 
      "param": {"act_type": "tanh"}, 
      "name": "activation144", 
      "inputs": [[388, 0]], 
      "backward_source_id": -1
    }, 
    {
      "op": "_Mul", 
      "param": {}, 
      "name": "_mul86", 
      "inputs": [[382, 0], [389, 0]], 
      "backward_source_id": -1
    }, 
    {
      "op": "FullyConnected", 
      "param": {
        "no_bias": "False", 
        "num_hidden": "400"
      }, 
      "name": "t14_l1_i2h", 
      "inputs": [[390, 0], [21, 0], [22, 0]], 
      "backward_source_id": -1
    }, 
    {
      "op": "FullyConnected", 
      "param": {
        "no_bias": "False", 
        "num_hidden": "400"
      }, 
      "name": "t14_l1_h2h", 
      "inputs": [[377, 0], [25, 0], [26, 0]], 
      "backward_source_id": -1
    }, 
    {
      "op": "_Plus", 
      "param": {}, 
      "name": "_plus58", 
      "inputs": [[391, 0], [392, 0]], 
      "backward_source_id": -1
    }, 
    {
      "op": "SliceChannel", 
      "param": {
        "axis": "1", 
        "num_outputs": "4", 
        "squeeze_axis": "False"
      }, 
      "name": "t14_l1_slice", 
      "inputs": [[393, 0]], 
      "backward_source_id": -1
    }, 
    {
      "op": "Activation", 
      "param": {"act_type": "sigmoid"}, 
      "name": "activation148", 
      "inputs": [[394, 3]], 
      "backward_source_id": -1
    }, 
    {
      "op": "Activation", 
      "param": {"act_type": "sigmoid"}, 
      "name": "activation147", 
      "inputs": [[394, 2]], 
      "backward_source_id": -1
    }, 
    {
      "op": "_Mul", 
      "param": {}, 
      "name": "_mul87", 
      "inputs": [[396, 0], [375, 0]], 
      "backward_source_id": -1
    }, 
    {
      "op": "Activation", 
      "param": {"act_type": "sigmoid"}, 
      "name": "activation145", 
      "inputs": [[394, 0]], 
      "backward_source_id": -1
    }, 
    {
      "op": "Activation", 
      "param": {"act_type": "tanh"}, 
      "name": "activation146", 
      "inputs": [[394, 1]], 
      "backward_source_id": -1
    }, 
    {
      "op": "_Mul", 
      "param": {}, 
      "name": "_mul88", 
      "inputs": [[398, 0], [399, 0]], 
      "backward_source_id": -1
    }, 
    {
      "op": "_Plus", 
      "param": {}, 
      "name": "_plus59", 
      "inputs": [[397, 0], [400, 0]], 
      "backward_source_id": -1
    }, 
    {
      "op": "Activation", 
      "param": {"act_type": "tanh"}, 
      "name": "activation149", 
      "inputs": [[401, 0]], 
      "backward_source_id": -1
    }, 
    {
      "op": "_Mul", 
      "param": {}, 
      "name": "_mul89", 
      "inputs": [[395, 0], [402, 0]], 
      "backward_source_id": -1
    }, 
    {
      "op": "FullyConnected", 
      "param": {
        "no_bias": "False", 
        "num_hidden": "400"
      }, 
      "name": "t15_l0_i2h", 
      "inputs": [[1, 15], [2, 0], [3, 0]], 
      "backward_source_id": -1
    }, 
    {
      "op": "FullyConnected", 
      "param": {
        "no_bias": "False", 
        "num_hidden": "400"
      }, 
      "name": "t15_l0_h2h", 
      "inputs": [[390, 0], [6, 0], [7, 0]], 
      "backward_source_id": -1
    }, 
    {
      "op": "_Plus", 
      "param": {}, 
      "name": "_plus60", 
      "inputs": [[404, 0], [405, 0]], 
      "backward_source_id": -1
    }, 
    {
      "op": "SliceChannel", 
      "param": {
        "axis": "1", 
        "num_outputs": "4", 
        "squeeze_axis": "False"
      }, 
      "name": "t15_l0_slice", 
      "inputs": [[406, 0]], 
      "backward_source_id": -1
    }, 
    {
      "op": "Activation", 
      "param": {"act_type": "sigmoid"}, 
      "name": "activation153", 
      "inputs": [[407, 3]], 
      "backward_source_id": -1
    }, 
    {
      "op": "Activation", 
      "param": {"act_type": "sigmoid"}, 
      "name": "activation152", 
      "inputs": [[407, 2]], 
      "backward_source_id": -1
    }, 
    {
      "op": "_Mul", 
      "param": {}, 
      "name": "_mul90", 
      "inputs": [[409, 0], [388, 0]], 
      "backward_source_id": -1
    }, 
    {
      "op": "Activation", 
      "param": {"act_type": "sigmoid"}, 
      "name": "activation150", 
      "inputs": [[407, 0]], 
      "backward_source_id": -1
    }, 
    {
      "op": "Activation", 
      "param": {"act_type": "tanh"}, 
      "name": "activation151", 
      "inputs": [[407, 1]], 
      "backward_source_id": -1
    }, 
    {
      "op": "_Mul", 
      "param": {}, 
      "name": "_mul91", 
      "inputs": [[411, 0], [412, 0]], 
      "backward_source_id": -1
    }, 
    {
      "op": "_Plus", 
      "param": {}, 
      "name": "_plus61", 
      "inputs": [[410, 0], [413, 0]], 
      "backward_source_id": -1
    }, 
    {
      "op": "Activation", 
      "param": {"act_type": "tanh"}, 
      "name": "activation154", 
      "inputs": [[414, 0]], 
      "backward_source_id": -1
    }, 
    {
      "op": "_Mul", 
      "param": {}, 
      "name": "_mul92", 
      "inputs": [[408, 0], [415, 0]], 
      "backward_source_id": -1
    }, 
    {
      "op": "FullyConnected", 
      "param": {
        "no_bias": "False", 
        "num_hidden": "400"
      }, 
      "name": "t15_l1_i2h", 
      "inputs": [[416, 0], [21, 0], [22, 0]], 
      "backward_source_id": -1
    }, 
    {
      "op": "FullyConnected", 
      "param": {
        "no_bias": "False", 
        "num_hidden": "400"
      }, 
      "name": "t15_l1_h2h", 
      "inputs": [[403, 0], [25, 0], [26, 0]], 
      "backward_source_id": -1
    }, 
    {
      "op": "_Plus", 
      "param": {}, 
      "name": "_plus62", 
      "inputs": [[417, 0], [418, 0]], 
      "backward_source_id": -1
    }, 
    {
      "op": "SliceChannel", 
      "param": {
        "axis": "1", 
        "num_outputs": "4", 
        "squeeze_axis": "False"
      }, 
      "name": "t15_l1_slice", 
      "inputs": [[419, 0]], 
      "backward_source_id": -1
    }, 
    {
      "op": "Activation", 
      "param": {"act_type": "sigmoid"}, 
      "name": "activation158", 
      "inputs": [[420, 3]], 
      "backward_source_id": -1
    }, 
    {
      "op": "Activation", 
      "param": {"act_type": "sigmoid"}, 
      "name": "activation157", 
      "inputs": [[420, 2]], 
      "backward_source_id": -1
    }, 
    {
      "op": "_Mul", 
      "param": {}, 
      "name": "_mul93", 
      "inputs": [[422, 0], [401, 0]], 
      "backward_source_id": -1
    }, 
    {
      "op": "Activation", 
      "param": {"act_type": "sigmoid"}, 
      "name": "activation155", 
      "inputs": [[420, 0]], 
      "backward_source_id": -1
    }, 
    {
      "op": "Activation", 
      "param": {"act_type": "tanh"}, 
      "name": "activation156", 
      "inputs": [[420, 1]], 
      "backward_source_id": -1
    }, 
    {
      "op": "_Mul", 
      "param": {}, 
      "name": "_mul94", 
      "inputs": [[424, 0], [425, 0]], 
      "backward_source_id": -1
    }, 
    {
      "op": "_Plus", 
      "param": {}, 
      "name": "_plus63", 
      "inputs": [[423, 0], [426, 0]], 
      "backward_source_id": -1
    }, 
    {
      "op": "Activation", 
      "param": {"act_type": "tanh"}, 
      "name": "activation159", 
      "inputs": [[427, 0]], 
      "backward_source_id": -1
    }, 
    {
      "op": "_Mul", 
      "param": {}, 
      "name": "_mul95", 
      "inputs": [[421, 0], [428, 0]], 
      "backward_source_id": -1
    }, 
    {
      "op": "FullyConnected", 
      "param": {
        "no_bias": "False", 
        "num_hidden": "400"
      }, 
      "name": "t16_l0_i2h", 
      "inputs": [[1, 16], [2, 0], [3, 0]], 
      "backward_source_id": -1
    }, 
    {
      "op": "FullyConnected", 
      "param": {
        "no_bias": "False", 
        "num_hidden": "400"
      }, 
      "name": "t16_l0_h2h", 
      "inputs": [[416, 0], [6, 0], [7, 0]], 
      "backward_source_id": -1
    }, 
    {
      "op": "_Plus", 
      "param": {}, 
      "name": "_plus64", 
      "inputs": [[430, 0], [431, 0]], 
      "backward_source_id": -1
    }, 
    {
      "op": "SliceChannel", 
      "param": {
        "axis": "1", 
        "num_outputs": "4", 
        "squeeze_axis": "False"
      }, 
      "name": "t16_l0_slice", 
      "inputs": [[432, 0]], 
      "backward_source_id": -1
    }, 
    {
      "op": "Activation", 
      "param": {"act_type": "sigmoid"}, 
      "name": "activation163", 
      "inputs": [[433, 3]], 
      "backward_source_id": -1
    }, 
    {
      "op": "Activation", 
      "param": {"act_type": "sigmoid"}, 
      "name": "activation162", 
      "inputs": [[433, 2]], 
      "backward_source_id": -1
    }, 
    {
      "op": "_Mul", 
      "param": {}, 
      "name": "_mul96", 
      "inputs": [[435, 0], [414, 0]], 
      "backward_source_id": -1
    }, 
    {
      "op": "Activation", 
      "param": {"act_type": "sigmoid"}, 
      "name": "activation160", 
      "inputs": [[433, 0]], 
      "backward_source_id": -1
    }, 
    {
      "op": "Activation", 
      "param": {"act_type": "tanh"}, 
      "name": "activation161", 
      "inputs": [[433, 1]], 
      "backward_source_id": -1
    }, 
    {
      "op": "_Mul", 
      "param": {}, 
      "name": "_mul97", 
      "inputs": [[437, 0], [438, 0]], 
      "backward_source_id": -1
    }, 
    {
      "op": "_Plus", 
      "param": {}, 
      "name": "_plus65", 
      "inputs": [[436, 0], [439, 0]], 
      "backward_source_id": -1
    }, 
    {
      "op": "Activation", 
      "param": {"act_type": "tanh"}, 
      "name": "activation164", 
      "inputs": [[440, 0]], 
      "backward_source_id": -1
    }, 
    {
      "op": "_Mul", 
      "param": {}, 
      "name": "_mul98", 
      "inputs": [[434, 0], [441, 0]], 
      "backward_source_id": -1
    }, 
    {
      "op": "FullyConnected", 
      "param": {
        "no_bias": "False", 
        "num_hidden": "400"
      }, 
      "name": "t16_l1_i2h", 
      "inputs": [[442, 0], [21, 0], [22, 0]], 
      "backward_source_id": -1
    }, 
    {
      "op": "FullyConnected", 
      "param": {
        "no_bias": "False", 
        "num_hidden": "400"
      }, 
      "name": "t16_l1_h2h", 
      "inputs": [[429, 0], [25, 0], [26, 0]], 
      "backward_source_id": -1
    }, 
    {
      "op": "_Plus", 
      "param": {}, 
      "name": "_plus66", 
      "inputs": [[443, 0], [444, 0]], 
      "backward_source_id": -1
    }, 
    {
      "op": "SliceChannel", 
      "param": {
        "axis": "1", 
        "num_outputs": "4", 
        "squeeze_axis": "False"
      }, 
      "name": "t16_l1_slice", 
      "inputs": [[445, 0]], 
      "backward_source_id": -1
    }, 
    {
      "op": "Activation", 
      "param": {"act_type": "sigmoid"}, 
      "name": "activation168", 
      "inputs": [[446, 3]], 
      "backward_source_id": -1
    }, 
    {
      "op": "Activation", 
      "param": {"act_type": "sigmoid"}, 
      "name": "activation167", 
      "inputs": [[446, 2]], 
      "backward_source_id": -1
    }, 
    {
      "op": "_Mul", 
      "param": {}, 
      "name": "_mul99", 
      "inputs": [[448, 0], [427, 0]], 
      "backward_source_id": -1
    }, 
    {
      "op": "Activation", 
      "param": {"act_type": "sigmoid"}, 
      "name": "activation165", 
      "inputs": [[446, 0]], 
      "backward_source_id": -1
    }, 
    {
      "op": "Activation", 
      "param": {"act_type": "tanh"}, 
      "name": "activation166", 
      "inputs": [[446, 1]], 
      "backward_source_id": -1
    }, 
    {
      "op": "_Mul", 
      "param": {}, 
      "name": "_mul100", 
      "inputs": [[450, 0], [451, 0]], 
      "backward_source_id": -1
    }, 
    {
      "op": "_Plus", 
      "param": {}, 
      "name": "_plus67", 
      "inputs": [[449, 0], [452, 0]], 
      "backward_source_id": -1
    }, 
    {
      "op": "Activation", 
      "param": {"act_type": "tanh"}, 
      "name": "activation169", 
      "inputs": [[453, 0]], 
      "backward_source_id": -1
    }, 
    {
      "op": "_Mul", 
      "param": {}, 
      "name": "_mul101", 
      "inputs": [[447, 0], [454, 0]], 
      "backward_source_id": -1
    }, 
    {
      "op": "FullyConnected", 
      "param": {
        "no_bias": "False", 
        "num_hidden": "400"
      }, 
      "name": "t17_l0_i2h", 
      "inputs": [[1, 17], [2, 0], [3, 0]], 
      "backward_source_id": -1
    }, 
    {
      "op": "FullyConnected", 
      "param": {
        "no_bias": "False", 
        "num_hidden": "400"
      }, 
      "name": "t17_l0_h2h", 
      "inputs": [[442, 0], [6, 0], [7, 0]], 
      "backward_source_id": -1
    }, 
    {
      "op": "_Plus", 
      "param": {}, 
      "name": "_plus68", 
      "inputs": [[456, 0], [457, 0]], 
      "backward_source_id": -1
    }, 
    {
      "op": "SliceChannel", 
      "param": {
        "axis": "1", 
        "num_outputs": "4", 
        "squeeze_axis": "False"
      }, 
      "name": "t17_l0_slice", 
      "inputs": [[458, 0]], 
      "backward_source_id": -1
    }, 
    {
      "op": "Activation", 
      "param": {"act_type": "sigmoid"}, 
      "name": "activation173", 
      "inputs": [[459, 3]], 
      "backward_source_id": -1
    }, 
    {
      "op": "Activation", 
      "param": {"act_type": "sigmoid"}, 
      "name": "activation172", 
      "inputs": [[459, 2]], 
      "backward_source_id": -1
    }, 
    {
      "op": "_Mul", 
      "param": {}, 
      "name": "_mul102", 
      "inputs": [[461, 0], [440, 0]], 
      "backward_source_id": -1
    }, 
    {
      "op": "Activation", 
      "param": {"act_type": "sigmoid"}, 
      "name": "activation170", 
      "inputs": [[459, 0]], 
      "backward_source_id": -1
    }, 
    {
      "op": "Activation", 
      "param": {"act_type": "tanh"}, 
      "name": "activation171", 
      "inputs": [[459, 1]], 
      "backward_source_id": -1
    }, 
    {
      "op": "_Mul", 
      "param": {}, 
      "name": "_mul103", 
      "inputs": [[463, 0], [464, 0]], 
      "backward_source_id": -1
    }, 
    {
      "op": "_Plus", 
      "param": {}, 
      "name": "_plus69", 
      "inputs": [[462, 0], [465, 0]], 
      "backward_source_id": -1
    }, 
    {
      "op": "Activation", 
      "param": {"act_type": "tanh"}, 
      "name": "activation174", 
      "inputs": [[466, 0]], 
      "backward_source_id": -1
    }, 
    {
      "op": "_Mul", 
      "param": {}, 
      "name": "_mul104", 
      "inputs": [[460, 0], [467, 0]], 
      "backward_source_id": -1
    }, 
    {
      "op": "FullyConnected", 
      "param": {
        "no_bias": "False", 
        "num_hidden": "400"
      }, 
      "name": "t17_l1_i2h", 
      "inputs": [[468, 0], [21, 0], [22, 0]], 
      "backward_source_id": -1
    }, 
    {
      "op": "FullyConnected", 
      "param": {
        "no_bias": "False", 
        "num_hidden": "400"
      }, 
      "name": "t17_l1_h2h", 
      "inputs": [[455, 0], [25, 0], [26, 0]], 
      "backward_source_id": -1
    }, 
    {
      "op": "_Plus", 
      "param": {}, 
      "name": "_plus70", 
      "inputs": [[469, 0], [470, 0]], 
      "backward_source_id": -1
    }, 
    {
      "op": "SliceChannel", 
      "param": {
        "axis": "1", 
        "num_outputs": "4", 
        "squeeze_axis": "False"
      }, 
      "name": "t17_l1_slice", 
      "inputs": [[471, 0]], 
      "backward_source_id": -1
    }, 
    {
      "op": "Activation", 
      "param": {"act_type": "sigmoid"}, 
      "name": "activation178", 
      "inputs": [[472, 3]], 
      "backward_source_id": -1
    }, 
    {
      "op": "Activation", 
      "param": {"act_type": "sigmoid"}, 
      "name": "activation177", 
      "inputs": [[472, 2]], 
      "backward_source_id": -1
    }, 
    {
      "op": "_Mul", 
      "param": {}, 
      "name": "_mul105", 
      "inputs": [[474, 0], [453, 0]], 
      "backward_source_id": -1
    }, 
    {
      "op": "Activation", 
      "param": {"act_type": "sigmoid"}, 
      "name": "activation175", 
      "inputs": [[472, 0]], 
      "backward_source_id": -1
    }, 
    {
      "op": "Activation", 
      "param": {"act_type": "tanh"}, 
      "name": "activation176", 
      "inputs": [[472, 1]], 
      "backward_source_id": -1
    }, 
    {
      "op": "_Mul", 
      "param": {}, 
      "name": "_mul106", 
      "inputs": [[476, 0], [477, 0]], 
      "backward_source_id": -1
    }, 
    {
      "op": "_Plus", 
      "param": {}, 
      "name": "_plus71", 
      "inputs": [[475, 0], [478, 0]], 
      "backward_source_id": -1
    }, 
    {
      "op": "Activation", 
      "param": {"act_type": "tanh"}, 
      "name": "activation179", 
      "inputs": [[479, 0]], 
      "backward_source_id": -1
    }, 
    {
      "op": "_Mul", 
      "param": {}, 
      "name": "_mul107", 
      "inputs": [[473, 0], [480, 0]], 
      "backward_source_id": -1
    }, 
    {
      "op": "FullyConnected", 
      "param": {
        "no_bias": "False", 
        "num_hidden": "400"
      }, 
      "name": "t18_l0_i2h", 
      "inputs": [[1, 18], [2, 0], [3, 0]], 
      "backward_source_id": -1
    }, 
    {
      "op": "FullyConnected", 
      "param": {
        "no_bias": "False", 
        "num_hidden": "400"
      }, 
      "name": "t18_l0_h2h", 
      "inputs": [[468, 0], [6, 0], [7, 0]], 
      "backward_source_id": -1
    }, 
    {
      "op": "_Plus", 
      "param": {}, 
      "name": "_plus72", 
      "inputs": [[482, 0], [483, 0]], 
      "backward_source_id": -1
    }, 
    {
      "op": "SliceChannel", 
      "param": {
        "axis": "1", 
        "num_outputs": "4", 
        "squeeze_axis": "False"
      }, 
      "name": "t18_l0_slice", 
      "inputs": [[484, 0]], 
      "backward_source_id": -1
    }, 
    {
      "op": "Activation", 
      "param": {"act_type": "sigmoid"}, 
      "name": "activation183", 
      "inputs": [[485, 3]], 
      "backward_source_id": -1
    }, 
    {
      "op": "Activation", 
      "param": {"act_type": "sigmoid"}, 
      "name": "activation182", 
      "inputs": [[485, 2]], 
      "backward_source_id": -1
    }, 
    {
      "op": "_Mul", 
      "param": {}, 
      "name": "_mul108", 
      "inputs": [[487, 0], [466, 0]], 
      "backward_source_id": -1
    }, 
    {
      "op": "Activation", 
      "param": {"act_type": "sigmoid"}, 
      "name": "activation180", 
      "inputs": [[485, 0]], 
      "backward_source_id": -1
    }, 
    {
      "op": "Activation", 
      "param": {"act_type": "tanh"}, 
      "name": "activation181", 
      "inputs": [[485, 1]], 
      "backward_source_id": -1
    }, 
    {
      "op": "_Mul", 
      "param": {}, 
      "name": "_mul109", 
      "inputs": [[489, 0], [490, 0]], 
      "backward_source_id": -1
    }, 
    {
      "op": "_Plus", 
      "param": {}, 
      "name": "_plus73", 
      "inputs": [[488, 0], [491, 0]], 
      "backward_source_id": -1
    }, 
    {
      "op": "Activation", 
      "param": {"act_type": "tanh"}, 
      "name": "activation184", 
      "inputs": [[492, 0]], 
      "backward_source_id": -1
    }, 
    {
      "op": "_Mul", 
      "param": {}, 
      "name": "_mul110", 
      "inputs": [[486, 0], [493, 0]], 
      "backward_source_id": -1
    }, 
    {
      "op": "FullyConnected", 
      "param": {
        "no_bias": "False", 
        "num_hidden": "400"
      }, 
      "name": "t18_l1_i2h", 
      "inputs": [[494, 0], [21, 0], [22, 0]], 
      "backward_source_id": -1
    }, 
    {
      "op": "FullyConnected", 
      "param": {
        "no_bias": "False", 
        "num_hidden": "400"
      }, 
      "name": "t18_l1_h2h", 
      "inputs": [[481, 0], [25, 0], [26, 0]], 
      "backward_source_id": -1
    }, 
    {
      "op": "_Plus", 
      "param": {}, 
      "name": "_plus74", 
      "inputs": [[495, 0], [496, 0]], 
      "backward_source_id": -1
    }, 
    {
      "op": "SliceChannel", 
      "param": {
        "axis": "1", 
        "num_outputs": "4", 
        "squeeze_axis": "False"
      }, 
      "name": "t18_l1_slice", 
      "inputs": [[497, 0]], 
      "backward_source_id": -1
    }, 
    {
      "op": "Activation", 
      "param": {"act_type": "sigmoid"}, 
      "name": "activation188", 
      "inputs": [[498, 3]], 
      "backward_source_id": -1
    }, 
    {
      "op": "Activation", 
      "param": {"act_type": "sigmoid"}, 
      "name": "activation187", 
      "inputs": [[498, 2]], 
      "backward_source_id": -1
    }, 
    {
      "op": "_Mul", 
      "param": {}, 
      "name": "_mul111", 
      "inputs": [[500, 0], [479, 0]], 
      "backward_source_id": -1
    }, 
    {
      "op": "Activation", 
      "param": {"act_type": "sigmoid"}, 
      "name": "activation185", 
      "inputs": [[498, 0]], 
      "backward_source_id": -1
    }, 
    {
      "op": "Activation", 
      "param": {"act_type": "tanh"}, 
      "name": "activation186", 
      "inputs": [[498, 1]], 
      "backward_source_id": -1
    }, 
    {
      "op": "_Mul", 
      "param": {}, 
      "name": "_mul112", 
      "inputs": [[502, 0], [503, 0]], 
      "backward_source_id": -1
    }, 
    {
      "op": "_Plus", 
      "param": {}, 
      "name": "_plus75", 
      "inputs": [[501, 0], [504, 0]], 
      "backward_source_id": -1
    }, 
    {
      "op": "Activation", 
      "param": {"act_type": "tanh"}, 
      "name": "activation189", 
      "inputs": [[505, 0]], 
      "backward_source_id": -1
    }, 
    {
      "op": "_Mul", 
      "param": {}, 
      "name": "_mul113", 
      "inputs": [[499, 0], [506, 0]], 
      "backward_source_id": -1
    }, 
    {
      "op": "FullyConnected", 
      "param": {
        "no_bias": "False", 
        "num_hidden": "400"
      }, 
      "name": "t19_l0_i2h", 
      "inputs": [[1, 19], [2, 0], [3, 0]], 
      "backward_source_id": -1
    }, 
    {
      "op": "FullyConnected", 
      "param": {
        "no_bias": "False", 
        "num_hidden": "400"
      }, 
      "name": "t19_l0_h2h", 
      "inputs": [[494, 0], [6, 0], [7, 0]], 
      "backward_source_id": -1
    }, 
    {
      "op": "_Plus", 
      "param": {}, 
      "name": "_plus76", 
      "inputs": [[508, 0], [509, 0]], 
      "backward_source_id": -1
    }, 
    {
      "op": "SliceChannel", 
      "param": {
        "axis": "1", 
        "num_outputs": "4", 
        "squeeze_axis": "False"
      }, 
      "name": "t19_l0_slice", 
      "inputs": [[510, 0]], 
      "backward_source_id": -1
    }, 
    {
      "op": "Activation", 
      "param": {"act_type": "sigmoid"}, 
      "name": "activation193", 
      "inputs": [[511, 3]], 
      "backward_source_id": -1
    }, 
    {
      "op": "Activation", 
      "param": {"act_type": "sigmoid"}, 
      "name": "activation192", 
      "inputs": [[511, 2]], 
      "backward_source_id": -1
    }, 
    {
      "op": "_Mul", 
      "param": {}, 
      "name": "_mul114", 
      "inputs": [[513, 0], [492, 0]], 
      "backward_source_id": -1
    }, 
    {
      "op": "Activation", 
      "param": {"act_type": "sigmoid"}, 
      "name": "activation190", 
      "inputs": [[511, 0]], 
      "backward_source_id": -1
    }, 
    {
      "op": "Activation", 
      "param": {"act_type": "tanh"}, 
      "name": "activation191", 
      "inputs": [[511, 1]], 
      "backward_source_id": -1
    }, 
    {
      "op": "_Mul", 
      "param": {}, 
      "name": "_mul115", 
      "inputs": [[515, 0], [516, 0]], 
      "backward_source_id": -1
    }, 
    {
      "op": "_Plus", 
      "param": {}, 
      "name": "_plus77", 
      "inputs": [[514, 0], [517, 0]], 
      "backward_source_id": -1
    }, 
    {
      "op": "Activation", 
      "param": {"act_type": "tanh"}, 
      "name": "activation194", 
      "inputs": [[518, 0]], 
      "backward_source_id": -1
    }, 
    {
      "op": "_Mul", 
      "param": {}, 
      "name": "_mul116", 
      "inputs": [[512, 0], [519, 0]], 
      "backward_source_id": -1
    }, 
    {
      "op": "FullyConnected", 
      "param": {
        "no_bias": "False", 
        "num_hidden": "400"
      }, 
      "name": "t19_l1_i2h", 
      "inputs": [[520, 0], [21, 0], [22, 0]], 
      "backward_source_id": -1
    }, 
    {
      "op": "FullyConnected", 
      "param": {
        "no_bias": "False", 
        "num_hidden": "400"
      }, 
      "name": "t19_l1_h2h", 
      "inputs": [[507, 0], [25, 0], [26, 0]], 
      "backward_source_id": -1
    }, 
    {
      "op": "_Plus", 
      "param": {}, 
      "name": "_plus78", 
      "inputs": [[521, 0], [522, 0]], 
      "backward_source_id": -1
    }, 
    {
      "op": "SliceChannel", 
      "param": {
        "axis": "1", 
        "num_outputs": "4", 
        "squeeze_axis": "False"
      }, 
      "name": "t19_l1_slice", 
      "inputs": [[523, 0]], 
      "backward_source_id": -1
    }, 
    {
      "op": "Activation", 
      "param": {"act_type": "sigmoid"}, 
      "name": "activation198", 
      "inputs": [[524, 3]], 
      "backward_source_id": -1
    }, 
    {
      "op": "Activation", 
      "param": {"act_type": "sigmoid"}, 
      "name": "activation197", 
      "inputs": [[524, 2]], 
      "backward_source_id": -1
    }, 
    {
      "op": "_Mul", 
      "param": {}, 
      "name": "_mul117", 
      "inputs": [[526, 0], [505, 0]], 
      "backward_source_id": -1
    }, 
    {
      "op": "Activation", 
      "param": {"act_type": "sigmoid"}, 
      "name": "activation195", 
      "inputs": [[524, 0]], 
      "backward_source_id": -1
    }, 
    {
      "op": "Activation", 
      "param": {"act_type": "tanh"}, 
      "name": "activation196", 
      "inputs": [[524, 1]], 
      "backward_source_id": -1
    }, 
    {
      "op": "_Mul", 
      "param": {}, 
      "name": "_mul118", 
      "inputs": [[528, 0], [529, 0]], 
      "backward_source_id": -1
    }, 
    {
      "op": "_Plus", 
      "param": {}, 
      "name": "_plus79", 
      "inputs": [[527, 0], [530, 0]], 
      "backward_source_id": -1
    }, 
    {
      "op": "Activation", 
      "param": {"act_type": "tanh"}, 
      "name": "activation199", 
      "inputs": [[531, 0]], 
      "backward_source_id": -1
    }, 
    {
      "op": "_Mul", 
      "param": {}, 
      "name": "_mul119", 
      "inputs": [[525, 0], [532, 0]], 
      "backward_source_id": -1
    }, 
    {
      "op": "FullyConnected", 
      "param": {
        "no_bias": "False", 
        "num_hidden": "400"
      }, 
      "name": "t20_l0_i2h", 
      "inputs": [[1, 20], [2, 0], [3, 0]], 
      "backward_source_id": -1
    }, 
    {
      "op": "FullyConnected", 
      "param": {
        "no_bias": "False", 
        "num_hidden": "400"
      }, 
      "name": "t20_l0_h2h", 
      "inputs": [[520, 0], [6, 0], [7, 0]], 
      "backward_source_id": -1
    }, 
    {
      "op": "_Plus", 
      "param": {}, 
      "name": "_plus80", 
      "inputs": [[534, 0], [535, 0]], 
      "backward_source_id": -1
    }, 
    {
      "op": "SliceChannel", 
      "param": {
        "axis": "1", 
        "num_outputs": "4", 
        "squeeze_axis": "False"
      }, 
      "name": "t20_l0_slice", 
      "inputs": [[536, 0]], 
      "backward_source_id": -1
    }, 
    {
      "op": "Activation", 
      "param": {"act_type": "sigmoid"}, 
      "name": "activation203", 
      "inputs": [[537, 3]], 
      "backward_source_id": -1
    }, 
    {
      "op": "Activation", 
      "param": {"act_type": "sigmoid"}, 
      "name": "activation202", 
      "inputs": [[537, 2]], 
      "backward_source_id": -1
    }, 
    {
      "op": "_Mul", 
      "param": {}, 
      "name": "_mul120", 
      "inputs": [[539, 0], [518, 0]], 
      "backward_source_id": -1
    }, 
    {
      "op": "Activation", 
      "param": {"act_type": "sigmoid"}, 
      "name": "activation200", 
      "inputs": [[537, 0]], 
      "backward_source_id": -1
    }, 
    {
      "op": "Activation", 
      "param": {"act_type": "tanh"}, 
      "name": "activation201", 
      "inputs": [[537, 1]], 
      "backward_source_id": -1
    }, 
    {
      "op": "_Mul", 
      "param": {}, 
      "name": "_mul121", 
      "inputs": [[541, 0], [542, 0]], 
      "backward_source_id": -1
    }, 
    {
      "op": "_Plus", 
      "param": {}, 
      "name": "_plus81", 
      "inputs": [[540, 0], [543, 0]], 
      "backward_source_id": -1
    }, 
    {
      "op": "Activation", 
      "param": {"act_type": "tanh"}, 
      "name": "activation204", 
      "inputs": [[544, 0]], 
      "backward_source_id": -1
    }, 
    {
      "op": "_Mul", 
      "param": {}, 
      "name": "_mul122", 
      "inputs": [[538, 0], [545, 0]], 
      "backward_source_id": -1
    }, 
    {
      "op": "FullyConnected", 
      "param": {
        "no_bias": "False", 
        "num_hidden": "400"
      }, 
      "name": "t20_l1_i2h", 
      "inputs": [[546, 0], [21, 0], [22, 0]], 
      "backward_source_id": -1
    }, 
    {
      "op": "FullyConnected", 
      "param": {
        "no_bias": "False", 
        "num_hidden": "400"
      }, 
      "name": "t20_l1_h2h", 
      "inputs": [[533, 0], [25, 0], [26, 0]], 
      "backward_source_id": -1
    }, 
    {
      "op": "_Plus", 
      "param": {}, 
      "name": "_plus82", 
      "inputs": [[547, 0], [548, 0]], 
      "backward_source_id": -1
    }, 
    {
      "op": "SliceChannel", 
      "param": {
        "axis": "1", 
        "num_outputs": "4", 
        "squeeze_axis": "False"
      }, 
      "name": "t20_l1_slice", 
      "inputs": [[549, 0]], 
      "backward_source_id": -1
    }, 
    {
      "op": "Activation", 
      "param": {"act_type": "sigmoid"}, 
      "name": "activation208", 
      "inputs": [[550, 3]], 
      "backward_source_id": -1
    }, 
    {
      "op": "Activation", 
      "param": {"act_type": "sigmoid"}, 
      "name": "activation207", 
      "inputs": [[550, 2]], 
      "backward_source_id": -1
    }, 
    {
      "op": "_Mul", 
      "param": {}, 
      "name": "_mul123", 
      "inputs": [[552, 0], [531, 0]], 
      "backward_source_id": -1
    }, 
    {
      "op": "Activation", 
      "param": {"act_type": "sigmoid"}, 
      "name": "activation205", 
      "inputs": [[550, 0]], 
      "backward_source_id": -1
    }, 
    {
      "op": "Activation", 
      "param": {"act_type": "tanh"}, 
      "name": "activation206", 
      "inputs": [[550, 1]], 
      "backward_source_id": -1
    }, 
    {
      "op": "_Mul", 
      "param": {}, 
      "name": "_mul124", 
      "inputs": [[554, 0], [555, 0]], 
      "backward_source_id": -1
    }, 
    {
      "op": "_Plus", 
      "param": {}, 
      "name": "_plus83", 
      "inputs": [[553, 0], [556, 0]], 
      "backward_source_id": -1
    }, 
    {
      "op": "Activation", 
      "param": {"act_type": "tanh"}, 
      "name": "activation209", 
      "inputs": [[557, 0]], 
      "backward_source_id": -1
    }, 
    {
      "op": "_Mul", 
      "param": {}, 
      "name": "_mul125", 
      "inputs": [[551, 0], [558, 0]], 
      "backward_source_id": -1
    }, 
    {
      "op": "FullyConnected", 
      "param": {
        "no_bias": "False", 
        "num_hidden": "400"
      }, 
      "name": "t21_l0_i2h", 
      "inputs": [[1, 21], [2, 0], [3, 0]], 
      "backward_source_id": -1
    }, 
    {
      "op": "FullyConnected", 
      "param": {
        "no_bias": "False", 
        "num_hidden": "400"
      }, 
      "name": "t21_l0_h2h", 
      "inputs": [[546, 0], [6, 0], [7, 0]], 
      "backward_source_id": -1
    }, 
    {
      "op": "_Plus", 
      "param": {}, 
      "name": "_plus84", 
      "inputs": [[560, 0], [561, 0]], 
      "backward_source_id": -1
    }, 
    {
      "op": "SliceChannel", 
      "param": {
        "axis": "1", 
        "num_outputs": "4", 
        "squeeze_axis": "False"
      }, 
      "name": "t21_l0_slice", 
      "inputs": [[562, 0]], 
      "backward_source_id": -1
    }, 
    {
      "op": "Activation", 
      "param": {"act_type": "sigmoid"}, 
      "name": "activation213", 
      "inputs": [[563, 3]], 
      "backward_source_id": -1
    }, 
    {
      "op": "Activation", 
      "param": {"act_type": "sigmoid"}, 
      "name": "activation212", 
      "inputs": [[563, 2]], 
      "backward_source_id": -1
    }, 
    {
      "op": "_Mul", 
      "param": {}, 
      "name": "_mul126", 
      "inputs": [[565, 0], [544, 0]], 
      "backward_source_id": -1
    }, 
    {
      "op": "Activation", 
      "param": {"act_type": "sigmoid"}, 
      "name": "activation210", 
      "inputs": [[563, 0]], 
      "backward_source_id": -1
    }, 
    {
      "op": "Activation", 
      "param": {"act_type": "tanh"}, 
      "name": "activation211", 
      "inputs": [[563, 1]], 
      "backward_source_id": -1
    }, 
    {
      "op": "_Mul", 
      "param": {}, 
      "name": "_mul127", 
      "inputs": [[567, 0], [568, 0]], 
      "backward_source_id": -1
    }, 
    {
      "op": "_Plus", 
      "param": {}, 
      "name": "_plus85", 
      "inputs": [[566, 0], [569, 0]], 
      "backward_source_id": -1
    }, 
    {
      "op": "Activation", 
      "param": {"act_type": "tanh"}, 
      "name": "activation214", 
      "inputs": [[570, 0]], 
      "backward_source_id": -1
    }, 
    {
      "op": "_Mul", 
      "param": {}, 
      "name": "_mul128", 
      "inputs": [[564, 0], [571, 0]], 
      "backward_source_id": -1
    }, 
    {
      "op": "FullyConnected", 
      "param": {
        "no_bias": "False", 
        "num_hidden": "400"
      }, 
      "name": "t21_l1_i2h", 
      "inputs": [[572, 0], [21, 0], [22, 0]], 
      "backward_source_id": -1
    }, 
    {
      "op": "FullyConnected", 
      "param": {
        "no_bias": "False", 
        "num_hidden": "400"
      }, 
      "name": "t21_l1_h2h", 
      "inputs": [[559, 0], [25, 0], [26, 0]], 
      "backward_source_id": -1
    }, 
    {
      "op": "_Plus", 
      "param": {}, 
      "name": "_plus86", 
      "inputs": [[573, 0], [574, 0]], 
      "backward_source_id": -1
    }, 
    {
      "op": "SliceChannel", 
      "param": {
        "axis": "1", 
        "num_outputs": "4", 
        "squeeze_axis": "False"
      }, 
      "name": "t21_l1_slice", 
      "inputs": [[575, 0]], 
      "backward_source_id": -1
    }, 
    {
      "op": "Activation", 
      "param": {"act_type": "sigmoid"}, 
      "name": "activation218", 
      "inputs": [[576, 3]], 
      "backward_source_id": -1
    }, 
    {
      "op": "Activation", 
      "param": {"act_type": "sigmoid"}, 
      "name": "activation217", 
      "inputs": [[576, 2]], 
      "backward_source_id": -1
    }, 
    {
      "op": "_Mul", 
      "param": {}, 
      "name": "_mul129", 
      "inputs": [[578, 0], [557, 0]], 
      "backward_source_id": -1
    }, 
    {
      "op": "Activation", 
      "param": {"act_type": "sigmoid"}, 
      "name": "activation215", 
      "inputs": [[576, 0]], 
      "backward_source_id": -1
    }, 
    {
      "op": "Activation", 
      "param": {"act_type": "tanh"}, 
      "name": "activation216", 
      "inputs": [[576, 1]], 
      "backward_source_id": -1
    }, 
    {
      "op": "_Mul", 
      "param": {}, 
      "name": "_mul130", 
      "inputs": [[580, 0], [581, 0]], 
      "backward_source_id": -1
    }, 
    {
      "op": "_Plus", 
      "param": {}, 
      "name": "_plus87", 
      "inputs": [[579, 0], [582, 0]], 
      "backward_source_id": -1
    }, 
    {
      "op": "Activation", 
      "param": {"act_type": "tanh"}, 
      "name": "activation219", 
      "inputs": [[583, 0]], 
      "backward_source_id": -1
    }, 
    {
      "op": "_Mul", 
      "param": {}, 
      "name": "_mul131", 
      "inputs": [[577, 0], [584, 0]], 
      "backward_source_id": -1
    }, 
    {
      "op": "FullyConnected", 
      "param": {
        "no_bias": "False", 
        "num_hidden": "400"
      }, 
      "name": "t22_l0_i2h", 
      "inputs": [[1, 22], [2, 0], [3, 0]], 
      "backward_source_id": -1
    }, 
    {
      "op": "FullyConnected", 
      "param": {
        "no_bias": "False", 
        "num_hidden": "400"
      }, 
      "name": "t22_l0_h2h", 
      "inputs": [[572, 0], [6, 0], [7, 0]], 
      "backward_source_id": -1
    }, 
    {
      "op": "_Plus", 
      "param": {}, 
      "name": "_plus88", 
      "inputs": [[586, 0], [587, 0]], 
      "backward_source_id": -1
    }, 
    {
      "op": "SliceChannel", 
      "param": {
        "axis": "1", 
        "num_outputs": "4", 
        "squeeze_axis": "False"
      }, 
      "name": "t22_l0_slice", 
      "inputs": [[588, 0]], 
      "backward_source_id": -1
    }, 
    {
      "op": "Activation", 
      "param": {"act_type": "sigmoid"}, 
      "name": "activation223", 
      "inputs": [[589, 3]], 
      "backward_source_id": -1
    }, 
    {
      "op": "Activation", 
      "param": {"act_type": "sigmoid"}, 
      "name": "activation222", 
      "inputs": [[589, 2]], 
      "backward_source_id": -1
    }, 
    {
      "op": "_Mul", 
      "param": {}, 
      "name": "_mul132", 
      "inputs": [[591, 0], [570, 0]], 
      "backward_source_id": -1
    }, 
    {
      "op": "Activation", 
      "param": {"act_type": "sigmoid"}, 
      "name": "activation220", 
      "inputs": [[589, 0]], 
      "backward_source_id": -1
    }, 
    {
      "op": "Activation", 
      "param": {"act_type": "tanh"}, 
      "name": "activation221", 
      "inputs": [[589, 1]], 
      "backward_source_id": -1
    }, 
    {
      "op": "_Mul", 
      "param": {}, 
      "name": "_mul133", 
      "inputs": [[593, 0], [594, 0]], 
      "backward_source_id": -1
    }, 
    {
      "op": "_Plus", 
      "param": {}, 
      "name": "_plus89", 
      "inputs": [[592, 0], [595, 0]], 
      "backward_source_id": -1
    }, 
    {
      "op": "Activation", 
      "param": {"act_type": "tanh"}, 
      "name": "activation224", 
      "inputs": [[596, 0]], 
      "backward_source_id": -1
    }, 
    {
      "op": "_Mul", 
      "param": {}, 
      "name": "_mul134", 
      "inputs": [[590, 0], [597, 0]], 
      "backward_source_id": -1
    }, 
    {
      "op": "FullyConnected", 
      "param": {
        "no_bias": "False", 
        "num_hidden": "400"
      }, 
      "name": "t22_l1_i2h", 
      "inputs": [[598, 0], [21, 0], [22, 0]], 
      "backward_source_id": -1
    }, 
    {
      "op": "FullyConnected", 
      "param": {
        "no_bias": "False", 
        "num_hidden": "400"
      }, 
      "name": "t22_l1_h2h", 
      "inputs": [[585, 0], [25, 0], [26, 0]], 
      "backward_source_id": -1
    }, 
    {
      "op": "_Plus", 
      "param": {}, 
      "name": "_plus90", 
      "inputs": [[599, 0], [600, 0]], 
      "backward_source_id": -1
    }, 
    {
      "op": "SliceChannel", 
      "param": {
        "axis": "1", 
        "num_outputs": "4", 
        "squeeze_axis": "False"
      }, 
      "name": "t22_l1_slice", 
      "inputs": [[601, 0]], 
      "backward_source_id": -1
    }, 
    {
      "op": "Activation", 
      "param": {"act_type": "sigmoid"}, 
      "name": "activation228", 
      "inputs": [[602, 3]], 
      "backward_source_id": -1
    }, 
    {
      "op": "Activation", 
      "param": {"act_type": "sigmoid"}, 
      "name": "activation227", 
      "inputs": [[602, 2]], 
      "backward_source_id": -1
    }, 
    {
      "op": "_Mul", 
      "param": {}, 
      "name": "_mul135", 
      "inputs": [[604, 0], [583, 0]], 
      "backward_source_id": -1
    }, 
    {
      "op": "Activation", 
      "param": {"act_type": "sigmoid"}, 
      "name": "activation225", 
      "inputs": [[602, 0]], 
      "backward_source_id": -1
    }, 
    {
      "op": "Activation", 
      "param": {"act_type": "tanh"}, 
      "name": "activation226", 
      "inputs": [[602, 1]], 
      "backward_source_id": -1
    }, 
    {
      "op": "_Mul", 
      "param": {}, 
      "name": "_mul136", 
      "inputs": [[606, 0], [607, 0]], 
      "backward_source_id": -1
    }, 
    {
      "op": "_Plus", 
      "param": {}, 
      "name": "_plus91", 
      "inputs": [[605, 0], [608, 0]], 
      "backward_source_id": -1
    }, 
    {
      "op": "Activation", 
      "param": {"act_type": "tanh"}, 
      "name": "activation229", 
      "inputs": [[609, 0]], 
      "backward_source_id": -1
    }, 
    {
      "op": "_Mul", 
      "param": {}, 
      "name": "_mul137", 
      "inputs": [[603, 0], [610, 0]], 
      "backward_source_id": -1
    }, 
    {
      "op": "FullyConnected", 
      "param": {
        "no_bias": "False", 
        "num_hidden": "400"
      }, 
      "name": "t23_l0_i2h", 
      "inputs": [[1, 23], [2, 0], [3, 0]], 
      "backward_source_id": -1
    }, 
    {
      "op": "FullyConnected", 
      "param": {
        "no_bias": "False", 
        "num_hidden": "400"
      }, 
      "name": "t23_l0_h2h", 
      "inputs": [[598, 0], [6, 0], [7, 0]], 
      "backward_source_id": -1
    }, 
    {
      "op": "_Plus", 
      "param": {}, 
      "name": "_plus92", 
      "inputs": [[612, 0], [613, 0]], 
      "backward_source_id": -1
    }, 
    {
      "op": "SliceChannel", 
      "param": {
        "axis": "1", 
        "num_outputs": "4", 
        "squeeze_axis": "False"
      }, 
      "name": "t23_l0_slice", 
      "inputs": [[614, 0]], 
      "backward_source_id": -1
    }, 
    {
      "op": "Activation", 
      "param": {"act_type": "sigmoid"}, 
      "name": "activation233", 
      "inputs": [[615, 3]], 
      "backward_source_id": -1
    }, 
    {
      "op": "Activation", 
      "param": {"act_type": "sigmoid"}, 
      "name": "activation232", 
      "inputs": [[615, 2]], 
      "backward_source_id": -1
    }, 
    {
      "op": "_Mul", 
      "param": {}, 
      "name": "_mul138", 
      "inputs": [[617, 0], [596, 0]], 
      "backward_source_id": -1
    }, 
    {
      "op": "Activation", 
      "param": {"act_type": "sigmoid"}, 
      "name": "activation230", 
      "inputs": [[615, 0]], 
      "backward_source_id": -1
    }, 
    {
      "op": "Activation", 
      "param": {"act_type": "tanh"}, 
      "name": "activation231", 
      "inputs": [[615, 1]], 
      "backward_source_id": -1
    }, 
    {
      "op": "_Mul", 
      "param": {}, 
      "name": "_mul139", 
      "inputs": [[619, 0], [620, 0]], 
      "backward_source_id": -1
    }, 
    {
      "op": "_Plus", 
      "param": {}, 
      "name": "_plus93", 
      "inputs": [[618, 0], [621, 0]], 
      "backward_source_id": -1
    }, 
    {
      "op": "Activation", 
      "param": {"act_type": "tanh"}, 
      "name": "activation234", 
      "inputs": [[622, 0]], 
      "backward_source_id": -1
    }, 
    {
      "op": "_Mul", 
      "param": {}, 
      "name": "_mul140", 
      "inputs": [[616, 0], [623, 0]], 
      "backward_source_id": -1
    }, 
    {
      "op": "FullyConnected", 
      "param": {
        "no_bias": "False", 
        "num_hidden": "400"
      }, 
      "name": "t23_l1_i2h", 
      "inputs": [[624, 0], [21, 0], [22, 0]], 
      "backward_source_id": -1
    }, 
    {
      "op": "FullyConnected", 
      "param": {
        "no_bias": "False", 
        "num_hidden": "400"
      }, 
      "name": "t23_l1_h2h", 
      "inputs": [[611, 0], [25, 0], [26, 0]], 
      "backward_source_id": -1
    }, 
    {
      "op": "_Plus", 
      "param": {}, 
      "name": "_plus94", 
      "inputs": [[625, 0], [626, 0]], 
      "backward_source_id": -1
    }, 
    {
      "op": "SliceChannel", 
      "param": {
        "axis": "1", 
        "num_outputs": "4", 
        "squeeze_axis": "False"
      }, 
      "name": "t23_l1_slice", 
      "inputs": [[627, 0]], 
      "backward_source_id": -1
    }, 
    {
      "op": "Activation", 
      "param": {"act_type": "sigmoid"}, 
      "name": "activation238", 
      "inputs": [[628, 3]], 
      "backward_source_id": -1
    }, 
    {
      "op": "Activation", 
      "param": {"act_type": "sigmoid"}, 
      "name": "activation237", 
      "inputs": [[628, 2]], 
      "backward_source_id": -1
    }, 
    {
      "op": "_Mul", 
      "param": {}, 
      "name": "_mul141", 
      "inputs": [[630, 0], [609, 0]], 
      "backward_source_id": -1
    }, 
    {
      "op": "Activation", 
      "param": {"act_type": "sigmoid"}, 
      "name": "activation235", 
      "inputs": [[628, 0]], 
      "backward_source_id": -1
    }, 
    {
      "op": "Activation", 
      "param": {"act_type": "tanh"}, 
      "name": "activation236", 
      "inputs": [[628, 1]], 
      "backward_source_id": -1
    }, 
    {
      "op": "_Mul", 
      "param": {}, 
      "name": "_mul142", 
      "inputs": [[632, 0], [633, 0]], 
      "backward_source_id": -1
    }, 
    {
      "op": "_Plus", 
      "param": {}, 
      "name": "_plus95", 
      "inputs": [[631, 0], [634, 0]], 
      "backward_source_id": -1
    }, 
    {
      "op": "Activation", 
      "param": {"act_type": "tanh"}, 
      "name": "activation239", 
      "inputs": [[635, 0]], 
      "backward_source_id": -1
    }, 
    {
      "op": "_Mul", 
      "param": {}, 
      "name": "_mul143", 
      "inputs": [[629, 0], [636, 0]], 
      "backward_source_id": -1
    }, 
    {
      "op": "FullyConnected", 
      "param": {
        "no_bias": "False", 
        "num_hidden": "400"
      }, 
      "name": "t24_l0_i2h", 
      "inputs": [[1, 24], [2, 0], [3, 0]], 
      "backward_source_id": -1
    }, 
    {
      "op": "FullyConnected", 
      "param": {
        "no_bias": "False", 
        "num_hidden": "400"
      }, 
      "name": "t24_l0_h2h", 
      "inputs": [[624, 0], [6, 0], [7, 0]], 
      "backward_source_id": -1
    }, 
    {
      "op": "_Plus", 
      "param": {}, 
      "name": "_plus96", 
      "inputs": [[638, 0], [639, 0]], 
      "backward_source_id": -1
    }, 
    {
      "op": "SliceChannel", 
      "param": {
        "axis": "1", 
        "num_outputs": "4", 
        "squeeze_axis": "False"
      }, 
      "name": "t24_l0_slice", 
      "inputs": [[640, 0]], 
      "backward_source_id": -1
    }, 
    {
      "op": "Activation", 
      "param": {"act_type": "sigmoid"}, 
      "name": "activation243", 
      "inputs": [[641, 3]], 
      "backward_source_id": -1
    }, 
    {
      "op": "Activation", 
      "param": {"act_type": "sigmoid"}, 
      "name": "activation242", 
      "inputs": [[641, 2]], 
      "backward_source_id": -1
    }, 
    {
      "op": "_Mul", 
      "param": {}, 
      "name": "_mul144", 
      "inputs": [[643, 0], [622, 0]], 
      "backward_source_id": -1
    }, 
    {
      "op": "Activation", 
      "param": {"act_type": "sigmoid"}, 
      "name": "activation240", 
      "inputs": [[641, 0]], 
      "backward_source_id": -1
    }, 
    {
      "op": "Activation", 
      "param": {"act_type": "tanh"}, 
      "name": "activation241", 
      "inputs": [[641, 1]], 
      "backward_source_id": -1
    }, 
    {
      "op": "_Mul", 
      "param": {}, 
      "name": "_mul145", 
      "inputs": [[645, 0], [646, 0]], 
      "backward_source_id": -1
    }, 
    {
      "op": "_Plus", 
      "param": {}, 
      "name": "_plus97", 
      "inputs": [[644, 0], [647, 0]], 
      "backward_source_id": -1
    }, 
    {
      "op": "Activation", 
      "param": {"act_type": "tanh"}, 
      "name": "activation244", 
      "inputs": [[648, 0]], 
      "backward_source_id": -1
    }, 
    {
      "op": "_Mul", 
      "param": {}, 
      "name": "_mul146", 
      "inputs": [[642, 0], [649, 0]], 
      "backward_source_id": -1
    }, 
    {
      "op": "FullyConnected", 
      "param": {
        "no_bias": "False", 
        "num_hidden": "400"
      }, 
      "name": "t24_l1_i2h", 
      "inputs": [[650, 0], [21, 0], [22, 0]], 
      "backward_source_id": -1
    }, 
    {
      "op": "FullyConnected", 
      "param": {
        "no_bias": "False", 
        "num_hidden": "400"
      }, 
      "name": "t24_l1_h2h", 
      "inputs": [[637, 0], [25, 0], [26, 0]], 
      "backward_source_id": -1
    }, 
    {
      "op": "_Plus", 
      "param": {}, 
      "name": "_plus98", 
      "inputs": [[651, 0], [652, 0]], 
      "backward_source_id": -1
    }, 
    {
      "op": "SliceChannel", 
      "param": {
        "axis": "1", 
        "num_outputs": "4", 
        "squeeze_axis": "False"
      }, 
      "name": "t24_l1_slice", 
      "inputs": [[653, 0]], 
      "backward_source_id": -1
    }, 
    {
      "op": "Activation", 
      "param": {"act_type": "sigmoid"}, 
      "name": "activation248", 
      "inputs": [[654, 3]], 
      "backward_source_id": -1
    }, 
    {
      "op": "Activation", 
      "param": {"act_type": "sigmoid"}, 
      "name": "activation247", 
      "inputs": [[654, 2]], 
      "backward_source_id": -1
    }, 
    {
      "op": "_Mul", 
      "param": {}, 
      "name": "_mul147", 
      "inputs": [[656, 0], [635, 0]], 
      "backward_source_id": -1
    }, 
    {
      "op": "Activation", 
      "param": {"act_type": "sigmoid"}, 
      "name": "activation245", 
      "inputs": [[654, 0]], 
      "backward_source_id": -1
    }, 
    {
      "op": "Activation", 
      "param": {"act_type": "tanh"}, 
      "name": "activation246", 
      "inputs": [[654, 1]], 
      "backward_source_id": -1
    }, 
    {
      "op": "_Mul", 
      "param": {}, 
      "name": "_mul148", 
      "inputs": [[658, 0], [659, 0]], 
      "backward_source_id": -1
    }, 
    {
      "op": "_Plus", 
      "param": {}, 
      "name": "_plus99", 
      "inputs": [[657, 0], [660, 0]], 
      "backward_source_id": -1
    }, 
    {
      "op": "Activation", 
      "param": {"act_type": "tanh"}, 
      "name": "activation249", 
      "inputs": [[661, 0]], 
      "backward_source_id": -1
    }, 
    {
      "op": "_Mul", 
      "param": {}, 
      "name": "_mul149", 
      "inputs": [[655, 0], [662, 0]], 
      "backward_source_id": -1
    }, 
    {
      "op": "FullyConnected", 
      "param": {
        "no_bias": "False", 
        "num_hidden": "400"
      }, 
      "name": "t25_l0_i2h", 
      "inputs": [[1, 25], [2, 0], [3, 0]], 
      "backward_source_id": -1
    }, 
    {
      "op": "FullyConnected", 
      "param": {
        "no_bias": "False", 
        "num_hidden": "400"
      }, 
      "name": "t25_l0_h2h", 
      "inputs": [[650, 0], [6, 0], [7, 0]], 
      "backward_source_id": -1
    }, 
    {
      "op": "_Plus", 
      "param": {}, 
      "name": "_plus100", 
      "inputs": [[664, 0], [665, 0]], 
      "backward_source_id": -1
    }, 
    {
      "op": "SliceChannel", 
      "param": {
        "axis": "1", 
        "num_outputs": "4", 
        "squeeze_axis": "False"
      }, 
      "name": "t25_l0_slice", 
      "inputs": [[666, 0]], 
      "backward_source_id": -1
    }, 
    {
      "op": "Activation", 
      "param": {"act_type": "sigmoid"}, 
      "name": "activation253", 
      "inputs": [[667, 3]], 
      "backward_source_id": -1
    }, 
    {
      "op": "Activation", 
      "param": {"act_type": "sigmoid"}, 
      "name": "activation252", 
      "inputs": [[667, 2]], 
      "backward_source_id": -1
    }, 
    {
      "op": "_Mul", 
      "param": {}, 
      "name": "_mul150", 
      "inputs": [[669, 0], [648, 0]], 
      "backward_source_id": -1
    }, 
    {
      "op": "Activation", 
      "param": {"act_type": "sigmoid"}, 
      "name": "activation250", 
      "inputs": [[667, 0]], 
      "backward_source_id": -1
    }, 
    {
      "op": "Activation", 
      "param": {"act_type": "tanh"}, 
      "name": "activation251", 
      "inputs": [[667, 1]], 
      "backward_source_id": -1
    }, 
    {
      "op": "_Mul", 
      "param": {}, 
      "name": "_mul151", 
      "inputs": [[671, 0], [672, 0]], 
      "backward_source_id": -1
    }, 
    {
      "op": "_Plus", 
      "param": {}, 
      "name": "_plus101", 
      "inputs": [[670, 0], [673, 0]], 
      "backward_source_id": -1
    }, 
    {
      "op": "Activation", 
      "param": {"act_type": "tanh"}, 
      "name": "activation254", 
      "inputs": [[674, 0]], 
      "backward_source_id": -1
    }, 
    {
      "op": "_Mul", 
      "param": {}, 
      "name": "_mul152", 
      "inputs": [[668, 0], [675, 0]], 
      "backward_source_id": -1
    }, 
    {
      "op": "FullyConnected", 
      "param": {
        "no_bias": "False", 
        "num_hidden": "400"
      }, 
      "name": "t25_l1_i2h", 
      "inputs": [[676, 0], [21, 0], [22, 0]], 
      "backward_source_id": -1
    }, 
    {
      "op": "FullyConnected", 
      "param": {
        "no_bias": "False", 
        "num_hidden": "400"
      }, 
      "name": "t25_l1_h2h", 
      "inputs": [[663, 0], [25, 0], [26, 0]], 
      "backward_source_id": -1
    }, 
    {
      "op": "_Plus", 
      "param": {}, 
      "name": "_plus102", 
      "inputs": [[677, 0], [678, 0]], 
      "backward_source_id": -1
    }, 
    {
      "op": "SliceChannel", 
      "param": {
        "axis": "1", 
        "num_outputs": "4", 
        "squeeze_axis": "False"
      }, 
      "name": "t25_l1_slice", 
      "inputs": [[679, 0]], 
      "backward_source_id": -1
    }, 
    {
      "op": "Activation", 
      "param": {"act_type": "sigmoid"}, 
      "name": "activation258", 
      "inputs": [[680, 3]], 
      "backward_source_id": -1
    }, 
    {
      "op": "Activation", 
      "param": {"act_type": "sigmoid"}, 
      "name": "activation257", 
      "inputs": [[680, 2]], 
      "backward_source_id": -1
    }, 
    {
      "op": "_Mul", 
      "param": {}, 
      "name": "_mul153", 
      "inputs": [[682, 0], [661, 0]], 
      "backward_source_id": -1
    }, 
    {
      "op": "Activation", 
      "param": {"act_type": "sigmoid"}, 
      "name": "activation255", 
      "inputs": [[680, 0]], 
      "backward_source_id": -1
    }, 
    {
      "op": "Activation", 
      "param": {"act_type": "tanh"}, 
      "name": "activation256", 
      "inputs": [[680, 1]], 
      "backward_source_id": -1
    }, 
    {
      "op": "_Mul", 
      "param": {}, 
      "name": "_mul154", 
      "inputs": [[684, 0], [685, 0]], 
      "backward_source_id": -1
    }, 
    {
      "op": "_Plus", 
      "param": {}, 
      "name": "_plus103", 
      "inputs": [[683, 0], [686, 0]], 
      "backward_source_id": -1
    }, 
    {
      "op": "Activation", 
      "param": {"act_type": "tanh"}, 
      "name": "activation259", 
      "inputs": [[687, 0]], 
      "backward_source_id": -1
    }, 
    {
      "op": "_Mul", 
      "param": {}, 
      "name": "_mul155", 
      "inputs": [[681, 0], [688, 0]], 
      "backward_source_id": -1
    }, 
    {
      "op": "FullyConnected", 
      "param": {
        "no_bias": "False", 
        "num_hidden": "400"
      }, 
      "name": "t26_l0_i2h", 
      "inputs": [[1, 26], [2, 0], [3, 0]], 
      "backward_source_id": -1
    }, 
    {
      "op": "FullyConnected", 
      "param": {
        "no_bias": "False", 
        "num_hidden": "400"
      }, 
      "name": "t26_l0_h2h", 
      "inputs": [[676, 0], [6, 0], [7, 0]], 
      "backward_source_id": -1
    }, 
    {
      "op": "_Plus", 
      "param": {}, 
      "name": "_plus104", 
      "inputs": [[690, 0], [691, 0]], 
      "backward_source_id": -1
    }, 
    {
      "op": "SliceChannel", 
      "param": {
        "axis": "1", 
        "num_outputs": "4", 
        "squeeze_axis": "False"
      }, 
      "name": "t26_l0_slice", 
      "inputs": [[692, 0]], 
      "backward_source_id": -1
    }, 
    {
      "op": "Activation", 
      "param": {"act_type": "sigmoid"}, 
      "name": "activation263", 
      "inputs": [[693, 3]], 
      "backward_source_id": -1
    }, 
    {
      "op": "Activation", 
      "param": {"act_type": "sigmoid"}, 
      "name": "activation262", 
      "inputs": [[693, 2]], 
      "backward_source_id": -1
    }, 
    {
      "op": "_Mul", 
      "param": {}, 
      "name": "_mul156", 
      "inputs": [[695, 0], [674, 0]], 
      "backward_source_id": -1
    }, 
    {
      "op": "Activation", 
      "param": {"act_type": "sigmoid"}, 
      "name": "activation260", 
      "inputs": [[693, 0]], 
      "backward_source_id": -1
    }, 
    {
      "op": "Activation", 
      "param": {"act_type": "tanh"}, 
      "name": "activation261", 
      "inputs": [[693, 1]], 
      "backward_source_id": -1
    }, 
    {
      "op": "_Mul", 
      "param": {}, 
      "name": "_mul157", 
      "inputs": [[697, 0], [698, 0]], 
      "backward_source_id": -1
    }, 
    {
      "op": "_Plus", 
      "param": {}, 
      "name": "_plus105", 
      "inputs": [[696, 0], [699, 0]], 
      "backward_source_id": -1
    }, 
    {
      "op": "Activation", 
      "param": {"act_type": "tanh"}, 
      "name": "activation264", 
      "inputs": [[700, 0]], 
      "backward_source_id": -1
    }, 
    {
      "op": "_Mul", 
      "param": {}, 
      "name": "_mul158", 
      "inputs": [[694, 0], [701, 0]], 
      "backward_source_id": -1
    }, 
    {
      "op": "FullyConnected", 
      "param": {
        "no_bias": "False", 
        "num_hidden": "400"
      }, 
      "name": "t26_l1_i2h", 
      "inputs": [[702, 0], [21, 0], [22, 0]], 
      "backward_source_id": -1
    }, 
    {
      "op": "FullyConnected", 
      "param": {
        "no_bias": "False", 
        "num_hidden": "400"
      }, 
      "name": "t26_l1_h2h", 
      "inputs": [[689, 0], [25, 0], [26, 0]], 
      "backward_source_id": -1
    }, 
    {
      "op": "_Plus", 
      "param": {}, 
      "name": "_plus106", 
      "inputs": [[703, 0], [704, 0]], 
      "backward_source_id": -1
    }, 
    {
      "op": "SliceChannel", 
      "param": {
        "axis": "1", 
        "num_outputs": "4", 
        "squeeze_axis": "False"
      }, 
      "name": "t26_l1_slice", 
      "inputs": [[705, 0]], 
      "backward_source_id": -1
    }, 
    {
      "op": "Activation", 
      "param": {"act_type": "sigmoid"}, 
      "name": "activation268", 
      "inputs": [[706, 3]], 
      "backward_source_id": -1
    }, 
    {
      "op": "Activation", 
      "param": {"act_type": "sigmoid"}, 
      "name": "activation267", 
      "inputs": [[706, 2]], 
      "backward_source_id": -1
    }, 
    {
      "op": "_Mul", 
      "param": {}, 
      "name": "_mul159", 
      "inputs": [[708, 0], [687, 0]], 
      "backward_source_id": -1
    }, 
    {
      "op": "Activation", 
      "param": {"act_type": "sigmoid"}, 
      "name": "activation265", 
      "inputs": [[706, 0]], 
      "backward_source_id": -1
    }, 
    {
      "op": "Activation", 
      "param": {"act_type": "tanh"}, 
      "name": "activation266", 
      "inputs": [[706, 1]], 
      "backward_source_id": -1
    }, 
    {
      "op": "_Mul", 
      "param": {}, 
      "name": "_mul160", 
      "inputs": [[710, 0], [711, 0]], 
      "backward_source_id": -1
    }, 
    {
      "op": "_Plus", 
      "param": {}, 
      "name": "_plus107", 
      "inputs": [[709, 0], [712, 0]], 
      "backward_source_id": -1
    }, 
    {
      "op": "Activation", 
      "param": {"act_type": "tanh"}, 
      "name": "activation269", 
      "inputs": [[713, 0]], 
      "backward_source_id": -1
    }, 
    {
      "op": "_Mul", 
      "param": {}, 
      "name": "_mul161", 
      "inputs": [[707, 0], [714, 0]], 
      "backward_source_id": -1
    }, 
    {
      "op": "FullyConnected", 
      "param": {
        "no_bias": "False", 
        "num_hidden": "400"
      }, 
      "name": "t27_l0_i2h", 
      "inputs": [[1, 27], [2, 0], [3, 0]], 
      "backward_source_id": -1
    }, 
    {
      "op": "FullyConnected", 
      "param": {
        "no_bias": "False", 
        "num_hidden": "400"
      }, 
      "name": "t27_l0_h2h", 
      "inputs": [[702, 0], [6, 0], [7, 0]], 
      "backward_source_id": -1
    }, 
    {
      "op": "_Plus", 
      "param": {}, 
      "name": "_plus108", 
      "inputs": [[716, 0], [717, 0]], 
      "backward_source_id": -1
    }, 
    {
      "op": "SliceChannel", 
      "param": {
        "axis": "1", 
        "num_outputs": "4", 
        "squeeze_axis": "False"
      }, 
      "name": "t27_l0_slice", 
      "inputs": [[718, 0]], 
      "backward_source_id": -1
    }, 
    {
      "op": "Activation", 
      "param": {"act_type": "sigmoid"}, 
      "name": "activation273", 
      "inputs": [[719, 3]], 
      "backward_source_id": -1
    }, 
    {
      "op": "Activation", 
      "param": {"act_type": "sigmoid"}, 
      "name": "activation272", 
      "inputs": [[719, 2]], 
      "backward_source_id": -1
    }, 
    {
      "op": "_Mul", 
      "param": {}, 
      "name": "_mul162", 
      "inputs": [[721, 0], [700, 0]], 
      "backward_source_id": -1
    }, 
    {
      "op": "Activation", 
      "param": {"act_type": "sigmoid"}, 
      "name": "activation270", 
      "inputs": [[719, 0]], 
      "backward_source_id": -1
    }, 
    {
      "op": "Activation", 
      "param": {"act_type": "tanh"}, 
      "name": "activation271", 
      "inputs": [[719, 1]], 
      "backward_source_id": -1
    }, 
    {
      "op": "_Mul", 
      "param": {}, 
      "name": "_mul163", 
      "inputs": [[723, 0], [724, 0]], 
      "backward_source_id": -1
    }, 
    {
      "op": "_Plus", 
      "param": {}, 
      "name": "_plus109", 
      "inputs": [[722, 0], [725, 0]], 
      "backward_source_id": -1
    }, 
    {
      "op": "Activation", 
      "param": {"act_type": "tanh"}, 
      "name": "activation274", 
      "inputs": [[726, 0]], 
      "backward_source_id": -1
    }, 
    {
      "op": "_Mul", 
      "param": {}, 
      "name": "_mul164", 
      "inputs": [[720, 0], [727, 0]], 
      "backward_source_id": -1
    }, 
    {
      "op": "FullyConnected", 
      "param": {
        "no_bias": "False", 
        "num_hidden": "400"
      }, 
      "name": "t27_l1_i2h", 
      "inputs": [[728, 0], [21, 0], [22, 0]], 
      "backward_source_id": -1
    }, 
    {
      "op": "FullyConnected", 
      "param": {
        "no_bias": "False", 
        "num_hidden": "400"
      }, 
      "name": "t27_l1_h2h", 
      "inputs": [[715, 0], [25, 0], [26, 0]], 
      "backward_source_id": -1
    }, 
    {
      "op": "_Plus", 
      "param": {}, 
      "name": "_plus110", 
      "inputs": [[729, 0], [730, 0]], 
      "backward_source_id": -1
    }, 
    {
      "op": "SliceChannel", 
      "param": {
        "axis": "1", 
        "num_outputs": "4", 
        "squeeze_axis": "False"
      }, 
      "name": "t27_l1_slice", 
      "inputs": [[731, 0]], 
      "backward_source_id": -1
    }, 
    {
      "op": "Activation", 
      "param": {"act_type": "sigmoid"}, 
      "name": "activation278", 
      "inputs": [[732, 3]], 
      "backward_source_id": -1
    }, 
    {
      "op": "Activation", 
      "param": {"act_type": "sigmoid"}, 
      "name": "activation277", 
      "inputs": [[732, 2]], 
      "backward_source_id": -1
    }, 
    {
      "op": "_Mul", 
      "param": {}, 
      "name": "_mul165", 
      "inputs": [[734, 0], [713, 0]], 
      "backward_source_id": -1
    }, 
    {
      "op": "Activation", 
      "param": {"act_type": "sigmoid"}, 
      "name": "activation275", 
      "inputs": [[732, 0]], 
      "backward_source_id": -1
    }, 
    {
      "op": "Activation", 
      "param": {"act_type": "tanh"}, 
      "name": "activation276", 
      "inputs": [[732, 1]], 
      "backward_source_id": -1
    }, 
    {
      "op": "_Mul", 
      "param": {}, 
      "name": "_mul166", 
      "inputs": [[736, 0], [737, 0]], 
      "backward_source_id": -1
    }, 
    {
      "op": "_Plus", 
      "param": {}, 
      "name": "_plus111", 
      "inputs": [[735, 0], [738, 0]], 
      "backward_source_id": -1
    }, 
    {
      "op": "Activation", 
      "param": {"act_type": "tanh"}, 
      "name": "activation279", 
      "inputs": [[739, 0]], 
      "backward_source_id": -1
    }, 
    {
      "op": "_Mul", 
      "param": {}, 
      "name": "_mul167", 
      "inputs": [[733, 0], [740, 0]], 
      "backward_source_id": -1
    }, 
    {
      "op": "FullyConnected", 
      "param": {
        "no_bias": "False", 
        "num_hidden": "400"
      }, 
      "name": "t28_l0_i2h", 
      "inputs": [[1, 28], [2, 0], [3, 0]], 
      "backward_source_id": -1
    }, 
    {
      "op": "FullyConnected", 
      "param": {
        "no_bias": "False", 
        "num_hidden": "400"
      }, 
      "name": "t28_l0_h2h", 
      "inputs": [[728, 0], [6, 0], [7, 0]], 
      "backward_source_id": -1
    }, 
    {
      "op": "_Plus", 
      "param": {}, 
      "name": "_plus112", 
      "inputs": [[742, 0], [743, 0]], 
      "backward_source_id": -1
    }, 
    {
      "op": "SliceChannel", 
      "param": {
        "axis": "1", 
        "num_outputs": "4", 
        "squeeze_axis": "False"
      }, 
      "name": "t28_l0_slice", 
      "inputs": [[744, 0]], 
      "backward_source_id": -1
    }, 
    {
      "op": "Activation", 
      "param": {"act_type": "sigmoid"}, 
      "name": "activation283", 
      "inputs": [[745, 3]], 
      "backward_source_id": -1
    }, 
    {
      "op": "Activation", 
      "param": {"act_type": "sigmoid"}, 
      "name": "activation282", 
      "inputs": [[745, 2]], 
      "backward_source_id": -1
    }, 
    {
      "op": "_Mul", 
      "param": {}, 
      "name": "_mul168", 
      "inputs": [[747, 0], [726, 0]], 
      "backward_source_id": -1
    }, 
    {
      "op": "Activation", 
      "param": {"act_type": "sigmoid"}, 
      "name": "activation280", 
      "inputs": [[745, 0]], 
      "backward_source_id": -1
    }, 
    {
      "op": "Activation", 
      "param": {"act_type": "tanh"}, 
      "name": "activation281", 
      "inputs": [[745, 1]], 
      "backward_source_id": -1
    }, 
    {
      "op": "_Mul", 
      "param": {}, 
      "name": "_mul169", 
      "inputs": [[749, 0], [750, 0]], 
      "backward_source_id": -1
    }, 
    {
      "op": "_Plus", 
      "param": {}, 
      "name": "_plus113", 
      "inputs": [[748, 0], [751, 0]], 
      "backward_source_id": -1
    }, 
    {
      "op": "Activation", 
      "param": {"act_type": "tanh"}, 
      "name": "activation284", 
      "inputs": [[752, 0]], 
      "backward_source_id": -1
    }, 
    {
      "op": "_Mul", 
      "param": {}, 
      "name": "_mul170", 
      "inputs": [[746, 0], [753, 0]], 
      "backward_source_id": -1
    }, 
    {
      "op": "FullyConnected", 
      "param": {
        "no_bias": "False", 
        "num_hidden": "400"
      }, 
      "name": "t28_l1_i2h", 
      "inputs": [[754, 0], [21, 0], [22, 0]], 
      "backward_source_id": -1
    }, 
    {
      "op": "FullyConnected", 
      "param": {
        "no_bias": "False", 
        "num_hidden": "400"
      }, 
      "name": "t28_l1_h2h", 
      "inputs": [[741, 0], [25, 0], [26, 0]], 
      "backward_source_id": -1
    }, 
    {
      "op": "_Plus", 
      "param": {}, 
      "name": "_plus114", 
      "inputs": [[755, 0], [756, 0]], 
      "backward_source_id": -1
    }, 
    {
      "op": "SliceChannel", 
      "param": {
        "axis": "1", 
        "num_outputs": "4", 
        "squeeze_axis": "False"
      }, 
      "name": "t28_l1_slice", 
      "inputs": [[757, 0]], 
      "backward_source_id": -1
    }, 
    {
      "op": "Activation", 
      "param": {"act_type": "sigmoid"}, 
      "name": "activation288", 
      "inputs": [[758, 3]], 
      "backward_source_id": -1
    }, 
    {
      "op": "Activation", 
      "param": {"act_type": "sigmoid"}, 
      "name": "activation287", 
      "inputs": [[758, 2]], 
      "backward_source_id": -1
    }, 
    {
      "op": "_Mul", 
      "param": {}, 
      "name": "_mul171", 
      "inputs": [[760, 0], [739, 0]], 
      "backward_source_id": -1
    }, 
    {
      "op": "Activation", 
      "param": {"act_type": "sigmoid"}, 
      "name": "activation285", 
      "inputs": [[758, 0]], 
      "backward_source_id": -1
    }, 
    {
      "op": "Activation", 
      "param": {"act_type": "tanh"}, 
      "name": "activation286", 
      "inputs": [[758, 1]], 
      "backward_source_id": -1
    }, 
    {
      "op": "_Mul", 
      "param": {}, 
      "name": "_mul172", 
      "inputs": [[762, 0], [763, 0]], 
      "backward_source_id": -1
    }, 
    {
      "op": "_Plus", 
      "param": {}, 
      "name": "_plus115", 
      "inputs": [[761, 0], [764, 0]], 
      "backward_source_id": -1
    }, 
    {
      "op": "Activation", 
      "param": {"act_type": "tanh"}, 
      "name": "activation289", 
      "inputs": [[765, 0]], 
      "backward_source_id": -1
    }, 
    {
      "op": "_Mul", 
      "param": {}, 
      "name": "_mul173", 
      "inputs": [[759, 0], [766, 0]], 
      "backward_source_id": -1
    }, 
    {
      "op": "FullyConnected", 
      "param": {
        "no_bias": "False", 
        "num_hidden": "400"
      }, 
      "name": "t29_l0_i2h", 
      "inputs": [[1, 29], [2, 0], [3, 0]], 
      "backward_source_id": -1
    }, 
    {
      "op": "FullyConnected", 
      "param": {
        "no_bias": "False", 
        "num_hidden": "400"
      }, 
      "name": "t29_l0_h2h", 
      "inputs": [[754, 0], [6, 0], [7, 0]], 
      "backward_source_id": -1
    }, 
    {
      "op": "_Plus", 
      "param": {}, 
      "name": "_plus116", 
      "inputs": [[768, 0], [769, 0]], 
      "backward_source_id": -1
    }, 
    {
      "op": "SliceChannel", 
      "param": {
        "axis": "1", 
        "num_outputs": "4", 
        "squeeze_axis": "False"
      }, 
      "name": "t29_l0_slice", 
      "inputs": [[770, 0]], 
      "backward_source_id": -1
    }, 
    {
      "op": "Activation", 
      "param": {"act_type": "sigmoid"}, 
      "name": "activation293", 
      "inputs": [[771, 3]], 
      "backward_source_id": -1
    }, 
    {
      "op": "Activation", 
      "param": {"act_type": "sigmoid"}, 
      "name": "activation292", 
      "inputs": [[771, 2]], 
      "backward_source_id": -1
    }, 
    {
      "op": "_Mul", 
      "param": {}, 
      "name": "_mul174", 
      "inputs": [[773, 0], [752, 0]], 
      "backward_source_id": -1
    }, 
    {
      "op": "Activation", 
      "param": {"act_type": "sigmoid"}, 
      "name": "activation290", 
      "inputs": [[771, 0]], 
      "backward_source_id": -1
    }, 
    {
      "op": "Activation", 
      "param": {"act_type": "tanh"}, 
      "name": "activation291", 
      "inputs": [[771, 1]], 
      "backward_source_id": -1
    }, 
    {
      "op": "_Mul", 
      "param": {}, 
      "name": "_mul175", 
      "inputs": [[775, 0], [776, 0]], 
      "backward_source_id": -1
    }, 
    {
      "op": "_Plus", 
      "param": {}, 
      "name": "_plus117", 
      "inputs": [[774, 0], [777, 0]], 
      "backward_source_id": -1
    }, 
    {
      "op": "Activation", 
      "param": {"act_type": "tanh"}, 
      "name": "activation294", 
      "inputs": [[778, 0]], 
      "backward_source_id": -1
    }, 
    {
      "op": "_Mul", 
      "param": {}, 
      "name": "_mul176", 
      "inputs": [[772, 0], [779, 0]], 
      "backward_source_id": -1
    }, 
    {
      "op": "FullyConnected", 
      "param": {
        "no_bias": "False", 
        "num_hidden": "400"
      }, 
      "name": "t29_l1_i2h", 
      "inputs": [[780, 0], [21, 0], [22, 0]], 
      "backward_source_id": -1
    }, 
    {
      "op": "FullyConnected", 
      "param": {
        "no_bias": "False", 
        "num_hidden": "400"
      }, 
      "name": "t29_l1_h2h", 
      "inputs": [[767, 0], [25, 0], [26, 0]], 
      "backward_source_id": -1
    }, 
    {
      "op": "_Plus", 
      "param": {}, 
      "name": "_plus118", 
      "inputs": [[781, 0], [782, 0]], 
      "backward_source_id": -1
    }, 
    {
      "op": "SliceChannel", 
      "param": {
        "axis": "1", 
        "num_outputs": "4", 
        "squeeze_axis": "False"
      }, 
      "name": "t29_l1_slice", 
      "inputs": [[783, 0]], 
      "backward_source_id": -1
    }, 
    {
      "op": "Activation", 
      "param": {"act_type": "sigmoid"}, 
      "name": "activation298", 
      "inputs": [[784, 3]], 
      "backward_source_id": -1
    }, 
    {
      "op": "Activation", 
      "param": {"act_type": "sigmoid"}, 
      "name": "activation297", 
      "inputs": [[784, 2]], 
      "backward_source_id": -1
    }, 
    {
      "op": "_Mul", 
      "param": {}, 
      "name": "_mul177", 
      "inputs": [[786, 0], [765, 0]], 
      "backward_source_id": -1
    }, 
    {
      "op": "Activation", 
      "param": {"act_type": "sigmoid"}, 
      "name": "activation295", 
      "inputs": [[784, 0]], 
      "backward_source_id": -1
    }, 
    {
      "op": "Activation", 
      "param": {"act_type": "tanh"}, 
      "name": "activation296", 
      "inputs": [[784, 1]], 
      "backward_source_id": -1
    }, 
    {
      "op": "_Mul", 
      "param": {}, 
      "name": "_mul178", 
      "inputs": [[788, 0], [789, 0]], 
      "backward_source_id": -1
    }, 
    {
      "op": "_Plus", 
      "param": {}, 
      "name": "_plus119", 
      "inputs": [[787, 0], [790, 0]], 
      "backward_source_id": -1
    }, 
    {
      "op": "Activation", 
      "param": {"act_type": "tanh"}, 
      "name": "activation299", 
      "inputs": [[791, 0]], 
      "backward_source_id": -1
    }, 
    {
      "op": "_Mul", 
      "param": {}, 
      "name": "_mul179", 
      "inputs": [[785, 0], [792, 0]], 
      "backward_source_id": -1
    }, 
    {
      "op": "FullyConnected", 
      "param": {
        "no_bias": "False", 
        "num_hidden": "400"
      }, 
      "name": "t30_l0_i2h", 
      "inputs": [[1, 30], [2, 0], [3, 0]], 
      "backward_source_id": -1
    }, 
    {
      "op": "FullyConnected", 
      "param": {
        "no_bias": "False", 
        "num_hidden": "400"
      }, 
      "name": "t30_l0_h2h", 
      "inputs": [[780, 0], [6, 0], [7, 0]], 
      "backward_source_id": -1
    }, 
    {
      "op": "_Plus", 
      "param": {}, 
      "name": "_plus120", 
      "inputs": [[794, 0], [795, 0]], 
      "backward_source_id": -1
    }, 
    {
      "op": "SliceChannel", 
      "param": {
        "axis": "1", 
        "num_outputs": "4", 
        "squeeze_axis": "False"
      }, 
      "name": "t30_l0_slice", 
      "inputs": [[796, 0]], 
      "backward_source_id": -1
    }, 
    {
      "op": "Activation", 
      "param": {"act_type": "sigmoid"}, 
      "name": "activation303", 
      "inputs": [[797, 3]], 
      "backward_source_id": -1
    }, 
    {
      "op": "Activation", 
      "param": {"act_type": "sigmoid"}, 
      "name": "activation302", 
      "inputs": [[797, 2]], 
      "backward_source_id": -1
    }, 
    {
      "op": "_Mul", 
      "param": {}, 
      "name": "_mul180", 
      "inputs": [[799, 0], [778, 0]], 
      "backward_source_id": -1
    }, 
    {
      "op": "Activation", 
      "param": {"act_type": "sigmoid"}, 
      "name": "activation300", 
      "inputs": [[797, 0]], 
      "backward_source_id": -1
    }, 
    {
      "op": "Activation", 
      "param": {"act_type": "tanh"}, 
      "name": "activation301", 
      "inputs": [[797, 1]], 
      "backward_source_id": -1
    }, 
    {
      "op": "_Mul", 
      "param": {}, 
      "name": "_mul181", 
      "inputs": [[801, 0], [802, 0]], 
      "backward_source_id": -1
    }, 
    {
      "op": "_Plus", 
      "param": {}, 
      "name": "_plus121", 
      "inputs": [[800, 0], [803, 0]], 
      "backward_source_id": -1
    }, 
    {
      "op": "Activation", 
      "param": {"act_type": "tanh"}, 
      "name": "activation304", 
      "inputs": [[804, 0]], 
      "backward_source_id": -1
    }, 
    {
      "op": "_Mul", 
      "param": {}, 
      "name": "_mul182", 
      "inputs": [[798, 0], [805, 0]], 
      "backward_source_id": -1
    }, 
    {
      "op": "FullyConnected", 
      "param": {
        "no_bias": "False", 
        "num_hidden": "400"
      }, 
      "name": "t30_l1_i2h", 
      "inputs": [[806, 0], [21, 0], [22, 0]], 
      "backward_source_id": -1
    }, 
    {
      "op": "FullyConnected", 
      "param": {
        "no_bias": "False", 
        "num_hidden": "400"
      }, 
      "name": "t30_l1_h2h", 
      "inputs": [[793, 0], [25, 0], [26, 0]], 
      "backward_source_id": -1
    }, 
    {
      "op": "_Plus", 
      "param": {}, 
      "name": "_plus122", 
      "inputs": [[807, 0], [808, 0]], 
      "backward_source_id": -1
    }, 
    {
      "op": "SliceChannel", 
      "param": {
        "axis": "1", 
        "num_outputs": "4", 
        "squeeze_axis": "False"
      }, 
      "name": "t30_l1_slice", 
      "inputs": [[809, 0]], 
      "backward_source_id": -1
    }, 
    {
      "op": "Activation", 
      "param": {"act_type": "sigmoid"}, 
      "name": "activation308", 
      "inputs": [[810, 3]], 
      "backward_source_id": -1
    }, 
    {
      "op": "Activation", 
      "param": {"act_type": "sigmoid"}, 
      "name": "activation307", 
      "inputs": [[810, 2]], 
      "backward_source_id": -1
    }, 
    {
      "op": "_Mul", 
      "param": {}, 
      "name": "_mul183", 
      "inputs": [[812, 0], [791, 0]], 
      "backward_source_id": -1
    }, 
    {
      "op": "Activation", 
      "param": {"act_type": "sigmoid"}, 
      "name": "activation305", 
      "inputs": [[810, 0]], 
      "backward_source_id": -1
    }, 
    {
      "op": "Activation", 
      "param": {"act_type": "tanh"}, 
      "name": "activation306", 
      "inputs": [[810, 1]], 
      "backward_source_id": -1
    }, 
    {
      "op": "_Mul", 
      "param": {}, 
      "name": "_mul184", 
      "inputs": [[814, 0], [815, 0]], 
      "backward_source_id": -1
    }, 
    {
      "op": "_Plus", 
      "param": {}, 
      "name": "_plus123", 
      "inputs": [[813, 0], [816, 0]], 
      "backward_source_id": -1
    }, 
    {
      "op": "Activation", 
      "param": {"act_type": "tanh"}, 
      "name": "activation309", 
      "inputs": [[817, 0]], 
      "backward_source_id": -1
    }, 
    {
      "op": "_Mul", 
      "param": {}, 
      "name": "_mul185", 
      "inputs": [[811, 0], [818, 0]], 
      "backward_source_id": -1
    }, 
    {
      "op": "FullyConnected", 
      "param": {
        "no_bias": "False", 
        "num_hidden": "400"
      }, 
      "name": "t31_l0_i2h", 
      "inputs": [[1, 31], [2, 0], [3, 0]], 
      "backward_source_id": -1
    }, 
    {
      "op": "FullyConnected", 
      "param": {
        "no_bias": "False", 
        "num_hidden": "400"
      }, 
      "name": "t31_l0_h2h", 
      "inputs": [[806, 0], [6, 0], [7, 0]], 
      "backward_source_id": -1
    }, 
    {
      "op": "_Plus", 
      "param": {}, 
      "name": "_plus124", 
      "inputs": [[820, 0], [821, 0]], 
      "backward_source_id": -1
    }, 
    {
      "op": "SliceChannel", 
      "param": {
        "axis": "1", 
        "num_outputs": "4", 
        "squeeze_axis": "False"
      }, 
      "name": "t31_l0_slice", 
      "inputs": [[822, 0]], 
      "backward_source_id": -1
    }, 
    {
      "op": "Activation", 
      "param": {"act_type": "sigmoid"}, 
      "name": "activation313", 
      "inputs": [[823, 3]], 
      "backward_source_id": -1
    }, 
    {
      "op": "Activation", 
      "param": {"act_type": "sigmoid"}, 
      "name": "activation312", 
      "inputs": [[823, 2]], 
      "backward_source_id": -1
    }, 
    {
      "op": "_Mul", 
      "param": {}, 
      "name": "_mul186", 
      "inputs": [[825, 0], [804, 0]], 
      "backward_source_id": -1
    }, 
    {
      "op": "Activation", 
      "param": {"act_type": "sigmoid"}, 
      "name": "activation310", 
      "inputs": [[823, 0]], 
      "backward_source_id": -1
    }, 
    {
      "op": "Activation", 
      "param": {"act_type": "tanh"}, 
      "name": "activation311", 
      "inputs": [[823, 1]], 
      "backward_source_id": -1
    }, 
    {
      "op": "_Mul", 
      "param": {}, 
      "name": "_mul187", 
      "inputs": [[827, 0], [828, 0]], 
      "backward_source_id": -1
    }, 
    {
      "op": "_Plus", 
      "param": {}, 
      "name": "_plus125", 
      "inputs": [[826, 0], [829, 0]], 
      "backward_source_id": -1
    }, 
    {
      "op": "Activation", 
      "param": {"act_type": "tanh"}, 
      "name": "activation314", 
      "inputs": [[830, 0]], 
      "backward_source_id": -1
    }, 
    {
      "op": "_Mul", 
      "param": {}, 
      "name": "_mul188", 
      "inputs": [[824, 0], [831, 0]], 
      "backward_source_id": -1
    }, 
    {
      "op": "FullyConnected", 
      "param": {
        "no_bias": "False", 
        "num_hidden": "400"
      }, 
      "name": "t31_l1_i2h", 
      "inputs": [[832, 0], [21, 0], [22, 0]], 
      "backward_source_id": -1
    }, 
    {
      "op": "FullyConnected", 
      "param": {
        "no_bias": "False", 
        "num_hidden": "400"
      }, 
      "name": "t31_l1_h2h", 
      "inputs": [[819, 0], [25, 0], [26, 0]], 
      "backward_source_id": -1
    }, 
    {
      "op": "_Plus", 
      "param": {}, 
      "name": "_plus126", 
      "inputs": [[833, 0], [834, 0]], 
      "backward_source_id": -1
    }, 
    {
      "op": "SliceChannel", 
      "param": {
        "axis": "1", 
        "num_outputs": "4", 
        "squeeze_axis": "False"
      }, 
      "name": "t31_l1_slice", 
      "inputs": [[835, 0]], 
      "backward_source_id": -1
    }, 
    {
      "op": "Activation", 
      "param": {"act_type": "sigmoid"}, 
      "name": "activation318", 
      "inputs": [[836, 3]], 
      "backward_source_id": -1
    }, 
    {
      "op": "Activation", 
      "param": {"act_type": "sigmoid"}, 
      "name": "activation317", 
      "inputs": [[836, 2]], 
      "backward_source_id": -1
    }, 
    {
      "op": "_Mul", 
      "param": {}, 
      "name": "_mul189", 
…
      }, 
      "name": "t70_l0_h2h", 
      "inputs": [[1820, 0], [6, 0], [7, 0]], 
      "backward_source_id": -1
    }, 
    {
      "op": "_Plus", 
      "param": {}, 
      "name": "_plus280", 
      "inputs": [[1834, 0], [1835, 0]], 
      "backward_source_id": -1
    }, 
    {
      "op": "SliceChannel", 
      "param": {
        "axis": "1", 
        "num_outputs": "4", 
        "squeeze_axis": "False"
      }, 
      "name": "t70_l0_slice", 
      "inputs": [[1836, 0]], 
      "backward_source_id": -1
    }, 
    {
      "op": "Activation", 
      "param": {"act_type": "sigmoid"}, 
      "name": "activation703", 
      "inputs": [[1837, 3]], 
      "backward_source_id": -1
    }, 
    {
      "op": "Activation", 
      "param": {"act_type": "sigmoid"}, 
      "name": "activation702", 
      "inputs": [[1837, 2]], 
      "backward_source_id": -1
    }, 
    {
      "op": "_Mul", 
      "param": {}, 
      "name": "_mul420", 
      "inputs": [[1839, 0], [1818, 0]], 
      "backward_source_id": -1
    }, 
    {
      "op": "Activation", 
      "param": {"act_type": "sigmoid"}, 
      "name": "activation700", 
      "inputs": [[1837, 0]], 
      "backward_source_id": -1
    }, 
    {
      "op": "Activation", 
      "param": {"act_type": "tanh"}, 
      "name": "activation701", 
      "inputs": [[1837, 1]], 
      "backward_source_id": -1
    }, 
    {
      "op": "_Mul", 
      "param": {}, 
      "name": "_mul421", 
      "inputs": [[1841, 0], [1842, 0]], 
      "backward_source_id": -1
    }, 
    {
      "op": "_Plus", 
      "param": {}, 
      "name": "_plus281", 
      "inputs": [[1840, 0], [1843, 0]], 
      "backward_source_id": -1
    }, 
    {
      "op": "Activation", 
      "param": {"act_type": "tanh"}, 
      "name": "activation704", 
      "inputs": [[1844, 0]], 
      "backward_source_id": -1
    }, 
    {
      "op": "_Mul", 
      "param": {}, 
      "name": "_mul422", 
      "inputs": [[1838, 0], [1845, 0]], 
      "backward_source_id": -1
    }, 
    {
      "op": "FullyConnected", 
      "param": {
        "no_bias": "False", 
        "num_hidden": "400"
      }, 
      "name": "t70_l1_i2h", 
      "inputs": [[1846, 0], [21, 0], [22, 0]], 
      "backward_source_id": -1
    }, 
    {
      "op": "FullyConnected", 
      "param": {
        "no_bias": "False", 
        "num_hidden": "400"
      }, 
      "name": "t70_l1_h2h", 
      "inputs": [[1833, 0], [25, 0], [26, 0]], 
      "backward_source_id": -1
    }, 
    {
      "op": "_Plus", 
      "param": {}, 
      "name": "_plus282", 
      "inputs": [[1847, 0], [1848, 0]], 
      "backward_source_id": -1
    }, 
    {
      "op": "SliceChannel", 
      "param": {
        "axis": "1", 
        "num_outputs": "4", 
        "squeeze_axis": "False"
      }, 
      "name": "t70_l1_slice", 
      "inputs": [[1849, 0]], 
      "backward_source_id": -1
    }, 
    {
      "op": "Activation", 
      "param": {"act_type": "sigmoid"}, 
      "name": "activation708", 
      "inputs": [[1850, 3]], 
      "backward_source_id": -1
    }, 
    {
      "op": "Activation", 
      "param": {"act_type": "sigmoid"}, 
      "name": "activation707", 
      "inputs": [[1850, 2]], 
      "backward_source_id": -1
    }, 
    {
      "op": "_Mul", 
      "param": {}, 
      "name": "_mul423", 
      "inputs": [[1852, 0], [1831, 0]], 
      "backward_source_id": -1
    }, 
    {
      "op": "Activation", 
      "param": {"act_type": "sigmoid"}, 
      "name": "activation705", 
      "inputs": [[1850, 0]], 
      "backward_source_id": -1
    }, 
    {
      "op": "Activation", 
      "param": {"act_type": "tanh"}, 
      "name": "activation706", 
      "inputs": [[1850, 1]], 
      "backward_source_id": -1
    }, 
    {
      "op": "_Mul", 
      "param": {}, 
      "name": "_mul424", 
      "inputs": [[1854, 0], [1855, 0]], 
      "backward_source_id": -1
    }, 
    {
      "op": "_Plus", 
      "param": {}, 
      "name": "_plus283", 
      "inputs": [[1853, 0], [1856, 0]], 
      "backward_source_id": -1
    }, 
    {
      "op": "Activation", 
      "param": {"act_type": "tanh"}, 
      "name": "activation709", 
      "inputs": [[1857, 0]], 
      "backward_source_id": -1
    }, 
    {
      "op": "_Mul", 
      "param": {}, 
      "name": "_mul425", 
      "inputs": [[1851, 0], [1858, 0]], 
      "backward_source_id": -1
    }, 
    {
      "op": "FullyConnected", 
      "param": {
        "no_bias": "False", 
        "num_hidden": "400"
      }, 
      "name": "t71_l0_i2h", 
      "inputs": [[1, 71], [2, 0], [3, 0]], 
      "backward_source_id": -1
    }, 
    {
      "op": "FullyConnected", 
      "param": {
        "no_bias": "False", 
        "num_hidden": "400"
      }, 
      "name": "t71_l0_h2h", 
      "inputs": [[1846, 0], [6, 0], [7, 0]], 
      "backward_source_id": -1
    }, 
    {
      "op": "_Plus", 
      "param": {}, 
      "name": "_plus284", 
      "inputs": [[1860, 0], [1861, 0]], 
      "backward_source_id": -1
    }, 
    {
      "op": "SliceChannel", 
      "param": {
        "axis": "1", 
        "num_outputs": "4", 
        "squeeze_axis": "False"
      }, 
      "name": "t71_l0_slice", 
      "inputs": [[1862, 0]], 
      "backward_source_id": -1
    }, 
    {
      "op": "Activation", 
      "param": {"act_type": "sigmoid"}, 
      "name": "activation713", 
      "inputs": [[1863, 3]], 
      "backward_source_id": -1
    }, 
    {
      "op": "Activation", 
      "param": {"act_type": "sigmoid"}, 
      "name": "activation712", 
      "inputs": [[1863, 2]], 
      "backward_source_id": -1
    }, 
    {
      "op": "_Mul", 
      "param": {}, 
      "name": "_mul426", 
      "inputs": [[1865, 0], [1844, 0]], 
      "backward_source_id": -1
    }, 
    {
      "op": "Activation", 
      "param": {"act_type": "sigmoid"}, 
      "name": "activation710", 
      "inputs": [[1863, 0]], 
      "backward_source_id": -1
    }, 
    {
      "op": "Activation", 
      "param": {"act_type": "tanh"}, 
      "name": "activation711", 
      "inputs": [[1863, 1]], 
      "backward_source_id": -1
    }, 
    {
      "op": "_Mul", 
      "param": {}, 
      "name": "_mul427", 
      "inputs": [[1867, 0], [1868, 0]], 
      "backward_source_id": -1
    }, 
    {
      "op": "_Plus", 
      "param": {}, 
      "name": "_plus285", 
      "inputs": [[1866, 0], [1869, 0]], 
      "backward_source_id": -1
    }, 
    {
      "op": "Activation", 
      "param": {"act_type": "tanh"}, 
      "name": "activation714", 
      "inputs": [[1870, 0]], 
      "backward_source_id": -1
    }, 
    {
      "op": "_Mul", 
      "param": {}, 
      "name": "_mul428", 
      "inputs": [[1864, 0], [1871, 0]], 
      "backward_source_id": -1
    }, 
    {
      "op": "FullyConnected", 
      "param": {
        "no_bias": "False", 
        "num_hidden": "400"
      }, 
      "name": "t71_l1_i2h", 
      "inputs": [[1872, 0], [21, 0], [22, 0]], 
      "backward_source_id": -1
    }, 
    {
      "op": "FullyConnected", 
      "param": {
        "no_bias": "False", 
        "num_hidden": "400"
      }, 
      "name": "t71_l1_h2h", 
      "inputs": [[1859, 0], [25, 0], [26, 0]], 
      "backward_source_id": -1
    }, 
    {
      "op": "_Plus", 
      "param": {}, 
      "name": "_plus286", 
      "inputs": [[1873, 0], [1874, 0]], 
      "backward_source_id": -1
    }, 
    {
      "op": "SliceChannel", 
      "param": {
        "axis": "1", 
        "num_outputs": "4", 
        "squeeze_axis": "False"
      }, 
      "name": "t71_l1_slice", 
      "inputs": [[1875, 0]], 
      "backward_source_id": -1
    }, 
    {
      "op": "Activation", 
      "param": {"act_type": "sigmoid"}, 
      "name": "activation718", 
      "inputs": [[1876, 3]], 
      "backward_source_id": -1
    }, 
    {
      "op": "Activation", 
      "param": {"act_type": "sigmoid"}, 
      "name": "activation717", 
      "inputs": [[1876, 2]], 
      "backward_source_id": -1
    }, 
    {
      "op": "_Mul", 
      "param": {}, 
      "name": "_mul429", 
      "inputs": [[1878, 0], [1857, 0]], 
      "backward_source_id": -1
    }, 
    {
      "op": "Activation", 
      "param": {"act_type": "sigmoid"}, 
      "name": "activation715", 
      "inputs": [[1876, 0]], 
      "backward_source_id": -1
    }, 
    {
      "op": "Activation", 
      "param": {"act_type": "tanh"}, 
      "name": "activation716", 
      "inputs": [[1876, 1]], 
      "backward_source_id": -1
    }, 
    {
      "op": "_Mul", 
      "param": {}, 
      "name": "_mul430", 
      "inputs": [[1880, 0], [1881, 0]], 
      "backward_source_id": -1
    }, 
    {
      "op": "_Plus", 
      "param": {}, 
      "name": "_plus287", 
      "inputs": [[1879, 0], [1882, 0]], 
      "backward_source_id": -1
    }, 
    {
      "op": "Activation", 
      "param": {"act_type": "tanh"}, 
      "name": "activation719", 
      "inputs": [[1883, 0]], 
      "backward_source_id": -1
    }, 
    {
      "op": "_Mul", 
      "param": {}, 
      "name": "_mul431", 
      "inputs": [[1877, 0], [1884, 0]], 
      "backward_source_id": -1
    }, 
    {
      "op": "FullyConnected", 
      "param": {
        "no_bias": "False", 
        "num_hidden": "400"
      }, 
      "name": "t72_l0_i2h", 
      "inputs": [[1, 72], [2, 0], [3, 0]], 
      "backward_source_id": -1
    }, 
    {
      "op": "FullyConnected", 
      "param": {
        "no_bias": "False", 
        "num_hidden": "400"
      }, 
      "name": "t72_l0_h2h", 
      "inputs": [[1872, 0], [6, 0], [7, 0]], 
      "backward_source_id": -1
    }, 
    {
      "op": "_Plus", 
      "param": {}, 
      "name": "_plus288", 
      "inputs": [[1886, 0], [1887, 0]], 
      "backward_source_id": -1
    }, 
    {
      "op": "SliceChannel", 
      "param": {
        "axis": "1", 
        "num_outputs": "4", 
        "squeeze_axis": "False"
      }, 
      "name": "t72_l0_slice", 
      "inputs": [[1888, 0]], 
      "backward_source_id": -1
    }, 
    {
      "op": "Activation", 
      "param": {"act_type": "sigmoid"}, 
      "name": "activation723", 
      "inputs": [[1889, 3]], 
      "backward_source_id": -1
    }, 
    {
      "op": "Activation", 
      "param": {"act_type": "sigmoid"}, 
      "name": "activation722", 
      "inputs": [[1889, 2]], 
      "backward_source_id": -1
    }, 
    {
      "op": "_Mul", 
      "param": {}, 
      "name": "_mul432", 
      "inputs": [[1891, 0], [1870, 0]], 
      "backward_source_id": -1
    }, 
    {
      "op": "Activation", 
      "param": {"act_type": "sigmoid"}, 
      "name": "activation720", 
      "inputs": [[1889, 0]], 
      "backward_source_id": -1
    }, 
    {
      "op": "Activation", 
      "param": {"act_type": "tanh"}, 
      "name": "activation721", 
      "inputs": [[1889, 1]], 
      "backward_source_id": -1
    }, 
    {
      "op": "_Mul", 
      "param": {}, 
      "name": "_mul433", 
      "inputs": [[1893, 0], [1894, 0]], 
      "backward_source_id": -1
    }, 
    {
      "op": "_Plus", 
      "param": {}, 
      "name": "_plus289", 
      "inputs": [[1892, 0], [1895, 0]], 
      "backward_source_id": -1
    }, 
    {
      "op": "Activation", 
      "param": {"act_type": "tanh"}, 
      "name": "activation724", 
      "inputs": [[1896, 0]], 
      "backward_source_id": -1
    }, 
    {
      "op": "_Mul", 
      "param": {}, 
      "name": "_mul434", 
      "inputs": [[1890, 0], [1897, 0]], 
      "backward_source_id": -1
    }, 
    {
      "op": "FullyConnected", 
      "param": {
        "no_bias": "False", 
        "num_hidden": "400"
      }, 
      "name": "t72_l1_i2h", 
      "inputs": [[1898, 0], [21, 0], [22, 0]], 
      "backward_source_id": -1
    }, 
    {
      "op": "FullyConnected", 
      "param": {
        "no_bias": "False", 
        "num_hidden": "400"
      }, 
      "name": "t72_l1_h2h", 
      "inputs": [[1885, 0], [25, 0], [26, 0]], 
      "backward_source_id": -1
    }, 
    {
      "op": "_Plus", 
      "param": {}, 
      "name": "_plus290", 
      "inputs": [[1899, 0], [1900, 0]], 
      "backward_source_id": -1
    }, 
    {
      "op": "SliceChannel", 
      "param": {
        "axis": "1", 
        "num_outputs": "4", 
        "squeeze_axis": "False"
      }, 
      "name": "t72_l1_slice", 
      "inputs": [[1901, 0]], 
      "backward_source_id": -1
    }, 
    {
      "op": "Activation", 
      "param": {"act_type": "sigmoid"}, 
      "name": "activation728", 
      "inputs": [[1902, 3]], 
      "backward_source_id": -1
    }, 
    {
      "op": "Activation", 
      "param": {"act_type": "sigmoid"}, 
      "name": "activation727", 
      "inputs": [[1902, 2]], 
      "backward_source_id": -1
    }, 
    {
      "op": "_Mul", 
      "param": {}, 
      "name": "_mul435", 
      "inputs": [[1904, 0], [1883, 0]], 
      "backward_source_id": -1
    }, 
    {
      "op": "Activation", 
      "param": {"act_type": "sigmoid"}, 
      "name": "activation725", 
      "inputs": [[1902, 0]], 
      "backward_source_id": -1
    }, 
    {
      "op": "Activation", 
      "param": {"act_type": "tanh"}, 
      "name": "activation726", 
      "inputs": [[1902, 1]], 
      "backward_source_id": -1
    }, 
    {
      "op": "_Mul", 
      "param": {}, 
      "name": "_mul436", 
      "inputs": [[1906, 0], [1907, 0]], 
      "backward_source_id": -1
    }, 
    {
      "op": "_Plus", 
      "param": {}, 
      "name": "_plus291", 
      "inputs": [[1905, 0], [1908, 0]], 
      "backward_source_id": -1
    }, 
    {
      "op": "Activation", 
      "param": {"act_type": "tanh"}, 
      "name": "activation729", 
      "inputs": [[1909, 0]], 
      "backward_source_id": -1
    }, 
    {
      "op": "_Mul", 
      "param": {}, 
      "name": "_mul437", 
      "inputs": [[1903, 0], [1910, 0]], 
      "backward_source_id": -1
    }, 
    {
      "op": "FullyConnected", 
      "param": {
        "no_bias": "False", 
        "num_hidden": "400"
      }, 
      "name": "t73_l0_i2h", 
      "inputs": [[1, 73], [2, 0], [3, 0]], 
      "backward_source_id": -1
    }, 
    {
      "op": "FullyConnected", 
      "param": {
        "no_bias": "False", 
        "num_hidden": "400"
      }, 
      "name": "t73_l0_h2h", 
      "inputs": [[1898, 0], [6, 0], [7, 0]], 
      "backward_source_id": -1
    }, 
    {
      "op": "_Plus", 
      "param": {}, 
      "name": "_plus292", 
      "inputs": [[1912, 0], [1913, 0]], 
      "backward_source_id": -1
    }, 
    {
      "op": "SliceChannel", 
      "param": {
        "axis": "1", 
        "num_outputs": "4", 
        "squeeze_axis": "False"
      }, 
      "name": "t73_l0_slice", 
      "inputs": [[1914, 0]], 
      "backward_source_id": -1
    }, 
    {
      "op": "Activation", 
      "param": {"act_type": "sigmoid"}, 
      "name": "activation733", 
      "inputs": [[1915, 3]], 
      "backward_source_id": -1
    }, 
    {
      "op": "Activation", 
      "param": {"act_type": "sigmoid"}, 
      "name": "activation732", 
      "inputs": [[1915, 2]], 
      "backward_source_id": -1
    }, 
    {
      "op": "_Mul", 
      "param": {}, 
      "name": "_mul438", 
      "inputs": [[1917, 0], [1896, 0]], 
      "backward_source_id": -1
    }, 
    {
      "op": "Activation", 
      "param": {"act_type": "sigmoid"}, 
      "name": "activation730", 
      "inputs": [[1915, 0]], 
      "backward_source_id": -1
    }, 
    {
      "op": "Activation", 
      "param": {"act_type": "tanh"}, 
      "name": "activation731", 
      "inputs": [[1915, 1]], 
      "backward_source_id": -1
    }, 
    {
      "op": "_Mul", 
      "param": {}, 
      "name": "_mul439", 
      "inputs": [[1919, 0], [1920, 0]], 
      "backward_source_id": -1
    }, 
    {
      "op": "_Plus", 
      "param": {}, 
      "name": "_plus293", 
      "inputs": [[1918, 0], [1921, 0]], 
      "backward_source_id": -1
    }, 
    {
      "op": "Activation", 
      "param": {"act_type": "tanh"}, 
      "name": "activation734", 
      "inputs": [[1922, 0]], 
      "backward_source_id": -1
    }, 
    {
      "op": "_Mul", 
      "param": {}, 
      "name": "_mul440", 
      "inputs": [[1916, 0], [1923, 0]], 
      "backward_source_id": -1
    }, 
    {
      "op": "FullyConnected", 
      "param": {
        "no_bias": "False", 
        "num_hidden": "400"
      }, 
      "name": "t73_l1_i2h", 
      "inputs": [[1924, 0], [21, 0], [22, 0]], 
      "backward_source_id": -1
    }, 
    {
      "op": "FullyConnected", 
      "param": {
        "no_bias": "False", 
        "num_hidden": "400"
      }, 
      "name": "t73_l1_h2h", 
      "inputs": [[1911, 0], [25, 0], [26, 0]], 
      "backward_source_id": -1
    }, 
    {
      "op": "_Plus", 
      "param": {}, 
      "name": "_plus294", 
      "inputs": [[1925, 0], [1926, 0]], 
      "backward_source_id": -1
    }, 
    {
      "op": "SliceChannel", 
      "param": {
        "axis": "1", 
        "num_outputs": "4", 
        "squeeze_axis": "False"
      }, 
      "name": "t73_l1_slice", 
      "inputs": [[1927, 0]], 
      "backward_source_id": -1
    }, 
    {
      "op": "Activation", 
      "param": {"act_type": "sigmoid"}, 
      "name": "activation738", 
      "inputs": [[1928, 3]], 
      "backward_source_id": -1
    }, 
    {
      "op": "Activation", 
      "param": {"act_type": "sigmoid"}, 
      "name": "activation737", 
      "inputs": [[1928, 2]], 
      "backward_source_id": -1
    }, 
    {
      "op": "_Mul", 
      "param": {}, 
      "name": "_mul441", 
      "inputs": [[1930, 0], [1909, 0]], 
      "backward_source_id": -1
    }, 
    {
      "op": "Activation", 
      "param": {"act_type": "sigmoid"}, 
      "name": "activation735", 
      "inputs": [[1928, 0]], 
      "backward_source_id": -1
    }, 
    {
      "op": "Activation", 
      "param": {"act_type": "tanh"}, 
      "name": "activation736", 
      "inputs": [[1928, 1]], 
      "backward_source_id": -1
    }, 
    {
      "op": "_Mul", 
      "param": {}, 
      "name": "_mul442", 
      "inputs": [[1932, 0], [1933, 0]], 
      "backward_source_id": -1
    }, 
    {
      "op": "_Plus", 
      "param": {}, 
      "name": "_plus295", 
      "inputs": [[1931, 0], [1934, 0]], 
      "backward_source_id": -1
    }, 
    {
      "op": "Activation", 
      "param": {"act_type": "tanh"}, 
      "name": "activation739", 
      "inputs": [[1935, 0]], 
      "backward_source_id": -1
    }, 
    {
      "op": "_Mul", 
      "param": {}, 
      "name": "_mul443", 
      "inputs": [[1929, 0], [1936, 0]], 
      "backward_source_id": -1
    }, 
    {
      "op": "FullyConnected", 
      "param": {
        "no_bias": "False", 
        "num_hidden": "400"
      }, 
      "name": "t74_l0_i2h", 
      "inputs": [[1, 74], [2, 0], [3, 0]], 
      "backward_source_id": -1
    }, 
    {
      "op": "FullyConnected", 
      "param": {
        "no_bias": "False", 
        "num_hidden": "400"
      }, 
      "name": "t74_l0_h2h", 
      "inputs": [[1924, 0], [6, 0], [7, 0]], 
      "backward_source_id": -1
    }, 
    {
      "op": "_Plus", 
      "param": {}, 
      "name": "_plus296", 
      "inputs": [[1938, 0], [1939, 0]], 
      "backward_source_id": -1
    }, 
    {
      "op": "SliceChannel", 
      "param": {
        "axis": "1", 
        "num_outputs": "4", 
        "squeeze_axis": "False"
      }, 
      "name": "t74_l0_slice", 
      "inputs": [[1940, 0]], 
      "backward_source_id": -1
    }, 
    {
      "op": "Activation", 
      "param": {"act_type": "sigmoid"}, 
      "name": "activation743", 
      "inputs": [[1941, 3]], 
      "backward_source_id": -1
    }, 
    {
      "op": "Activation", 
      "param": {"act_type": "sigmoid"}, 
      "name": "activation742", 
      "inputs": [[1941, 2]], 
      "backward_source_id": -1
    }, 
    {
      "op": "_Mul", 
      "param": {}, 
      "name": "_mul444", 
      "inputs": [[1943, 0], [1922, 0]], 
      "backward_source_id": -1
    }, 
    {
      "op": "Activation", 
      "param": {"act_type": "sigmoid"}, 
      "name": "activation740", 
      "inputs": [[1941, 0]], 
      "backward_source_id": -1
    }, 
    {
      "op": "Activation", 
      "param": {"act_type": "tanh"}, 
      "name": "activation741", 
      "inputs": [[1941, 1]], 
      "backward_source_id": -1
    }, 
    {
      "op": "_Mul", 
      "param": {}, 
      "name": "_mul445", 
      "inputs": [[1945, 0], [1946, 0]], 
      "backward_source_id": -1
    }, 
    {
      "op": "_Plus", 
      "param": {}, 
      "name": "_plus297", 
      "inputs": [[1944, 0], [1947, 0]], 
      "backward_source_id": -1
    }, 
    {
      "op": "Activation", 
      "param": {"act_type": "tanh"}, 
      "name": "activation744", 
      "inputs": [[1948, 0]], 
      "backward_source_id": -1
    }, 
    {
      "op": "_Mul", 
      "param": {}, 
      "name": "_mul446", 
      "inputs": [[1942, 0], [1949, 0]], 
      "backward_source_id": -1
    }, 
    {
      "op": "FullyConnected", 
      "param": {
        "no_bias": "False", 
        "num_hidden": "400"
      }, 
      "name": "t74_l1_i2h", 
      "inputs": [[1950, 0], [21, 0], [22, 0]], 
      "backward_source_id": -1
    }, 
    {
      "op": "FullyConnected", 
      "param": {
        "no_bias": "False", 
        "num_hidden": "400"
      }, 
      "name": "t74_l1_h2h", 
      "inputs": [[1937, 0], [25, 0], [26, 0]], 
      "backward_source_id": -1
    }, 
    {
      "op": "_Plus", 
      "param": {}, 
      "name": "_plus298", 
      "inputs": [[1951, 0], [1952, 0]], 
      "backward_source_id": -1
    }, 
    {
      "op": "SliceChannel", 
      "param": {
        "axis": "1", 
        "num_outputs": "4", 
        "squeeze_axis": "False"
      }, 
      "name": "t74_l1_slice", 
      "inputs": [[1953, 0]], 
      "backward_source_id": -1
    }, 
    {
      "op": "Activation", 
      "param": {"act_type": "sigmoid"}, 
      "name": "activation748", 
      "inputs": [[1954, 3]], 
      "backward_source_id": -1
    }, 
    {
      "op": "Activation", 
      "param": {"act_type": "sigmoid"}, 
      "name": "activation747", 
      "inputs": [[1954, 2]], 
      "backward_source_id": -1
    }, 
    {
      "op": "_Mul", 
      "param": {}, 
      "name": "_mul447", 
      "inputs": [[1956, 0], [1935, 0]], 
      "backward_source_id": -1
    }, 
    {
      "op": "Activation", 
      "param": {"act_type": "sigmoid"}, 
      "name": "activation745", 
      "inputs": [[1954, 0]], 
      "backward_source_id": -1
    }, 
    {
      "op": "Activation", 
      "param": {"act_type": "tanh"}, 
      "name": "activation746", 
      "inputs": [[1954, 1]], 
      "backward_source_id": -1
    }, 
    {
      "op": "_Mul", 
      "param": {}, 
      "name": "_mul448", 
      "inputs": [[1958, 0], [1959, 0]], 
      "backward_source_id": -1
    }, 
    {
      "op": "_Plus", 
      "param": {}, 
      "name": "_plus299", 
      "inputs": [[1957, 0], [1960, 0]], 
      "backward_source_id": -1
    }, 
    {
      "op": "Activation", 
      "param": {"act_type": "tanh"}, 
      "name": "activation749", 
      "inputs": [[1961, 0]], 
      "backward_source_id": -1
    }, 
    {
      "op": "_Mul", 
      "param": {}, 
      "name": "_mul449", 
      "inputs": [[1955, 0], [1962, 0]], 
      "backward_source_id": -1
    }, 
    {
      "op": "FullyConnected", 
      "param": {
        "no_bias": "False", 
        "num_hidden": "400"
      }, 
      "name": "t75_l0_i2h", 
      "inputs": [[1, 75], [2, 0], [3, 0]], 
      "backward_source_id": -1
    }, 
    {
      "op": "FullyConnected", 
      "param": {
        "no_bias": "False", 
        "num_hidden": "400"
      }, 
      "name": "t75_l0_h2h", 
      "inputs": [[1950, 0], [6, 0], [7, 0]], 
      "backward_source_id": -1
    }, 
    {
      "op": "_Plus", 
      "param": {}, 
      "name": "_plus300", 
      "inputs": [[1964, 0], [1965, 0]], 
      "backward_source_id": -1
    }, 
    {
      "op": "SliceChannel", 
      "param": {
        "axis": "1", 
        "num_outputs": "4", 
        "squeeze_axis": "False"
      }, 
      "name": "t75_l0_slice", 
      "inputs": [[1966, 0]], 
      "backward_source_id": -1
    }, 
    {
      "op": "Activation", 
      "param": {"act_type": "sigmoid"}, 
      "name": "activation753", 
      "inputs": [[1967, 3]], 
      "backward_source_id": -1
    }, 
    {
      "op": "Activation", 
      "param": {"act_type": "sigmoid"}, 
      "name": "activation752", 
      "inputs": [[1967, 2]], 
      "backward_source_id": -1
    }, 
    {
      "op": "_Mul", 
      "param": {}, 
      "name": "_mul450", 
      "inputs": [[1969, 0], [1948, 0]], 
      "backward_source_id": -1
    }, 
    {
      "op": "Activation", 
      "param": {"act_type": "sigmoid"}, 
      "name": "activation750", 
      "inputs": [[1967, 0]], 
      "backward_source_id": -1
    }, 
    {
      "op": "Activation", 
      "param": {"act_type": "tanh"}, 
      "name": "activation751", 
      "inputs": [[1967, 1]], 
      "backward_source_id": -1
    }, 
    {
      "op": "_Mul", 
      "param": {}, 
      "name": "_mul451", 
      "inputs": [[1971, 0], [1972, 0]], 
      "backward_source_id": -1
    }, 
    {
      "op": "_Plus", 
      "param": {}, 
      "name": "_plus301", 
      "inputs": [[1970, 0], [1973, 0]], 
      "backward_source_id": -1
    }, 
    {
      "op": "Activation", 
      "param": {"act_type": "tanh"}, 
      "name": "activation754", 
      "inputs": [[1974, 0]], 
      "backward_source_id": -1
    }, 
    {
      "op": "_Mul", 
      "param": {}, 
      "name": "_mul452", 
      "inputs": [[1968, 0], [1975, 0]], 
      "backward_source_id": -1
    }, 
    {
      "op": "FullyConnected", 
      "param": {
        "no_bias": "False", 
        "num_hidden": "400"
      }, 
      "name": "t75_l1_i2h", 
      "inputs": [[1976, 0], [21, 0], [22, 0]], 
      "backward_source_id": -1
    }, 
    {
      "op": "FullyConnected", 
      "param": {
        "no_bias": "False", 
        "num_hidden": "400"
      }, 
      "name": "t75_l1_h2h", 
      "inputs": [[1963, 0], [25, 0], [26, 0]], 
      "backward_source_id": -1
    }, 
    {
      "op": "_Plus", 
      "param": {}, 
      "name": "_plus302", 
      "inputs": [[1977, 0], [1978, 0]], 
      "backward_source_id": -1
    }, 
    {
      "op": "SliceChannel", 
      "param": {
        "axis": "1", 
        "num_outputs": "4", 
        "squeeze_axis": "False"
      }, 
      "name": "t75_l1_slice", 
      "inputs": [[1979, 0]], 
      "backward_source_id": -1
    }, 
    {
      "op": "Activation", 
      "param": {"act_type": "sigmoid"}, 
      "name": "activation758", 
      "inputs": [[1980, 3]], 
      "backward_source_id": -1
    }, 
    {
      "op": "Activation", 
      "param": {"act_type": "sigmoid"}, 
      "name": "activation757", 
      "inputs": [[1980, 2]], 
      "backward_source_id": -1
    }, 
    {
      "op": "_Mul", 
      "param": {}, 
      "name": "_mul453", 
      "inputs": [[1982, 0], [1961, 0]], 
      "backward_source_id": -1
    }, 
    {
      "op": "Activation", 
      "param": {"act_type": "sigmoid"}, 
      "name": "activation755", 
      "inputs": [[1980, 0]], 
      "backward_source_id": -1
    }, 
    {
      "op": "Activation", 
      "param": {"act_type": "tanh"}, 
      "name": "activation756", 
      "inputs": [[1980, 1]], 
      "backward_source_id": -1
    }, 
    {
      "op": "_Mul", 
      "param": {}, 
      "name": "_mul454", 
      "inputs": [[1984, 0], [1985, 0]], 
      "backward_source_id": -1
    }, 
    {
      "op": "_Plus", 
      "param": {}, 
      "name": "_plus303", 
      "inputs": [[1983, 0], [1986, 0]], 
      "backward_source_id": -1
    }, 
    {
      "op": "Activation", 
      "param": {"act_type": "tanh"}, 
      "name": "activation759", 
      "inputs": [[1987, 0]], 
      "backward_source_id": -1
    }, 
    {
      "op": "_Mul", 
      "param": {}, 
      "name": "_mul455", 
      "inputs": [[1981, 0], [1988, 0]], 
      "backward_source_id": -1
    }, 
    {
      "op": "FullyConnected", 
      "param": {
        "no_bias": "False", 
        "num_hidden": "400"
      }, 
      "name": "t76_l0_i2h", 
      "inputs": [[1, 76], [2, 0], [3, 0]], 
      "backward_source_id": -1
    }, 
    {
      "op": "FullyConnected", 
      "param": {
        "no_bias": "False", 
        "num_hidden": "400"
      }, 
      "name": "t76_l0_h2h", 
      "inputs": [[1976, 0], [6, 0], [7, 0]], 
      "backward_source_id": -1
    }, 
    {
      "op": "_Plus", 
      "param": {}, 
      "name": "_plus304", 
      "inputs": [[1990, 0], [1991, 0]], 
      "backward_source_id": -1
    }, 
    {
      "op": "SliceChannel", 
      "param": {
        "axis": "1", 
        "num_outputs": "4", 
        "squeeze_axis": "False"
      }, 
      "name": "t76_l0_slice", 
      "inputs": [[1992, 0]], 
      "backward_source_id": -1
    }, 
    {
      "op": "Activation", 
      "param": {"act_type": "sigmoid"}, 
      "name": "activation763", 
      "inputs": [[1993, 3]], 
      "backward_source_id": -1
    }, 
    {
      "op": "Activation", 
      "param": {"act_type": "sigmoid"}, 
      "name": "activation762", 
      "inputs": [[1993, 2]], 
      "backward_source_id": -1
    }, 
    {
      "op": "_Mul", 
      "param": {}, 
      "name": "_mul456", 
      "inputs": [[1995, 0], [1974, 0]], 
      "backward_source_id": -1
    }, 
    {
      "op": "Activation", 
      "param": {"act_type": "sigmoid"}, 
      "name": "activation760", 
      "inputs": [[1993, 0]], 
      "backward_source_id": -1
    }, 
    {
      "op": "Activation", 
      "param": {"act_type": "tanh"}, 
      "name": "activation761", 
      "inputs": [[1993, 1]], 
      "backward_source_id": -1
    }, 
    {
      "op": "_Mul", 
      "param": {}, 
      "name": "_mul457", 
      "inputs": [[1997, 0], [1998, 0]], 
      "backward_source_id": -1
    }, 
    {
      "op": "_Plus", 
      "param": {}, 
      "name": "_plus305", 
      "inputs": [[1996, 0], [1999, 0]], 
      "backward_source_id": -1
    }, 
    {
      "op": "Activation", 
      "param": {"act_type": "tanh"}, 
      "name": "activation764", 
      "inputs": [[2000, 0]], 
      "backward_source_id": -1
    }, 
    {
      "op": "_Mul", 
      "param": {}, 
      "name": "_mul458", 
      "inputs": [[1994, 0], [2001, 0]], 
      "backward_source_id": -1
    }, 
    {
      "op": "FullyConnected", 
      "param": {
        "no_bias": "False", 
        "num_hidden": "400"
      }, 
      "name": "t76_l1_i2h", 
      "inputs": [[2002, 0], [21, 0], [22, 0]], 
      "backward_source_id": -1
    }, 
    {
      "op": "FullyConnected", 
      "param": {
        "no_bias": "False", 
        "num_hidden": "400"
      }, 
      "name": "t76_l1_h2h", 
      "inputs": [[1989, 0], [25, 0], [26, 0]], 
      "backward_source_id": -1
    }, 
    {
      "op": "_Plus", 
      "param": {}, 
      "name": "_plus306", 
      "inputs": [[2003, 0], [2004, 0]], 
      "backward_source_id": -1
    }, 
    {
      "op": "SliceChannel", 
      "param": {
        "axis": "1", 
        "num_outputs": "4", 
        "squeeze_axis": "False"
      }, 
      "name": "t76_l1_slice", 
      "inputs": [[2005, 0]], 
      "backward_source_id": -1
    }, 
    {
      "op": "Activation", 
      "param": {"act_type": "sigmoid"}, 
      "name": "activation768", 
      "inputs": [[2006, 3]], 
      "backward_source_id": -1
    }, 
    {
      "op": "Activation", 
      "param": {"act_type": "sigmoid"}, 
      "name": "activation767", 
      "inputs": [[2006, 2]], 
      "backward_source_id": -1
    }, 
    {
      "op": "_Mul", 
      "param": {}, 
      "name": "_mul459", 
      "inputs": [[2008, 0], [1987, 0]], 
      "backward_source_id": -1
    }, 
    {
      "op": "Activation", 
      "param": {"act_type": "sigmoid"}, 
      "name": "activation765", 
      "inputs": [[2006, 0]], 
      "backward_source_id": -1
    }, 
    {
      "op": "Activation", 
      "param": {"act_type": "tanh"}, 
      "name": "activation766", 
      "inputs": [[2006, 1]], 
      "backward_source_id": -1
    }, 
    {
      "op": "_Mul", 
      "param": {}, 
      "name": "_mul460", 
      "inputs": [[2010, 0], [2011, 0]], 
      "backward_source_id": -1
    }, 
    {
      "op": "_Plus", 
      "param": {}, 
      "name": "_plus307", 
      "inputs": [[2009, 0], [2012, 0]], 
      "backward_source_id": -1
    }, 
    {
      "op": "Activation", 
      "param": {"act_type": "tanh"}, 
      "name": "activation769", 
      "inputs": [[2013, 0]], 
      "backward_source_id": -1
    }, 
    {
      "op": "_Mul", 
      "param": {}, 
      "name": "_mul461", 
      "inputs": [[2007, 0], [2014, 0]], 
      "backward_source_id": -1
    }, 
    {
      "op": "FullyConnected", 
      "param": {
        "no_bias": "False", 
        "num_hidden": "400"
      }, 
      "name": "t77_l0_i2h", 
      "inputs": [[1, 77], [2, 0], [3, 0]], 
      "backward_source_id": -1
    }, 
    {
      "op": "FullyConnected", 
      "param": {
        "no_bias": "False", 
        "num_hidden": "400"
      }, 
      "name": "t77_l0_h2h", 
      "inputs": [[2002, 0], [6, 0], [7, 0]], 
      "backward_source_id": -1
    }, 
    {
      "op": "_Plus", 
      "param": {}, 
      "name": "_plus308", 
      "inputs": [[2016, 0], [2017, 0]], 
      "backward_source_id": -1
    }, 
    {
      "op": "SliceChannel", 
      "param": {
        "axis": "1", 
        "num_outputs": "4", 
        "squeeze_axis": "False"
      }, 
      "name": "t77_l0_slice", 
      "inputs": [[2018, 0]], 
      "backward_source_id": -1
    }, 
    {
      "op": "Activation", 
      "param": {"act_type": "sigmoid"}, 
      "name": "activation773", 
      "inputs": [[2019, 3]], 
      "backward_source_id": -1
    }, 
    {
      "op": "Activation", 
      "param": {"act_type": "sigmoid"}, 
      "name": "activation772", 
      "inputs": [[2019, 2]], 
      "backward_source_id": -1
    }, 
    {
      "op": "_Mul", 
      "param": {}, 
      "name": "_mul462", 
      "inputs": [[2021, 0], [2000, 0]], 
      "backward_source_id": -1
    }, 
    {
      "op": "Activation", 
      "param": {"act_type": "sigmoid"}, 
      "name": "activation770", 
      "inputs": [[2019, 0]], 
      "backward_source_id": -1
    }, 
    {
      "op": "Activation", 
      "param": {"act_type": "tanh"}, 
      "name": "activation771", 
      "inputs": [[2019, 1]], 
      "backward_source_id": -1
    }, 
    {
      "op": "_Mul", 
      "param": {}, 
      "name": "_mul463", 
      "inputs": [[2023, 0], [2024, 0]], 
      "backward_source_id": -1
    }, 
    {
      "op": "_Plus", 
      "param": {}, 
      "name": "_plus309", 
      "inputs": [[2022, 0], [2025, 0]], 
      "backward_source_id": -1
    }, 
    {
      "op": "Activation", 
      "param": {"act_type": "tanh"}, 
      "name": "activation774", 
      "inputs": [[2026, 0]], 
      "backward_source_id": -1
    }, 
    {
      "op": "_Mul", 
      "param": {}, 
      "name": "_mul464", 
      "inputs": [[2020, 0], [2027, 0]], 
      "backward_source_id": -1
    }, 
    {
      "op": "FullyConnected", 
      "param": {
        "no_bias": "False", 
        "num_hidden": "400"
      }, 
      "name": "t77_l1_i2h", 
      "inputs": [[2028, 0], [21, 0], [22, 0]], 
      "backward_source_id": -1
    }, 
    {
      "op": "FullyConnected", 
      "param": {
        "no_bias": "False", 
        "num_hidden": "400"
      }, 
      "name": "t77_l1_h2h", 
      "inputs": [[2015, 0], [25, 0], [26, 0]], 
      "backward_source_id": -1
    }, 
    {
      "op": "_Plus", 
      "param": {}, 
      "name": "_plus310", 
      "inputs": [[2029, 0], [2030, 0]], 
      "backward_source_id": -1
    }, 
    {
      "op": "SliceChannel", 
      "param": {
        "axis": "1", 
        "num_outputs": "4", 
        "squeeze_axis": "False"
      }, 
      "name": "t77_l1_slice", 
      "inputs": [[2031, 0]], 
      "backward_source_id": -1
    }, 
    {
      "op": "Activation", 
      "param": {"act_type": "sigmoid"}, 
      "name": "activation778", 
      "inputs": [[2032, 3]], 
      "backward_source_id": -1
    }, 
    {
      "op": "Activation", 
      "param": {"act_type": "sigmoid"}, 
      "name": "activation777", 
      "inputs": [[2032, 2]], 
      "backward_source_id": -1
    }, 
    {
      "op": "_Mul", 
      "param": {}, 
      "name": "_mul465", 
      "inputs": [[2034, 0], [2013, 0]], 
      "backward_source_id": -1
    }, 
    {
      "op": "Activation", 
      "param": {"act_type": "sigmoid"}, 
      "name": "activation775", 
      "inputs": [[2032, 0]], 
      "backward_source_id": -1
    }, 
    {
      "op": "Activation", 
      "param": {"act_type": "tanh"}, 
      "name": "activation776", 
      "inputs": [[2032, 1]], 
      "backward_source_id": -1
    }, 
    {
      "op": "_Mul", 
      "param": {}, 
      "name": "_mul466", 
      "inputs": [[2036, 0], [2037, 0]], 
      "backward_source_id": -1
    }, 
    {
      "op": "_Plus", 
      "param": {}, 
      "name": "_plus311", 
      "inputs": [[2035, 0], [2038, 0]], 
      "backward_source_id": -1
    }, 
    {
      "op": "Activation", 
      "param": {"act_type": "tanh"}, 
      "name": "activation779", 
      "inputs": [[2039, 0]], 
      "backward_source_id": -1
    }, 
    {
      "op": "_Mul", 
      "param": {}, 
      "name": "_mul467", 
      "inputs": [[2033, 0], [2040, 0]], 
      "backward_source_id": -1
    }, 
    {
      "op": "FullyConnected", 
      "param": {
        "no_bias": "False", 
        "num_hidden": "400"
      }, 
      "name": "t78_l0_i2h", 
      "inputs": [[1, 78], [2, 0], [3, 0]], 
      "backward_source_id": -1
    }, 
    {
      "op": "FullyConnected", 
      "param": {
        "no_bias": "False", 
        "num_hidden": "400"
      }, 
      "name": "t78_l0_h2h", 
      "inputs": [[2028, 0], [6, 0], [7, 0]], 
      "backward_source_id": -1
    }, 
    {
      "op": "_Plus", 
      "param": {}, 
      "name": "_plus312", 
      "inputs": [[2042, 0], [2043, 0]], 
      "backward_source_id": -1
    }, 
    {
      "op": "SliceChannel", 
      "param": {
        "axis": "1", 
        "num_outputs": "4", 
        "squeeze_axis": "False"
      }, 
      "name": "t78_l0_slice", 
      "inputs": [[2044, 0]], 
      "backward_source_id": -1
    }, 
    {
      "op": "Activation", 
      "param": {"act_type": "sigmoid"}, 
      "name": "activation783", 
      "inputs": [[2045, 3]], 
      "backward_source_id": -1
    }, 
    {
      "op": "Activation", 
      "param": {"act_type": "sigmoid"}, 
      "name": "activation782", 
      "inputs": [[2045, 2]], 
      "backward_source_id": -1
    }, 
    {
      "op": "_Mul", 
      "param": {}, 
      "name": "_mul468", 
      "inputs": [[2047, 0], [2026, 0]], 
      "backward_source_id": -1
    }, 
    {
      "op": "Activation", 
      "param": {"act_type": "sigmoid"}, 
      "name": "activation780", 
      "inputs": [[2045, 0]], 
      "backward_source_id": -1
    }, 
    {
      "op": "Activation", 
      "param": {"act_type": "tanh"}, 
      "name": "activation781", 
      "inputs": [[2045, 1]], 
      "backward_source_id": -1
    }, 
    {
      "op": "_Mul", 
      "param": {}, 
      "name": "_mul469", 
      "inputs": [[2049, 0], [2050, 0]], 
      "backward_source_id": -1
    }, 
    {
      "op": "_Plus", 
      "param": {}, 
      "name": "_plus313", 
      "inputs": [[2048, 0], [2051, 0]], 
      "backward_source_id": -1
    }, 
    {
      "op": "Activation", 
      "param": {"act_type": "tanh"}, 
      "name": "activation784", 
      "inputs": [[2052, 0]], 
      "backward_source_id": -1
    }, 
    {
      "op": "_Mul", 
      "param": {}, 
      "name": "_mul470", 
      "inputs": [[2046, 0], [2053, 0]], 
      "backward_source_id": -1
    }, 
    {
      "op": "FullyConnected", 
      "param": {
        "no_bias": "False", 
        "num_hidden": "400"
      }, 
      "name": "t78_l1_i2h", 
      "inputs": [[2054, 0], [21, 0], [22, 0]], 
      "backward_source_id": -1
    }, 
    {
      "op": "FullyConnected", 
      "param": {
        "no_bias": "False", 
        "num_hidden": "400"
      }, 
      "name": "t78_l1_h2h", 
      "inputs": [[2041, 0], [25, 0], [26, 0]], 
      "backward_source_id": -1
    }, 
    {
      "op": "_Plus", 
      "param": {}, 
      "name": "_plus314", 
      "inputs": [[2055, 0], [2056, 0]], 
      "backward_source_id": -1
    }, 
    {
      "op": "SliceChannel", 
      "param": {
        "axis": "1", 
        "num_outputs": "4", 
        "squeeze_axis": "False"
      }, 
      "name": "t78_l1_slice", 
      "inputs": [[2057, 0]], 
      "backward_source_id": -1
    }, 
    {
      "op": "Activation", 
      "param": {"act_type": "sigmoid"}, 
      "name": "activation788", 
      "inputs": [[2058, 3]], 
      "backward_source_id": -1
    }, 
    {
      "op": "Activation", 
      "param": {"act_type": "sigmoid"}, 
      "name": "activation787", 
      "inputs": [[2058, 2]], 
      "backward_source_id": -1
    }, 
    {
      "op": "_Mul", 
      "param": {}, 
      "name": "_mul471", 
      "inputs": [[2060, 0], [2039, 0]], 
      "backward_source_id": -1
    }, 
    {
      "op": "Activation", 
      "param": {"act_type": "sigmoid"}, 
      "name": "activation785", 
      "inputs": [[2058, 0]], 
      "backward_source_id": -1
    }, 
    {
      "op": "Activation", 
      "param": {"act_type": "tanh"}, 
      "name": "activation786", 
      "inputs": [[2058, 1]], 
      "backward_source_id": -1
    }, 
    {
      "op": "_Mul", 
      "param": {}, 
      "name": "_mul472", 
      "inputs": [[2062, 0], [2063, 0]], 
      "backward_source_id": -1
    }, 
    {
      "op": "_Plus", 
      "param": {}, 
      "name": "_plus315", 
      "inputs": [[2061, 0], [2064, 0]], 
      "backward_source_id": -1
    }, 
    {
      "op": "Activation", 
      "param": {"act_type": "tanh"}, 
      "name": "activation789", 
      "inputs": [[2065, 0]], 
      "backward_source_id": -1
    }, 
    {
      "op": "_Mul", 
      "param": {}, 
      "name": "_mul473", 
      "inputs": [[2059, 0], [2066, 0]], 
      "backward_source_id": -1
    }, 
    {
      "op": "FullyConnected", 
      "param": {
        "no_bias": "False", 
        "num_hidden": "400"
      }, 
      "name": "t79_l0_i2h", 
      "inputs": [[1, 79], [2, 0], [3, 0]], 
      "backward_source_id": -1
    }, 
    {
      "op": "FullyConnected", 
      "param": {
        "no_bias": "False", 
        "num_hidden": "400"
      }, 
      "name": "t79_l0_h2h", 
      "inputs": [[2054, 0], [6, 0], [7, 0]], 
      "backward_source_id": -1
    }, 
    {
      "op": "_Plus", 
      "param": {}, 
      "name": "_plus316", 
      "inputs": [[2068, 0], [2069, 0]], 
      "backward_source_id": -1
    }, 
    {
      "op": "SliceChannel", 
      "param": {
        "axis": "1", 
        "num_outputs": "4", 
        "squeeze_axis": "False"
      }, 
      "name": "t79_l0_slice", 
      "inputs": [[2070, 0]], 
      "backward_source_id": -1
    }, 
    {
      "op": "Activation", 
      "param": {"act_type": "sigmoid"}, 
      "name": "activation793", 
      "inputs": [[2071, 3]], 
      "backward_source_id": -1
    }, 
    {
      "op": "Activation", 
      "param": {"act_type": "sigmoid"}, 
      "name": "activation792", 
      "inputs": [[2071, 2]], 
      "backward_source_id": -1
    }, 
    {
      "op": "_Mul", 
      "param": {}, 
      "name": "_mul474", 
      "inputs": [[2073, 0], [2052, 0]], 
      "backward_source_id": -1
    }, 
    {
      "op": "Activation", 
      "param": {"act_type": "sigmoid"}, 
      "name": "activation790", 
      "inputs": [[2071, 0]], 
      "backward_source_id": -1
    }, 
    {
      "op": "Activation", 
      "param": {"act_type": "tanh"}, 
      "name": "activation791", 
      "inputs": [[2071, 1]], 
      "backward_source_id": -1
    }, 
    {
      "op": "_Mul", 
      "param": {}, 
      "name": "_mul475", 
      "inputs": [[2075, 0], [2076, 0]], 
      "backward_source_id": -1
    }, 
    {
      "op": "_Plus", 
      "param": {}, 
      "name": "_plus317", 
      "inputs": [[2074, 0], [2077, 0]], 
      "backward_source_id": -1
    }, 
    {
      "op": "Activation", 
      "param": {"act_type": "tanh"}, 
      "name": "activation794", 
      "inputs": [[2078, 0]], 
      "backward_source_id": -1
    }, 
    {
      "op": "_Mul", 
      "param": {}, 
      "name": "_mul476", 
      "inputs": [[2072, 0], [2079, 0]], 
      "backward_source_id": -1
    }, 
    {
      "op": "FullyConnected", 
      "param": {
        "no_bias": "False", 
        "num_hidden": "400"
      }, 
      "name": "t79_l1_i2h", 
      "inputs": [[2080, 0], [21, 0], [22, 0]], 
      "backward_source_id": -1
    }, 
    {
      "op": "FullyConnected", 
      "param": {
        "no_bias": "False", 
        "num_hidden": "400"
      }, 
      "name": "t79_l1_h2h", 
      "inputs": [[2067, 0], [25, 0], [26, 0]], 
      "backward_source_id": -1
    }, 
    {
      "op": "_Plus", 
      "param": {}, 
      "name": "_plus318", 
      "inputs": [[2081, 0], [2082, 0]], 
      "backward_source_id": -1
    }, 
    {
      "op": "SliceChannel", 
      "param": {
        "axis": "1", 
        "num_outputs": "4", 
        "squeeze_axis": "False"
      }, 
      "name": "t79_l1_slice", 
      "inputs": [[2083, 0]], 
      "backward_source_id": -1
    }, 
    {
      "op": "Activation", 
      "param": {"act_type": "sigmoid"}, 
      "name": "activation798", 
      "inputs": [[2084, 3]], 
      "backward_source_id": -1
    }, 
    {
      "op": "Activation", 
      "param": {"act_type": "sigmoid"}, 
      "name": "activation797", 
      "inputs": [[2084, 2]], 
      "backward_source_id": -1
    }, 
    {
      "op": "_Mul", 
      "param": {}, 
      "name": "_mul477", 
      "inputs": [[2086, 0], [2065, 0]], 
      "backward_source_id": -1
    }, 
    {
      "op": "Activation", 
      "param": {"act_type": "sigmoid"}, 
      "name": "activation795", 
      "inputs": [[2084, 0]], 
      "backward_source_id": -1
    }, 
    {
      "op": "Activation", 
      "param": {"act_type": "tanh"}, 
      "name": "activation796", 
      "inputs": [[2084, 1]], 
      "backward_source_id": -1
    }, 
    {
      "op": "_Mul", 
      "param": {}, 
      "name": "_mul478", 
      "inputs": [[2088, 0], [2089, 0]], 
      "backward_source_id": -1
    }, 
    {
      "op": "_Plus", 
      "param": {}, 
      "name": "_plus319", 
      "inputs": [[2087, 0], [2090, 0]], 
      "backward_source_id": -1
    }, 
    {
      "op": "Activation", 
      "param": {"act_type": "tanh"}, 
      "name": "activation799", 
      "inputs": [[2091, 0]], 
      "backward_source_id": -1
    }, 
    {
      "op": "_Mul", 
      "param": {}, 
      "name": "_mul479", 
      "inputs": [[2085, 0], [2092, 0]], 
      "backward_source_id": -1
    }, 
    {
      "op": "Concat", 
      "param": {
        "dim": "0", 
        "num_args": "80"
      }, 
      "name": "concat0", 
      "inputs": [
        [39, 0], 
        [65, 0], 
        [91, 0], 
        [117, 0], 
        [143, 0], 
        [169, 0], 
        [195, 0], 
        [221, 0], 
        [247, 0], 
        [273, 0], 
        [299, 0], 
        [325, 0], 
        [351, 0], 
        [377, 0], 
        [403, 0], 
        [429, 0], 
        [455, 0], 
        [481, 0], 
        [507, 0], 
        [533, 0], 
        [559, 0], 
        [585, 0], 
        [611, 0], 
        [637, 0], 
        [663, 0], 
        [689, 0], 
        [715, 0], 
        [741, 0], 
        [767, 0], 
        [793, 0], 
        [819, 0], 
        [845, 0], 
        [871, 0], 
        [897, 0], 
        [923, 0], 
        [949, 0], 
        [975, 0], 
        [1001, 0], 
        [1027, 0], 
        [1053, 0], 
        [1079, 0], 
        [1105, 0], 
        [1131, 0], 
        [1157, 0], 
        [1183, 0], 
        [1209, 0], 
        [1235, 0], 
        [1261, 0], 
        [1287, 0], 
        [1313, 0], 
        [1339, 0], 
        [1365, 0], 
        [1391, 0], 
        [1417, 0], 
        [1443, 0], 
        [1469, 0], 
        [1495, 0], 
        [1521, 0], 
        [1547, 0], 
        [1573, 0], 
        [1599, 0], 
        [1625, 0], 
        [1651, 0], 
        [1677, 0], 
        [1703, 0], 
        [1729, 0], 
        [1755, 0], 
        [1781, 0], 
        [1807, 0], 
        [1833, 0], 
        [1859, 0], 
        [1885, 0], 
        [1911, 0], 
        [1937, 0], 
        [1963, 0], 
        [1989, 0], 
        [2015, 0], 
        [2041, 0], 
        [2067, 0], 
        [2093, 0]
      ], 
      "backward_source_id": -1
    }, 
    {
      "op": "null", 
      "param": {}, 
      "name": "fullyconnected0_weight", 
      "inputs": [], 
      "backward_source_id": -1
    }, 
    {
      "op": "null", 
      "param": {}, 
      "name": "fullyconnected0_bias", 
      "inputs": [], 
      "backward_source_id": -1
    }, 
    {
      "op": "FullyConnected", 
      "param": {
        "no_bias": "False", 
        "num_hidden": "11"
      }, 
      "name": "fullyconnected0", 
      "inputs": [[2094, 0], [2095, 0], [2096, 0]], 
      "backward_source_id": -1
    }, 
    {
      "op": "null", 
      "param": {}, 
      "name": "label", 
      "inputs": [], 
      "backward_source_id": -1
    }, 
    {
      "op": "Reshape", 
      "param": {
        "keep_highest": "False", 
        "reverse": "False", 
        "shape": "(-1,)", 
        "target_shape": "(0,0)"
      }, 
      "name": "reshape0", 
      "inputs": [[2098, 0]], 
      "backward_source_id": -1
    }, 
    {
      "op": "Cast", 
      "param": {"dtype": "int32"}, 
      "name": "cast0", 
      "inputs": [[2099, 0]], 
      "backward_source_id": -1
    }, 
    {
      "op": "WarpCTC", 
      "param": {
        "input_length": "80", 
        "label_length": "4"
      }, 
      "name": "warpctc0", 
      "inputs": [[2097, 0], [2100, 0]], 
      "backward_source_id": -1
    }
  ], 
  "arg_nodes": [
    0, 
    2, 
    3, 
    5, 
    6, 
    7, 
    13, 
    21, 
    22, 
    24, 
    25, 
    26, 
    32, 
    2095, 
    2096, 
    2098
  ], 
  "heads": [[2101, 0]]
}